parameters/baseline_igmc_office_0.2239.pt (torch, 214261 bytes, 15 tensors)

convs.0.h_bias f4 [32]
000000 ed f1 c4 bc 2a 8f 09 bd 25 31 80 3a c5 52 b2 b9
       -0.02404114 -0.033583798 0.0009780271 -0.00034012474
000010 52 31 7b 3b 23 8d 0f bd 8a df 4c bc 81 50 80 3b
       0.0038328958 -0.035046708 -0.012504468 0.003915847
000020 d4 55 0a 3c 21 96 52 bb 23 bf 8c bb 74 12 29 bd
       0.008443315 -0.003213294 -0.004295246 -0.041277364
000030 81 c8 25 3c f1 d2 d4 3b 46 16 c8 bb bb a8 b3 bc
       0.010118605 0.0064948727 -0.006106171 -0.021931043
000040 fc 03 5c bc aa 91 93 3c dc 26 8f 3c ce 40 e5 3b
       -0.013428684 0.018013794 0.017474584 0.0069962507
000050 0c b3 b1 3c 5d 78 36 3b 68 2e 44 bc b2 75 5a bc
       0.021691822 0.0027842738 -0.011973955 -0.013333725
000060 bc 92 ae 3c 59 f2 50 3c 49 8f 28 3c fe b5 54 3b
       0.021310203 0.012753093 0.010288068 0.0032457109
000070 f2 f6 be bb a2 52 5e 3c d3 42 5d 3c 1f 64 fe bb
       -0.005827778 0.013569506 0.013504702 -0.0077634

convs.0.loop_weight f4 [4, 32]
000000 81 06 f9 3d ee bc 57 be 2a 73 42 3e 2d 08 1e bf
       0.12159444 -0.21068165 0.18989244 -0.61731225
000010 8e 3c 1a bf 19 fe ed be e2 9b c6 be 5b 48 16 3e
       -0.6024865 -0.46482924 -0.38790804 0.14676039
000020 c4 b3 0f 3f 32 79 0e bf 20 d1 14 3f ff 92 15 3e
       0.56133676 -0.5565368 0.581316 0.14606856
000030 00 ce 0f bf 35 cd 77 3e 4b 0d 13 3f 0e bb 9c be
       -0.56173706 0.24199374 0.5744216 -0.3061146
000040 2c ba 04 3f 57 4c 8c 3e ca dc 5c 3e a0 fc 76 be
       0.51846576 0.27401993 0.215686 -0.24119806
000050 8e 5c a9 be 07 23 ba be 3d 83 ac be f7 5b cf 3e
       -0.33078426 -0.3635485 -0.33693877 0.4049985
000060 12 a7 0b 3f d6 b8 bd 3e 38 57 58 be 1f 57 4f 3d
       0.54551804 0.3705508 -0.21127021 0.050620195
000070 31 01 4c 3e 4b 23 3d 3d d3 78 ab 3e 00 ef 83 be
       0.1992233 0.046176236 0.3349062 -0.2576828
000080 3c 95 b4 bd 6c 6c 2a bc 21 61 05 be e6 e8 a1 3e
       -0.08817527 -0.010401826 -0.13025333 0.31623
000090 73 f0 f3 3e fa 46 b1 be 54 28 fc be 17 3a 6b 3d
       0.47644386 -0.34624463 -0.49249518 0.057428446
0000a0 8c 90 2d 3e 48 f9 98 be 46 3c b3 bd 9a e9 bc 3e
       0.16949672 -0.29877687 -0.087517306 0.36896974
0000b0 38 d1 6d be 1d a2 aa be 4f 8d f8 be 27 15 4e be
       -0.23224342 -0.33326808 -0.4854531 -0.20125256
0000c0 38 e4 f9 3d d0 43 f6 3d 87 a6 21 3e 3d fe 6f 3e
       0.122017324 0.12024653 0.15786181 0.23436828
0000d0 e8 a5 98 be 36 91 a5 3e f4 87 9d be 61 42 f8 3d
       -0.29814076 0.3233735 -0.30767787 0.12122036
0000e0 74 6d 9d bd 88 bc 1f 3e 6f 0a cd 3e 8e 42 c8 3d
       -0.07686892 0.15599263 0.40047023 0.09778319
0000f0 02 7b 2e 3e 03 3d af 3d 08 70 e1 3e a5 1e 6e bd
       0.17039111 0.08556559 0.44030786 -0.058134694
000100 8b 6a 80 be cd 7d fb bd f6 98 8a 3e ed 23 c8 be
       -0.25081286 -0.12279854 0.27069825 -0.3908991
000110 97 6f 02 3c 6f 41 59 be 02 d9 74 3e bd f1 9c 3e
       0.007961175 -0.21216367 0.23910907 0.30653182
000120 e9 6f 9a 3d ab 59 7d be ed cc 93 3d 6c b1 00 bf
       0.075408764 -0.24741237 0.07216821 -0.50270724
000130 69 4e ed be c9 6d 66 be f6 71 36 be 2c 07 bc bd
       -0.46348885 -0.22502817 -0.1781691 -0.091810554
000140 32 42 77 3d c4 f3 10 be 6a 4f b7 3d 72 fc 74 bd
       0.060365863 -0.14155489 0.08950694 -0.059811063
000150 dc e6 58 be 81 21 9e 3d 9e 7a 8a be 6b be a0 3e
       -0.21181816 0.07721234 -0.27046674 0.31395277
000160 0f 10 c8 3e b1 2e 98 3d 92 87 ee be 2e 67 75 3e
       0.39074752 0.07430781 -0.46587807 0.23965141
000170 57 34 3a bd de df 3b be c7 f7 9c be 8d 4b be 3d
       -0.04546007 -0.18347117 -0.3065779 0.09291754
000180 6a e9 f0 3c ac 19 f9 3e 02 55 e6 be 8e 64 0c 3d
       0.029408175 0.486524 -0.4498673 0.034275584
000190 86 b5 29 bd e8 a7 07 bf 0a d3 82 be 3e cd 1d 3e
       -0.04143288 -0.5299058 -0.25551635 0.15410325
0001a0 a8 94 25 be 96 c7 a1 be a1 cc 30 be da 31 8f be
       -0.16169989 -0.31597584 -0.1726556 -0.2796772
0001b0 23 da e2 be 5e fc 1e 3e ea 0a 32 3e 07 21 19 3d
       -0.4430705 0.15525958 0.17386976 0.037385013
0001c0 61 a2 e3 be 3a fd 4e be 8b 60 85 3e 86 2e 1b be
       -0.44459823 -0.20213786 0.2605022 -0.15154466
0001d0 0f b7 8c bd 8e ad f4 be 8e 1f a2 3e e7 d6 cc 3e
       -0.06870853 -0.47788662 0.316647 0.40007707
0001e0 d7 14 5c 3e 72 b8 af 3e a9 f5 d5 be 83 c4 b4 be
       0.21492325 0.34320408 -0.41788986 -0.35306177
0001f0 a2 78 59 3e 36 41 d4 3e 6c e3 0d bf 52 15 0f bf
       0.21237424 0.41456002 -0.55425143 -0.5589191

convs.0.linear_r.W f4 [5, 4, 32]
000000 dd bb d4 3e 76 13 76 3e 9f f0 ed 3d d8 8f fb be
       0.41549578 0.24030861 0.116181605 -0.49133182
000010 95 48 d5 be b6 78 a7 be e6 83 ad 3e 94 c0 29 be
       -0.41656938 -0.32709283 0.33889693 -0.16577369
000020 80 51 69 3e ee 9e 12 be 50 97 09 3e 7d ce a0 be
       0.22784996 -0.1431844 0.13436627 -0.31407538
000030 de 41 5e 3e 36 2f ae 3e aa c3 56 3e e9 4d d4 bd
       0.21704814 0.34020394 0.20973077 -0.10366423
000040 41 c6 5a 3e f7 45 b0 3e 99 54 39 3e 59 71 c6 3e
       0.2136469 0.3442838 0.18098678 0.38758352
000050 a5 92 b7 3e 6c b0 e3 be 2c a9 dc be 78 3c 64 be
       0.35854068 -0.44470537 -0.43097818 -0.22288692
000060 c8 78 b8 be 7e 2e 08 3e a6 ab 9d 3e a1 43 68 be
       -0.3602965 0.13298985 0.3079502 -0.22682048
000070 fb 8f 94 be d1 2e fd 3d bd 70 ad 3e 2d 75 b8 3e
       -0.29016098 0.12362445 0.33875075 0.36026898
000080 6c ac b2 3e a5 3d b7 3d df 82 69 3b e2 4d ce 3e
       0.34897172 0.08947305 0.0035630984 0.40293795
000090 a3 ae e1 3d 04 5e e6 be 8a 21 8a 3e 9c 5e 1c 3e
       0.110196374 -0.44993603 0.26978713 0.15270466
0000a0 8f cf a0 3e 3a 6f b4 be b3 d7 6d 3e 8c bc 20 be
       0.31408355 -0.3524111 0.23226814 -0.15696925
0000b0 e9 f3 cc be c0 93 eb bd b4 05 9c 3e a9 f8 db 3e
       -0.4002984 -0.115027905 0.304731 0.4296315
0000c0 3f b4 bf be d7 92 d6 3e 3a 1f 45 be 3e fd a9 bb
       -0.37442204 0.41908905 -0.19250193 -0.0051876595
0000d0 76 7d 9d be 02 e7 77 be 97 8c 7d be 18 c6 5b 3e
       -0.30759782 -0.24209216 -0.24760662 0.21462286
0000e0 46 ac 92 3e 4a 06 82 3e 96 28 f8 3e bf 6e e1 be
       0.2864706 0.25395423 0.48468465 -0.44029805
0000f0 f2 43 ea be bc b7 bb bd 78 79 38 3e 0c 6a c9 be
       -0.45754963 -0.09165904 0.18015087 -0.3933872
000100 10 7a 58 3b 38 ad 3c be 99 a9 e4 be 68 13 fe bd
       0.003303174 -0.18425453 -0.44660643 -0.12406045
000110 8a cf 89 3e 69 9c 37 be 17 ba d7 be 5e 55 81 3e
       0.26916152 -0.1793076 -0.42134163 0.25260442
000120 82 3b 82 be db 4c a4 3e 7b 41 b3 be 9e cf a6 3e
       -0.25436026 0.32089886 -0.35010895 0.32580274
000130 7a b8 e5 3e 4d b8 d2 3e 5e 39 86 bd ce 76 8f be
       0.44867307 0.41156235 -0.06553911 -0.28020328
000140 cf 6c 53 bd 8d df 90 be 08 00 ec be cb e6 1d 3e
       -0.05161744 -0.28295556 -0.46093774 0.15420072
000150 91 15 f5 3e 5a 1f e5 be 48 a8 91 bc 41 1e 02 3e
       0.47868016 -0.44750482 -0.017780438 0.12706853
000160 94 74 9e 3e df 33 c8 be 8e 97 5a 3e 4e 66 9a 3e
       0.30948317 -0.39102075 0.21346876 0.30156177
000170 5e f1 c3 be d9 3c e0 3e 03 20 80 3e 80 a9 d8 3e
       -0.38270086 0.43796423 0.25024423 0.42316818
000180 eb 87 b3 3e 6c 75 c6 3e 6c a0 d8 be 41 d1 dc bc
       0.35064635 0.3876146 -0.42309892 -0.026955249
000190 01 10 51 be 71 ad 97 3e 22 28 8c 3d 5d 83 9a 3e
       -0.20416261 0.29624513 0.06843592 0.30178347
0001a0 f2 0a 67 3e cb 4e 6f 3e f6 e7 ed 3e 36 e7 eb be
       0.22562769 0.23369901 0.46466035 -0.46074837
0001b0 4c a9 35 3e 0b 59 a8 3e 06 0e e1 be 8a 6f ba be
       0.17740363 0.32880434 -0.43956012 -0.36413223
0001c0 d5 0c 9f 3e 4f c1 55 bc 89 ce da 3e a5 71 ea 3b
       0.31064478 -0.013046577 0.427357 0.0071546608
0001d0 d3 12 20 3e ae 52 80 3e 05 2f c5 be 8c 12 7e 3e
       0.15632181 0.2506308 -0.38512436 0.24811763
0001e0 a4 23 b2 3e 9f 8f e4 3e 11 6d d5 be dc 3e 88 be
       0.34792817 0.44640824 -0.41684774 -0.26610458
0001f0 74 4c 61 3e f0 89 db 3e cb 87 a3 be c6 da 2f be
       0.22001821 0.42878675 -0.3193954 -0.17173299
000200 92 3e 74 be 5f 56 85 3e df 40 1d 3e 93 ca 49 bd
       -0.23851994 0.26042458 0.15356778 -0.049265455
000210 50 6f a3 be ce 6b 9d be 6e 07 4b be 9e 82 5b 3e
       -0.31920862 -0.3074631 -0.19827053 0.21436545
000220 91 de 71 be ca ef ba 3e 1f 4d 58 3d fb 7a b9 3e
       -0.23620059 0.3651107 0.052807923 0.3622664
000230 68 c7 b4 3e 5e ec 04 3f c6 6b 02 3f 0c 5b e1 3c
       0.35308385 0.5192317 0.509457 0.027509235
000240 62 7a b5 3e 3f 1d 11 be 46 7e a0 be ca c5 d6 3d
       0.35444933 -0.14171313 -0.3134634 0.10486944
000250 7e 3a 79 be dd f5 4d bd 1e b5 93 be 21 c9 a1 be
       -0.24338719 -0.0502833 -0.2884912 -0.31598762
000260 13 06 01 be 82 f1 70 bd 55 63 89 3e ee 7e 07 3d
       -0.12599973 -0.05882407 0.26833597 0.033080034
000270 e5 f2 cb 3d 4a c0 10 be f3 df 27 be e1 60 a8 be
       0.09958438 -0.14135852 -0.16394024 -0.32886413
000280 ae f3 30 bf c5 24 d1 bd a0 e5 f2 be 27 3e 8d be
       -0.69121826 -0.10212091 -0.47440815 -0.2758648
000290 77 76 c4 bd fd fc 10 be 78 f3 6b 3e 15 18 f3 3e
       -0.09592908 -0.14159007 0.23042095 0.4747931
0002a0 00 fa 3b 3e 35 6b d4 3e aa bc 40 be 5f 24 bb 3e
       0.18357086 0.41488042 -0.1882197 0.36551186
0002b0 60 3b 13 3f dd 56 46 be f0 99 90 be 56 ed 5b be
       0.57512474 -0.19369073 -0.28242445 -0.21477255
0002c0 c1 dd 9c 3e 11 ab 4c be 15 2f 0c bf 4a e6 06 3f
       0.30637935 -0.19987132 -0.5475934 0.52695143
0002d0 e0 6b d3 3e e0 80 8c be 61 f8 e2 bd 61 4c 55 3e
       0.4129324 -0.27442074 -0.11082531 0.20829917
0002e0 37 78 7a be de 04 74 be 6c 25 b0 bd f2 8f 41 3e
       -0.24459921 -0.23829982 -0.08600888 0.18902567
0002f0 c6 e0 d2 be a3 9d b2 3e 43 4c 58 3e 90 36 93 3e
       -0.41187114 0.34885892 0.21122842 0.28752565
000300 dd d0 dc be 52 58 c4 3d 06 4f de be 1d ed 98 be
       -0.431281 0.09587158 -0.43419665 -0.29868403
000310 86 63 21 be 62 e9 11 be fa d4 46 3e a8 1c d9 be
       -0.15760621 -0.14249185 0.19417182 -0.42404675
000320 54 de 55 3e c0 4b e0 3e e3 99 37 3e bc 39 8e 3e
       0.20885593 0.43807793 0.17929797 0.27778423
000330 4e 18 67 be 2d 5a 46 be d3 73 13 3e ac a0 a0 3e
       -0.22567865 -0.19370337 0.14399652 0.31372583
000340 62 b2 74 3e dc f2 83 3e a1 2a 6d 3e e9 57 b3 be
       0.23896173 0.25771224 0.23160793 -0.35028008
000350 43 df b7 bc d0 2a 9c be 53 a4 f4 3e f4 db d5 be
       -0.022445327 -0.30501413 0.4778162 -0.41769373
000360 3c 34 5f 3e 75 6e 44 be ae d6 b7 be fa ca 3a 3e
       0.2179727 -0.19182761 -0.35905975 0.18241492
000370 b6 29 85 3e db e3 fd 3e c4 72 f8 3e 06 7f 42 bd
       0.26008385 0.49587902 0.4852506 -0.04748442
000380 ba aa 34 bd 85 b8 88 3d 3e 1b b4 3e 5d c8 44 3e
       -0.04410813 0.06675819 0.35177034 0.19217058
000390 d7 8b 7c 3e dd f5 80 be 5a 11 9c be 58 10 08 be
       0.2466272 -0.2518758 -0.30481988 -0.13287485
0003a0 91 4f e8 be e7 89 3c be 1a 8e b4 be a2 97 61 3d
       -0.45373204 -0.1841198 -0.35264665 0.05507625
0003b0 f5 8c eb 3d 84 2f a5 bc c9 74 cb 3e 94 dc dc be
       0.11501495 -0.020164259 0.39737538 -0.43137038
0003c0 73 cb bb 3e c6 33 43 be 42 66 bd 3d f5 2b 89 be
       0.36678657 -0.19062719 0.0924802 -0.2679135
0003d0 2f e8 7f be 19 99 78 3e cb 7d 89 bd f3 0d 02 3f
       -0.24990915 0.24277152 -0.06713446 0.50802535
0003e0 d8 ca 43 be d4 98 85 bd 00 10 ae be 8f 4b 30 be
       -0.19120347 -0.0652329 -0.33996582 -0.17216323
0003f0 a6 a9 ae be 92 70 52 be 9b f1 f8 3d 6d 7c 93 3d
       -0.34113806 -0.20550755 0.121554576 0.07201467

convs.1.h_bias f4 [32]
000000 37 f0 54 bc 1c ff 67 bb 4d 8e 32 bc 66 f0 97 bb
       -0.012996725 -0.003539986 -0.010898185 -0.004636812
000010 68 a6 aa 3c ae a8 c1 bc 0e db 24 3c 1d 21 7c bb
       0.020831302 -0.023640003 0.010061992 -0.0038471885
000020 c0 97 e8 bb 9c 7f 3b 3c f5 2f 85 3c f3 7e f2 3a
       -0.007098168 0.011443999 0.01625822 0.0018500969
000030 f0 e4 59 bc 95 fb 0b 3c 25 0e a0 39 10 e9 c4 bc
       -0.013299212 0.008543869 0.00030528117 -0.024036914
000040 65 ee 3f bc a1 d2 a7 ba d7 34 28 3c 68 2e 35 3c
       -0.0117145525 -0.0012803861 0.010266504 0.011058427
000050 d0 43 c1 bc ee af 96 bc 96 b8 b0 3b d7 26 5b bc
       -0.023591906 -0.018394437 0.005393098 -0.013375959
000060 3f 90 16 bb bf 72 1e bb 7a 06 be 3b 02 df c2 3b
       -0.002297416 -0.002417728 0.005799112 0.0059469948
000070 d6 19 24 bc 88 93 1d bc 09 f0 a7 3b e2 de b9 bc
       -0.010015925 -0.009617694 0.00512505 -0.022689287

convs.1.loop_weight f4 [32, 32]
000000 1c c9 a1 be aa 18 4c 3e a1 a6 e2 3d 6e 72 9e be
       -0.31598747 0.19931284 0.11066938 -0.30946678
000010 b4 1c 81 3d 7e 25 7b bc 70 fb 8c 3e 77 1d b0 3e
       0.06304303 -0.015328763 0.27535582 0.3439748
000020 e6 db a5 be 1c 1b bb 3e f7 4c da be 42 22 a0 3e
       -0.32394332 0.3654412 -0.42636845 0.31276137
000030 c1 11 e6 3e 9c 29 41 3e 1d 2c b5 3e 31 aa cf 3e
       0.4493542 0.18863529 0.35385218 0.40559533
000040 3a 27 ea bc 92 f2 b7 be 27 91 fd 3b fc 7b 04 be
       -0.028583158 -0.35927254 0.007738251 -0.12937921
000050 ef 36 7b 3e 80 e5 14 3e ed 29 46 be f2 7d d5 be
       0.24532674 0.14540672 -0.19351931 -0.4169765
000060 2f 2d bc 3e 65 93 c1 be 36 29 7b 3e 14 40 cb 3d
       0.36753222 -0.37807766 0.2452744 0.09924331
000070 8a b5 bd 3e 5b 88 df be 21 cb 33 be 1c 27 a1 be
       0.37052566 -0.43658718 -0.17557956 -0.3147515
000080 4c 42 c6 be 4f 07 c9 3e 17 26 e5 3e ce dd b9 3e
       -0.38722456 0.3926339 0.44755623 0.36302036
000090 13 7d db bd fc c7 33 3e 92 10 44 be be 90 a9 3e
       -0.107172154 0.17556757 -0.19146946 0.33118242
0000a0 a7 73 8c 3e e5 44 d8 3d 81 ea 1e 3e c5 0d 1e 3e
       0.27431986 0.105600156 0.15519144 0.1543494
0000b0 2e 82 c3 be ae a3 a1 3e 5b 87 9f be d7 a3 8f 3d
       -0.38185257 0.3157019 -0.31157956 0.07013672
0000c0 3c 65 a1 3e 35 84 4b be 82 86 b5 be 68 fe 7b bc
       0.31522548 -0.19874652 -0.35454184 -0.015380479
0000d0 10 57 c0 3e 29 2b 62 3e 48 a5 77 3e fb 7c 80 3d
       0.37566423 0.22086777 0.24184144 0.06273838
0000e0 c9 44 1e 3d cb b5 9b 3d b2 30 c2 be b6 5a b3 bd
       0.038639817 0.07603034 -0.37927777 -0.08757536
0000f0 f6 9a ab 3e 76 3e d3 3c c1 ef 3f be 65 e6 9f bd
       0.33516663 0.02578662 -0.18743803 -0.07807616
000100 92 5b 81 3e db 3f 96 3e 4e 80 76 be 58 3f 37 be
       0.25265175 0.29345593 -0.24072382 -0.17895257
000110 a6 ee b8 be 66 aa 34 3e 32 fc c4 be 48 78 24 3e
       -0.36119574 0.17643127 -0.3847366 0.16061509
000120 22 8f ae be 4f a7 3e bc 0f 92 52 3e c2 9a 7d bd
       -0.34093577 -0.011636569 0.2056353 -0.061915167
000130 c6 01 cc 3d 5b 6a 87 be 6c ba 82 be 2e 15 09 3e
       0.09961276 -0.2644833 -0.25532854 0.13386986
000140 39 0b bd 3e c9 16 7d be ba 14 cf be 5a 8f b2 be
       0.36922625 -0.24715723 -0.404455 -0.34874994
000150 2d fe 40 bc 39 cf d5 be 3a ae aa 3d ad 7b b7 3e
       -0.01177935 -0.4175966 0.08334012 0.35836545
000160 b4 13 2e 3e b4 6f b9 be a3 44 d8 bd 17 eb a1 be
       0.16999704 -0.36218035 -0.105599664 -0.31624672
000170 cd 90 b9 3d 67 2a c8 3e 5a dc e4 bd 1c 9b 93 be
       0.09060822 0.3909485 -0.11174841 -0.28829277
000180 29 43 83 3d bf da 83 3e e0 54 86 be 42 ce 9f 3e
       0.06409294 0.25752828 -0.2623663 0.3121205
000190 ba c0 a6 3e 99 9b 9d 3e 6f ce 8d 3e d1 57 74 3d
       0.32568914 0.30782774 0.2769656 0.05965406
0001a0 c6 33 81 be 35 7a 90 be b9 90 21 3e 88 9c 9c 3e
       -0.25234812 -0.28218237 0.15777864 0.30588174
0001b0 92 52 71 3d ab 3d a2 be e9 01 84 be 63 57 4a be
       0.058916636 -0.31687674 -0.25782707 -0.19759898
0001c0 c4 7a 58 3d 83 51 17 be 9a 7e 4e 3e 60 67 66 be
       0.052851453 -0.14777188 0.20165482 -0.22500372
0001d0 09 3d 03 be d9 db d6 be 9c 76 24 3e 52 93 ba 3e
       -0.12816252 -0.41964605 0.16060871 0.3644052
0001e0 8a 5d 63 be 5a 8d c3 3e 2d 69 b9 be 25 7f 7e be
       -0.22203651 0.3819378 -0.36213055 -0.2485319
0001f0 59 30 de be 3a 24 8f 3e 0b ff e9 ba 8b 1c 80 be
       -0.4339626 0.27957326 -0.0017852498 -0.25021777
000200 d6 28 32 3e 02 27 c6 3e 25 5a bf 3d cd 52 f9 3d
       0.1739839 0.38701636 0.093433656 0.12173996
000210 e1 d0 69 3d 1a ef d8 3a 32 2b 2f be 59 86 d0 be
       0.057083968 0.001655075 -0.17106321 -0.407275
000220 4d 19 2e be 6f 0f ba be 1e a5 83 3e 2d d8 c7 3e
       -0.17001839 -0.363399 0.25711912 0.39032117
000230 4e d5 db be 85 b8 80 3d 89 96 e1 be 2a d5 c7 be
       -0.42936176 0.06285194 -0.44060162 -0.3902982
000240 fe 70 bc bc 11 0b 8a be 3b 72 8b 3d 74 0a 80 be
       -0.023003098 -0.26961568 0.06808897 -0.25007975
000250 da 57 d2 3d c4 5b 38 3d 3f aa 2c 3e 54 bf cc be
       0.102706626 0.04500939 0.16861819 -0.39989722
000260 ab 95 a6 3e 73 73 26 3e 56 f7 bf be 60 41 b5 3e
       0.32536063 0.16254978 -0.3749339 0.3540144
000270 c6 c3 12 3d fd 43 39 be e9 19 fc bd dc c7 1a 3e
       0.035831235 -0.18092342 -0.123096295 0.15115303
000280 05 31 d7 bd a9 b8 02 be 80 52 a6 be 26 eb a9 3e
       -0.105073966 -0.12765755 -0.32484818 0.33187217
000290 49 2f b8 3c 6e 81 79 3e dc 6e bd be 93 b9 b3 be
       0.022483485 0.2436578 -0.36998641 -0.3510252
0002a0 89 a8 60 3e 74 46 93 3e 76 2a ce bd ef 9d 3e 3e
       0.21939291 0.2876469 -0.100666925 0.18614934
0002b0 e8 05 49 be df 7f 34 be 7e a2 85 be 4e 9a 39 3e
       -0.1963116 -0.17626904 -0.26100534 0.18125269
0002c0 2b 96 1c 3d 98 bb 30 bd 5d b9 17 be 5f b3 75 bd
       0.03822915 -0.043147653 -0.14816804 -0.059985515
0002d0 3d c7 09 bd e3 f0 5c 3e 84 e4 bc 3e ad 88 05 bd
       -0.033637274 0.21576266 0.36893094 -0.032601047
0002e0 06 90 79 be 7f f4 9d be ee 59 5f bc 12 e2 d2 3b
       -0.24371347 -0.30850598 -0.013632281 0.006435641
0002f0 5b 3e 14 be ee a5 98 bc 95 dd ae be 89 b7 c6 3e
       -0.14476912 -0.018633809 -0.3415343 0.388119
000300 3f 30 d7 3e 66 4e 46 be d9 94 63 3e b1 bc d9 3e
       0.42028996 -0.19365844 0.2222475 0.42526773
000310 b0 74 5c be 4a 81 98 3e ff fd c6 3e 80 b8 88 be
       -0.21528888 0.2978614 0.3886566 -0.26703262
000320 da a5 1e bd fc 72 85 3e 27 66 f8 3d 60 93 0b 3c
       -0.038732387 0.2606429 0.12128859 0.008519024
000330 d2 e7 c5 be 7d 00 bc be 05 14 b7 be 67 7d fa 3c
       -0.38653427 -0.36719123 -0.3575746 0.030577375
000340 0b fc c2 3d 5c e1 c7 3e f6 16 93 3e 8b 1c 2b 3e
       0.0952073 0.39039123 0.28728455 0.16710107
000350 eb 22 2c 3d de 84 d6 bd 1c 25 34 be 5a ef ee 3d
       0.042025488 -0.10474561 -0.17592281 0.116667464
000360 1a d6 9e 3e f7 e4 fd bd 68 94 7f be b5 71 ff bd
       0.31022722 -0.12397187 -0.24958956 -0.1247286
000370 41 2f 60 3e e6 86 c3 be 83 9b 2d be cb b1 61 3d
       0.21893026 -0.38188857 -0.16953854 0.055101197
000380 11 39 fd 3c 94 33 bb 3e 06 41 85 3d 33 b7 62 3c
       0.030911 0.36562788 0.06506543 0.013837623
000390 86 00 29 be 8f f3 36 be 91 a0 a6 be 05 73 ba be
       -0.16504106 -0.17866348 -0.32544377 -0.36415878
0003a0 74 2a 35 be 0c 42 c2 be f8 7d 9a be 0b df d6 3e
       -0.17691976 -0.37941015 -0.30174232 0.41967043
0003b0 ee 40 76 be 13 80 56 3e 03 30 2d be 26 e1 cf bd
       -0.24048206 0.20947294 -0.16912846 -0.101503655
0003c0 cd 92 44 3d b1 39 3f 3e 33 c5 97 3d b5 38 ab 3e
       0.047991563 0.18674351 0.0741066 0.33441702
0003d0 d7 ed 7f 3e 9d 19 0d bd d2 9e b2 3e b2 95 0d be
       0.24993072 -0.034448255 0.34886795 -0.13826635
0003e0 87 76 b6 3e df f6 ce be f7 b5 51 bd 14 c3 1a 3e
       0.35637304 -0.40422723 -0.051198926 0.15113479
0003f0 ec 22 2e be 82 a9 70 3d 1f fc 8a be 73 c4 61 3e
       -0.17005509 0.058755405 -0.27145478 0.22047596

convs.1.linear_r.W f4 [5, 32, 32]
000000 41 da 9b 3d 51 7a d5 bd 83 19 d5 3d 9d 3e 39 3e
       0.07609988 -0.10423721 0.104052566 0.18090291
000010 3c a4 ae bd 17 99 c9 3d 76 04 85 3d 3b d7 91 bd
       -0.08527419 0.09843653 0.064949915 -0.0712113
000020 dc 89 8c 3b 89 54 c3 bd e1 d5 1b 3e 81 55 16 bc
       0.004288895 -0.09537608 0.15218307 -0.009175659
000030 7d d3 5b 3d 4e 77 e6 3d 0f 70 85 3d ad f0 03 3b
       0.053668488 0.11253224 0.06515514 0.0020132468
000040 68 12 29 3e 06 dd 1c be 31 d1 82 3d 52 07 39 bd
       0.16510928 -0.15318689 0.06387556 -0.045172997
000050 d4 9b 45 3d 70 e5 04 be 07 d6 01 3e b2 a1 86 bc
       0.048244312 -0.12978148 0.12679301 -0.016434524
000060 4f 18 db 3c cd f6 f5 bc 5b c8 07 bd bf 93 ff bd
       0.02674499 -0.03002491 -0.03315006 -0.12479352
000070 44 cf 60 bd 9b df 10 3e 52 9e 1e be 43 48 0e be
       -0.054885164 0.14147799 -0.15490082 -0.13894753
000080 35 b8 3b bd 32 80 d7 3d d1 a0 54 bb 0f 7a 0a 3e
       -0.04582997 0.10522498 -0.0032444487 0.13523124
000090 9c 45 92 3d 1f 91 1a be 45 52 87 bd 1f 74 34 3e
       0.07142183 -0.15094422 -0.066074885 0.17622422
0000a0 a0 35 16 be ac 47 46 3c c8 b0 0b be 75 06 c8 bd
       -0.14668894 0.012102049 -0.13641655 -0.097668566
0000b0 e5 4b ab 3d 1c 6d 78 bd e6 8b 8e 3d cb f5 17 3e
       0.08364085 -0.06065093 0.06960277 0.14839856
0000c0 4c b2 a3 bc a1 05 e5 3b 0e 78 78 bd d1 6e 27 be
       -0.01998248 0.0069891964 -0.060661368 -0.16350867
0000d0 75 af 13 be 39 9f 46 3d b1 ea 63 3d e6 9e 14 bd
       -0.144224 0.04849169 0.05564374 -0.03628435
0000e0 a7 cc ca 3c 0b 6d 35 3e a9 49 be 3d 99 fc 02 be
       0.024755789 0.17717378 0.09291393 -0.12791671
0000f0 fb 65 c3 bc e2 67 bc bb 41 ca 4c bd 83 4e 34 bd
       -0.023852339 -0.0057496885 -0.04999757 -0.044020187
000100 76 5d 88 bc df a4 3e be 34 bf 1d 3e a2 75 29 bc
       -0.016646128 -0.18617581 0.1540497 -0.010342987
000110 15 91 2f 3e 33 cc 75 3d a8 7d b5 bd 0c 8a b5 bd
       0.17145188 0.060009193 -0.08861858 -0.08864221
000120 8d 20 02 3e 5a 05 29 be 86 b6 ff bd 43 86 08 be
       0.1270773 -0.16505948 -0.124859855 -0.13332467
000130 ed 48 96 bb c8 11 e6 3d 41 84 10 be c9 40 7a bb
       -0.00458633 0.1123386 -0.14112951 -0.0038185588
000140 e8 73 90 bb 14 ae 0f be c5 da 10 3e 81 20 cc bd
       -0.0044083484 -0.1403125 0.14145954 -0.09967137
000150 4f 93 0a 3d a0 ed d9 bd 4d 3f 19 3e d1 69 3b 3e
       0.03383189 -0.106410265 0.14965554 0.18302085
000160 6e eb aa 3d 2f 11 7d 3d d8 99 eb bd 4f 25 17 3e
       0.08345686 0.061783966 -0.11503953 0.14760326
000170 24 ee dc bd 24 1f 07 be ba 39 4b bc 5b 9a 90 b6
       -0.10787609 -0.13195473 -0.0124039 -4.3095038e-06
000180 f4 d2 cf bd 47 34 21 be ab 5a 8b bd 16 e6 b0 3d
       -0.10147658 -0.15742598 -0.06804403 0.086376354
000190 ba e8 51 3d 02 de e5 bb 2e ed 1f 3e 9f d2 a9 3d
       0.051247336 -0.007014991 0.1561782 0.08292126
0001a0 b3 2f cc 3c 7a da ac bd 23 e2 08 be 79 70 43 bc
       0.024925089 -0.084401086 -0.13367514 -0.011928671
0001b0 90 66 12 be a8 5a 30 3e f5 82 49 bd 7c 16 db bd
       -0.14296937 0.17222083 -0.049197156 -0.10697648
0001c0 ff f7 34 bd eb dd 7c 3d 26 b9 14 3d d5 ed db 3d
       -0.04418182 0.061735075 0.036309384 0.10738722
0001d0 66 a8 38 be 86 35 17 3d d9 74 9d bc 52 92 a8 bd
       -0.18032989 0.03691628 -0.019220756 -0.082310334
0001e0 a8 85 0e be b6 c3 bd 3c 44 14 ee bd da a6 21 3b
       -0.13918173 0.023164611 -0.11624959 0.0024666102
0001f0 ce 13 03 be e7 41 f6 3d 58 93 33 be 9e d0 a3 3d
       -0.12800524 0.120242886 -0.17536676 0.07998775
000200 50 77 91 bb fe fd 01 be e4 20 0e 3e 53 bf eb 3d
       -0.004439272 -0.12694547 0.13879734 0.115111016
000210 a1 34 0a be 49 3a 35 be 69 0f 0b 3e 39 a7 a3 3d
       -0.13496639 -0.17698015 0.13580097 0.079908796
000220 93 a1 26 3e cb a1 ba bc cd e3 ca bd 11 9c 97 bd
       0.16272573 -0.022782227 -0.09906731 -0.07402814
000230 4a 82 16 be d5 e5 b5 3d 03 b6 08 be 97 03 5e bc
       -0.14698139 0.088817276 -0.13350682 -0.013550661
000240 e5 34 87 3d 05 c7 04 3e 36 02 9f bd 54 8d 08 3d
       0.06601886 0.12966545 -0.077640936 0.033337906
000250 65 e3 c7 3d 9c 39 30 be 04 7e 09 bd 78 f3 4e 3d
       0.09760169 -0.17209476 -0.033567443 0.05052516
000260 3b dd db 3d 3b ce f5 3d 26 3d ec 3d 26 92 14 3e
       0.10735556 0.12002226 0.11535101 0.14508876
000270 8f 80 32 3e 44 4a 04 be 13 f4 a0 bd ee 5c bd bd
       0.17431854 -0.12918955 -0.078590535 -0.092462406
000280 01 36 f7 bd 70 e1 c5 bd 38 30 74 bd d8 53 25 bc
       -0.12070847 -0.096621394 -0.059616297 -0.010090791
000290 58 eb bc 3d 0a 8b e4 bc e6 d3 67 3d b5 5d 0e 3e
       0.09224576 -0.02789833 0.056598566 0.13902934
0002a0 80 5b fc 3c a9 7c 41 3b 93 2e a8 3d 0f f6 39 3e
       0.03080535 0.0029523766 0.08212008 0.1816027
0002b0 57 b6 cd bd fb d9 0f be ff 91 7a 3d e2 04 cf bb
       -0.10044544 -0.14047997 0.06117439 -0.0063177207
0002c0 74 c5 94 bc cb 5f ab bb 61 67 e9 bd 06 1b 66 3d
       -0.01816056 -0.0052299253 -0.11396671 0.056178115
0002d0 9d 99 c1 3d 42 b6 78 3d 2a 40 22 3e 85 78 0b be
       0.094531275 0.06072069 0.15844789 -0.13620193
0002e0 9e 3c 1f be 87 ec e5 3c 31 64 e7 3d 3f a2 27 bd
       -0.15550467 0.028066887 0.11298407 -0.040926214
0002f0 54 5b 90 bc 32 6e f8 bd d7 19 b9 bd 63 45 d3 3d
       -0.017621674 -0.12130393 -0.09038132 0.10315969
000300 f0 b1 0c 3e d5 40 7a 3d fa e6 c3 3d a0 9b 2c be
       0.13739753 0.061096985 0.0956554 -0.16856241
000310 ee 8d c6 3d 09 64 05 3e 41 77 80 3d 4c c5 0e 3e
       0.0969504 0.13026442 0.06272746 0.1394245
000320 ef 2c 20 be e2 5f ee bd 52 3c 80 3d 58 80 e4 3b
       -0.15642141 -0.11639382 0.06261505 0.0069733076
000330 f4 22 46 bc 3e 68 22 bd 71 5e e3 3d 3f 9c 13 be
       -0.012093294 -0.039650194 0.11101998 -0.14415072
000340 bf ef d2 bc 7d 14 ec 3d a7 d8 38 3d 9b 5a e1 bd
       -0.025749085 0.11527345 0.04512849 -0.1100361
000350 d7 bb 56 3d 3d 6d d0 bd 2e 8b 0a 3e db 65 f1 3d
       0.05242523 -0.101770855 0.13529655 0.117870055
000360 24 af 12 3e d4 3c f0 bd cc f2 0d be df 43 04 3c
       0.14324623 -0.11730352 -0.13862151 0.008072822
000370 b1 67 17 be ec f0 26 3e a4 b4 bf bc e7 a5 48 bd
       -0.14785649 0.16302842 -0.023401566 -0.04898634
000380 06 b0 25 3e 96 51 4a bd 68 6b 76 bd 28 48 05 be
       0.16180429 -0.049394213 -0.060161024 -0.13015807
000390 a4 83 58 bd 35 28 4d ba de 91 04 3e 28 5d 3b be
       -0.052859917 -0.0007826121 0.12946269 -0.18297255
0003a0 5c 23 58 bd e7 40 24 3e 8f c5 3d bd bf 5b 68 3c
       -0.052768096 0.16040383 -0.046330985 0.01418203
0003b0 06 b3 d6 bc 48 76 b0 bc 15 42 03 3d 8b 18 0e 3e
       -0.026208412 -0.021540776 0.032045443 0.1387655
0003c0 89 b7 10 3e 71 ba 90 3c 10 6d a1 3d c4 dc 4d 3c
       0.14132513 0.017667027 0.0788213 0.012564842
0003d0 df f7 31 3c b2 2b 74 3d e8 e3 ea bc 34 14 cb 3d
       0.01086232 0.059611984 -0.028673127 0.09915963
0003e0 32 8f f9 3c 0f f1 1f 3d de 5c 80 3d 56 eb 7c 3d
       0.030463789 0.03904825 0.06267713 0.06174787
0003f0 df e6 f4 bd 44 06 8c 3d 9d 3f 80 3d f8 38 00 be
       -0.11958098 0.068371326 0.06262133 -0.12521732

convs.2.h_bias f4 [32]
000000 2b 44 5d bc 9f 14 4b 35 ae 1f 8d 3c 9b 2b bc 3b
       -0.013505022 7.56534e-07 0.01722702 0.005742503
000010 0a a0 22 3b 9b 62 4c bc 55 84 d6 bc 21 a1 7a 3b
       0.002481463 -0.012474681 -0.026186148 0.0038243013
000020 3b 5f 52 bc 4a 55 0e 3d 4b 5d 26 3c 84 e5 bc 3b
       -0.0128400875 0.034749307 0.010154079 0.005764665
000030 9c a6 78 bc 1f 28 c9 3b d0 27 ad bc e6 ea ef 3a
       -0.0151764415 0.006138816 -0.021137148 0.0018304258
000040 f3 9c a7 3a 22 78 09 39 1c b5 a1 bb b3 dd 6b bb
       0.0012787863 0.00013110091 -0.00493492 -0.0035990297
000050 cd 69 61 ba f7 5a 01 bc 8b 8f 34 3b 9a 6e 63 bc
       -0.00085988344 -0.007895223 0.0027551379 -0.01388135
000060 27 05 8f bb ed 12 aa 3b 76 e5 f3 3b 46 af 95 3c
       -0.004364628 0.0051902444 0.0074431254 0.018272053
000070 3e ef a9 bc b5 96 e6 3c 62 51 bf bc 15 71 39 3c
       -0.020743962 0.028148035 -0.023354236 0.011318465

convs.2.loop_weight f4 [32, 32]
000000 c4 26 c9 3e e5 3d 9d bd 6f 18 49 3e 85 46 bf be
       0.39287388 -0.07677821 0.19638227 -0.3735849
000010 8d 2c bf 3e a4 a8 7c be 93 9e a5 3e 96 03 1f 3e
       0.37338677 -0.24673706 0.32347545 0.15528712
000020 b2 1b 37 be 03 b3 80 be ee 2a 2e be 6d ea 75 3e
       -0.17881659 -0.25136575 -0.17008564 0.24015208
000030 c3 6f c0 3d c0 3b ce 3e fc c0 93 3e 09 51 83 be
       0.09396317 0.4027996 0.28858173 -0.25647762
000040 8c 30 0d be 5d 17 6e be 5f 8a 0c 3e 8f 32 cc 3d
       -0.1378805 -0.232511 0.1372466 0.09970581
000050 9c 29 0e 3d 5f bd be bd 88 64 dd be 9f c1 15 be
       0.03470765 -0.093134634 -0.43240762 -0.14624642
000060 93 a3 d4 be 93 9b 98 bd f4 d9 c4 be b3 63 09 3e
       -0.41531047 -0.074515484 -0.38447535 0.13416938
000070 50 c4 87 3e 22 eb a8 3d da 11 98 3e 1c 31 71 3d
       0.26516962 0.08247973 0.2970112 0.058884725
000080 03 9c 8c be d6 c1 6e 3d da 51 82 be 88 da 5a be
       -0.27462777 0.058290325 -0.25453073 -0.21372426
000090 e5 bb d2 3e 86 bc 90 be a7 68 c0 be 12 65 82 3e
       0.41158977 -0.28268832 -0.37579843 0.25467736
0000a0 1b 06 4b bc 31 7f c6 3e a4 7c 83 be 32 ff 03 be
       -0.012391592 0.38768914 -0.2568103 -0.12890318
0000b0 19 5b 93 3e 3f fd cb be db 36 bc be b8 35 ab bd
       0.2878044 -0.3984165 -0.367606 -0.083598554
0000c0 db 4e e8 bd ca 7a 12 3e 9f f7 88 3e 14 f7 54 bd
       -0.113431655 0.14304653 0.2675142 -0.051993445
0000d0 92 ce ca be 7b b8 9d 3e 68 e0 b8 be a4 6b 8f be
       -0.39610726 0.3080481 -0.36108708 -0.2801181
0000e0 fe e0 b1 3e 58 9d b8 be d1 74 30 be 07 b7 7d 3e
       0.34741968 -0.36057544 -0.17232062 0.2477685
0000f0 d6 a5 b6 3e 8c 6e 53 3e 55 69 9b 3e f1 c5 ac be
       0.35673398 0.20647639 0.303538 -0.33744767
000100 4d 46 91 be 2c eb a9 3d 21 56 ae 3d 11 fd c8 3d
       -0.28373948 0.082968086 0.085125215 0.098138936
000110 5e ea 6d be 2e 7b cb 3e b8 04 06 be 8e 59 90 be
       -0.23233935 0.39742416 -0.13087738 -0.28193325
000120 aa 4f 8d 3a 50 fe 1a be 5b 52 11 bd 94 28 87 bd
       0.0010781188 -0.15136075 -0.03547893 -0.065995365
000130 a9 d9 b8 3d 2b 57 a0 bd ce 90 5f 3e 30 0b 3b 3e
       0.090258904 -0.07829126 0.21832582 0.18265986
000140 85 29 79 be b7 ec 54 be ee bd ed 3d 77 6f 79 3e
       -0.24332245 -0.20793425 0.11608492 0.24358927
000150 c0 c6 51 3e b4 7e db 3d 42 99 78 3e 11 8b 77 be
       0.20485973 0.10717526 0.24277213 -0.24174143
000160 70 1f 21 be 8d e5 a8 3d 84 9e ef bd f0 5c 81 3e
       -0.15734649 0.08246908 -0.11700156 0.25266218
000170 4f f5 35 be 97 ba a7 be 3f d0 cc 3e bd b5 be 3e
       -0.17769359 -0.32759544 0.4000263 0.3724803
000180 f3 cf 2c be 75 c1 d9 be 71 53 3d 3e dd 24 71 be
       -0.16876201 -0.42530409 0.18488862 -0.23549218
000190 03 92 c0 3e d2 6c ad bc 04 81 9c bd a9 26 b3 be
       0.37611398 -0.021170054 -0.07641795 -0.34990433
0001a0 c8 9a 3e 3e d6 af c8 3e fa f4 63 be 69 b1 a9 be
       0.18613732 0.39196652 -0.2226142 -0.33143166
0001b0 5e e2 6b 3e 0a 4e aa be 63 46 5b 3e 7a 57 25 be
       0.23035571 -0.33262664 0.21413569 -0.16146651
0001c0 8c 7b 8f 3e b4 e7 99 be ec fd 9a 3e 1e c4 92 be
       0.28023946 -0.30059588 0.30271852 -0.2866525
0001d0 c2 38 c8 be 94 25 a1 be 67 3e 85 3d 33 6d 49 be
       -0.39105803 -0.31473982 0.06506043 -0.19670562
0001e0 5c 08 d4 3e 6c 96 34 be f5 d0 9a 3e 69 aa 8a 3e
       0.41412628 -0.17635506 0.30237547 0.27083138
0001f0 86 ed b3 bc 1c ae c9 be ad 9b 41 3e 16 94 bd bd
       -0.021963846 -0.39390647 0.18907042 -0.09256761
000200 b1 79 e9 bd d7 6a 9d be f9 b6 24 3e 21 cc 79 be
       -0.11400164 -0.30745575 0.16085424 -0.24394275
000210 ab 5a 3d 3b 0e a4 27 be 9f a9 93 bd 09 32 88 3e
       0.0028893154 -0.16371176 -0.07210087 0.26600674
000220 ef 0b ee 3d 9d c8 8c 3d 2e 4f 79 3e ee a3 24 3d
       0.1162337 0.068742014 0.24346611 0.040195398
000230 f7 7e cf 3e 19 2a ba 3e df 52 0b be e8 9f 0a 3e
       0.40526554 0.36360243 -0.13605832 0.13537562
000240 a4 63 a2 be 6e 93 3f 3e a0 12 87 3e 38 01 94 bd
       -0.31716645 0.18708584 0.26381397 -0.07226795
000250 24 e8 6e be 12 0a 84 be e1 32 8f bd 22 1e e0 3c
       -0.23330742 -0.25788933 -0.06992126 0.027358118
000260 cf 94 77 be 25 46 8b 3e 96 06 3a 3e 26 dd 82 bd
       -0.2417786 0.27201954 0.18166575 -0.06389837
000270 c0 e8 ca be 89 21 96 be 79 f0 41 3e e1 61 b0 3e
       -0.396307 -0.2932246 0.1893939 0.34449676
000280 8c 7e 95 be 3b 99 63 bd 66 5a 99 3d 58 2c 0b 3e
       -0.2919811 -0.055566054 0.07487945 0.13591135
000290 c5 8a b7 3e 8f f7 a1 bd 7b 2f d7 be 0e 11 6f bd
       0.3584806 -0.07908546 -0.42028412 -0.058365874
0002a0 67 c8 32 be a0 74 86 be 9f ea 79 3e 99 9f 3c be
       -0.1745926 -0.26260853 0.24405907 -0.18420257
0002b0 95 3e 46 3e 89 87 db bc 2d d3 bf 3e 78 39 a8 be
       0.1935981 -0.026798027 0.37465802 -0.32856345
0002c0 e7 73 82 be 08 af 95 3d ff 45 47 be 49 d3 91 be
       -0.2547905 0.07308775 -0.19460295 -0.2848151
0002d0 81 ef b8 be db 31 e8 3d 35 78 8c 3d 1e b2 a0 be
       -0.36120227 0.11337634 0.06858865 -0.31385893
0002e0 3e c7 cb be 37 30 8e be 08 09 ad be a7 ca dd be
       -0.39800447 -0.2777116 -0.33795953 -0.43318674
0002f0 86 1c c5 3e de 25 49 be 87 b8 49 3e 50 86 ab be
       0.38498324 -0.19643351 0.19699298 -0.3350091
000300 a7 ad 2a 3d a8 e8 24 be 8a 69 29 3d ea a8 ca 3e
       0.041669514 -0.16104376 0.041360416 0.39581996
000310 ce f1 5f 3e 5b c7 b4 3d 6b ac 70 3e f5 ef 91 3e
       0.21869585 0.088270865 0.23503272 0.28503385
000320 a6 90 84 3e c3 9c 51 3e e1 a8 88 be 00 73 69 3e
       0.25891608 0.20469956 -0.26691344 0.22797775
000330 c7 04 0e 3e d4 b5 29 bd 51 89 12 3d 55 c7 b5 bd
       0.1386901 -0.04143317 0.035775486 -0.0887591
000340 43 85 93 bd 5c 5a 9d bb 05 8e 92 be 2d 84 5a 3e
       -0.07203152 -0.0048020314 -0.28623977 0.21339484
000350 5e 71 ae 3e 4a 53 47 3e a9 99 87 bd f2 97 06 bd
       0.34070867 0.19465366 -0.06621105 -0.03285975
000360 a9 28 99 be 43 39 ad 3e 46 20 7e bd b2 15 5c 3e
       -0.29913834 0.3383275 -0.062042497 0.21492651
000370 a7 56 a0 3e 04 76 e6 3d 03 24 9f be 9a 5b 96 3e
       0.3131611 0.112529784 -0.31082162 0.2936676
000380 91 f3 2a 3e 34 be 44 be 00 93 3d 3e 0f 27 7f 3c
       0.16694476 -0.19213182 0.18513107 0.015573277
000390 a1 6d 7c be 71 38 5b bd c3 e4 a7 3d eb b0 0f be
       -0.24651195 -0.053520624 0.0819793 -0.14032333
0003a0 57 b2 79 3e 7a c8 a4 be b3 7d 06 3e 15 ad 9c be
       0.24384438 -0.321842 0.13133888 -0.306008
0003b0 ca 5c 99 be 5c d4 cb bc fb 89 b8 3e 64 6a 8f be
       -0.29953605 -0.024881534 0.3604277 -0.28010857
0003c0 b3 f4 af be 27 c3 60 be c5 2b 5e 3e 3a 64 95 3e
       -0.34366378 -0.21949445 0.21696384 0.2917803
0003d0 d4 3f b8 be 47 b8 b4 3e 4b d9 99 be aa d1 b5 bd
       -0.35986197 0.35296842 -0.30048594 -0.08877881
0003e0 95 7d cb be 39 73 1f be 16 d1 e4 3d 53 0c 6e 3e
       -0.3974425 -0.15571298 0.111726925 0.23246889
0003f0 b8 49 04 bd 55 49 9f be d1 d9 90 3e 12 06 ab bd
       -0.032296866 -0.31110635 0.2829118 -0.08350767

convs.2.linear_r.W f4 [5, 32, 32]
000000 9c 08 68 3b db 71 42 3c 4e b9 90 bd cf d8 f9 3c
       0.0035405522 0.011867966 -0.07066594 0.03049889
000010 b4 59 0d 3d 93 d7 30 3e 65 df 87 3c 40 70 5f bd
       0.034509376 0.17269735 0.016586015 -0.05455041
000020 81 42 82 3c a8 13 04 3e db 73 e4 bc 15 16 cc bd
       0.015900852 0.12898123 -0.027887275 -0.09965149
000030 2d 82 3a be 77 96 13 3e eb d4 12 3e f2 d6 37 be
       -0.1821372 0.14412867 0.14339034 -0.17953089
000040 af a2 97 3d b0 1f dc 3d 7a 22 b8 bd 19 9b 66 3d
       0.07404076 0.107482314 -0.08990951 0.056300256
000050 71 21 ce bd 9a 21 9b 3d ed 74 06 bd 0d 31 5b 3d
       -0.10064972 0.07574768 -0.032826353 0.053513575
000060 70 f2 be 3d 48 e1 d0 bc 5e d0 1b 3e de 8c 17 be
       0.09323585 -0.025498047 0.15216205 -0.1479983
000070 99 2d c9 bd d8 92 14 be 5e ba 93 3c 2a ea ed 3d
       -0.0982315 -0.14509141 0.018033203 0.11616929
000080 11 93 1b be 68 f2 c8 3d 6e 2b 82 3d 75 e5 04 be
       -0.1519282 0.0981186 0.0635594 -0.12978156
000090 dd 10 d7 3c d6 a7 f5 bc 10 6b 46 3c 5d 5c a5 3d
       0.026253158 -0.029987257 0.012110487 0.080742575
0000a0 cf 5e 29 be 70 e8 57 bd 43 70 e7 bc 75 57 6f bd
       -0.16540073 -0.052711904 -0.028251773 -0.058433015
0000b0 33 4a a3 3c bd d9 f3 3d 82 5f 14 3e 3f 8c ac 3d
       0.019932842 0.11906765 0.14489558 0.08425187
0000c0 9d a5 30 3d 4d 47 d7 3c 86 f0 be 3d 28 be 09 be
       0.04312669 0.026279116 0.0932322 -0.13451445
0000d0 ce 8c b5 bc f3 9e b9 3d 49 f5 56 bd 3c 46 ae bd
       -0.022161867 0.0906352 -0.052480016 -0.0850949
0000e0 1b 5e 04 3c 11 5c e0 3d 34 17 10 3e 89 1d 81 3d
       0.008079077 0.1095506 0.14071351 0.063044615
0000f0 c6 aa ef 3d 45 2c 4b 3d c6 c5 5e bd 5f ff 33 bb
       0.11702494 0.049602766 -0.05438783 -0.0027465445
000100 ce 56 7e 3d 1b 93 58 bd ab 90 a0 bc ec 1f b7 ba
       0.062094502 -0.052874666 -0.019600233 -0.0013971305
000110 b2 d5 80 bd 7d 08 03 be ba c4 1d 3e ec 1c cb 3d
       -0.06290759 -0.12796207 0.15407076 0.09917626
000120 5e ce 10 be d1 14 da 3c 74 f4 42 bc 2d 72 91 bb
       -0.14141223 0.026621254 -0.0118991025 -0.0044386596
000130 4f a5 38 3d 3d e5 32 be 83 c5 d6 3d 4a 0c ad bd
       0.045079526 -0.1747026 0.10486891 -0.084496096
000140 dc d7 2d be 91 03 59 bd 41 2a 9d bd b2 d2 d8 bc
       -0.16976875 -0.052981917 -0.07674075 -0.026467655
000150 9f 57 94 bc a6 d5 23 3e 12 a2 e2 bd 34 5c 55 bd
       -0.018108187 0.15999469 -0.11066069 -0.052089885
000160 6a 76 a4 3d ac 84 1f 3e 17 d0 a4 bd 62 1b d0 bd
       0.08030398 0.15577954 -0.080475025 -0.10161473
000170 41 88 09 3e 60 af 49 be f6 e5 9d 3d 32 82 86 3d
       0.13430883 -0.19695807 0.07709877 0.065678015
000180 15 39 c4 bd f8 f8 f6 bd 26 2d 9b bc a6 12 0a be
       -0.095812 -0.12059206 -0.018942427 -0.13483676
000190 3c fb 81 bc 87 3b da bc d6 2f 3f 3c 6d e8 15 be
       -0.015866868 -0.026639713 0.01166912 -0.14639445
0001a0 40 9b eb 3d d6 72 f1 bd 7a 4a 08 be 1b af 12 be
       0.11504221 -0.11789481 -0.1330966 -0.1432461
0001b0 95 85 7e 3c d5 b2 05 be 63 8a 1e 3e 5e f1 2e bd
       0.015534778 -0.130565 0.15482478 -0.042710654
0001c0 d4 01 13 be 2e 37 2b 3c 98 bf a6 3d 4a 5a 2e be
       -0.14356166 0.010450168 0.08142012 -0.1702663
0001d0 e1 80 f6 3d bd 66 f0 3d c2 8c 34 3e df 2d cd bd
       0.120363005 0.11738346 0.1763182 -0.10018515
0001e0 d8 dc 11 3d 09 88 00 3d 0a 0b f4 3d 66 ae 47 bd
       0.035611004 0.031379733 0.11916168 -0.048750304
0001f0 1f 2a 31 3e 66 d3 67 3d da f3 74 3d b7 01 f0 bd
       0.17301224 0.05659809 0.059802867 -0.11719077
000200 c1 42 3f bc 29 55 21 3e 43 f6 0b 3e 54 22 b5 bd
       -0.01167363 0.15755142 0.1366816 -0.08844438
000210 c5 83 43 bd e4 57 f5 bd b1 7f d0 bd c1 d1 ec 3d
       -0.047733087 -0.119796544 -0.10180605 0.11563445
000220 fa 30 0a 3e 58 49 28 bd be be 60 3d 97 5c dd 3d
       0.13495246 -0.04108557 0.054869406 0.10808676
000230 7c 26 0e be f6 b9 1c 3e 13 d9 8d 3d 24 79 f6 bd
       -0.13881868 0.15305313 0.06926169 -0.120348245
000240 cb a4 ec bd 37 b5 0e bc 2d b1 fd bd a3 8c ff bd
       -0.11554869 -0.008710197 -0.12387309 -0.12477996
000250 d7 6a 2d 3e 20 8f bf bd 7a dd 4e bd 41 f9 0b 3d
       0.16935287 -0.09353471 -0.050504185 0.034173254
000260 61 f2 a0 3d cd 3d b0 3d 1b 14 9b b6 7b f9 77 3d
       0.0785873 0.086055376 -4.6217006e-06 0.060540657
000270 15 94 87 3d 6a e1 8a 3d fc b1 34 3d 01 f7 70 3d
       0.06620041 0.067812756 0.04411505 0.05882931
000280 de 49 7f 3d 4d d1 b1 bd 1a 2a 82 bd 8d 3d 0b be
       0.062326305 -0.08682499 -0.063556865 -0.13597699
000290 84 9f 99 bc d7 53 c6 3c ef 48 c2 3b 66 bd b5 3d
       -0.01875282 0.0242099 0.0059291045 0.088740155
0002a0 4d 08 01 3e c2 08 c8 3d 17 15 3b 3e f1 b4 b8 bc
       0.12600823 0.097672954 0.18269764 -0.022547217
0002b0 13 ff 3f 3b f5 43 31 3d 91 83 0d bd 34 bf f5 3d
       0.0029296323 0.0432777 -0.0345493 0.1199936
0002c0 ca 63 6c bd 3c ac 25 bc cd 20 ac bd 07 bb 20 3c
       -0.057712354 -0.010111865 -0.08404694 0.009810216
0002d0 c6 35 2e bd 1b e9 f3 bd 7b d2 d6 3d 9f e9 03 3e
       -0.04253175 -0.11909696 0.10489365 0.12882088
0002e0 e4 fe 92 bd 2d 16 0e be 6f ad c8 bc 34 8c d1 3d
       -0.07177523 -0.13875647 -0.024496762 0.1023182
0002f0 b3 bb ca ba 60 6f 38 bd f6 97 07 3e 45 dc 25 3e
       -0.0015467316 -0.04502809 0.13241562 0.16197307
000300 2b c0 15 be f8 64 cd 3d 9f 4a fb 3d 13 34 fd bd
       -0.14624088 0.10029024 0.12270092 -0.12363448
000310 1a 6d 05 3e 62 ba 04 3d ca 7a c4 bc 2d 27 69 bd
       0.130299 0.03240431 -0.023984332 -0.056922127
000320 17 01 d6 3d ff 91 b1 3d cb 19 b8 bd ef 28 b4 bd
       0.104494266 0.08670425 -0.089892946 -0.0879687
000330 ca 7f ac 3c 0b 23 23 3e 44 e0 8c bd ab 16 d2 3d
       0.021057028 0.15931337 -0.06878713 0.1025823
000340 6d a7 59 bc 8e 78 c8 3c f6 aa 13 3e 8d 11 18 be
       -0.013284546 0.024471547 0.14420685 -0.14850445
000350 b2 54 28 3e 9b 5d 30 be 5a 7c 93 bc 51 4a 25 be
       0.16438559 -0.17223208 -0.018003631 -0.1614163
000360 ce f5 25 3e bc 42 2e 3e ff bf d9 3d e9 ca 38 3d
       0.16207048 0.17017645 0.106323235 0.045115385
000370 ad ba aa 3d d2 0c 02 be b7 3a 6a bc 78 b6 b1 39
       0.08336387 -0.12700203 -0.014296225 0.0003389602
000380 70 4a 0f bd 14 3b df bd a2 7f c3 bd ef ed 23 3e
       -0.0349831 -0.1089994 -0.095458284 0.16008733
000390 7a 64 f7 bd 7a ad e4 3d 63 b8 6a 3d ac ec 2e 3e
       -0.12079711 0.111659005 0.05730475 0.1708247
0003a0 70 09 db bd 5e 85 01 3e ad 8e 07 3e 08 6c 10 3d
       -0.106951594 0.12648532 0.1323802 0.035259277
0003b0 79 2b 12 3e d7 e5 b2 3d 3c 4b 1e 3e 30 d2 f0 3c
       0.14274396 0.08735245 0.15458387 0.0293971
0003c0 60 c2 b1 bd ae 4c dc bd e3 31 b8 bd e6 2a 08 be
       -0.08679652 -0.10756813 -0.0899389 -0.13297614
0003d0 99 4c 8f 3d b3 c6 44 3c d9 bb fe 3d 6c 73 a3 bd
       0.06997032 0.012010264 0.12438173 -0.07980999
0003e0 0a 12 a4 bb 52 68 3f bd 27 8f d6 3d e0 4b 98 3d
       -0.0050070332 -0.046730347 0.10476523 0.07436347
0003f0 b1 63 85 3d 1b 3b dc 3d ee 2d 1a be c5 a1 cf 3d
       0.06513155 0.10753461 -0.15056583 0.10138277

convs.3.h_bias f4 [32]
000000 40 68 d1 3c 10 4c b3 bc 06 e3 5e bc a8 42 8e 3c
       0.025562406 -0.021886855 -0.013603931 0.017365769
000010 2d e0 8c 3c f1 7b 33 bc 8e 57 7d bc a1 ff 3c bc
       0.01719674 -0.010954843 -0.015462769 -0.011535556
000020 63 47 a5 ba d3 59 3f 3b b8 5f 83 bc d5 ea 18 3c
       -0.0012609776 0.0029197827 -0.016036853 0.009333332
000030 1b b9 12 3b 1d 42 0d 3c e9 78 71 bc 6d b3 cf bb
       0.0022388163 0.00862172 -0.0147383 -0.006338528
000040 fc b1 e3 ba 86 e7 e2 3b 15 f8 a3 bc fd 3e f6 b9
       -0.0017371769 0.0069245724 -0.020015756 -0.00046967706
000050 94 76 2c 3c 8b ef 8f bb 35 d4 05 3c 28 4c 90 bc
       0.010526318 -0.0043925694 0.00816827 -0.01761444
000060 ac 6d d8 3c 15 a0 a9 3c 75 c3 ab bc af ed 0e 3c
       0.026419483 0.020706216 -0.020967225 0.00872366
000070 91 4b 0d bd 94 2b b6 bb 33 72 9d bb 9d f7 ba bb
       -0.034495894 -0.005559394 -0.0048048734 -0.0057057873

convs.3.loop_weight f4 [32, 32]
000000 a9 af 66 3e 51 46 04 3e eb 9f e0 3e bb 11 b5 3e
       0.22527947 0.12917449 0.43872008 0.3536509
000010 72 ae b8 be 2b 93 21 3c 55 d5 72 3b 8d 7e 53 3e
       -0.3607059 0.009861748 0.0037053425 0.20653744
000020 5e b2 82 3e 00 59 56 be bd 42 54 3e 95 dd 20 be
       0.25526708 -0.20932388 0.20728584 -0.15709527
000030 1e 1f 0a bd 34 0e 09 be 3d 92 90 3d 2e 65 e8 bd
       -0.033721082 -0.13384324 0.07059143 -0.113474235
000040 cc 1a 99 3e 3f 18 7e be 48 f2 95 be 9a c2 77 be
       0.29903257 -0.24813937 -0.29286408 -0.24195328
000050 04 27 7d 3e 62 1b 21 be fd df d4 3e bc 08 df 3e
       0.24721915 -0.15733102 0.4157714 0.4356135
000060 76 ae bb 3e b1 61 16 be 4c 08 67 be 98 0f 4c 3e
       0.3665654 -0.14685704 -0.22561759 0.19927824
000070 44 00 68 3e 6c 1e c8 3e 78 55 c8 3d d5 ec 90 3e
       0.22656351 0.3908571 0.09781927 0.28305689
000080 2f 57 85 3e e5 b7 5f be 9d 0f 54 3e 49 88 96 be
       0.26043078 -0.21847494 0.20709081 -0.29400852
000090 85 ac ce 3e 40 af 48 3e e0 9d 34 be 8a b7 0d 3e
       0.40365997 0.19598103 -0.1763835 0.13839546
0000a0 0e 50 ba bd 0e be 96 3d ee a1 7f be 93 8c c4 3d
       -0.090973005 0.07360469 -0.24964115 0.09597125
0000b0 8b 83 70 3e 4c 8a 60 be 42 eb 82 3e f9 84 7d be
       0.2348768 -0.21927756 0.25570112 -0.24757756
0000c0 e9 91 f7 3d cc fc 49 be cf 25 07 be a0 0a 29 3e
       0.12088377 -0.1972534 -0.13198017 0.1650796
0000d0 bc dc 93 be 88 44 c2 be 6d 78 74 bd 2f c6 61 3c
       -0.28879344 -0.3794291 -0.05968516 0.013780161
0000e0 ca fc a3 bb e5 78 e2 3d ae 09 ba bd 34 4b 00 3d
       -0.0050045 0.11058215 -0.090838775 0.03132172
0000f0 a7 8c 8e be 1f db b9 3e 36 1b ab 3d 41 80 e5 3d
       -0.27841684 0.3629999 0.083547994 0.11206103
000100 86 4c 98 3d b1 ef a0 be 72 29 67 be c6 6e 79 bd
       0.07436471 -0.3143287 -0.22574404 -0.060896657
000110 fe d7 8a 3e 8d 24 7e be d8 f2 4c 3e b7 8c a4 3e
       0.27117914 -0.2481863 0.20014513 0.32138607
000120 63 19 5a 3d 9a 0b 58 be d3 46 a0 be 1e 70 b5 bc
       0.053246867 -0.21098176 -0.31304035 -0.022148188
000130 22 84 ca 3c 3f 33 b4 3e 34 2f 5e bc 6c 84 41 be
       0.024721209 0.35195348 -0.013561059 -0.18898171
000140 d6 39 91 be 19 ce 99 3e 8c f3 9a 3e 1d 5d dd 3d
       -0.28364438 0.30040053 0.30263937 0.108087756
000150 f9 d6 c5 bd 8b 23 ba 3d fc c8 8a 3e 00 d2 d7 3e
       -0.096601434 0.090888105 0.27106464 0.42152405
000160 b6 18 e5 3d 0b 90 65 be fc b1 dc 3e dd 1b 2b bd
       0.11186354 -0.2241823 0.4310454 -0.04177462
000170 2c 13 7c be c4 b6 bf bd fd 99 c2 3e 35 dd 97 3d
       -0.24616688 -0.09361032 0.3800811 0.07415239
000180 66 d8 8c be bf 94 bf be 82 ef 8b be 2a f8 93 3e
       -0.2750885 -0.37418172 -0.27331167 0.28900272
000190 17 dc 97 3b dc e2 c5 3c fc 0f 65 be 2a 11 0f bc
       0.004634391 0.024156027 -0.22369379 -0.00873212
0001a0 a7 ae 63 3e 14 43 e2 bd 82 0c 15 be df 07 7a be
       0.22234593 -0.110479504 -0.14555553 -0.24417065
0001b0 b5 fd e9 bd f0 95 ad be 55 da 0e 3b d6 05 01 be
       -0.11425344 -0.33903456 0.0021797617 -0.12599882
0001c0 48 7b 8b bd ac 2e e3 bd f8 74 80 be c6 75 b9 3e
       -0.068106234 -0.11092886 -0.2508924 0.36222667
0001d0 f6 59 bd 3e 59 30 d3 be 87 57 60 be 79 0c b9 3e
       0.36982697 -0.41247824 -0.21908389 0.36142328
0001e0 77 49 f8 3d 67 95 42 be c0 06 b6 3d 89 ef 87 be
       0.12123387 -0.19002305 0.08888006 -0.26549938
0001f0 0b fc c5 3e 70 fe 5a bd cd a0 b7 3e d2 c0 40 be
       0.38668856 -0.053465307 0.3586487 -0.18823555
000200 e2 97 31 be 60 fb 2e 3e fc eb ed bd a0 29 6b be
       -0.17343095 0.1708808 -0.11617276 -0.22965097
000210 d6 f7 e1 3d 67 88 a3 be 71 70 8c bd 79 ae 89 be
       0.11033599 -0.31940004 -0.06857384 -0.26890925
000220 05 98 8c 3e 56 3c c9 3e b7 cf 6d 3e 03 ad 04 3e
       0.27459732 0.39303845 0.23223768 0.12956624
000230 b3 95 1e 3e e0 78 48 3e e9 93 b4 3e 26 37 64 3e
       0.15486793 0.1957736 0.35269096 0.22286662
000240 3a 9b 6d be ae 40 15 3d 7b 60 c1 3e 4f 8d a8 3e
       -0.23203745 0.036438636 0.3776892 0.3292031
000250 a0 d2 86 3e 0a 11 57 be 2b f2 82 be 1a a9 c9 be
       0.2633257 -0.21002594 -0.25575384 -0.39386827
000260 a2 ed 50 bc 0c 5c 80 be 58 15 81 3e 9a b7 de bd
       -0.012751969 -0.25070226 0.25211596 -0.10874863
000270 54 8c fe bd e3 3f 8b bd a7 4e 3b 3e 85 ae f1 bd
       -0.12429109 -0.06799295 0.18291722 -0.11800865
000280 79 79 b0 be 41 bb c0 3e 3e c0 12 3d 86 56 f0 3d
       -0.34467676 0.37642863 0.035827868 0.11735253
000290 15 ce df be 8c 78 13 bb 53 9b ca be 92 73 17 bd
       -0.43711916 -0.0022502271 -0.39571628 -0.03697545
0002a0 07 06 a5 be 8a 26 6b be 77 f4 85 3e 6a a5 42 3e
       -0.3223116 -0.2296392 0.26163074 0.19008413
0002b0 b0 3b 0c 3e c0 21 c5 be 99 43 3a be c3 07 16 3d
       0.13694644 -0.38502312 -0.18189849 0.036628496
0002c0 3b c3 a0 3e 08 a3 41 be 10 36 08 3d 0f e9 77 3e
       0.3139895 -0.18909848 0.033254683 0.24209999
0002d0 c8 23 b4 3c d1 2f 75 3e 9e a9 8d bd 4e ca 3d be
       0.021989718 0.23944022 -0.069171175 -0.18534204
0002e0 1d 53 7c 3e 61 93 36 3e 94 21 9e bd a9 13 84 3d
       0.2464108 0.17829658 -0.07721248 0.064490624
0002f0 4c 76 66 3e 57 0d bd 3e 85 e6 4e 3d 90 23 58 3d
       0.22506064 0.3692424 0.05051281 0.05276829
000300 bd 2d 95 3c ce a4 b2 3c be d0 7c be c2 0e a9 3e
       0.018210286 0.0218071 -0.24689004 0.33019072
000310 62 e5 c6 be e0 d7 73 3e 2a 9a 0f 3e 80 a7 49 be
       -0.3884688 0.23812819 0.14023653 -0.19692802
000320 1d cf cb 3e 02 ac 78 bd 88 b3 d9 3e f4 55 a7 3b
       0.39806452 -0.060710914 0.42519784 0.005106682
000330 6a bc 35 be 79 8a 07 3e 11 00 9e 3e 5c ad 8c be
       -0.17747656 0.13236417 0.30859426 -0.27476013
000340 dc 28 a6 be 7b 36 dc be bd f0 ad bd 70 1b c2 3e
       -0.32453048 -0.43010315 -0.08493183 0.37911558
000350 f5 8b 2a be 22 4a 18 be 8d ca b5 bd ff 00 32 bd
       -0.16654952 -0.1487203 -0.08876524 -0.04345798
000360 7a ee e8 be 5b 19 96 be dc 27 58 be a4 b0 a2 3e
       -0.45494443 -0.2931622 -0.21108955 0.3177539
000370 41 23 87 be ce ba 5e bd bb 15 1c be c9 b2 b8 be
       -0.26394084 -0.05437737 -0.15242665 -0.36073902
000380 5d bb a8 be a1 74 c0 3e 12 80 5e be 14 4a d4 3e
       -0.32955447 0.3758898 -0.21728542 0.41462767
000390 0e 27 07 3e f2 87 ad 3e 70 dc 1a 3e b2 d4 ba 3d
       0.13198492 0.3389278 0.15123153 0.091226
0003a0 05 ef c0 3c ee 70 d0 3e 71 63 4c 3c 83 aa bc be
       0.023551473 0.4071116 0.012474881 -0.3684884
0003b0 30 2e 78 3e cf c3 f1 bd 39 95 c7 3e 9c aa 9b be
       0.24236369 -0.11804926 0.38981035 -0.30403602
0003c0 64 a3 ed 3e e6 47 28 3e 04 30 4c be c6 93 88 be
       0.4641372 0.16433677 -0.19940192 -0.26675242
0003d0 bf 8b f0 bd 7c 04 52 3e a1 9f d5 3e 92 d2 e7 bc
       -0.117454045 0.20509523 0.4172335 -0.02829865
0003e0 5a 21 35 ba f9 52 aa 3e e8 41 87 be 38 30 95 3e
       -0.0006909572 0.33266428 -0.2641747 0.2913835
0003f0 0e e1 a1 3e d1 7f 30 3e 5a cc a2 3e a3 d7 ba be
       0.31617016 0.17236258 0.31796533 -0.36492643
