parameters/baseline_igmc_music_0.1461.pt (torch, 214261 bytes, 15 tensors)

convs.0.h_bias f4 [32]
000000 d8 16 54 3c 0d a8 76 bd f3 7a 44 bc 64 a4 1f bd
       0.0129448995 -0.06021886 -0.011992204 -0.038975134
000010 26 48 0a bd ff 88 27 bd 74 cd 3a 3c 5c 73 f7 3d
       -0.033760212 -0.040902134 0.011401523 0.1208255
000020 1c 47 c8 bd 3b 61 96 bd c9 71 2c bd 83 a3 51 3c
       -0.09779188 -0.07342764 -0.0421007 0.012795332
000030 0d 86 b6 bd 65 07 2d bd 23 35 91 3b 18 ed 58 bd
       -0.08912287 -0.04224338 0.004431383 -0.052960485
000040 fb 5c 42 3d 88 fc 16 3d 92 a7 99 3c 03 ac 45 bd
       0.047451954 0.036861926 0.018756662 -0.048259746
000050 3d b4 62 bd f3 11 5e 3d b5 4b af bc 66 35 18 3c
       -0.05534767 0.054216336 -0.021398405 0.009290075
000060 90 f3 62 bb 3f 33 ef bc 60 7d 5d bb 0f 28 82 bc
       -0.0034630038 -0.02919924 -0.0033796653 -0.015888242
000070 13 2b 83 3c df 5f 84 bb b6 1e 67 bc c5 13 b4 3d
       0.01601175 -0.004039749 -0.014106443 0.08792833

convs.0.loop_weight f4 [4, 32]
000000 3a bf e6 be 86 e6 8d be e0 f8 97 be 13 49 46 be
       -0.4506777 -0.27714938 -0.29682064 -0.19363813
000010 02 ec 25 be 9a 13 96 be 9d fa 1c bd 48 dd 0f be
       -0.16203311 -0.2931183 -0.03832494 -0.14049256
000020 8a 59 c0 be de 9a 78 be d5 bf d0 be 58 ac b7 3e
       -0.37568313 -0.24277827 -0.40771356 0.35873675
000030 0d f5 fc 3e 8d 49 6e 3e f8 53 af 3e 6c 62 07 3f
       0.4940571 0.23270245 0.3424375 0.52884555
000040 08 bb 9d 3e fb 03 8a be 7d 9e c9 be ce 10 1d bf
       0.30806756 -0.26956162 -0.3937873 -0.61353767
000050 d2 a3 b2 3e 91 07 c7 3d 16 6f 07 bf 61 b6 0e bf
       0.3489061 0.0971824 -0.5290388 -0.5574704
000060 ad 87 1e 3f ce b2 47 3e 38 4d 0e bf 6e a4 73 3e
       0.61925775 0.19501802 -0.55586576 0.23793194
000070 8f 2f fb 3e b4 f9 9d 3e 74 f8 ee bd f5 94 09 3e
       0.49059722 0.3085457 -0.116684824 0.13435729
000080 1c f1 33 be 73 db 99 3e 2e 78 f9 be c8 9b bf be
       -0.17572445 0.3005024 -0.48724502 -0.3742354
000090 9a ae 99 3e 66 96 0d 3e 19 a7 95 be 93 6f cc 3d
       0.30016023 0.13826904 -0.29229048 0.099822186
0000a0 fa fd ad 3e f1 98 80 3e 67 c7 6c be 85 4d 5a be
       0.3398283 0.25116685 -0.23122941 -0.21318634
0000b0 eb 14 56 3d c5 09 83 3e 75 52 89 3c f3 81 79 3e
       0.052266043 0.2559339 0.016762951 0.24365978
0000c0 e5 4e 10 bd 86 89 8f bd 66 16 ce 3e de 7b a5 bb
       -0.03523149 -0.070086524 0.40251464 -0.0050501665
0000d0 e2 a1 b7 3e 0a d0 3c 3d c6 1f 44 be 23 04 17 3f
       0.35865694 0.04609684 -0.19152746 0.5899069
0000e0 f0 aa 16 3e 96 7d bf bb 7f 7d 00 be 0e bc ad 3e
       0.14713645 -0.0058438284 -0.12547873 0.33932537
0000f0 9c df 17 3f de 3c c8 3d 94 3b 15 bf 1c 47 36 be
       0.59325576 0.097772345 -0.58294034 -0.17800564
000100 1a a3 fb 3e 9a 99 9f 3e 47 37 a5 be c2 d6 6f 3e
       0.49147874 0.31171876 -0.32268736 0.23421767
000110 c8 5a 5d be 82 c7 fc 3e 37 4f f0 3d c1 68 b7 be
       -0.21616662 0.49370962 0.11733859 -0.35822108
000120 7c 05 e1 3e 41 47 a6 3e 1f 80 10 3e 00 51 a7 be
       0.43949497 0.32476237 0.14111374 -0.32678986
000130 15 cd 42 3e a3 b5 1b be 2a 3c 62 be 3e 28 b8 be
       0.19023545 -0.15206008 -0.22093263 -0.35968202
000140 1a 03 30 3d 3f 3f 40 3e 26 3f ce be 74 10 ca 3e
       0.042971708 0.18774126 -0.40282553 0.39465678
000150 b6 06 cc 3e 29 b0 e7 be ac 00 1f be 01 a1 7c 3b
       0.3984887 -0.45251587 -0.155276 0.0038548114
000160 11 8f d9 3e ed d9 68 3e bc d0 ad 3e ee a6 a4 be
       0.42491964 0.22739382 0.33948314 -0.32158607
000170 05 95 a1 3e b0 31 4c bd 50 03 2a bc 7e d6 02 bf
       0.31559005 -0.049852073 -0.010376766 -0.5110854
000180 93 b3 03 3b 7d ef d5 3e bd 22 68 be 00 ba 1b 3e
       0.0020096048 0.41784278 -0.22669502 0.15207672
000190 b3 fc b5 3e a7 66 c4 3e e5 d4 4e 3e 5f 51 91 be
       0.35544357 0.38359568 0.201984 -0.28382394
0001a0 5d 04 42 3c 16 41 8d 3e fb d4 9f 3d b1 56 e0 bd
       0.011841861 0.2758872 0.07804295 -0.10954035
0001b0 93 99 65 3e 28 7d 07 3e 3b 04 dd be 7f de e6 3e
       0.22421865 0.13231337 -0.4316729 0.45091626
0001c0 c5 8b f0 be 52 bf 19 bd ed 7c 37 bb cf ca dc be
       -0.46981636 -0.037535973 -0.0027998046 -0.4312348
0001d0 5a af 59 3e 23 61 28 3e 90 53 bf 3e 10 54 dd bd
       0.21258298 0.16443305 0.3736844 -0.10807049
0001e0 05 46 81 3e bb 88 da 3d 13 19 78 bd 99 29 fb be
       0.25248733 0.106706105 -0.060570788 -0.49055174
0001f0 9e c8 b9 bc f7 66 bc bd 38 85 c9 bd 9e 78 b7 be
       -0.02267867 -0.091993265 -0.098398626 -0.3583421

convs.0.linear_r.W f4 [5, 4, 32]
000000 84 0d be be 63 c5 bb bd c3 05 e1 3e d9 e0 22 be
       -0.37119687 -0.09168508 0.43949708 -0.15906085
000010 0c 94 a7 be 90 2a 36 3e 21 b6 d0 bd b4 c4 36 3e
       -0.32730138 0.17789674 -0.10190988 0.17848474
000020 c7 e1 c8 3e 6c 8e e7 3d ef 24 19 3e 0a d7 be 3e
       0.39234754 0.11306462 0.14955495 0.37273437
000030 2d 85 14 be de e5 9e 3e 2b 42 0e bd c4 e4 b5 3d
       -0.14503928 0.3103475 -0.03473107 0.08881524
000040 29 0e ae 3e fc 3a 29 3d 01 a9 28 bc a7 fa a3 be
       0.33995178 0.041316018 -0.0102942 -0.3202717
000050 28 e0 6a 3e 9a 8d f3 3d 2f 50 15 be 0c 07 8e 3e
       0.22937071 0.11892243 -0.14581369 0.2773975
000060 98 98 bb 3e 17 8c be 3e 74 bb ef 3d ee 0c cd 3d
       0.36639857 0.37216255 0.11705676 0.10012232
000070 bc 9a d4 3d 2e 42 7e be 88 70 49 be c0 4f d3 3e
       0.10381076 -0.24829933 -0.19671834 0.41271782
000080 fe 29 a3 3e a7 8f ee be 64 bd 89 be 54 1d 6d 3e
       0.31867975 -0.46593973 -0.26902306 0.23155719
000090 d2 71 7a 3d 8c 76 43 be c1 7b c0 bd 99 93 a9 be
       0.061143704 -0.19088191 -0.09398604 -0.3312042
0000a0 07 c6 86 be f3 28 69 be 2d d5 ea be b0 d7 22 3d
       -0.26322958 -0.22769527 -0.45865765 0.039756477
0000b0 96 1c e3 be 00 62 bf 3d 91 fc ad 3c 7a 70 21 3e
       -0.44357747 0.09344864 0.021238597 0.15765563
0000c0 08 4c c0 3e fa f6 be ba d9 19 3e bd 6e f0 30 3e
       0.37558007 -0.0014569454 -0.04641137 0.17279217
0000d0 0f d9 c5 3e eb 70 ae bd 80 53 b7 be 9f d6 6f 3d
       0.38642165 -0.08517631 -0.35805893 0.058554288
0000e0 9f 9f 64 be 48 69 34 bd 1c 34 a6 3d df 2c 00 bf
       -0.22326516 -0.044045717 0.08115408 -0.5006847
0000f0 e2 ea b6 3e a5 97 ae be 57 4e 8c 3e 20 86 88 be
       0.35726076 -0.3410007 0.2740352 -0.2666483
000100 96 e8 be 3d 64 0e e0 39 bc 23 f5 3e f7 02 f2 be
       0.09321706 0.0004273533 0.47878826 -0.47267887
000110 f4 4d 1b 3e 54 0b b3 be 74 6a 93 3b 8b d7 af 3d
       0.15166456 -0.3496958 0.004498774 0.085860334
000120 81 d9 4e bd 07 42 e8 3d fa be 07 be 2a 38 03 3d
       -0.050500397 0.11340719 -0.13256446 0.032035984
000130 cd 31 33 3e 1e d2 cf be c9 aa 75 be 70 4b ff 3e
       0.17499466 -0.40589994 -0.2399093 0.49862242
000140 7f b5 bb 3d ea 6f 2c 3d 27 ae c2 3d 2f e0 03 be
       0.09165477 0.042098917 0.09505873 -0.12878488
000150 8d cc b9 3e 4a 6f 49 bc a8 c4 77 3e 27 d8 2a bd
       0.36288872 -0.0122946 0.24196112 -0.041710045
000160 76 23 94 3e f7 43 ad 3e f3 31 dd bd ff fe 39 3e
       0.28933305 0.33840916 -0.10800543 0.1816368
000170 58 85 69 3d 51 b8 a2 3e aa 33 24 bd 2a 7b 3a 3e
       0.057011932 0.31781247 -0.040088333 0.18211046
000180 fd 45 8a 3e 73 eb a3 be 09 bc dc 3e 4f 0e 50 be
       0.27006522 -0.3201557 0.4311221 -0.20317958
000190 d6 9e 84 3e 21 75 b2 be c8 68 87 be 9d 9c 9b 3d
       0.25902432 -0.34854987 -0.2644713 0.07598231
0001a0 16 32 72 3e 60 66 ad 3c 75 2f 66 3e 5a c9 dc 3e
       0.23651919 0.02116698 0.22479041 0.4312237
0001b0 91 f0 8e 3e a5 87 81 3e b0 98 02 be 47 04 58 be
       0.27917913 0.252988 -0.12753558 -0.21095382
0001c0 96 ce 8a 3d e3 5a 26 be b6 1c 9a 3e 93 ce c2 3d
       0.067776844 -0.16245608 0.3010003 0.09512057
0001d0 58 ac 48 bd fd 2b 8a bd 3d 27 4a 3e 88 55 e7 be
       -0.048992485 -0.06746671 0.1974153 -0.45182443
0001e0 5f 80 0a be 44 0a 8d be c2 6d b0 be 49 f2 cf be
       -0.13525532 -0.27546895 -0.3445874 -0.40614536
0001f0 d6 13 1d 3e cc 6f 75 3e a2 93 63 3e 8a 67 5c 3e
       0.15339598 0.23968428 0.22224286 0.21523872
000200 35 b3 07 3f 98 87 ee be d8 bd c7 3e df 05 c0 3e
       0.53007823 -0.46587825 0.39012027 0.3750448
000210 68 69 73 3e a0 44 7d 3e 45 03 01 3e 47 7f 35 3e
       0.23770678 0.2473321 0.12598903 0.17724334
000220 fd 00 d3 be 67 27 0d bf ea e0 06 bf 0f e3 18 bf
       -0.41211691 -0.5513825 -0.5268694 -0.59721464
000230 22 d6 f2 be 95 28 0d be 17 df ee 3e 65 f3 f3 be
       -0.47428995 -0.13785012 0.4665458 -0.47646633
000240 5b b0 04 bf 07 d3 2d bf 1b 6a 2c be 3a 1a 33 be
       -0.518316 -0.6790013 -0.16837351 -0.17490473
000250 e5 61 55 3e a0 a9 04 3f ea 02 59 3e 4b 4c 26 3e
       0.20838125 0.5182133 0.21192518 0.16240041
000260 68 da 62 3e 83 46 fb be 33 02 7a be e9 90 ae 3e
       0.22153628 -0.49077234 -0.24414901 0.34094933
000270 d7 4d 63 3e 8b 94 99 be 8b 81 c8 bd 54 73 86 3d
       0.22197662 -0.29996142 -0.09790333 0.06564966
000280 b5 80 69 3e c8 d0 1f bf fc 84 a7 3e 8f 78 09 3e
       0.22803004 -0.6242795 0.32718647 0.13424896
000290 a8 2e 0e be 1a bc 8f 3e 27 5b 5a 3e 04 5c 18 3f
       -0.13884985 0.28073198 0.21323834 0.59515405
0002a0 2e fe 40 be e3 40 80 3e 78 7c c2 bd 55 df 60 bc
       -0.18846962 0.25049505 -0.09496397 -0.0137251215
0002b0 cc 16 96 be 0c 95 b5 3e 9c ad 2f bd c3 57 c1 3e
       -0.29314268 0.35465276 -0.042890176 0.3776227
0002c0 34 c1 97 3e 16 82 43 3f b2 1b 94 be 17 db 5d be
       0.2963959 0.7637037 -0.2892738 -0.21665607
0002d0 37 ee 3c be 33 37 06 bf 75 7c 58 3e 34 9d 0c 3d
       -0.18450247 -0.5242798 0.21141227 0.034329608
0002e0 55 99 ac be 5b ce 6e 3c 1d ed 40 be 83 e7 ae be
       -0.33710733 0.014575566 -0.18840452 -0.34161004
0002f0 e6 37 91 3d 96 c0 0c bf b3 0c 42 bf 81 50 83 bd
       0.0709074 -0.5498136 -0.7580063 -0.06411839
000300 12 ae 8e bd 01 66 9d bd 0f 84 f3 3e 41 d6 9c 3d
       -0.06966795 -0.07685471 0.4756169 0.07658053
000310 6d 9f 84 be 8f 70 6f 3c d1 37 10 3e cd 5d 5e be
       -0.25902882 0.014614238 0.14083792 -0.2171547
000320 e7 83 c6 be 4e ef b3 3e e4 11 fb 3d 3c d2 87 be
       -0.38772509 0.35143512 0.12259272 -0.26527584
000330 5b 9b 64 be 01 1e fc be 75 ec eb be 23 46 17 bf
       -0.22324888 -0.4924164 -0.4607884 -0.59091395
000340 ab aa c4 be eb dd 4f be 52 14 a1 3e 42 1e a8 3e
       -0.3841146 -0.20299499 0.31460816 0.32835585
000350 94 5c 0c bf c3 93 ac 3e 79 81 1d be 57 76 93 3e
       -0.54828763 0.33706483 -0.15381421 0.28801224
000360 1c a1 96 3d 3b 11 55 be 2e 5d 7d be 1e c4 aa 3e
       0.07354948 -0.20807354 -0.24742576 0.3335275
000370 3f c3 74 3e 86 39 0a 3e f0 b2 db bd f8 a5 da 3c
       0.23902605 0.13498506 -0.10727489 0.026690468
000380 9b 6f a0 bd b7 2c 00 bf 5b 7f 0b bf 61 8a 24 3e
       -0.07833787 -0.5006823 -0.54491204 0.16068412
000390 cd ba 97 3e da b9 62 3d fd be 96 bd 0e f7 7b be
       0.29634705 0.055353023 -0.07360647 -0.24605963
0003a0 0c 85 41 3d 74 56 35 3e 52 6c 58 be 69 29 ce 3c
       0.047246024 0.1770876 -0.21135071 0.02516623
0003b0 de 67 76 3d 4f e7 60 be ba 1a 9b be 86 5d 05 bf
       0.06015765 -0.21963237 -0.30293828 -0.5209583
0003c0 14 1c 42 be 79 ba 42 be c9 72 b9 bd 0a e2 02 bf
       -0.18956023 -0.19016446 -0.09055097 -0.5112616
0003d0 36 62 c6 3e a5 6e 7c be 01 a3 c7 be ea 90 0c 3f
       0.38746804 -0.24651583 -0.3899155 0.5490862
0003e0 8f 6c e5 bd 7e ce 1d be 43 bc 46 be 4a ec fa 3d
       -0.112023465 -0.15410802 -0.19407754 0.122521
0003f0 1d 7d 1b 3f fd 3f a5 3e e2 a6 85 3e 32 81 ae 3d
       0.6073778 0.32275382 0.26103884 0.08520736

convs.1.h_bias f4 [32]
000000 6e 60 b4 bc 82 dc 0e 3d 93 ed a3 3c 60 ac 90 3d
       -0.022018638 0.03487826 0.020010745 0.07064128
000010 6c 82 a8 bb c1 eb 4e bc 0e dd 3e bc b7 c5 36 3c
       -0.0051425006 -0.01262945 -0.011649383 0.011155537
000020 a2 3f 4d 3d 81 02 a5 3d c0 31 b9 3c c0 55 40 3d
       0.050109513 0.08057118 0.02260673 0.046956778
000030 78 68 1d bd ea 59 9a bc f8 aa 1e 3c 43 a3 24 3b
       -0.038429707 -0.018841702 0.009684317 0.0025121726
000040 b3 5b 33 3b 54 f9 84 bc 33 08 8d 3a e7 a4 a3 3c
       0.002736789 -0.01623217 0.001075989 0.019976093
000050 31 f8 1a 3d 8c f2 04 bc 50 4d 46 3d 57 37 c8 3b
       0.03783435 -0.008114468 0.048413575 0.0061101126
000060 6d 22 b7 3b 02 7b c0 3c eb 45 de 3b f8 70 73 3c
       0.0055888207 0.023496155 0.006783237 0.014858477
000070 be a7 b2 3c a6 82 f2 bb 69 54 5a bd 2a 6c d9 ba
       0.021808501 -0.0074008284 -0.053303156 -0.0016588022

convs.1.loop_weight f4 [32, 32]
000000 f8 2b 91 3b e1 7e 35 3e 9a c9 71 bd e4 0c d5 3e
       0.0044302903 0.17724182 -0.059030153 0.41611397
000010 5d 49 ac be e0 b3 b6 3e 24 00 4d be 9a 6f 4b be
       -0.33649722 0.3568411 -0.20019585 -0.19866791
000020 99 86 3e bd cf d0 18 be 06 ca ab 3e 77 e0 2a be
       -0.04651508 -0.14923404 0.3355257 -0.16687189
000030 9d d3 99 be 88 77 51 3d 26 af ba 3e e4 35 80 be
       -0.3004426 0.051139385 0.36461753 -0.25041115
000040 58 51 7e 3a 0b 45 73 be 9c 09 5a 3c 25 33 ae 3d
       0.0009701452 -0.23756807 0.013307955 0.08505849
000050 de 93 83 bd 9d 8f a7 be 51 29 64 be 08 5e 9f be
       -0.06424688 -0.32726756 -0.22281386 -0.31126428
000060 60 46 41 be 63 0f 1e be 81 66 aa 3d eb 29 84 3a
       -0.18874502 -0.15435557 0.08320332 0.0010083293
000070 d4 0a 28 3d a7 fd 76 3e c0 9b a2 be 26 28 d1 3e
       0.04102595 0.24120198 -0.31759453 0.40850943
000080 32 32 1a 3d a1 94 8c 3e 83 09 63 3d 49 5e 45 be
       0.037645526 0.27457145 0.055428993 -0.19274248
000090 dd f1 58 3e e2 32 99 be c1 46 3f be 0e 7d 2b 3e
       0.21186014 -0.29921633 -0.18679334 0.16746923
0000a0 ce 44 96 be e2 ce e2 be f0 f5 d1 be e0 da 62 be
       -0.2934937 -0.44298464 -0.41007948 -0.22153807
0000b0 ca 8d 8e be 44 0b 8c be b1 6f ac 3e e2 6e 02 3e
       -0.2784255 -0.27352345 0.33678964 0.12737611
0000c0 8d c0 17 bc c9 9b 5f 3e 9b d2 b0 be 6f 68 98 3e
       -0.009262216 0.21836771 -0.3453568 0.29767177
0000d0 65 28 1c bd 43 80 67 3e da 0b 3e 3d ec 73 33 bd
       -0.03812446 0.22607522 0.04639802 -0.043811724
0000e0 4c 3e 7b be 37 df 1a be 0f 15 e4 bd 90 7b 97 bd
       -0.24535483 -0.15124212 -0.11136829 -0.073966146
0000f0 11 20 9d be 0f c9 43 3e 72 7e 84 3e 2e 21 b3 bd
       -0.30688527 0.19119667 0.2587772 -0.08746563
000100 20 8d 4b 3e 78 d8 ee bd 4b 49 8b 3e e3 ee 18 be
       0.19878054 -0.11662382 0.27204356 -0.14934878
000110 a4 70 3c 3e a2 00 6c 3c 30 56 01 bc d8 2c 39 3e
       0.18402344 0.014404448 -0.007894084 0.18083513
000120 11 17 91 bc d8 41 55 3e 0b 6f b7 be 24 a6 a4 3e
       -0.017711194 0.20825899 -0.35826907 0.32158005
000130 7c 4d 8a 3d 4f d3 e2 3e 35 6b bf bd 99 9a 32 3e
       0.0675306 0.4430184 -0.0934662 0.17441787
000140 6a d9 0a 3e bf 3b 9a 3e ac 13 d1 bd 02 2d 7c be
       0.135595 0.30123708 -0.1020883 -0.24626544
000150 cc 42 9b be 0e 69 66 3e de 63 70 39 9a f1 bd be
       -0.303244 0.22501013 0.00022925387 -0.3709839
000160 1d 3e 98 bd 5f 61 3d bd eb 7b bb bd 32 16 a6 be
       -0.07433722 -0.04623544 -0.09154495 -0.3243881
000170 56 98 db be 06 db de 3d 07 b5 db be 3f 03 8b be
       -0.4288966 0.10881619 -0.4291155 -0.27150914
000180 81 7e bb be 26 4f 0d be ce 75 b7 3e 41 ef 39 be
       -0.36619952 -0.13799724 0.35832065 -0.18157674
000190 4f e9 b6 3e 30 6e 75 be af c0 04 be b2 c7 ff bd
       0.35724875 -0.23967814 -0.12964128 -0.12489261
0001a0 30 e9 68 3e fd 37 2f 3e 16 dd 1c 3d 14 16 84 be
       0.22745204 0.17111202 0.03829678 -0.25798094
0001b0 4d a3 b9 3d 35 26 d4 3e a0 86 0b 3e bf 31 bd be
       0.0906435 0.414354 0.13625574 -0.36952016
0001c0 fa c8 79 bc 77 68 75 be d1 f0 fe 3d 0c e4 b7 bc
       -0.01524567 -0.23965631 0.12448276 -0.022447608
0001d0 06 05 7a be 0f 68 ac be 0f a5 ca bd 06 a4 cd bd
       -0.24415979 -0.3367314 -0.09894764 -0.100410506
0001e0 43 28 e4 bd a3 0d 49 bd 4d 4b 88 3e 58 72 9f 3e
       -0.11140492 -0.04908527 0.2661995 0.31141925
0001f0 e3 41 89 be 34 7a 40 be cb c9 6f be 6b f9 84 3e
       -0.2680808 -0.18796617 -0.23416822 0.2597154
000200 e5 cc 94 3e 9f 1d 15 3d 83 9d 8d 3e 01 71 c3 3e
       0.29062572 0.036405202 0.27659234 0.38172153
000210 13 84 0d be 0d ca a3 3e 3b 67 ae 3e 9d 84 a3 3e
       -0.13819914 0.3199009 0.34063134 0.31937113
000220 ad 8e c6 b9 20 77 86 3e 89 66 5b be 14 7c 10 be
       -0.00037871805 0.2626276 -0.21425833 -0.14109832
000230 46 f7 28 be d6 04 13 be ef 83 bd 3e 94 88 33 be
       -0.16500577 -0.14357314 0.3701472 -0.17532569
000240 85 ff 57 be 4e ce ad be 85 fd cf be 56 8d 8e 3e
       -0.21093567 -0.3394646 -0.40623108 0.27842206
000250 87 da 92 be 65 ca 7f 3e 9f 55 aa bd 2a 91 50 be
       -0.28682348 0.24979551 -0.08317112 -0.20367876
000260 13 78 aa 3e 70 42 3e be ae 49 ad be 9f 48 b9 be
       0.33294734 -0.18580031 -0.33845276 -0.36188218
000270 ee 0f 37 3e df df 27 3e d3 59 eb 3c 15 4a cf be
       0.1787717 0.16393994 0.028729355 -0.40486208
000280 fc ac 2b 3e ba 5e a9 3d 44 36 5f be 75 66 26 3d
       0.16765207 0.08270021 -0.21798044 0.040625054
000290 17 08 3e be ab ea 6b 3e 64 04 ca be 03 65 10 3d
       -0.18557774 0.23038737 -0.39456475 0.035252582
0002a0 80 39 e7 3d 1d d6 86 3e ff 54 38 bd 21 22 2b 3e
       0.11290264 0.2633523 -0.045002934 0.16712238
0002b0 49 f1 d4 bd e9 8f 83 3e 92 6e c3 3e 81 9a 94 3e
       -0.10397584 0.25695732 0.38170296 0.29024127
0002c0 3b dd 9b be 92 8e 8d 3e 63 5d 8f be 05 ca aa bd
       -0.30442223 0.27647835 -0.28000936 -0.083393134
0002d0 aa 01 b9 3e 97 e3 c5 3e 61 64 ac be cb 7e d9 3e
       0.36134082 0.386502 -0.33670333 0.42479548
0002e0 00 c4 4c 3e 2e c4 b3 3d c9 0b cd 3d 63 a4 d0 be
       0.19996643 0.08777653 0.100120135 -0.40750417
0002f0 d0 7e f9 3d a4 67 65 3d 30 7a cf 3e 23 25 a5 3e
       0.12182391 0.056007043 0.4052291 0.32254896
000300 a1 5a 51 bc 4c ca d3 3e 1e 77 d6 3e 0a 98 1d bd
       -0.012777955 0.41365278 0.41887754 -0.038475074
000310 cf 13 4e bd 96 34 ca be d3 c5 ba 3e 20 8a c1 be
       -0.05031186 -0.39493245 0.36479053 -0.37800694
000320 fd 7c 84 be d6 d6 9e 3d 4a 1c 13 3e b9 7f ab ba
       -0.25876608 0.077558205 0.1436626 -0.0013084329
000330 96 82 03 be 1b 19 d8 bd 3f 08 a8 3e f9 10 ae 3e
       -0.12842783 -0.105516635 0.3281879 0.33997324
000340 4c 03 9d 3e de 88 a7 be 3e a4 b8 be 23 53 a4 bd
       0.30666578 -0.3272161 -0.36062807 -0.080236696
000350 3c 4b 35 be f0 bf d4 bd 56 35 c1 3d 22 14 07 3d
       -0.17704481 -0.10388172 0.09434001 0.032978185
000360 56 b2 81 bd 18 2b 4b 3e 99 e2 24 3c 30 a1 dc be
       -0.06332843 0.19840658 0.010063791 -0.43091726
000370 02 52 9b 3e b8 28 d5 be c8 8b 30 be c5 3c b8 3e
       0.30336004 -0.41632628 -0.17240822 0.35983863
000380 ef 92 0f be 40 6b 09 be a7 e3 c7 3e 82 39 c3 3d
       -0.14020894 -0.13419819 0.39040872 0.09532453
000390 c4 a4 c6 be 82 17 1c 3d 9d c7 8d bd e1 ac a6 3e
       -0.3879758 0.038108356 -0.06922839 0.3255377
0003a0 8a 6d 60 3e b3 6e 2d bd 04 2e aa 3e f7 aa e2 be
       0.21916786 -0.0423419 0.33238232 -0.4427106
0003b0 82 1b 86 bb 9b 59 cb be 71 21 c2 bd 33 bc f9 bd
       -0.0040926347 -0.397168 -0.09479035 -0.12194099
0003c0 91 83 64 3d d0 90 2f 3e e3 e4 c5 bd ab 45 c8 3e
       0.055789534 0.17145085 -0.09662797 0.39115652
0003d0 2b 39 4f 3e 73 ba 11 3d 19 a4 0f 3e 39 33 bd be
       0.20236652 0.035578202 0.14027442 -0.36953142
0003e0 6b b8 31 3e 41 58 5c 3e 39 98 e5 3e 87 00 d3 be
       0.17355506 0.21518041 0.448427 -0.4121134
0003f0 97 04 83 3e a5 f9 e0 3e ce 94 b9 bd f4 c0 82 be
       0.2558944 0.43940464 -0.09061585 -0.25537837

convs.1.linear_r.W f4 [5, 32, 32]
000000 22 f8 1a 3e 49 7d 17 3d eb 7a 93 bc 43 d6 87 bc
       0.15133718 0.036984716 -0.018002948 -0.01658166
000010 06 75 34 3e e6 e2 d3 3d 4e 62 60 3e f4 f5 05 3e
       0.17622766 0.10346012 0.219125 0.13082105
000020 4b 3f bf 3d d5 7e 51 3d e3 0a 3d be f8 78 31 3e
       0.09338244 0.051146347 -0.18461184 0.17331302
000030 d4 6e 23 bd 14 36 f7 bd ad 59 bc bd ce a1 18 be
       -0.039900616 -0.120708615 -0.09196792 -0.14905474
000040 bd e4 a8 3d 66 d9 6b 3d da 8c a3 3d 77 04 f8 3c
       0.08246753 0.057580374 0.0798585 0.030275567
000050 6a 04 ee 3c 9b 08 0c be b8 74 57 3b 54 2f b3 bc
       0.02905484 -0.13675158 0.0032875966 -0.021873154
000060 c0 f3 14 3c 2e 22 17 3e 05 a4 ad 3b df dd 1a 3c
       0.009091318 0.14759132 0.0052990937 0.009452312
000070 11 4d f5 bd 34 81 22 be 63 e3 a6 3d 7e 91 0b be
       -0.1197759 -0.158696 0.08148839 -0.1362972
000080 13 4a 30 3e 10 79 2f be e3 7a d2 3d b2 bd 46 bd
       0.17215757 -0.17136025 0.10277345 -0.04852075
000090 5f 84 67 bd 17 76 43 3d db 60 ca bd 74 f3 61 3d
       -0.056522723 0.04772004 -0.09881755 0.055163816
0000a0 e0 a6 ce bc 6a c2 cc bd 88 34 1f be 0b 65 23 be
       -0.025226057 -0.09998019 -0.15547383 -0.15956514
0000b0 50 4f 12 be 03 18 69 bc 0e 53 95 3d 3e f7 36 3e
       -0.14288068 -0.014226916 0.07291232 0.17867753
0000c0 a5 2c a5 3d 72 ed 96 3d 24 70 af 3d 5d a5 48 be
       0.08065156 0.07369508 0.08566311 -0.19594331
0000d0 e4 2f 5d 3d 2e 45 6b bd ed 66 9f bc 7c 1c 29 be
       0.05400075 -0.05743902 -0.019458259 -0.16514772
0000e0 f9 25 96 bd ec e7 4b 3d dd a5 50 be 86 c3 fc 3c
       -0.073314615 0.049781725 -0.20375772 0.030854952
0000f0 94 80 aa 3d 84 c9 df 3d 5a 02 09 3e fc 69 f8 3d
       0.083253056 0.10927108 0.13379803 0.1212959
000100 8e 6d 05 be 1d aa 2d 3e 96 2b c0 bd 08 b9 35 3e
       -0.13030073 0.16959424 -0.09383313 0.17746365
000110 37 57 5b 3e 3c 33 cd 3d b6 91 99 bd a4 4a 40 3e
       0.21419989 0.10019538 -0.07498495 0.18778473
000120 db 79 31 bd 3a fa d6 bd 5d 01 1d 3e 08 a5 84 3d
       -0.0433291 -0.10496946 0.15332551 0.0647679
000130 fd ee 1b 3e e9 ad 12 be 67 03 8f 3d 53 5a c2 3d
       0.15227886 -0.14324154 0.06983071 0.09489884
000140 49 b2 95 3d 09 3b 11 bd 64 4d ac bd e5 3e a4 bd
       0.07309396 -0.03545669 -0.084131986 -0.08019809
000150 0a 1e 03 3e 42 c5 d7 bd a8 15 51 bd 73 5b 3d bd
       0.12804428 -0.10535671 -0.051046044 -0.04622979
000160 44 55 5f 3d 17 c4 bb 3d 0d f0 a6 3d e8 1f 3c be
       0.054524675 0.091682605 0.08151255 -0.18371546
000170 8c 04 8b bb 48 6c 33 3a 95 99 55 3d 37 f5 d8 bb
       -0.0042424854 0.0006844443 0.05214842 -0.0066210288
000180 20 16 e1 bd 3c c3 cc bd 3c e3 d7 bd 29 e1 17 be
       -0.10990548 -0.099981755 -0.105413884 -0.14831986
000190 b0 fc 3c 3e 50 8b b4 bd da da 00 be a7 cf 10 3d
       0.18455768 -0.08815634 -0.12583485 0.035354283
0001a0 34 d2 86 bd 12 40 d7 bc d3 f4 3e be 00 0b 8c 3c
       -0.06583062 -0.026275668 -0.1864808 0.017095089
0001b0 b5 93 da 3b 55 32 80 3d 9d 85 9d bd 31 fe 51 3d
       0.00667044 0.062596 -0.076915 0.051267806
0001c0 23 91 22 3e 1f 69 eb bd c2 69 04 be b2 0e 1d be
       0.15875678 -0.1149466 -0.12930968 -0.15337637
0001d0 ae 9e 77 bd 4c 27 1b 3e fd 0f e2 bd 42 05 3a be
       -0.060454063 0.1515171 -0.11038206 -0.18166068
0001e0 12 b0 98 3c 39 e5 1c 3e df 38 eb 3c d6 b5 d6 bc
       0.018638644 0.15321817 0.028713642 -0.026209753
0001f0 25 36 f3 3d 07 a5 14 3e 7a 1b ad 3d a3 07 c1 3d
       0.118755616 0.14516078 0.08452506 0.09425285
000200 98 01 73 3a f7 ed 05 3e d9 5d bc 3d e5 d6 05 3e
       0.0009269952 0.13079058 0.091975875 0.13070257
000210 e8 1a eb bd 7e 41 d3 3d d0 8d a7 bc f7 f4 3e bd
       -0.11479741 0.10315226 -0.020453364 -0.046620335
000220 87 ff 61 3d b4 9a 4a 3d 15 10 17 bc 8b 30 9d 38
       0.05517533 0.049463943 -0.009220143 7.495385e-05
000230 81 2a 0e 3e 8c fc a6 bb b1 27 4c bd d6 6e 0d 3e
       0.13883401 -0.005096024 -0.04984254 0.13811812
000240 89 25 c1 3c 43 eb 6a 3d c2 65 06 3d 87 a2 cb 3d
       0.023577468 0.05735327 0.032811888 0.09943109
000250 72 8e d7 3c 2c 10 f2 3d 57 92 ef 3d 20 9f 0b be
       0.02631304 0.11819491 0.11697834 -0.1363492
000260 82 eb 8e 3b a0 ab 11 be 1f c2 86 bd 39 7d 7d 3d
       0.004361571 -0.14225626 -0.065799944 0.061887
000270 37 81 2b 3d e9 e0 ac bd 00 d9 09 3b 60 be a9 3c
       0.041871276 -0.08441336 0.0021033883 0.02072066
000280 33 27 14 3e a7 98 01 be 42 32 da bd ac e3 f8 bd
       0.14468078 -0.12655888 -0.10654117 -0.121528
000290 2f 93 04 be 35 dc d9 3d 37 26 cf 3c 40 21 82 3c
       -0.12946771 0.10637704 0.025286777 0.015884995
0002a0 0e bc c8 3d e7 16 2e 3d 9f 68 df 3d 0f 16 d8 3d
       0.098014936 0.04250231 0.10908627 0.10551082
0002b0 1a 91 2e 3d a4 8f 2c be 46 52 fb 3d 77 98 5a 3d
       0.04261885 -0.1685167 0.12271552 0.053368058
0002c0 75 0a 40 3a 15 cc c0 3c d6 73 34 3e 85 25 dc bd
       0.0007325777 0.023534814 0.17622313 -0.10749344
0002d0 e4 25 ea bd 82 95 39 3d 88 2f b2 bd 4a ef 28 3e
       -0.11433008 0.045308597 -0.08700472 0.16497532
0002e0 06 f0 11 3e 46 5d 17 3e 55 0a 9d bd d4 a9 63 bd
       0.14251718 0.14781675 -0.07667986 -0.055581883
0002f0 db e0 09 3e 65 1a 42 be d2 22 b9 3d 15 d2 d9 3b
       0.13464682 -0.18955381 0.090398446 0.006647358
000300 f6 65 30 3c d2 90 cf 3d dd cc b1 3d 4a 1a 34 bc
       0.010766497 0.10135044 0.08681653 -0.010992596
000310 07 b2 a1 3b 94 1f 72 3d 65 cb 57 bd bd 58 8f 3d
       0.0049345526 0.059112146 -0.052684207 0.06999347
000320 5c 61 80 3d ca 8f b1 3d 13 c7 a7 bd 8f ed d6 bc
       0.0626857 0.08670004 -0.08192267 -0.026236324
000330 9f e1 23 be 9c 2c c7 3c 19 3e 09 be 15 8f 76 3d
       -0.16004036 0.024313264 -0.13402595 0.060195047
000340 85 ed 13 3e 41 8b a6 ba 5d ad a6 bb 50 8c 0a 3d
       0.14446075 -0.0012706296 -0.0050865845 0.03382522
000350 c5 a0 6b 3b 9a d1 05 bd f4 eb 06 3e 17 2e 1b be
       0.003595398 -0.032670595 0.13175946 -0.151543
000360 bf f8 ae bd b9 57 1b be 5c 2a fd 3d 6c 9e 14 bb
       -0.08543538 -0.15170182 0.12361595 -0.0022677435
000370 12 f4 d2 3d da 7d 34 be 87 b0 df bd 2d 48 56 be
       0.10300459 -0.17626134 -0.10922342 -0.2092597
000380 3b 4a 05 be 59 e6 eb bd 27 7c cc 3d f4 38 11 be
       -0.13016598 -0.11518545 0.09984618 -0.14181882
000390 80 ab b3 3d 66 44 9d 3c 48 fb 4e bd d3 6b f1 3d
       0.087729454 0.019197654 -0.05053261 0.11788144
0003a0 e3 65 d1 3d aa f1 2f be 66 ee d7 3d 1d c1 0f bc
       0.102245115 -0.17182031 0.10543518 -0.008774069
0003b0 59 02 f7 bd 66 f1 62 bd fe d0 49 3e b6 7a 6b 3d
       -0.12060995 -0.055405997 0.1970863 0.057490073
0003c0 8b 1b 9d bd cc 80 81 bd 59 f5 ba bc 1c 6a 07 3e
       -0.07671269 -0.06323394 -0.022822069 0.13224071
0003d0 7c 20 4a bc 8e dd 9c bc 58 06 52 bd 4c e4 c6 3d
       -0.012336846 -0.019148614 -0.05127558 0.09711513
0003e0 c7 71 ae 3a fc 4f 21 be 1a 7d 13 be d6 d3 c4 bc
       0.0013309055 -0.15753168 -0.14403191 -0.024026792
0003f0 92 b7 cd bd 12 e0 b7 3c cd 4d 57 bd 24 56 67 3d
       -0.10044779 0.022445712 -0.05256443 0.056478634

convs.2.h_bias f4 [32]
000000 f8 5a 58 bd 02 5a 07 3c ae 7b 98 bc 67 78 13 3c
       -0.05282113 0.008261206 -0.018613663 0.009000874
000010 de 6b 1b 3c b1 24 0e 3d d1 ef c0 3c 16 3d a2 3a
       0.009486167 0.03470296 0.023551853 0.0012377824
000020 c0 d0 37 3b 00 a8 45 3d f7 c2 9f bb 27 03 96 3c
       0.0028048009 0.04825592 -0.0048755365 0.01831205
000030 21 9e f0 bc ab c0 22 bc b4 8f ad 3a fe ab 16 3c
       -0.029372277 -0.009933631 0.0013241679 0.00919628
000040 19 5a 2f bd 4f 5f 01 bd ec 4c 03 3d f2 aa a9 bc
       -0.042810533 -0.031585034 0.03205578 -0.020711396
000050 26 0a 6e bb 28 62 c5 ba f6 0b e3 3c 06 1b ac bc
       -0.0036321967 -0.001505916 0.027715664 -0.02100898
000060 70 99 34 bd 93 91 7a 3b 23 6a b6 bc 31 bd a6 3c
       -0.044091642 0.0038233742 -0.022267407 0.020353885
000070 90 b2 d5 3c 01 ec 95 bc c3 4b 80 bc 80 9a dc 3b
       0.026086122 -0.018301012 -0.015661126 0.006732285

convs.2.loop_weight f4 [32, 32]
000000 bd 69 66 bd 9e 11 d7 be 41 46 a7 be 21 d7 16 be
       -0.056253184 -0.42005628 -0.32670787 -0.14730503
000010 d7 ce 21 3e 44 0b 97 3e ce bd f9 bd 40 aa 4b 3e
       0.1580156 0.29500782 -0.121944055 0.19889164
000020 77 6a 81 3e 34 4f a5 bd 19 ec 0e bd 21 d1 9f 3d
       0.2527654 -0.080717474 -0.03489313 0.0780356
000030 2c 22 bd be a3 d3 e5 be a3 f3 4b bc 0e 68 88 3d
       -0.36940134 -0.44888029 -0.012448224 0.06660472
000040 8e 9c 82 3d 6f ef 5d be 78 3e 8b be 51 9e bb 3e
       0.06377517 -0.21673368 -0.27196097 0.36644223
000050 b1 cd 82 3d 2d 34 23 3d f8 07 10 3e ea 1c ad be
       0.06386889 0.03984468 0.1406554 -0.33811122
000060 7a 8a ec 3e ff 2c 95 be 14 b7 44 3e c9 47 09 3e
       0.461994 -0.29135892 0.19210464 0.1340629
000070 33 c4 43 3d d3 f9 3f be 39 3a 2a 3e ff 6b c9 3e
       0.047794532 -0.18747644 0.16623773 0.39340207
000080 cb 7a 36 3e 47 48 9d 3c 4a 49 9a 3e 1d f6 83 3c
       0.1782028 0.019199504 0.3013404 0.016108567
000090 4b 4a 4d bd 26 5f c2 be 2e ac 4d 3e 4f 32 46 bd
       -0.05011968 -0.37963217 0.20085213 -0.04838782
0000a0 9b 98 36 be 6c 17 c2 3e ba 05 c4 3e 5b ca a4 3b
       -0.17831652 0.37908494 0.3828562 0.0050290055
0000b0 de f0 9f be 9a 03 0b bd 07 f1 30 be 32 7d 53 be
       -0.31238455 -0.03393898 -0.17279445 -0.20653227
0000c0 04 32 e4 3d 04 ba 89 be d5 51 4c be a1 2e e0 bc
       0.11142352 -0.2689973 -0.19953091 -0.027365984
0000d0 56 71 94 3e 2f 97 02 be 5a 47 3f be 51 f8 9d be
       0.28992718 -0.12752984 -0.18679562 -0.30853513
0000e0 1b 05 ae bd da 3a 78 3e 32 71 41 3d 77 b7 e7 bd
       -0.084970675 0.242412 0.047227092 -0.1131429
0000f0 59 7a d6 bd 82 f0 23 3d a8 c6 98 3e f5 10 7f bc
       -0.10472555 0.040024288 0.29839063 -0.015568008
000100 d1 ae cd bd 7a cb 82 be 1f 14 17 3e 86 35 99 3e
       -0.10043109 -0.25545865 0.1475377 0.29923648
000110 65 f1 89 be b9 19 c9 3d 77 03 7e 3e e9 ba b4 3d
       -0.26941982 0.09819359 0.24806009 0.08824713
000120 f0 d3 cf bd ef 4c 81 be a2 f3 f6 3d af 21 1c be
       -0.10147846 -0.25254008 0.12058188 -0.15247224
000130 3b aa 6b 3d bd 70 39 3e f7 2f ab be 65 28 ba be
       0.05753539 0.18109412 -0.33435032 -0.36358944
000140 f2 f7 f0 3d 1d 41 84 3e ff 06 8f be 18 b3 e2 3b
       0.11766042 0.25830927 -0.27935025 0.0069183223
000150 62 dd 91 be 8c 1f 96 3e be 73 d7 3e 4b 2f ce be
       -0.28489214 0.29320943 0.42080492 -0.40270457
000160 89 4d b3 3e 4d ff 0e 3e 3e bf c1 be aa ad 15 be
       0.35020092 0.13964577 -0.3784122 -0.14617029
000170 68 5f ab 3e 32 eb a0 bd 10 74 d0 3c 80 da 3a 3e
       0.33471227 -0.0785736 0.025445968 0.18247414
000180 c1 05 06 bd 9d 8e e0 3e 94 be ad 3e 34 76 ab 3e
       -0.03272033 0.43858805 0.33934462 0.3348862
000190 3a 98 63 3e e4 f8 86 3e e2 93 ad be 50 3f a4 3e
       0.22226039 0.26361763 -0.33901888 0.32079554
0001a0 de 54 ae bd 38 18 88 3e 44 16 90 be f0 c4 15 3e
       -0.08512281 0.26580977 -0.28141987 0.14625907
0001b0 79 1e 79 be 97 89 20 3e 62 7b 13 3e ab 02 46 be
       -0.2432803 0.15677486 0.14402536 -0.19336955
0001c0 a8 da ca 3c 54 bb c4 be 8a 16 53 3e 2e b5 37 bd
       0.024762467 -0.3842417 0.20614067 -0.04485052
0001d0 a0 d9 bd bd fb 88 08 3e 7a 00 83 3e 9f 33 ea bc
       -0.09270024 0.13333504 0.255863 -0.028589068
0001e0 3a f7 7e 3d a9 20 1e be 89 04 ca 3e 24 67 05 be
       0.062247492 -0.15442146 0.39456585 -0.13027626
0001f0 3d 53 a1 3e 31 be d2 3d 5d a5 1e 3e e8 69 11 3e
       0.31508818 0.102901824 0.15492769 0.14200556
000200 b4 d0 2c be cb 4d 92 be 88 c3 8c 3e ed fb 45 be
       -0.16876489 -0.28574976 0.27492929 -0.19334383
000210 1c 95 51 bb da c6 99 3e 39 33 d6 be 5b e1 b8 bc
       -0.0031979745 0.30034524 -0.41835955 -0.022568395
000220 db 9c 4b be 5f d6 92 3d 79 a3 96 be 64 52 b5 3e
       -0.19884054 0.07169794 -0.29421595 0.35414422
000230 52 be db bd 6f 7d 80 be 80 20 27 be 54 46 09 be
       -0.1072966 -0.25095698 -0.16320992 -0.13405734
000240 22 49 c4 be 41 ee 1b be 93 68 a3 3e ce 9b 9d 39
       -0.38337046 -0.15227605 0.3191572 0.00030061457
000250 2d 20 66 be ec cc 1e 3e 63 9e 4e be a7 df 57 3e
       -0.22473212 0.15507859 -0.20177607 0.2108141
000260 89 70 5b 3e 6d bf a6 be d4 3f e9 3a 23 4b bf 3e
       0.21429648 -0.3256792 0.0017795512 0.37362012
000270 2b e2 57 be e2 8c 99 3e 64 7f c2 3d 0f 19 bd 3d
       -0.2108237 0.29990298 0.09496954 0.09233295
000280 70 b7 25 be 4b c2 60 3c d7 4f 9d 3e bf 2d b0 be
       -0.16183257 0.013718198 0.30724975 -0.34409901
000290 14 f5 40 3e 77 8a c2 3d d4 a8 39 3e 7a 89 b3 bc
       0.1884349 0.09499066 0.18130809 -0.02191614
0002a0 d7 80 60 3e 99 b4 7c be 23 6d d8 bd 66 29 ff 3c
       0.21924148 -0.24678268 -0.10567691 0.03114767
0002b0 5a fe 69 bd 18 a2 66 3d 6e 3c 31 bd e9 60 8d 3e
       -0.057127334 0.05630693 -0.04327052 0.27613
0002c0 d9 19 69 bd f1 93 83 bd 61 c5 f1 3c 57 51 b0 bc
       -0.056909416 -0.06424702 0.029513063 -0.02152316
0002d0 ef d6 ab 3e 13 d7 a3 3e de 05 02 3e 6d 0e 81 be
       0.3356242 0.32000026 0.1269755 -0.25206318
0002e0 85 89 cd be 21 72 42 3e 31 5e b6 3e 1b 6d a4 3e
       -0.40143982 0.18988849 0.35618737 0.3211449
0002f0 76 e9 ce be b4 e1 32 3e 84 4e 36 be e5 93 6a 3e
       -0.40412492 0.17468911 -0.17803389 0.2290798
000300 6e 06 35 be f6 c7 c6 3e fd 07 86 3e f1 52 9a be
       -0.17678234 0.38824433 0.2617797 -0.30141404
000310 e8 f9 46 3e 85 9c fb 3e 72 f2 ae be e2 6f b0 3e
       0.19431269 0.49142852 -0.34169346 0.3446036
000320 5e 04 e4 3d af f0 9e be 65 ef 22 bb 19 82 96 3e
       0.111336455 -0.31043002 -0.0024861929 0.29396132
000330 ea 54 7a bd 6a 9b e2 3e 9a 9a 5f be 7d f0 c8 3d
       -0.061116137 0.44259197 -0.2183632 0.098114945
000340 97 76 89 3d 46 0e 8a 3e 55 62 c6 bc 30 5a 2b be
       0.06712072 0.26964015 -0.02421681 -0.16733623
000350 f4 3c 26 be 8f f8 ba be e1 50 91 be ff 6d fa 3b
       -0.1623419 -0.3651776 -0.28382018 0.007642507
000360 37 e1 ec bd f6 d4 91 3e 72 e2 28 be 01 09 8f 3e
       -0.11566394 0.2848279 -0.16492632 0.27936557
000370 b9 58 60 3e 20 19 68 be 74 31 6c be 08 47 ac 3e
       0.21908845 -0.22665834 -0.2306574 0.33647943
000380 4b 1b 97 be b4 12 be bd d4 f5 a8 3e 1f 05 80 be
       -0.2951301 -0.09280911 0.33000052 -0.25003907
000390 15 66 96 be ce 21 c9 3a 8c f4 57 be de c5 95 bd
       -0.29374757 0.0015345158 -0.21089381 -0.07313131
0003a0 ed 27 28 be 1c 9c ef 3d 96 81 d9 3e b9 8b 52 be
       -0.1642148 0.116996974 0.4248168 -0.20561112
0003b0 26 34 92 bd a1 3c 47 bd 9c 62 a2 be 60 7f ad 3e
       -0.07138853 -0.048641805 -0.31715858 0.33886242
0003c0 fe 83 c4 3d 13 1d fa bd 0a 56 1b 3e 5e 52 d1 3e
       0.09595488 -0.12212577 0.1516954 0.40883154
0003d0 46 52 05 3d 33 0a 58 bd 49 97 b9 3e cf 19 82 3d
       0.032549165 -0.0527441 0.36248234 0.06352579
0003e0 86 62 b9 3e fa ef 7c be 3d 17 ae 3e be ce 8d be
       0.3620798 -0.24700919 0.34002104 -0.27696794
0003f0 44 90 a6 bd a3 8a 7e 3e 50 f7 cd 3d 23 a6 bd 3d
       -0.08132985 0.24857573 0.10056937 0.09260204

convs.2.linear_r.W f4 [5, 32, 32]
000000 be ee 35 be e1 4d a1 bd 30 7c a9 3c 35 d3 ae bc
       -0.17766854 -0.07876182 0.0206891 -0.021340946
000010 fd 1b f0 bd c3 aa 83 bc e4 e8 62 bd 33 52 35 3e
       -0.11724088 -0.016072636 -0.055397883 0.17707138
000020 50 86 9f bd f4 c4 0b 3e c7 49 48 3e 12 21 bb bd
       -0.0778929 0.1364935 0.19559394 -0.09137167
000030 ad b9 e0 bd 87 0f 84 3d fd 17 67 bd ed b4 04 be
       -0.10972915 0.06448274 -0.05641936 -0.12959643
000040 91 cb 3f 3d e1 b6 e6 3b 17 24 d0 3d c4 2d fb 3d
       0.046824995 0.007040844 0.101631336 0.122645885
000050 08 c7 52 3d 21 43 02 3e d8 df 09 be c0 f6 e2 bd
       0.051459342 0.1272092 -0.13464296 -0.1108222
000060 d7 6e ff 3d 79 4d 4e bd 78 56 39 bd 1a 64 2d bd
       0.12472313 -0.050366852 -0.04524848 -0.042331792
000070 5c 37 99 3d 9b 95 7b 3d 84 eb 28 3e 87 4a 97 bc
       0.07481262 0.06142197 0.16496092 -0.018468155
000080 14 db 23 be 9e 60 53 bd 43 1a c1 bd f7 47 18 3e
       -0.1600154 -0.051605813 -0.09428837 0.14871202
000090 8d 12 31 be 87 a3 b5 3d 86 c3 9c 3c 11 0d 0f 3e
       -0.17292233 0.08869081 0.019136202 0.13969828
0000a0 42 f0 12 3e 62 1a 8b 3d de 69 26 be 0e 89 b1 3d
       0.14349464 0.067921415 -0.16251323 0.08668719
0000b0 d4 8a 96 3d b8 0c 10 be d7 dd 0e bd dd 49 10 3d
       0.07350698 -0.14067352 -0.03487953 0.03522669
0000c0 36 73 5c 3d dc 39 54 bd c1 ed 34 be 80 d7 8b 3d
       0.05382081 -0.05181299 -0.17668821 0.06828213
0000d0 69 1e 1e 3d 86 d7 36 3e 65 6a e9 bd 65 bd d4 3d
       0.03860322 0.17855653 -0.11397246 0.10387687
0000e0 b3 93 01 3e 5f 7b d7 3d e1 25 4f be ee d8 c9 3d
       0.12653999 0.10521578 -0.20229293 0.09855829
0000f0 d3 2a ff 3d 83 f4 8d bc 42 84 fd bc 06 8f 0c be
       0.1245934 -0.017328506 -0.030946855 -0.13726434
000100 84 53 39 3d ff da cc bd 09 39 82 bd 2b 4d 0d bd
       0.045245662 -0.10002708 -0.06358535 -0.03449742
000110 27 48 93 bc 64 4c 4b bd ef c8 17 be d0 53 0f 3e
       -0.01797874 -0.0496334 -0.14822744 0.13996816
000120 ea b6 cf bc f1 f2 46 3e fc 1f f7 bd c2 6f 02 be
       -0.025355775 0.19428612 -0.120666474 -0.12737945
000130 68 f4 b8 bd dd ca 0b bd e5 3d 6b 3d d3 b9 80 bd
       -0.09030992 -0.034129012 0.057432074 -0.06285443
000140 df ee 8e bd 6c 2f e3 3d 54 9a 0e 3e 96 3f c6 3d
       -0.06979155 0.110930294 0.13926059 0.09680097
000150 d7 84 60 3e ac bb 0a 3d e5 09 7a bd 45 ad e2 3d
       0.21925674 0.033870384 -0.061044592 0.11068205
000160 c7 e6 5d bd c2 de b6 bd dc bf 4a 3e 35 92 e0 3c
       -0.054175165 -0.089292064 0.19799751 0.027413467
000170 de 7e 66 bd 01 49 80 3d 21 7d 2f 3d d8 4b 89 bd
       -0.056273334 0.062639244 0.04284394 -0.06703919
000180 2e 7c 66 bd ea d4 e3 bb 40 fb 44 3e 4f 22 d6 bc
       -0.05627077 -0.0069528716 0.1923647 -0.026139406
000190 41 0c ba bd 2a 23 1b 3b 4b af da bd eb 14 a2 3d
       -0.090843685 0.0023672082 -0.10677966 0.07914146
0001a0 ed 70 f5 3d e3 ca 7d 3b 48 72 37 3e 0c 71 db bc
       0.119844295 0.0038725666 0.17914689 -0.026787303
0001b0 3d b6 91 bd 0f c4 18 3d 5c 0d b7 bd 55 0a 4e be
       -0.07114837 0.03729635 -0.08938095 -0.20121129
0001c0 7f bc 73 b9 cf 83 94 3d 39 ec f8 3d 62 b0 35 bd
       -0.00023244506 0.07251703 0.12154431 -0.044357665
0001d0 15 f3 47 bd a8 62 94 3d 13 4b e7 bb 66 c8 43 3d
       -0.048815805 0.0724538 -0.00705851 0.047798537
0001e0 3a 1c f3 3d 25 2d 10 bd 01 f5 c6 bd 33 80 b3 bc
       0.11870618 -0.035199303 -0.097146995 -0.021911716
0001f0 d1 ef ff 3d 11 20 80 bd fb a1 be bc 89 3e a2 3d
       0.12496913 -0.06256116 -0.023270598 0.07922084
000200 79 dc f2 3c e3 d5 a9 bd d5 68 d6 3c 45 05 06 3e
       0.029646145 -0.08292749 0.026173035 0.13087948
000210 6c 33 aa 3d 50 37 2e be 53 b7 db 3c 46 cb 6a bd
       0.08310589 -0.17013288 0.026820814 -0.057322763
000220 6d 72 03 3e d3 d1 7f bc 5d 1b 56 3d 70 df 89 3d
       0.12836619 -0.015613991 0.05227219 0.067320704
000230 d4 4e 30 3d 82 66 f0 bd 30 70 39 ba 4e f1 16 be
       0.043043926 -0.11738302 -0.0007073907 -0.14740488
000240 f6 7a 0b 3d 6c 4f 76 bc 71 85 91 bd 66 ff fe 3d
       0.03405281 -0.015033584 -0.0710553 0.12451057
000250 c4 0b 17 3d 05 af 34 3e 9d 74 ac bc 69 b6 56 bd
       0.036876455 0.1764489 -0.0210517 -0.052420054
000260 a7 2c 8b 3d 03 87 c1 3d 3a 26 b3 3d a1 c7 11 bd
       0.06795626 0.094495796 0.087475255 -0.03559077
000270 40 07 fd 3d 54 50 2e be ff c6 b1 3d ba ec fe bd
       0.123548985 -0.1702283 0.086805336 -0.12447496
000280 2d 50 11 3e c6 20 41 3e 46 45 e1 3c 19 91 02 bb
       0.14190741 0.18860158 0.027498852 -0.001992291
000290 10 ff 3c 3e 20 e6 18 be ba ab 16 3e a3 5c 2a 3e
       0.18456674 -0.14931536 0.14713946 0.166369
0002a0 f2 47 93 3d 76 d3 58 be d0 07 2d 3e db 2a 15 be
       0.07191457 -0.21174416 0.16897511 -0.1456713
0002b0 59 c4 f9 bd 38 ed 97 3b 09 3f ce bd 34 12 29 be
       -0.121956535 0.004636433 -0.10070617 -0.1651085
0002c0 cf 3b d6 bd cf 02 1e be d7 e3 10 3e b3 fe 89 3d
       -0.10460626 -0.15430759 0.14149414 0.06738033
0002d0 fb 08 22 be d4 86 6f 3c 4c f2 ac 3d e5 ed c5 bd
       -0.15823738 0.014619548 0.08444652 -0.096645154
0002e0 d0 74 56 bc cf 23 bd bd 69 5a 35 be 38 8c 6a 3d
       -0.013089374 -0.092353456 -0.1771027 0.05726263
0002f0 8e fa 30 3e 16 66 19 3e db d7 98 bd 3c 35 5e 3d
       0.17283079 0.14980349 -0.07463046 0.054249987
000300 a6 da 45 bd 52 6c bf bd 8a f7 62 3d fa 1d f2 3d
       -0.048304223 -0.09346832 0.055411853 0.11822124
000310 0d 70 85 3d f1 48 27 3e 5f 50 d5 bd 2a ce 9f bd
       0.065155126 0.16336419 -0.1041572 -0.078029945
000320 ea 68 5f bd ad ee 10 bd a4 d2 ed bd 74 7e 36 bd
       -0.054543413 -0.03538387 -0.11612442 -0.04455419
000330 bd b3 e1 bc 53 a1 25 be ff 2e e6 3d 1c f3 04 3e
       -0.027551526 -0.16174822 0.112394325 0.12983364
000340 df 30 0b be d1 f6 8a 3d de 03 1a 3d 18 54 33 bc
       -0.13592862 0.06785358 0.037601344 -0.0109453425
000350 64 d9 62 3d 13 79 a7 bd b8 c2 c3 bd b1 31 f3 3a
       0.0553831 -0.0817739 -0.09558624 0.0018554238
000360 6b c5 94 3d 5d 69 b0 bd 1c 3a fb 3d 84 90 49 3e
       0.07264217 -0.086138465 0.12266943 0.19684035
000370 fe 10 b0 bc c6 46 15 3e f4 47 ff 3b 3a f7 bb bc
       -0.021492478 0.14577779 0.00779056 -0.022945035
000380 e6 ae 08 3d 5c 88 1d 3e df 95 b1 bc 74 df c5 3d
       0.03336992 0.15384048 -0.02167791 0.09661761
000390 a9 cb 1a 3e 38 27 4e 3d 52 3b 28 3e 98 23 1d 3d
       0.15116753 0.05033037 0.16428879 0.038364023
0003a0 31 94 0b be 28 51 23 be 2a 1b 34 be 5f f5 81 3d
       -0.1363075 -0.15948927 -0.17588487 0.06345629
0003b0 a2 7f 15 bc 6d b0 ed 3c ce ac 9e 3d fb 34 23 3e
       -0.009124668 0.02901479 0.07747804 0.15938179
0003c0 aa ac a3 3d c7 9a e8 bd 1f 59 eb bd eb 1f cc bd
       0.079919174 -0.113576464 -0.11491608 -0.09967025
0003d0 03 6a b7 3d c3 84 a0 bc 4a 0e fa 3d d0 47 f5 3d
       0.08955767 -0.019594556 0.12209757 0.11976588
0003e0 fa 05 09 3e b4 25 2f 3d 41 28 9a 3c ea 5d 31 3b
       0.13381186 0.042760566 0.018818023 0.0027064034
0003f0 6c 11 c5 bd 10 3c a8 bd 2a a4 ab 3d cf 99 24 3d
       -0.096224636 -0.08214581 0.08380921 0.040185746

convs.3.h_bias f4 [32]
000000 3b 53 4e bc b1 1d f4 bc 7d ac 2c bc fa fe 01 bb
       -0.012593086 -0.029799314 -0.010539171 -0.0019835816
000010 ab d8 e9 3c a5 82 e4 bc 61 9f 14 3d 91 df 30 bc
       0.028545698 -0.027894327 0.036284808 -0.01079549
000020 2e ee 19 3c d1 8d 35 3c 5a 9d 11 bd 93 68 ba bc
       0.009395165 0.011081175 -0.035550453 -0.022754943
000030 f1 35 e0 3a 2d c7 6b bc 35 0e 48 bb 15 df f6 bc
       0.001710592 -0.014390749 -0.0030526046 -0.03013567
000040 b7 45 2b bd 9f 70 ea 3c 2c 71 2a 3c 85 7c 86 3b
       -0.041814532 0.028618155 0.010402959 0.0041041994
000050 a2 7f 91 bd f7 c9 64 3c 18 13 a3 3b 41 48 c8 bc
       -0.07104422 0.013964168 0.0049766414 -0.024448516
000060 ff bb d8 3c 94 f0 2b bc 99 36 74 bc d4 09 a4 3c
       0.026456831 -0.01049437 -0.014905595 0.020024218
000070 81 2c 1a 3d b7 da 47 bc fc c1 cc 3c 01 83 b5 3b
       0.0376401 -0.012198142 0.024994843 0.0055392985

convs.3.loop_weight f4 [32, 32]
000000 c5 08 a5 3e 74 56 52 3e 2c b0 ce 3e d9 22 71 3d
       0.32233253 0.20540792 0.40368783 0.058871124
000010 37 4a de bd c9 31 ac bc cf 41 c0 3e 5f dc 8f be
       -0.10853999 -0.021019833 0.37550208 -0.28097817
000020 7f f1 2f 3e b1 f2 04 bd 0c 47 0b be 19 e5 2c 3e
       0.17181967 -0.03245801 -0.13601321 0.16884269
000030 28 0f 94 3e a0 51 28 3e 00 25 c5 3d 80 29 d6 be
       0.28917813 0.16437387 0.09626198 -0.41828537
000040 33 3c 93 bd 6a bc 94 3e 69 15 58 3b f0 2c 0a 3d
       -0.071892165 0.2905 0.0032971746 0.033734262
000050 00 4d aa 3e eb 34 3c 3d 76 c0 64 3e 91 35 de 3e
       0.3326187 0.045948904 0.22339043 0.43400243
000060 2b 10 63 be d1 5f b9 3e 14 11 a9 be 3d 9d 19 3e
       -0.22174136 0.36205915 -0.33020842 0.15001388
000070 19 bc f7 bd 4c 25 10 bd ee b3 bd bd e9 32 bb bd
       -0.12096424 -0.03519182 -0.092628345 -0.0914057
000080 3c 17 af be be 0a b6 3e e6 58 27 be 04 d2 40 be
       -0.34197414 0.3555507 -0.16342506 -0.18830115
000090 e1 d0 83 be 5b bc 6b bd 51 57 52 be f4 dc f3 3b
       -0.257453 -0.057552677 -0.20541121 0.007442111
0000a0 f8 57 53 bc 4c e8 14 be 7a c8 b6 be 6b 94 70 3e
       -0.012899391 -0.14541739 -0.35699826 0.23494117
0000b0 f8 c7 e6 3a 2f 5e 6c be 15 d4 7d 3e 6b 92 3b 3e
       0.0017607203 -0.23082803 0.24787934 0.18317573
0000c0 c4 70 c4 be ad 96 a0 3c 39 4a 88 be 3f 6f 53 3e
       -0.38367283 0.019603098 -0.26619127 0.20647906
0000d0 4e 75 e1 bd 7c d7 c7 3d ac 70 a4 3e 4f 37 a6 be
       -0.11008702 0.09757897 0.32117212 -0.32464072
0000e0 04 d5 a1 3e d2 3a 96 be 9d ef 2c 3e fa b0 ab 3d
       0.3160783 -0.2934175 0.1688828 0.08383365
0000f0 4d fd 04 3e 8a de 83 be c1 ed fd bc e3 77 bb bd
       0.12987252 -0.2575572 -0.030997159 -0.09153726
000100 0e a4 c5 3e 87 41 aa 3e 88 af a0 3e 78 1c 9e be
       0.38601726 0.33253118 0.3138392 -0.30881095
000110 c9 0a 23 be 1a da a1 3d 1c 31 8d 3d 81 98 dd 3e
       -0.15922083 0.07902928 0.068941325 0.43280414
000120 9b 47 09 3d f6 9e 88 bd 02 10 8c bd 2e 8d a0 be
       0.033515554 -0.066709444 -0.06838991 -0.31357712
000130 d8 29 80 3e c4 f0 c9 be 8e da 8f bd cf 68 f3 be
       0.25031924 -0.39441502 -0.07024108 -0.475409
000140 ff f0 b8 3e be 40 83 be ba 1a b0 be 40 b0 93 be
       0.36121365 -0.25635332 -0.3439539 -0.28845406
000150 2f 89 a4 be 1d 4a 32 3e d8 11 d4 bd dc 31 93 3d
       -0.32135913 0.17411084 -0.10354966 0.07187244
000160 4b 5a 7d be 84 1e 18 3e 4e 7d 1f be 7a 15 b0 3c
       -0.24741475 0.14855391 -0.15575144 0.021494616
000170 92 44 fd 3e 7f 42 a7 be c0 f1 53 be 61 7d df be
       0.49466377 -0.3266792 -0.20697689 -0.43650344
000180 90 f6 98 3d 84 ce 55 ba fe e3 56 be 7a e1 ce be
       0.07468903 -0.00081560784 -0.2098541 -0.404064
000190 b0 9f 22 be fe 89 90 bd e6 22 1c be fc 91 93 3e
       -0.15881228 -0.0705757 -0.15247688 0.28822315
0001a0 45 60 d9 bd e6 da 0a 3e c7 be 38 be 74 b3 81 be
       -0.10614065 0.13560066 -0.18041526 -0.25332224
0001b0 01 81 b7 3e a5 bb a9 be 18 58 23 be 8c f2 f4 3e
       0.3584061 -0.33150974 -0.15951574 0.478413
0001c0 7b 64 94 3e 17 1b cd 3d 29 93 2b 3e 5d e7 8b 3e
       0.2898291 0.100149326 0.16755356 0.27324954
0001d0 d4 1c af be 83 07 71 3e 6b 89 74 3e 64 0f f9 bc
       -0.34201682 0.23538022 0.23880546 -0.030402847
0001e0 06 4e 36 bc 37 3c a5 3e 62 35 e5 be 44 32 46 3e
       -0.011127001 0.32272503 -0.4476729 0.19355112
0001f0 6f 6c fc bd a3 ee be be 3b e8 ad 3e 81 15 2b be
       -0.123253696 -0.3729144 0.3396624 -0.16707422
000200 60 40 37 bc 28 14 08 bd 48 c8 d3 be 02 91 bf 3e
       -0.011184782 -0.033222347 -0.4136374 0.3741532
000210 a1 36 a1 3e e6 0c aa 3e 29 da 69 be d0 2e f3 3d
       0.3148699 0.33212966 -0.22837128 0.11874163
000220 21 e4 a4 bd c2 f2 ab 3e 09 a7 ac bc 1d 0c c4 3d
       -0.08051325 0.33583647 -0.021075742 0.09572623
000230 6e 0f 9b be f2 0e cc 3d 55 98 f0 bd f5 9c 8b be
       -0.3028521 0.09963788 -0.11747805 -0.27268186
000240 c5 69 d2 be 39 66 38 3e 46 8d 33 3e 5b ca 0d 3e
       -0.4109632 0.18007745 0.1753436 0.13846724
000250 a4 65 1b be 05 28 99 be d7 4f 79 be 96 aa a9 3e
       -0.15175492 -0.29913345 -0.24346863 0.3313796
000260 fe 76 21 3e f5 83 0b 3e 63 6e 1a 3e 00 be 9b bd
       0.15768048 0.13624556 0.15081172 -0.07604599
000270 d4 2e cb 3c c1 53 ec 3e 5c c5 80 3e 33 7c 0b 3e
       0.024802603 0.4615765 0.25150573 0.13621597
000280 ff 29 32 bd c9 d1 cc 3e 1e 7b dd 3e e0 ba b5 be
       -0.04349708 0.40003803 0.43257993 -0.35494137
000290 1e a0 8f be e0 6f 92 bd 0b a6 41 bd a1 c2 2c 3e
       -0.28051847 -0.07150245 -0.04727749 0.1687112
0002a0 0c 06 73 3e 85 14 5f 3e e2 68 cd 3e 57 d3 22 bb
       0.23732775 0.21785171 0.40119082 -0.0024845207
0002b0 2f 30 c1 3e cc 24 3a be 8a 34 27 3e c5 10 35 3e
       0.37732074 -0.181781 0.16328636 0.17682178
0002c0 49 59 3f be 72 36 3d 3e 90 23 8d 3b 05 4c d6 3e
       -0.18686403 0.184778 0.004307218 0.41854873
0002d0 c5 7b 9e be 24 f6 8f 3e 38 78 7a 3e e1 dd 9b be
       -0.30953804 0.28117478 0.24459922 -0.30442718
0002e0 9a c2 d7 3c 4d 6c 28 be 65 0b cd 3e b8 f4 84 3e
       0.02633791 -0.16447563 0.40047756 0.25967956
0002f0 70 f7 c9 3e a1 73 84 3e e5 99 cb 3c 11 4f de 3e
       0.39446592 0.25869468 0.024853656 0.43419698
000300 c0 cc 12 3e 00 ef 72 3e ee 18 6c 3e cb 32 e0 bc
       0.14335918 0.23723984 0.23056385 -0.02736797
000310 85 c4 97 be 3b 4c a0 be ed 9d d0 be 84 96 f0 3d
       -0.2964212 -0.3130816 -0.40745488 0.117474586
000320 65 83 d7 bd ae 68 5e bc 22 ec 18 3e 8e 35 0f 3e
       -0.105231084 -0.013574762 0.14933828 0.13985273
000330 83 db 99 bc cb a8 97 3e 07 64 0f 3d c3 0a 8a be
       -0.01878143 0.29620966 0.035007503 -0.26961336
000340 f1 6b 8c 3d 8d f4 6d 3e 6b 52 fd bd f0 94 b0 be
       0.06856526 0.2323782 -0.123692356 -0.3448863
000350 07 0c cf 3d 54 7d 04 be 9a 40 c7 be d1 cb a2 3d
       0.10109716 -0.12938434 -0.38916475 0.07949031
000360 5a 04 89 3e 48 2a fd 3d 38 0e b4 3e 47 a1 c8 3c
       0.26761132 0.1236158 0.35167098 0.024490966
000370 c9 04 87 3e 2b 7a 1c 3e f0 94 69 bd e2 07 7a 3d
       0.26370838 0.15280978 -0.057026803 0.061042674
000380 90 fc 33 be 62 51 e1 3d bb 80 cc 3e a8 7a 48 be
       -0.17576814 0.11001851 0.39941964 -0.1957804
000390 13 29 ce bc 08 f8 82 3e 62 1e 9e be 4c a4 a8 3e
       -0.02516607 0.25579858 -0.30882555 0.3293785
0003a0 e6 70 f0 be b6 5a 5b bd ac 5e a0 be b6 c5 59 be
       -0.46961135 -0.053553306 -0.3132223 -0.21266827
0003b0 90 42 36 be e7 58 0f 3e cf df 21 be 1c f2 b2 be
       -0.17798829 0.13998757 -0.15808032 -0.3495034
0003c0 59 28 07 3e d0 ed 1c 3e 94 8a a9 be 76 b8 aa 3e
       0.13198985 0.15325093 -0.3311354 0.33343858
0003d0 2b 40 b3 3e 24 eb ab 3e d4 b5 9f 3e a1 d4 9d bd
       0.35009894 0.33577836 0.3119341 -0.07706571
0003e0 b6 9a 8f 3e bb ff 8c be 46 3a 7f 3e 19 b0 42 bd
       0.28047723 -0.27538857 0.24924573 -0.04753122
0003f0 3e 16 34 be 84 e4 e4 3d 6d 1b 9f be b2 d4 3b be
       -0.1758661 0.111763984 -0.31075612 -0.18342856
