parameters/baseline_igmc_sports_0.2311.pt (torch, 214261 bytes, 15 tensors)

convs.0.h_bias f4 [32]
-0.043641035 -0.01366747 -0.1108178 0.07355317 0.074710004 0.07560995 -0.05526473 0.1173839
-0.009617838 0.07495146 0.18093589 0.08248926 0.107017756 -0.07868157 -0.13527247 -0.07317604
0.06944822 0.07390405 -0.11931685 0.12302801 -0.13047366 0.09640603 -0.08538018 -0.26483074
-0.021180617 -0.008656834 -0.032446876 -0.04185679 -0.071815215 -0.13594435 0.17625576 0.12733833
00000000: f1c0 32bd 86ed 5fbc 71f4 e2bd 0ba3 963d
00000010: 8f01 993d 64d9 9a3d 455d 62bd f866 f03d
00000020: 2394 1dbc 2780 993d 4247 393e 21f0 a83d
00000030: 202c db3d ce23 a1bd de84 0abe 52dd 95bd
00000040: de3a 8e3d 025b 973d 655c f4bd 1cf6 fb3d
00000050: e39a 05be 8670 c53d cedb aebd e597 87be
00000060: f982 adbc 65d5 0dbc 04e7 04bd 0772 2bbd
00000070: db13 93bd ff34 0bbe 647c 343e fb64 023e

convs.0.loop_weight f4 [4, 32]
-0.09988273 0.023600686 0.26106724 0.20348263 -0.084736444 -0.12280062 -0.26512432 0.29065275
-0.23388356 -0.3298241 -0.5845831 0.17386706 -0.16896543 0.20188686 0.36803496 0.12590453
-0.3053756 0.27456155 -0.022684056 0.40646425 0.018790454 -0.16603759 0.046836033 0.40696058
-0.09657748 0.28615713 -0.19777972 -0.29657453 -0.013075959 0.19590735 -0.070814505 -0.26106247
0.37143016 -0.14078572 0.00032694606 0.20643908 -0.037773 -0.38018945 -0.21695814 0.49912748
-0.14699891 0.45738718 0.21624957 0.13492015 -0.37895253 0.31661323 0.11875437 -0.50323486
0.111107424 0.19541079 0.41829863 -0.39643806 0.17147309 -0.02225619 0.0705894 0.07422562
0.25102928 -0.076111875 -0.11676827 -0.19437408 -0.17607537 -0.14409196 -0.36081758 0.39419475
-0.08999243 0.25088847 0.4208153 -0.03504641 -0.19234248 -0.2713156 0.18586436 -0.27598372
-0.16836472 -0.33370027 0.22550113 -0.19232284 0.27933517 -0.06880215 0.1697245 0.11578427
-0.31207967 -0.18701789 0.32784763 -0.34005395 -0.09115811 -0.2173523 0.2572875 0.29713663
-0.12377226 0.02095508 0.27012122 0.0649555 0.21028234 0.06866082 -0.20493901 0.07314209
-0.111705184 0.36255956 0.075955816 -0.03459497 -0.4647579 0.05564511 -0.05017134 -0.3785229
-0.00010327461 0.43839234 -0.2818127 -0.30446765 -0.14013274 -0.32950816 -0.3461605 0.13493519
0.17508143 0.21129529 -0.07074558 -0.40276322 -0.19861765 0.20455094 0.1535514 0.35476953
0.29335862 -0.38616052 0.064876445 0.3433513 -0.23775364 -0.09628387 -0.27347556 -0.23119944
00000000: 518f ccbd 3a56 c13c 9baa 853e c05d 503e
00000010: 4d8a adbd e47e fbbd 60be 87be 70d0 943e
00000020: 2c7f 6fbe b4de a8be 3da7 15bf 350a 323e
00000030: 4605 2dbe 6ebb 4e3e 146f bc3e 1eed 003e
00000040: 315a 9cbe 5593 8c3e ead3 b9bc 151c d03e
00000050: 70ee 993c c205 2abe 24d7 3f3d 235d d03e
00000060: 6aca c5bd 3083 923e c486 4abe 9ed8 97be
00000070: 8c3c 56bc f09b 483e 3207 91bd fba9 85be
00000080: 182c be3e 222a 10be f569 ab39 c464 533e
00000090: dcb7 1abd 31a8 c2be 462a 5ebe a38d ff3e
000000a0: e286 16be a72e ea3e 8770 5d3e 8228 0a3e
000000b0: 1106 c2be 211b a23e 7e35 f33d 00d4 00bf
000000c0: 4a8c e33d c419 483e 3d2b d63e eef9 cabe
000000d0: a496 2f3e 9d52 b6bc 2d91 903d 9a03 983d
000000e0: e986 803e 8be0 9bbd 3424 efbd 000a 47be
000000f0: 1a4d 34be d88c 13be 15bd b8be e5d3 c93e
00000100: f34d b8bd 7474 803e 1a75 d73e d38c 0fbd
00000110: 6df5 44be e1e9 8abe 3a53 3e3e bd4d 8dbe
00000120: cd67 2cbe c3da aabe c5e9 663e 47f0 44be
00000130: 0505 8f3e 24e8 8cbd 42cc 2d3e 4e20 ed3d
00000140: e8c8 9fbe 9e81 3fbe a5db a73e 8d1b aebe
00000150: 1ab1 babd 9a91 5ebe 30bb 833e 4b22 983e
00000160: 507c fdbd fda9 ab3c 544d 8a3e 6407 853d
00000170: 4154 573e 0b9e 8c3d 88db 51be 85cb 953d
00000180: b0c5 e4bd 68a1 b93e b98e 9b3d 75b3 0dbd
00000190: bff4 edbe 20ec 633d 7780 4dbd c1cd c1be
000001a0: 2295 d8b8 f674 e03e c149 90be 2fe3 9bbe
000001b0: f57e 0fbe 4bb5 a8be f33b b1be 732c 0a3e
000001c0: 8c48 333e cb5d 583e 0fe3 90bd fb36 cebe
000001d0: 6d62 4bbe cd75 513e 943c 1d3e 5aa4 b53e
000001e0: 1a33 963e d5b6 c5be f1dd 843d becb af3e
000001f0: b175 73be 7a30 c5bd fd04 8cbe 8cbf 6cbe

convs.0.linear_r.W f4 [5, 4, 32]
0.26541752 -0.059436712 -0.030264726 -0.03559207 0.20062342 0.06454492 0.070164934 -0.038560968
0.04792021 -0.12754199 0.02864584 0.058483347 0.52086145 -0.35618508 -0.0013980067 -0.16315725
-0.10308931 -0.29140702 0.32500434 -0.002413189 0.08793759 0.017196944 0.11193416 -0.06596571
-0.09012215 -0.23511614 -0.14481442 0.3067682 -0.16476606 -0.13693583 -0.08076458 -0.12343053
0.056296967 -0.2737757 -0.031044522 -0.078920305 0.1737165 0.17488939 0.11232636 0.2382011
-0.14632197 0.13839719 0.0513639 -0.3284013 0.17214632 0.01850316 0.10114029 0.2883216
-0.22363567 -0.3152559 0.06744935 0.27887642 0.098267294 -0.24007013 -0.013780731 -0.0023538058
-0.3044489 0.21952692 0.39098853 0.15816562 0.104132466 0.25643054 -0.03137698 -0.19591594
0.26594463 -0.1900703 -0.00610941 0.015359404 -0.12119321 0.35695818 -0.2414681 0.065234
0.4375776 -0.07206821 0.09427985 -0.01791282 -0.11362217 0.22339155 -0.24126478 -0.13184193
-0.1737333 -0.09197555 -0.42195782 0.26212093 0.33210108 -0.14074078 -0.057602618 -0.084200785
-0.06630704 0.29576042 0.12933494 -0.0818507 -0.12791309 0.08732984 -0.20309979 -0.102123335
0.025536206 -0.5589862 0.007948132 -0.15998228 -0.2809282 0.1559521 -0.13559367 0.09925348
-0.14112091 -0.23450641 0.30958274 0.07219517 0.3417502 0.098748535 -0.101161316 -0.018676925
-0.42756924 -0.27475092 -0.04856267 0.20449287 0.39366478 0.19260845 -0.015611062 0.20177644
-0.05979501 0.2919164 0.29285142 0.09087224 -0.11530045 0.13013485 -0.1969823 0.073792495
0.39949986 0.040198524 0.25875637 -0.119520545 0.20903 -0.32420594 -1.4212765 -0.07955498
-0.40438047 0.1698139 -3.0429761 0.42645165 0.48024642 -0.13132408 0.13974164 0.2892979
-0.14693537 -0.006368054 -0.28169927 -0.118049905 0.3572303 -0.436172 -0.41821998 3.6189036
0.3214002 -0.45539013 -0.35957935 0.31283095 -0.72145164 -0.1628743 -0.24344228 -0.23872991
-0.14823608 0.354722 0.03210101 -1.9332665 0.031108163 -0.45460007 0.38958606 -1.043633
-6.376121e-05 0.5701638 0.9391496 -0.6480502 -0.09676122 1.2688813 1.1498948 -1.4372647
-0.25352278 -2.0973551 1.6806436 -0.9966907 0.9639207 1.0977274 -0.6654323 1.8444688
1.7294799 -2.4437432 0.3130634 1.1311678 0.12144445 0.05999538 0.14294419 1.2821964
0.069914974 -0.07847625 -0.07011102 -0.1394797 -0.4075111 0.0547864 0.5866669 -0.4292307
0.21894392 0.42319113 -0.05567461 0.08806631 -0.4807195 0.5390923 0.0023714402 -0.5686972
0.22540858 -0.5257096 -0.30738956 0.18094867 0.05930802 0.16116935 -0.052715525 -0.03241703
0.27419722 -0.14709796 0.10707828 0.16951184 -0.49739495 0.08669433 -0.12279571 0.17970046
0.34376752 0.021602744 0.6037359 0.32723713 0.1035635 -0.26586738 0.12952411 0.72004366
-0.17429039 1.0301749 -0.3278971 -0.65266937 0.49774796 -0.26925576 -0.16784397 -0.25191736
0.404463 -0.08521844 -0.21130808 -0.091886 -0.80901426 -0.262718 0.062402107 -0.09223072
-0.30539227 -0.67464805 0.5671859 -0.47695604 -0.3112856 -0.2438693 -0.57304627 0.79718214
00000000: cee4 873e e973 73bd bbed f7bc fec8 11bd
00000010: 3a70 4d3e 2130 843d a2b2 8f3d 1bf2 1dbd
00000020: fb47 443d 5e9a 02be aeaa ea3c 3c8c 6f3d
00000030: 2d57 053f e45d b6be 523d b7ba b212 27be
00000040: 7d20 d3bd 4d33 95be f866 a63e 9826 1ebb
00000050: a018 b43d 9be0 8c3c bd3d e53d 0819 87bd
00000060: f691 b8bd 49c2 70be 3b4a 14be b910 9d3e
00000070: 6fb8 28be e838 0cbe e667 a5bd 25c9 fcbd
00000080: a697 663d 542c 8cbe 1551 febc f8a0 a1bd
00000090: bde2 313e 3416 333e 5d0b e63d fdea 733e
000000a0: 6dd5 15be feb7 0d3e f462 523d 3724 a8be
000000b0: 2047 303e f093 973c a422 cf3d e49e 933e
000000c0: c000 65be 3969 a1be e322 8a3d e4c8 8e3e
000000d0: 5d40 c93d f2d4 75be 93c8 61bc 4f42 1abb
000000e0: bae0 9bbe aacb 603e a62f c83e 2bf6 213e
000000f0: 6743 d53d dd4a 833e 2685 00bd 309e 48be
00000100: e529 883e caa1 42be 7231 c8bb 02a6 7b3c
00000110: 2534 f8bd 39c3 b63e 6a43 77be 6799 853d
00000120: 2c0a e03e 7f98 93bd cb15 c13d e8bd 92bc
00000130: beb2 e8bd c1c0 643e 1d0e 77be 9201 07be
00000140: 24e7 31be ad5d bcbd db0a d8be b734 863e
00000150: 2709 aa3e 5a1e 10be b9f0 6bbd 7671 acbd
00000160: fccb 87bd e96d 973e 6170 043e 57a1 a7bd
00000170: a6fb 02be fdd9 b23d 64f9 4fbe 0a26 d1bd
00000180: 4e31 d13c b819 0fbf e238 023c 65d2 23be
00000190: d2d5 8fbe e8b1 1f3e 11d9 0abe 6945 cb3d
000001a0: 0082 10be 7322 70be a181 9e3e 10db 933d
000001b0: e2f9 ae3e ac3c ca3d aa2d cfbd 5a00 99bc
000001c0: 5bea dabe 27ac 8cbe a6e9 46bd 9466 513e
000001d0: 6e8e c93e 263b 453e 8ac5 7fbc 7c9e 4e3e
000001e0: 9deb 74bd 1176 953e 9ff0 953e 3a1b ba3d
000001f0: a422 ecbd 1242 053e bab5 49be 8520 973d
00000200: 3f8b cc3e 35a7 243d b77b 843e 30c7 f4bd
00000210: f60b 563e 52fe a5be 63ec b5bf b9ed a2bd
00000220: f50a cfbe b2e3 2d3e 1fc0 42c0 df57 da3e
00000230: dce2 f53e d279 06be 6f18 0f3e db1e 943e
00000240: 3a76 16be 1cab d0bb e33a 90be 26c4 f1bd
00000250: e4e6 b63e f051 dfbe ee20 d6be 1e9c 6740
00000260: 918e a43e e528 e9be c91a b8be 612b a03e
00000270: 0eb1 38bf 85c8 26be ef48 79be 9d75 74be
00000280: 33cb 17be 1f9e b53e 597c 033d 4775 f7bf
00000290: 8cd6 fe3c 57c1 e8be d377 c73e c495 85bf
000002a0: 8ab7 85b8 41f6 113f 1c6c 703f 9ee6 25bf
000002b0: bf2a c6bd b46a a23f c12f 933f 4af8 b7bf
000002c0: bdcd 81be 113b 06c0 541f d73f 1f27 7fbf
000002d0: 82c3 763f 5582 8c3f c559 2abf 8e17 ec3f
000002e0: 995f dd3f 4a66 1cc0 d949 a03e 1bca 903f
000002f0: deb7 f83d b7bd 753d f65f 123e 031f a43f
00000300: 952f 8f3d 28b8 a0bd 5e96 8fbd c4d3 0ebe
00000310: 4ba5 d0be b467 603d cd2f 163f 20c4 dbbe
00000320: d632 603e 82ac d83e 0f0b 64bd 1c5c b43d
00000330: de20 f6be f401 0a3f 2a6a 1b3b 2496 11bf
00000340: 82d1 663e e894 06bf 2a62 9dbe 9c4a 393e
00000350: f7ec 723d 9409 253e 3cec 57bd b8c7 04bd
00000360: 9463 8c3e d9a0 16be db4b db3d 8394 2d3e
00000370: 8daa febe cc8c b13d 517c fbbd 6603 383e
00000380: 4c02 b03e 3df8 b03c 708e 1a3f a08b a73e
00000390: 1a19 d43d c51f 88be f8a1 043e c854 383f
000003a0: 2e79 32be c5dc 833f 21e2 a7be 5715 27bf
000003b0: d2d8 fe3e e4db 89be 4adf 2bbe 50fb 80be
000003c0: c615 cf3e 0187 aebd 2561 58be ba2e bcbd
000003d0: 8f1b 4fbf f982 86be 5a99 7f3d 76e3 bcbd
000003e0: 605c 9cbe bcb5 2cbf 1833 113f 9533 f4be
000003f0: d360 9fbe e0b8 79be 29b3 12bf 2114 4c3f

convs.1.h_bias f4 [32]
-0.12218359 -0.18662262 -0.07769914 -0.25160858 -0.31193608 -0.16950603 -0.0046001594 0.12649348
0.14446114 -0.027941398 0.05550741 -0.12351749 -0.30324495 -0.3455827 0.13171275 0.017231688
-0.15649545 0.09746649 -0.08791778 0.11032636 -0.026242422 0.102570616 0.23629142 -0.19008124
-0.008368005 0.20930225 -0.23482724 0.0068028513 -0.012056174 0.046236984 0.08748903 -0.004071511
00000000: 643b fabd 001a 3fbe ba20 9fbd d7d2 80be
00000010: 16b6 9fbe fd92 2dbe efbc 96bb 8287 013e
00000020: 9fed 133e 5ce5 e4bc bd5b 633d bdf6 fcbd
00000030: ec42 9bbe 37f0 b0be b5df 063e 7829 8d3c
00000040: 5840 20be 839c c73d 3d0e b4bd c9f2 e13d
00000050: 59fa d6bc 8b10 d23d 61f6 713e a8a4 42be
00000060: f519 09bc 5453 563e 8d76 70be 74ea de3b
00000070: 4287 45bc fe62 3d3d 732d b33d 4f6a 85bb

convs.1.loop_weight f4 [32, 32]
-0.41879836 -0.4026107 0.33504426 0.5044698 -0.3289336 0.18037589 -0.46726048 0.015499646
-0.34229356 -0.0652118 -0.22191411 0.10669667 -0.1911572 -0.24390718 -0.47607258 0.27694935
-0.04649343 0.06466468 -0.034979455 -0.25263914 0.28017044 0.001528009 0.42524377 -0.3055263
-0.35194057 0.0775052 0.23658769 0.15959294 0.2800855 -0.031271506 0.5214704 0.41310608
-0.22915255 -0.44415838 -0.16629295 0.11993741 -0.3587481 0.50246555 -0.3290803 -0.27767372
0.27686223 0.2526278 0.24958935 -0.123416945 -0.18339077 0.10156752 0.2334117 -0.3605316
0.21663396 0.2031557 -0.26103187 -0.03556069 -0.030959338 -0.401523 -0.35654727 0.37105125
-0.16795178 -0.023124197 -0.15260708 0.25273818 -0.1490287 -0.20134696 0.20787029 0.32172924
0.15306391 -0.042291623 -0.45198023 -0.08203432 -0.11737131 0.23840426 -0.16609657 0.00664408
0.1529467 0.3736236 0.22121994 0.12445912 0.191555 0.10243156 0.020627987 0.11537901
0.25031218 -0.46857032 -0.005268295 0.35453603 -0.22767016 -0.13846773 -0.09797387 0.17090695
0.0462457 0.08244271 -0.10449514 -0.113048024 0.47291446 -0.081064686 -0.011235308 0.26588726
0.49279255 0.12669301 0.102443896 0.042633075 0.02431154 0.4829649 0.09221781 -0.0434596
-0.31279826 0.17064199 -0.022152692 0.5613102 -0.5971522 -0.4605612 0.03995116 -0.01822709
-0.58405465 -0.10308743 0.11396745 -0.16625921 0.26137018 -0.3744977 -0.04119927 0.3376604
0.17067331 0.24918452 0.41225272 -0.011091419 -0.28905445 -0.20471169 0.14406607 0.54807353
0.8784272 0.14616235 0.16350353 0.5960783 -0.03381145 0.17473377 -0.5144424 -0.076299965
-0.5204757 0.72055334 0.29769808 0.10142105 0.50804234 -0.006208896 -0.29564852 -0.18703727
0.2106917 -0.3905229 -0.046483945 -0.21823113 0.46605986 0.30386236 0.025067188 0.0862493
0.30973712 -0.5358826 0.058279123 0.17312545 -0.3707403 0.161799 -0.04565444 -0.0061204503
-0.29434434 -0.13031904 -0.22226526 0.10242407 0.10708513 0.5071368 0.28297925 -0.28244242
0.2792005 -0.042819485 -0.37867397 0.10406999 0.054194067 -0.29601368 0.020917226 -0.19295134
-0.06167063 0.38319892 -0.2363825 0.24454086 0.031324044 -0.25413018 0.47718096 0.32508376
-0.2685039 -0.26347905 -0.13924035 -0.36997065 -0.038136654 0.3780085 0.21895127 0.005039351
-0.40304822 0.29504144 0.022370221 -0.070191875 0.023786675 -0.1435657 0.35596555 -0.43919465
0.04325729 0.054108836 0.17160961 0.26847 0.24305853 0.16855481 0.12762968 -0.2816738
0.28987738 -0.38456106 0.1604456 -0.34312385 -0.18665409 -0.4332669 -0.3022291 0.11601217
0.08562166 -0.5168219 0.19906881 -0.28686088 -0.43931758 -0.13037938 0.46481135 -0.18323122
0.37849092 0.24249154 0.39801195 -0.12098699 -0.2792241 0.13524246 -0.20999768 0.37030938
-0.09092752 0.15935555 0.33656403 0.07837974 -0.33983627 -0.10154093 -0.18216215 0.103117734
0.2954555 0.22543868 -0.49795017 -0.2893371 0.055845786 0.3575876 -0.013404161 0.50470865
0.04822011 0.23512463 0.0029633527 -0.07279092 0.33844224 0.13638072 -0.05412626 0.25181547
00000000: bd6c d6be fd22 cebe ec8a ab3e ef24 013f
00000010: fc69 a8be 75b4 383e c43c efbe 3af2 7d3c
00000020: 1a41 afbe c48d 85bd 743d 63be c983 da3d
00000030: b7be 43be cec2 79be c9bf f3be 4ecc 8d3e
00000040: e56f 3ebd ea6e 843d 9e46 0fbd eb59 81be
00000050: 8072 8f3e 7947 c83a 8db9 d93e f16d 9cbe
00000060: 8e31 b4be 0cbb 9e3d 0b44 723e 556c 233e
00000070: 5e67 8f3e 8d16 00bd 167f 053f a482 d33e
00000080: f7a6 6abe ba68 e3be b348 2abe bfa1 f53d
00000090: d5ad b7be 95a1 003f 377d a8be 402b 8ebe
000000a0: e3c0 8d3e 6e58 813e 5a94 7f3e 06c2 fcbd
000000b0: caca 3bbe a202 d03d 7a03 6f3e 9997 b8be
000000c0: 4bd5 5d3e 0c08 503e f8a5 85be 16a8 11bd
000000d0: 709e fdbc 6c94 cdbe 5d8d b6be 6efa bd3e
000000e0: 8dfb 2bbe f56e bdbc 0845 1cbe e666 813e
000000f0: fb9a 18be e62d 4ebe f3db 543e b2b9 a43e
00000100: c9bc 1c3e fb39 2dbd f469 e7be 9c01 a8bd
00000110: 5f60 f0bd 3f20 743e 3815 2abe 95b6 d93b
00000120: 0f9e 1c3e 984b bf3e 7b87 623e 6ce4 fe3d
00000130: fe26 443e a3c7 d13d 06fc a83c d54b ec3d
00000140: eb28 803e 73e8 efbe a9a1 acbb bf85 b53e
00000150: 5e22 69be 7cca 0dbe 86a6 c8bd 3b02 2f3e
00000160: 226c 3d3d b9d7 a83d 8c01 d6bd b985 e7bd
00000170: d821 f23e 3e05 a6bd 4c14 38bc 6022 883e
00000180: 4e4f fc3e d0bb 013e 1bce d13d 05a0 2e3d
00000190: ff28 c73c 2d47 f73e b1dc bc3d b202 32bd
000001a0: 1827 a0be c6bc 2e3e 9079 b5bc 06b2 0f3f
000001b0: f7de 18bf adce ebbe d4a3 233d fa50 95bc
000001c0: 9b84 15bf 811f d3bd c467 e93d db3f 2abe
000001d0: 50d2 853e 2abe bfbe 91c0 28bd d3e1 ac3e
000001e0: fcc4 2e3e 3a2a 7f3e ca12 d33e c8b8 35bc
000001f0: f2fe 93be f19f 51be 0e86 133e 8c4e 0c3f
00000200: 9be0 603f 95ab 153e 786d 273e 9698 183f
00000210: e07d 0abd 69ed 323e 7fb2 03bf 2843 9cbd
00000220: e53d 05bf 2f76 383f e26b 983e d7b5 cf3d
00000230: 100f 023f ff73 cbbb 3e5f 97be b386 3fbe
00000240: 91bf 573e 9ef2 c7be f365 3ebd fb77 5fbe
00000250: 669f ee3e d993 9b3e b459 cd3c 79a3 b03d
00000260: dd95 9e3e 9a2f 09bf 17b6 6e3d cc47 313e
00000270: acd1 bdbe a3ae 253e 2600 3bbd 0f8e c8bb
00000280: 4db4 96be 5b72 05be 8199 63be b6c3 d13d
00000290: 734f db3d b8d3 013f a8e2 903e 4b9c 90be
000002a0: 5ef3 8e3e 7c63 2fbd 8ee1 c1be a622 d53d
000002b0: 99fa 5d3d 1b8f 97be 9a5a ab3c 0995 45be
000002c0: 589a 7cbd a632 c43e 410e 72be eb68 7a3e
000002d0: a44d 003d 5a1d 82be 1051 f43e 6171 a63e
000002e0: 5879 89be bae6 86be 0695 0ebe cb6c bdbe
000002f0: 2e35 1cbd 558a c13e c334 603e 2421 a53b
00000300: 565c cebe ac0f 973e c141 b73c c2c0 8fbd
00000310: 46dc c23c e302 13be 1e41 b63e 1fde e0be
00000320: 8e2e 313d 3aa1 5d3d 6eba 2f3e e674 893e
00000330: 56e4 783e a299 2c3e 5bb1 023e 8c37 90be
00000340: cf6a 943e 30e5 c4be da4b 243e eead afbe
00000350: 4022 3fbe 29d5 ddbe c6bd 9abe ca97 ed3d
00000360: 695a af3d 714e 04bf b2d8 4b3e 6edf 92be
00000370: 3cee e0be 2c82 05be c1fb ed3e f7a0 3bbe
00000380: 90c9 c13e b44f 783e 39c8 cb3e 07c8 f7bd
00000390: 76f6 8ebe 007d 0a3e a209 57be 3199 bd3e
000003a0: 3538 babd 1a2e 233e 1f52 ac3e 8f85 a03d
000003b0: 05ff adbe b1f4 cfbd b788 3abe 642f d33d
000003c0: f145 973e 66d9 663e 53f3 febe fe23 94be
000003d0: 8dbe 643d b915 b73e 209d 5bbc 9634 013f
000003e0: 7382 453d 83c4 703e cf34 423b 6813 95bd
000003f0: 4d48 ad3e 63a7 0b3e 7fb3 5dbd f5ed 803e

convs.1.linear_r.W f4 [5, 32, 32]
-0.1892868 -0.34506333 0.16470875 -0.040540285 0.0064052483 -0.2843696 -0.1579473 0.031127516
-0.03967945 -0.004978281 -0.19879213 -0.09495123 -0.012877262 -0.052188378 -0.1448221 -0.24704686
-0.03959008 -0.114934444 -0.25688967 -0.2478966 -0.3235489 -0.0036531952 0.23853861 -0.065487035
0.12953873 -0.2162432 0.012900854 -0.10352365 -0.3810815 -0.027512027 0.26398626 0.13785517
-0.017142277 0.09693136 0.028096246 0.13937224 0.32941794 0.30587244 -0.05650734 0.020412598
-0.05359179 0.11964129 -0.051293157 0.033175793 0.032217436 -0.040237162 0.013705649 -0.10698623
-0.028267555 -0.18794131 -0.04117898 -0.1894035 0.012220246 -0.07005037 -0.17953068 -0.09153346
0.0054515945 -0.4438829 0.08213199 0.017818654 -0.0716123 -0.18062682 0.014204207 -0.116757095
0.12215723 -0.068438515 -0.42709956 -0.30186692 -0.173142 0.0114956405 -0.06562422 -0.014505438
-0.18066466 0.24666856 -0.28073344 -0.10899991 -0.124087244 0.07492179 -0.2496858 -0.2638384
-0.3004585 0.12231601 0.032666627 -0.05576261 -0.017890465 -0.28049433 0.10029528 -0.2136298
0.09562653 -0.23351605 0.20210354 -0.15696993 0.11694556 -0.025874587 0.082255 -0.21041214
0.044869293 -0.22972703 0.079626955 -0.22123575 -0.49778515 0.31385133 0.054979116 0.2175839
0.051446185 0.011455772 -0.003368348 -0.05598274 -0.22201993 0.1476934 -0.10613114 -0.05396661
-0.32686135 -0.21733579 0.01852097 -0.20489262 -0.10154657 -0.23477708 0.24905847 -0.20766135
-0.053215597 0.12759705 0.19615963 0.033949554 -0.2639229 0.05331098 -0.06540466 0.1332959
0.4497398 -0.11256764 0.022665402 0.20790267 0.11501794 0.1694459 -0.014321866 0.02686731
-0.33614147 0.25240424 -0.2707738 0.19791117 -0.12614445 -0.15556039 -0.017962001 -0.20547496
0.01690434 -0.023566328 0.26972046 -0.16327605 -0.17186032 0.07198766 0.012017837 0.19026838
0.10225197 0.019128494 0.26570907 -0.13319796 -0.32220414 -0.3199874 0.11509381 0.25986123
-0.06322222 -0.15088132 -0.065505184 0.1344304 -0.14122266 0.18444747 0.21988884 -0.24129824
-0.017918007 0.095456235 0.3424025 0.05199574 -0.09584855 0.16748859 0.03469639 0.3343619
-0.051518247 -0.28629744 0.014331192 -0.06365342 0.025891941 0.033022843 0.20281161 -0.14737967
-0.07550405 0.09796517 0.085955925 -0.035624366 0.08576479 0.0016095256 0.2942104 0.0794195
-0.27715716 0.06637388 0.5202168 0.0067115934 -0.1620603 -0.25131658 -0.11232611 0.03148933
-0.068713166 0.006809643 -0.17809068 0.18751293 0.3139703 -0.2260166 -0.083289206 0.03469303
-0.0021966218 0.09985978 0.01650729 -0.0010376151 -0.28689826 0.1101367 -0.050349917 0.00033962633
-0.051668614 -0.042200584 -0.2225818 -0.018966585 -0.023163617 0.049484584 0.17357932 -0.14853126
0.23141399 -0.092271194 0.021127528 -0.099573344 -0.01933825 -0.13762929 0.12098276 0.07208973
-0.049030766 0.1815064 -0.017812893 -0.09361802 -0.233072 -0.08476048 -0.1117424 -0.051745903
-0.33423254 0.16532823 -0.057920415 -0.114105515 -0.035072684 0.009215994 -0.21650578 -0.07266947
0.017582081 0.17387736 0.16979058 -0.085687965 -0.043677296 0.08010247 -0.08148592 0.2085518
00000000: 66d4 41be 24ac b0be 69a9 283e 920d 26bd
00000010: 1ee3 d13b e498 91be f0bc 21be 22ff fe3c
00000020: eb86 22bd d920 a3bb 2a90 4bbe ca75 c2bd
00000030: 27fb 52bc 7bc3 55bd 3f4c 14be daf9 7cbe
00000040: 3529 22bd c062 ebbd 0b87 83be 9bd8 7dbe
00000050: 34a8 a5be 726a 6fbb 7743 743e 111e 86bd
00000060: cda5 043e db6e 5dbe 1b5e 533c 3504 d4bd
00000070: 1d1d c3be e760 e1bc 3529 873e e829 0d3e
00000080: f66d 8cbc f383 c63d 192a e63c 99b7 0e3e
00000090: 78a9 a83e 509b 9c3e 3e74 67bd 5238 a73c
000000a0: 1183 5bbd 7e06 f53d c618 52bd 57e3 073d
000000b0: 6ef6 033d b9cf 24bd a98d 603c 991b dbbd
000000c0: 5c91 e7bc b073 40be 4aab 28bd fef2 41be
000000d0: 6d37 483c 9276 8fbd e4d6 37be e575 bbbd
000000e0: 4aa3 b23b 9f44 e3be d134 a83d 6df8 913c
000000f0: 78a9 92bd 3df6 38be c3b8 683c 581e efbd
00000100: 922d fa3d 7e29 8cbd cbac dabe 4d8e 9abe
00000110: 234c 31be 3658 3c3c fe65 86bd 37a8 6dbc
00000120: 2800 39be af96 7c3e 4bbc 8fbe 583b dfbd
00000130: 7421 febd 9870 993d a2ad 7fbe d415 87be
00000140: b2d5 99be d180 fa3d 71cd 053d 5667 64bd
00000150: 068f 92bc f49c 8fbe 9d67 cd3d c5c1 5abe
00000160: d8d7 c33d d51e 6fbe 3bf4 4e3e babc 20be
00000170: 2781 ef3d f1f6 d3bc 4f75 a83d 4876 57be
00000180: ddc8 373d 903d 6bbe 7513 a33d a08b 62be
00000190: b2dd febe 1fb1 a03e c831 613d 50ce 5e3e
000001a0: 3cb9 523d feb0 3b3c 81bf 5cbb 284e 65bd
000001b0: 3159 63be f03c 173e 485b d9bd 180c 5dbd
000001c0: 5f5a a7be 468d 5ebe 4ab9 973c 5fcf 51be
000001d0: a6f7 cfbd 6769 70be 2f09 7f3e 2da5 54be
000001e0: 99f8 59bd cda8 023e 12de 483e b00e 0b3d
000001f0: e720 87be 9d5c 5a3d e1f2 85bd b87e 083e
00000200: 4c44 e63e dd89 e6bd cbac b93c 70e4 543e
00000210: 878e eb3d 3a83 2d3e 43a6 6abc d518 dc3c
00000220: bc1a acbe 213b 813e dda2 8abe 3aa9 4a3e
00000230: 032c 01be 394b 1fbe 0c25 93bc 0768 52be
00000240: f87a 8a3c 2c0e c1bc cd18 8a3e d631 27be
00000250: 27fc 2fbe 446e 933d 76e6 443c b7d5 423e
00000260: 7b69 d13d 5cb3 9c3c 050b 883e 0c65 08be
00000270: f1f7 a4be 63d5 a3be 4eb6 eb3d 880c 853e
00000280: a77a 81bd a280 1abe 9527 86bd 1fa8 093e
00000290: ac9c 10be ccdf 3c3e 8a2a 613e e316 77be
000002a0: c9c8 92bc 8f7e c33d 614f af3e 7cf9 543d
000002b0: 3f4c c4bd 2182 2b3e cd1d 0e3d 7c31 ab3e
000002c0: cc04 53bd 9495 92be 60cd 6a3c b95c 82bd
000002d0: 561b d43c f642 073d d9ad 4f3e b2ea 16be
000002e0: dea1 9abd f7a1 c83d a909 b03d dbea 11bd
000002f0: 73a5 af3d b8f6 d23a bfa2 963e b1a6 a23d
00000300: 8be7 8dbe 07ef 873d ee2c 053f edec db3b
00000310: 23f3 25be 91ac 80be 3b0b e6bd f5fa 003d
00000320: 7db9 8cbd 6d23 df3b 675d 36be 6403 403e
00000330: b7c0 a03e e570 67be 8893 aabd 471a 0e3d
00000340: 33f5 0fbb 4983 cc3d 4c3a 873c 9600 88ba
00000350: 54e4 92be 5a8f e13d b73b 4ebd e00f b239
00000360: 78a2 53bd 85da 2cbd 7cec 63be d05f 9bbc
00000370: a0c1 bdbc 59b0 4a3d c7be 313e 9418 18be
00000380: caf7 6c3e aef8 bcbd a313 ad3c 1ced cbbd
00000390: 406b 9ebc b1ee 0cbe cfc5 f73d c8a3 933d
000003a0: 7cd4 48bd d0dc 393e 58ec 91bc ceba bfbd
000003b0: 6daa 6ebe e796 adbd 33d9 e4bd 83f3 53bd
000003c0: 8720 abbe ce4b 293e f53d 6dbd 27b0 e9bd
000003d0: 60a8 0fbd aefe 163c b1b3 5dbe bbd3 94bd
000003e0: 4c08 903c e80c 323e 95dd 2d3e 2c7d afbd
000003f0: f7e6 32bd c40c a43d 17e2 a6bd 9a8e 553e

convs.2.h_bias f4 [32]
0.030250752 -0.2913025 0.10771825 0.22160612 0.07261555 0.10114494 0.01704744 0.21606405
0.10513632 -0.14856006 -0.2562252 0.37254044 0.10691147 -0.045749865 0.0880399 0.059763547
-0.014457604 0.2363683 0.060517047 -0.3654512 0.14548925 0.19075923 -0.123884 -0.011535833
0.27591386 -0.12403647 -0.110137016 0.04906087 0.0009946476 0.17723256 0.098547496 -0.030897368
00000000: 6dd0 f73c 9a25 95be 639b dc3d b7ec 623e
00000010: 76b7 943d 1425 cf3d 13a7 8b3c e53f 5d3e
00000020: b651 d73d 2120 18be f32f 83be 9fbd be3e
00000030: 67f4 da3d 3664 3bbd 434e b43d 9fca 743d
00000040: 96df 6cbc 880a 723e b9e0 773d 6b1c bbbe
00000050: 22fb 143e 6356 433e e5b6 fdbd ca00 3dbc
00000060: 9544 8d3e d506 febd 848f e1bd 0df4 483d
00000070: d65e 823a 747c 353e 45d3 c93d 7a1c fdbc

convs.2.loop_weight f4 [32, 32]
-0.2805975 -0.25204343 0.10651932 0.45298913 0.13719012 0.0064420635 -0.6312212 -0.04870136
-0.397903 0.26811534 -0.15818825 -0.26495826 -0.4128908 0.25135034 -0.0068852017 -0.09401543
0.13463192 0.08525389 -0.10882949 0.1805771 -0.046916865 0.003416871 -0.16759793 -0.4007739
-0.29349306 0.19825499 -0.1304109 -0.5602744 -0.14281861 -0.54824245 0.2580962 -0.4416681
-0.080160305 0.04871178 -0.0042330544 0.10325302 -0.009479896 0.016497059 0.17087963 0.15348142
-0.7040224 -0.025788646 0.098397866 -0.31803358 0.1561367 -0.19115204 -0.25090206 0.01923182
0.3964242 0.06702886 0.2769597 0.4483406 0.51365846 0.048380062 -0.16206026 -0.3882115
-0.38855848 -0.34441483 -0.041044924 -0.645261 0.116975635 -0.2348216 -0.007808779 -0.13686217
-0.47397885 0.16709374 -0.024724115 -0.23131195 -0.203345 -0.23546176 -0.035212815 -0.14687479
-0.16974625 0.16755122 0.43570012 -0.082760334 0.19856782 -0.294696 0.21130466 -0.3178989
-0.5367168 0.20720057 -0.009185498 0.0117965555 -0.058198128 -0.61864036 -0.0654391 -0.05995765
0.14913376 0.14115344 0.09422547 0.22785664 -0.2486651 0.3734013 -0.27633375 -0.09221259
-0.6401831 -0.4022193 0.1845913 -0.520766 0.5404024 -0.20962767 -0.15493084 0.27162275
-0.23261002 0.3836171 0.51299006 0.21051776 -0.47065216 -0.39516222 0.53305984 0.34154603
-0.59410733 0.5177195 -0.029023843 -0.31156754 -0.27199003 0.0008527518 -0.10920243 0.07271058
0.086878635 0.33662125 -0.1437929 0.21714206 0.3296569 -0.39939347 0.14150225 0.21764326
0.2365005 0.37542197 -0.05529365 -0.5739972 -0.1900222 -0.66636604 0.14280125 0.096114054
-0.09928462 0.5813806 0.75098383 -0.5884074 0.117641695 -0.19833396 0.09451015 0.18150863
-0.352585 0.0053715613 -0.41138116 -0.054827362 -0.12261935 -0.4970505 0.35987833 -0.29174402
-0.17494431 -0.2390958 -0.30111685 -0.20917909 0.30142978 0.15212892 -0.237573 0.12547734
-0.09458639 0.16826306 0.3519194 -0.1443512 0.10033625 0.02479741 0.16283773 -0.24949208
-0.34198776 -0.23643368 0.75031775 -0.025484607 0.41218996 -0.17147474 0.10044559 -0.15790454
0.18581007 0.3614128 0.11810521 0.54822016 -0.2125874 -0.045416553 -0.24744037 0.25584307
-0.048539314 0.08918079 0.17375872 0.33189717 -0.041038755 -0.12113182 -0.09326154 0.09372393
-0.57922983 -0.29102933 -0.09022891 0.06986902 0.06856709 0.12136874 0.20761622 -0.29641026
0.039645612 0.67594314 -0.23782173 0.029756144 -0.35723603 -0.017831516 -0.4031321 0.1811396
-0.079350926 -0.26642117 -0.2748604 -0.18906339 -0.10772141 -0.35656944 -0.18396616 0.08400227
-0.4159643 0.18173847 0.23093323 0.10503764 0.19212934 -0.41809225 0.0022001748 -0.0973992
-0.081643246 0.2173574 0.43290448 -0.30452973 0.22858776 0.31224474 -0.3997008 -0.26688746
0.001040964 -0.37795117 0.13862437 0.15993518 0.44945118 -0.14390393 0.37997115 -0.46681902
-0.348742 0.115868926 -0.09608049 0.13711375 0.34071136 0.39632013 -0.18858251 -0.070182875
0.0048769824 0.39896712 0.32138017 0.18476433 -0.48968053 -0.05030659 0.13977747 0.04400625
00000000: 7aaa 8fbe d60b 81be cd26 da3d 31ee e73e
00000010: 917b 0c3e f217 d33b b697 21bf 147b 47bd
00000020: f1b9 cbbe 6a46 893e 1afc 21be 9ca8 87be
00000030: 6c66 d3be feb0 803e 429d e1bb 298b c0bd
00000040: f3dc 093e 9799 ae3d ffe1 debd 34e9 383e
00000050: e62b 40bd 95ed 5f3b cb9e 2bbe 3d32 cdbe
00000060: b944 96be 5b03 4b3e 6f8a 05be 256e 0fbf
00000070: 0b3f 12be 9e59 0cbf 2f25 843e 5222 e2be
00000080: 162b a4bd 0186 473d 6fb5 8abb 5276 d33d
00000090: 9151 1bbc d724 873c 12fb 2e3e 3c2a 1d3e
000000a0: d03a 34bf b642 d3bc d284 c93d 4cd5 a2be
000000b0: 4de2 1f3e 5cbd 43be 3c76 80be 0d8c 9d3c
000000c0: 1df8 ca3e 6d46 893d a9cd 8d3e e68c e53e
000000d0: 1f7f 033f 2c2a 463d 20f3 25be a8c3 c6be
000000e0: 23f1 c6be 2457 b0be b91e 28bd d32f 25bf
000000f0: ec90 ef3d 1375 70be c9e0 ffbb 9925 0cbe
00000100: 5bad f2be 9f1a 2b3e 3a8a cabc 0add 6cbe
00000110: ac39 50be e31c 71be 503b 10bd 5866 16be
00000120: f6d1 2dbe 8c92 2b3e 1614 df3e 407e a9bd
00000130: 5d55 4b3e 65e2 96be 4060 583e a5c3 a2be
00000140: 4666 09bf 632c 543e c57e 16bc 5746 413c
00000150: 2961 6ebd 375f 1ebf ef04 86bd 2796 75bd
00000160: 85b6 183e 878a 103e 49f9 c03d 4053 693e
00000170: 10a2 7ebe 752e bf3e 9e7b 8dbe f4d9 bcbd
00000180: 0ae3 23bf b0ef cdbe 8005 3d3e ec50 05bf
00000190: d057 0a3f a3a8 56be 31a6 1ebe 2312 8b3e
000001a0: 5231 6ebe 7669 c43e 5153 033f f891 573e
000001b0: 52f9 f0be b452 cabe 9c76 083f 1fdf ae3e
000001c0: 6b17 18bf 4489 043f 69c3 edbc c885 9fbe
000001d0: 4742 8bbe 348b 5f3a 86a5 dfbd 49e9 943d
000001e0: 6ded b13d 9f59 ac3e 723e 13be 7d5a 5e3e
000001f0: cac8 a83e 4d7d ccbe f7e5 103e e0dd 5e3e
00000200: 302d 723e 4f37 c03e 987b 62bd 7bf1 12bf
00000210: 2e95 42be f796 2abf 7e3a 123e 72d7 c43d
00000220: bc55 cbbd 5cd5 143f 7a40 403f dea1 16bf
00000230: 21ee f03d 0f18 4bbe 8a8e c13d 66dd 393e
00000240: 0586 b4be ec03 b03b 8da0 d2be a892 60bd
00000250: db1f fbbd 677d febe f941 b83e 795f 95be
00000260: 9a24 33be 88d5 74be fd2b 9abe 0b33 56be
00000270: 0155 9a3e afc7 1b3e 5646 73be 227d 003e
00000280: 82b6 c1bd 274d 2c3e c82e b43e cdd0 13be
00000290: 187d cd3d f023 cb3c efbe 263e da7a 7fbe
000002a0: 0519 afbe ac1b 72be d314 403f 18c5 d0bc
000002b0: 900a d33e 1397 2fbe 6bb6 cd3d bab1 21be
000002c0: ff44 3e3e 190b b93e 25e1 f13d 2858 0c3f
000002d0: 83b0 59be b506 3abd 0261 7dbe ddfd 823e
000002e0: 29d1 46bd 6ba4 b63d ceed 313e 6dee a93e
000002f0: 4118 28bd f613 f8bd e8ff bebd 55f2 bf3d
00000300: 6848 14bf cc01 95be efc9 b8bd 7d17 8f3d
00000310: e76c 8c3d 2d90 f83d 5999 543e 16c3 97be
00000320: 7063 223d 9c0a 2d3f 8a87 73be 28c3 f33c
00000330: a4e7 b6be 6613 92bc 5567 cebe a97c 393e
00000340: bd82 a2bd 5b68 88be 81ba 8cbe d599 41be
00000350: 0b9d dcbd 4590 b6be a061 3cbe 6209 ac3d
00000360: 46f9 d4be a619 3a3e c379 6c3e f91d d73d
00000370: 8ebd 443e 3010 d6be cf30 103b 3b79 c7bd
00000380: 9334 a7bd f092 5e3e a8a5 dd3e 52eb 9bbe
00000390: e912 6a3e 8bde 9f3e 95a5 ccbe 79a5 88be
000003a0: f570 883a d182 c1be 8cf3 0d3e 0cc6 233e
000003b0: 771e e63e 8d5b 13be 948b c23e e702 efbe
000003c0: 508e b2be b04c ed3d d9c5 c4bd 8c67 0c3e
000003d0: b871 ae3e 79ea ca3e c61b 41be 0abc 8fbd
000003e0: 18cf 9f3b 6b45 cc3e f18b a43e dc32 3d3e
000003f0: 68b7 fabe 480e 4ebd d321 0f3e e63f 343d

convs.2.linear_r.W f4 [5, 32, 32]
-0.24099244 -0.2022384 -0.06643522 0.1688091 -0.20116921 0.2002341 -0.28806722 0.013304466
-0.011110177 0.19810972 0.20636784 0.034332637 0.20561893 -0.15169533 0.06543304 -0.1640888
0.017413 -0.3911212 0.20237374 -0.1943211 0.08598507 0.15185384 -0.26833767 -0.0435384
-0.35607266 -0.007612317 -0.4421934 -0.078773625 -0.27468878 -0.55548096 -0.0618503 0.14689846
0.13794877 0.07530802 -0.132038 -0.26485053 0.063391484 0.07441185 0.19837882 -0.3475234
-0.2547251 0.07969665 0.19161303 -0.26357666 0.22756164 0.07486262 -0.08837353 -0.1927812
0.62562484 -0.33820355 -0.1005389 0.043833535 0.13559203 0.02912934 0.18283609 0.20031302
-0.12422536 0.0066937944 0.16491458 -0.15869078 -0.07040624 -0.28389937 0.15138704 0.2529811
-0.4546071 -0.0008602057 0.2973131 0.19537346 -0.103109635 -0.14106576 -0.25379232 0.08700308
0.2740285 0.15510778 0.01992237 -0.18718702 -0.37355903 -0.11464753 -0.2904886 -0.19438663
-0.3538041 -0.012019522 0.115366444 -0.031907238 0.03640059 0.15970668 0.04854248 -0.024445495
0.017334735 0.068630956 0.19687533 -0.22976215 -0.040511157 0.07760642 0.070226826 0.20212428
-0.46984673 0.04794156 0.03261634 -0.032579057 -0.014556249 0.020404872 -0.05228674 -0.31712985
0.2459728 0.06900866 0.28677624 -0.15065154 -0.25313127 -0.11268928 0.027028052 -0.12357504
-0.52942663 -0.2976095 0.0051484345 0.19589476 0.3156187 0.13309206 -0.18195118 -0.2900604
-0.2627098 -0.52802205 -0.13356078 0.19481105 -0.18808994 -0.17646608 0.1893603 0.10334522
-0.050947186 -0.13315557 0.10346705 -0.124828875 -0.21908627 -0.35806727 -0.14980993 0.29962143
0.038328562 0.1744483 0.44363305 -0.39430922 -0.028029371 -0.13108619 0.031793196 0.04315789
-0.22468425 -0.44362262 0.23981082 0.24798563 -0.19740888 0.027775282 0.1626413 0.07194624
0.05855982 0.080603264 -0.037266314 0.13221677 -0.22469306 0.39431363 -0.18022849 0.15638599
0.017138658 -0.12509021 -0.19354464 0.15067683 -0.043536723 -0.14456403 0.19791974 0.015256574
-0.11228417 -0.18482368 -0.054049574 -0.13182996 -0.0030838014 0.1300195 0.4545816 0.018698845
-0.06101168 -0.10755548 0.2669757 0.12585194 -0.13817918 0.10055419 -0.043885954 -0.2513741
0.106866375 -0.23545443 -0.06513117 -0.04039862 -0.25744918 -0.047810327 0.13114828 0.1555448
-0.6491896 -0.04077173 0.054057665 0.030431407 0.32842174 -0.105356894 -0.17577343 0.120496005
-0.12007614 0.3228984 0.0824462 -0.21947062 -0.1078473 -0.31131163 0.3397474 -0.04110916
-0.42894813 0.12493526 0.060489547 -0.020763261 -0.0919365 0.107385136 -0.17607373 0.18755671
-0.26811215 -0.114228316 0.0029150553 -0.24373047 0.054215077 -0.18406408 -0.11519118 0.42085505
-0.20170578 -0.28795525 -0.2512335 0.0009687874 0.42260092 0.003649165 -0.25571147 -0.19599819
0.26852834 -0.021048121 -0.30617645 0.5202282 0.16411899 -0.10992035 0.38217708 -0.5541802
0.08108285 0.2522261 0.33835956 0.14724512 0.01014477 0.1551138 -0.20591772 -0.04539846
-0.056736086 0.26828837 -0.21560387 -0.31719103 -0.0022147114 -0.37581947 -0.13981168 0.24736902
00000000: b9c6 76be 9517 4fbe 300f 88bd 4bdc 2c3e
00000010: 4dff 4dbe 2b0a 4d3e 8c7d 93be fafa 593c
00000020: 7607 36bc 46dd 4a3e 1752 533e 61a0 0c3d
00000030: c58d 523e 0556 1bbe c201 863d e506 28be
00000040: b5a5 8e3c 0a41 c8be 103b 4f3e 1cfc 46be
00000050: f118 b03d 937f 1b3e 8e63 89be 5255 32bd
00000060: 284f b6be be70 f9bb 2c67 e2be 1154 a1bd
00000070: 02a4 8cbe 0034 0ebf bd56 7dbd 8d6c 163e
00000080: 7142 0d3e 173b 9a3d f834 07be 7d9a 87be
00000090: 65d3 813d 3d65 983d d123 4b3e 96ee b1be
000000a0: 546b 82be ff37 a33d 3536 443e 85f3 86be
000000b0: eb05 693e 9351 993d 2efd b4bd 6f68 45be
000000c0: f328 203f 0429 adbe 57e7 cdbd cb8a 333d
000000d0: a3d8 0a3e a7a0 ee3c 6239 3b3e db1e 4d3e
000000e0: de69 febd 9e57 db3b 5edf 283e d67f 22be
000000f0: 2631 90bd 425b 91be 3405 1b3e bd86 813e
00000100: 43c2 e8be 6d7f 61ba 6c39 983e fb0f 483e
00000110: 252b d3bd 8b73 10be 11f1 81be ac2e b23d
00000120: 774d 8c3e 93d4 1e3e 3d34 a33c f4ad 3fbe
00000130: 2143 bfbe 53cc eabd ecba 94be 4a0d 47be
00000140: d025 b5be 87ed 44bc 3e45 ec3d 2ab1 02bd
00000150: c918 153d 268a 233e 7bd4 463d eb41 c8bc
00000160: 9301 8e3c 638e 8c3d b099 493e c546 6bbe
00000170: 07ef 25bd 1df0 9e3d 15d3 8f3d abf9 4e3e
00000180: c08f f0be 5f5e 443d b698 053d 9e71 05bd
00000190: 557d 6ebc 1e28 a73c 9f2a 56bd d85e a2be
000001a0: 4be0 7b3e 6a54 8d3d 56d4 923e 6644 1abe
000001b0: 6c9a 81be a3c9 e6bd ef69 dd3c e914 fdbd
000001c0: 8188 07bf 4660 98be 33b4 a83b a398 483e
000001d0: c698 a13e 4949 083e 6951 3abe cc82 94be
000001e0: e681 86be 742c 07bf 28c4 08be 8c7c 473e
000001f0: a69a 40be 86b3 34be abe7 413e a9a6 d33d
00000200: ffad 50bd ef59 08be 88e6 d33d 48a6 ffbd
00000210: 2758 60be 9854 b7be c667 19be fb67 993e
00000220: 69fe 1c3d 93a2 323e df23 e33e e6e2 c9be
00000230: da9d e5bc 753b 06be 9539 023d 54c6 303d
00000240: a113 66be 8122 e3be f890 753e f2ef 7d3e
00000250: 8e25 4abe fd88 e33c 718b 263e 8d58 933d
00000260: 6cdc 6f3d 5313 a53d 90a4 18bd d563 073e
00000270: f015 66be 7ae3 c93e d18d 38be a623 203e
00000280: 5f66 8c3c a617 00be 9130 46be 074b 1a3e
00000290: 9053 32bd 9808 14be 79ab 4a3e b6f6 793c
000002a0: 3ef5 e5bd 6b42 3dbe 1663 5dbd 6ffe 06be
000002b0: 9a19 4abb d523 053e ebbe e83e 522e 993c
000002c0: 62e7 79bd 0c46 dcbd 0ab1 883e 55df 003e
000002d0: d87e 0dbe 5bef cd3d c2c1 33bd 1bb4 80be
000002e0: c2dc da3d f71a 71be 7e63 85bd 0679 25bd
000002f0: 61d0 83be c3d4 43bd bc4b 063e 2347 1f3e
00000300: 4a31 26bf 4200 27bd 926b 5d3d 494b f93c
00000310: e526 a83e 5bc5 d7bd f3fd 33be 9cc6 f63d
00000320: 7bea f5bd f052 a53e 8ed9 a83d e8bc 60be
00000330: 0cdf dcbd 3d64 9fbe 5ff3 ad3e 1462 28bd
00000340: 179f dbbe 0fde ff3d e3c3 773d b717 aabc
00000350: 3449 bcbd bdec db3d ac4c 34be de0e 403e
00000360: ff45 89be 89f0 e9bd 830a 3f3b 7b94 79be
00000370: a110 5e3d 4b7b 3cbe 5ae9 ebbd 507a d73e
00000380: f68b 4ebe df6e 93be ada1 80be 39f6 7d3a
00000390: 265f d83e d426 6f3b 9dec 82be c0b3 48be
000003a0: 8c7c 893e 1c6d acbc 29c3 9cbe ad2d 053f
000003b0: cf0e 283e ec1d e1bd b7ac c33e c1de 0dbf
000003c0: c40e a63d c823 813e 773d ad3e 6dc7 163e
000003d0: 4036 263c 27d6 1e3e 18dc 52be bcf3 39bd
000003e0: 1964 68bd 185d 893e 43c7 5cbe dd66 a2be
000003f0: b124 11bb 696b c0be cb2a 0fbe 4e4e 7d3e

convs.3.h_bias f4 [32]
-0.05815709 0.10310141 0.8175449 -0.52782226 -0.19572927 -0.15763803 -0.14382178 -0.07235632
0.015791433 -0.043492198 -0.07754641 0.3601104 0.060161047 -0.032275636 -0.022708608 0.21691406
0.119710475 0.1533043 -0.069925986 0.17520185 -0.060581297 -0.19801106 0.19302177 0.3797517
-0.17140384 -0.046933196 -0.07561275 -0.020942384 0.26131973 -0.04418087 -0.04562778 -0.043561377
00000000: 2136 6ebd d526 d33d 9f4a 513f 5c1f 07bf
00000010: 416d 48be dd6b 21be 0446 13be 8d2f 94bd
00000020: 095d 813c e024 32bd a7d0 9ebd 6460 b83e
00000030: 6e6b 763d 7533 04bd 6707 babc b81e 5e3e
00000040: c42a f53d cdfb 1c3e 5b35 8fbd 1d68 333e
00000050: 1824 78bd 69c3 4abe 80a7 453e d16e c23e
00000060: 7d84 2fbe 063d 40bd dcda 9abd 5d8f abbc
00000070: b3cb 853e 00f7 34bd 32e4 3abd 6a6d 32bd

convs.3.loop_weight f4 [32, 32]
0.06722555 -0.046325278 -0.051683858 0.37485588 -0.23492578 0.07075156 0.09710833 0.1023502
-0.48155028 0.12881343 -0.034516204 -0.35362887 -0.34605718 -0.0611073 -0.3006559 -0.24079539
-0.15036894 0.26190522 -0.4078751 0.24006441 -0.63685197 0.18282396 0.23104289 -0.17073779
0.22862153 -0.35790935 0.042252198 0.11616248 -0.054956865 0.029749222 0.1258152 -0.3385508
0.15901762 -0.039530244 -0.55131346 0.3038512 -0.11900827 0.18874937 0.054900244 0.15443426
-0.3721723 -0.19180578 -0.10045162 -0.58643705 -0.47833556 -0.31684697 0.12872283 -0.42515853
-0.44631755 -0.45402607 -0.051969755 0.10951865 -0.0040674955 -0.2240022 -0.32726803 -0.3606736
-0.2318242 -0.037174415 -0.042384703 0.082399964 0.0009312287 0.3151982 0.3862718 0.076979004
-0.053153597 -0.385864 0.6170995 -0.3699296 0.165018 0.31166542 0.46507046 -0.5135867
0.34532762 -0.2764954 0.08966487 0.19418459 -0.25243098 -0.032530915 0.2859917 0.30893606
-0.47365966 -0.119974524 -0.15869217 -0.038323216 -0.15725587 -0.07110476 0.02115791 0.10353297
-0.0070663975 0.2923187 -0.18802471 0.4081648 0.070959166 -0.20220195 0.08042266 -0.010021538
-0.436839 -0.23549049 0.29141605 -0.3107761 -0.013040902 -0.016662428 -0.1707153 -0.12066738
-0.3432482 -0.026876017 0.027291572 0.3885094 0.0496866 0.09194015 -0.68790907 -0.308589
-0.12836498 0.50666296 -0.22313187 -0.20172568 -0.08706658 0.15582307 0.14088975 0.32602492
-0.019241301 -0.50110435 0.07321319 0.38332444 0.2714929 -0.016444009 0.081410825 -0.23788558
0.13299832 0.49939507 -0.46905458 0.0101687005 0.25069845 0.17775983 -0.106318966 -0.17469443
0.25028235 -0.19306958 0.061039053 0.028912721 0.24550979 0.19992368 0.4080742 -0.025953537
-0.2505454 -0.14739789 -0.22086856 -0.08801278 -0.071761034 0.38390538 0.43414718 -0.27537978
0.13802448 -0.6234661 0.2256096 0.21923985 0.026709663 0.2955191 -0.37766534 -0.15807363
-0.17391184 0.37434104 0.017187001 0.36957133 -0.32924455 -0.07962757 0.049531195 -0.087866925
0.53650945 -0.10859266 -0.24585459 0.16209382 0.31610897 0.32095978 -0.110601604 -0.3771642
-0.102783814 -0.090223484 -0.11818954 0.005914334 -0.2720716 -0.3770216 0.19051924 0.45764652
-0.19239183 -0.015214686 -0.5089733 -0.04028297 0.44078517 0.1897207 -0.21764927 0.470802
0.021762129 -0.22756115 -0.46232474 0.06079982 -0.036116295 0.27099374 -0.15672141 -0.43086952
-0.4264676 -0.078306556 -0.30465633 0.46073768 -0.5772697 0.24820095 0.07109595 -0.066274785
-0.32353902 0.41225743 -0.27379617 -0.38933745 -0.08359715 0.4159759 0.11625464 -0.3945002
-0.31546476 0.059437 -0.18849212 0.22135924 0.029786844 0.00096127216 0.0070696333 0.5900333
0.2932625 0.103139356 -0.4198592 -0.1884255 -0.18911377 -0.19503124 -0.42408454 -0.4735507
-0.09568423 0.00578552 -0.019648332 0.37242267 -0.19595623 0.041639842 -0.16496222 0.3568659
-0.12125591 0.13969672 0.26269653 -0.20431252 0.58767843 -0.10407281 -0.20733131 -0.47670132
0.08227447 -0.119038686 -0.053300705 0.09484342 -0.059354912 0.2941837 -0.050588734 0.013601
00000000: 8dad 893d 93bf 3dbd 74b2 53bd 1ced bf3e
00000010: 6290 70be 32e6 903d bbe0 c63d fb9c d13d
00000020: c28d f6be abe7 033e dd60 0dbd d80e b5be
00000030: 682e b1be a64b 7abd 92ef 99be 1193 76be
00000040: 51fa 19be 7118 863e 01d5 d0be 72d3 753e
00000050: bb08 23bf 3436 3b3e 8296 6c3e e3d5 2ebe
00000060: c31b 6a3e e53f b7be a410 2d3d 98e6 ed3d
00000070: 731a 61bd a4b4 f33c b3d5 003e 8856 adbe
00000080: 84d5 223e 77ea 21bd e122 0dbf 6292 9b3e
00000090: 9cba f3bd 8447 413e 14df 603d 0424 1e3e
000000a0: 5e8d bebe bc68 44be 94b9 cdbd bd20 16bf
000000b0: 66e8 f4be c439 a2be ebcf 033e 61ae d9be
000000c0: bc83 e4be 1b76 e8be 3dde 54bd 504b e03d
000000d0: a048 85bb d560 65be ad8f a7be 36aa b8be
000000e0: 5363 6dbe 3344 18bd 959b 2dbd 50c1 a83d
000000f0: b31d 743a a961 a13e 6bc5 c53e 2ba7 9d3d
00000100: 96b7 59bd f78f c5be 3cfa 1d3f 6a67 bdbe
00000110: 7bfa 283e 9c92 9f3e b71d ee3e 6b7a 03bf
00000120: c8ce b03e ce90 8dbe 37a2 b73d 53d8 463e
00000130: a23e 81be 233f 05bd 816d 923e de2c 9e3e
00000140: 8583 f2be 34b5 f5bd 3380 22be cef8 1cbd
00000150: af07 21be 5f9f 91bd 5a53 ad3c 1809 d43d
00000160: 3d8d e7bb ccaa 953e 8d89 40be fafa d03e
00000170: 0a53 913d 070e 4fbe a3b4 a43d 6031 24bc
00000180: 5da9 dfbe 6b24 71be 7c34 953e 0c1e 9fbe
00000190: 82a9 55bc a57f 88bc fecf 2ebe 7620 f7bd
000001a0: 3abe afbe 182b dcbc 9392 df3c b4ea c63e
000001b0: 2d84 4b3d 1e4b bc3d cf1a 30bf 61ff 9dbe
000001c0: 1c72 03be aab4 013f ae7c 64be 2d91 4ebe
000001d0: f74f b2bd 1590 1f3e 6745 103e bdec a63e
000001e0: ef9f 9dbc 6048 00bf ccf0 953d 1a43 c43e
000001f0: 1e01 8b3e 96b5 86bc b8ba a63d 4798 73be
00000200: b630 083e b6b0 ff3e ec27 f0be 9f9a 263c
00000210: 8c5b 803e ac06 363e c2bd d9bd 19e3 32be
00000220: 0225 803e 08b4 45be 1604 7a3d 5fda ec3c
00000230: eb66 7b3e cbb8 4c3e 1aef d03e 839c d4bc
00000240: 7d47 80be 79ef 16be 5e2b 62be 0b40 b4bd
00000250: 73f7 92bd 3f8f c43e 8a48 de3e 94fe 8cbe
00000260: 4a56 0d3e 799b 1fbf 3406 673e 6980 603e
00000270: 39ce da3c 484e 973e 5a5d c1be 0ede 21be
00000280: f215 32be a1a9 bf3e c1cb 8c3c 7438 bd3e
00000290: be92 a8be c813 a3bd 39e1 4a3d 93f3 b3bd
000002a0: af58 093f d465 debd 4ec1 7bbe ecfb 253e
000002b0: 09d9 a13e d754 a43e 1883 e2bd ab1b c1be
000002c0: 5280 d2bd 17c7 b8bd 5c0d f2bd 08cd c13b
000002d0: f84c 8bbe fa08 c1be 7a17 433e a550 ea3e
000002e0: 5d02 45be 0547 79bc 134c 02bf c1ff 24bd
000002f0: 98ae e13e 2546 423e 73df 5ebe f60c f13e
00000300: 7e46 b23c ca05 69be d4b5 ecbe 3b09 793d
00000310: aeee 13bd b1bf 8a3e 947b 20be ee9a dcbe
00000320: f659 dabe 305f a0bd eafb 9bbe cfe5 eb3e
00000330: f2c7 13bf 6428 7e3e c19a 913d 13bb 87bd
00000340: e8a6 a5be 6813 d33e 032f 8cbe 3d57 c7be
00000350: fc34 abbd cbfa d43e ea16 ee3d eefb c9be
00000360: 9984 a1be 3674 733d 1404 41be ffab 623e
00000370: 8a03 f43c e2fd 7b3a 62a8 e73b 6c0c 173f
00000380: 8126 963e ba3a d33d c9f7 d6be 9df2 40be
00000390: 0aa7 41be 45b6 47be 9c21 d9be 3d75 f2be
000003a0: 18f6 c3bd 7694 bd3b 8af5 a0bc 2fae be3e
000003b0: c0a8 48be 8a8e 2a3d dbeb 28be 21b7 b63e
000003c0: 0555 f8bd a80c 0f3e 2980 863e 4d37 51be
000003d0: 1872 163f 2024 d5bd a94e 54be 3212 f4be
000003e0: 847f a83d 8eca f3bd d751 5abd 443d c23d
000003f0: 231e 73bd 3f9f 963e 2236 4fbd bbd6 5e3c

convs.3.linear_r.W f4 [5, 32, 32]
-0.043327823 0.21828853 -0.0075815124 0.29067457 0.1517341 -0.006864087 -0.19324195 -0.024438597
-0.18733245 -0.01139158 -0.02399409 0.18449216 -0.1899959 -0.009671227 -0.025906127 -0.09646085
-0.0052729454 -0.06447381 -0.006268553 0.026808644 -0.19843222 0.078453265 0.10948542 -0.49483213
0.007718949 0.078505486 -0.057846524 -0.118930675 0.33199927 -0.083088055 0.48481342 0.3125153
-0.11636551 0.02546899 -0.14740747 0.29256132 -0.017778317 -0.16351905 0.2186947 0.10656172
-0.23813578 -0.21458076 0.15367272 -0.11359554 -0.0073172497 -0.018419 -0.027135653 -0.4080086
0.09281973 0.16603096 0.12906751 -0.0096831545 -0.16065212 -0.1088803 -0.01799453 -0.23008439
0.12826227 0.5314774 -0.19973835 0.25895837 -0.023299793 0.14727908 0.12604551 -0.11724948
-0.32478762 -0.14019401 0.14698507 -0.51379246 -0.21192946 -0.31592107 0.11411252 0.10475203
-0.09395907 -0.0811753 0.4779771 0.2646782 0.33938777 0.25085297 -0.25857726 -0.18791695
0.24068525 -0.061881144 -0.13401593 0.27252617 -0.09756667 -0.06050907 0.17120242 0.69841236
-0.4278821 0.19428352 -0.15949482 -0.2912725 0.081318855 -0.1626189 -0.07066364 -0.0580932
-0.15747601 0.15389504 0.34235084 0.1249189 -0.23823065 -0.14205512 -0.3441238 -0.020197805
-0.33383328 -0.023787642 0.3603506 0.23553286 0.23575385 -0.23819661 -0.26462206 0.09011322
0.04111857 0.22942129 0.11273324 -0.004314546 0.1771714 -0.17273118 -0.11820947 -0.25614357
0.18141693 -0.112895384 -0.1757044 0.030326718 0.18753548 -0.09522803 0.11759141 -0.3237353
-0.25294977 0.38088134 -0.49310398 0.18789096 0.030800432 0.32678536 -0.6913466 -0.054923456
0.36895466 0.09783636 -0.14593826 -0.23558062 -0.39780745 0.4597115 0.1670557 0.0819252
-0.1289122 0.026633963 0.023011867 -0.041092217 0.17587245 -0.13234371 -0.10893659 0.27878484
0.26860285 -0.26476094 0.20076492 0.11613778 -0.30586788 0.0065967697 0.19541056 0.08996113
-0.025325883 0.17427947 0.17018028 0.32298142 -0.11459066 -0.124065295 -0.42558917 -0.028770825
-0.08952917 -0.21046612 -0.15115525 0.13268271 -0.22873674 -0.017085424 -0.013832594 -0.2963627
-0.22398548 0.29596105 0.031242942 0.17617781 0.26487842 -0.048471816 -0.026512992 -0.12677647
-0.09160772 0.25137594 -0.17750229 -0.484672 0.28881028 -0.08263886 0.42283338 0.006227983
-0.1329064 0.17878628 0.070714824 -0.31180716 -0.040970266 0.20346087 -0.5021265 0.15358764
-0.24999267 -0.02870115 -0.3947045 -0.22162925 -0.1458996 0.25189164 -0.02852232 0.09738359
-0.17956194 0.29928678 -0.26844713 -0.24015874 0.1683887 -0.121344976 0.21828449 -0.25904268
0.16779707 0.37989894 -0.28775716 -0.28173837 0.08334667 -0.09281338 0.11920649 0.14668636
0.10872035 0.066528805 -0.14815521 0.22974703 -0.20157443 0.21868692 0.072919264 -0.112210676
-0.42052248 0.5156276 0.10066131 -0.28754005 0.20262706 -0.023056818 -0.13050348 -0.057459902
0.11558602 -0.16087934 -0.13669279 -0.21911573 0.25906536 -0.26424417 0.08146954 -0.36636814
-0.021494735 -0.33942366 -0.08695605 0.141357 -0.06774703 -0.06968628 0.19373743 -0.15462095
00000000: 8478 31bd 0787 5f3e 566e f8bb 4cd3 943e
00000010: 2f60 1b3e 23ec e0bb 38e1 45be 7433 c8bc
00000020: 14d4 3fbe c0a3 3abc 418f c4bc 83eb 3c3e
00000030: 498e 42be 1174 1ebc 1639 d4bc 448d c5bd
00000040: acc8 acbb d80a 84bd 6f68 cdbb cd9d db3c
00000050: d131 4bbe 1bac a03d e439 e03d a35a fdbe
00000060: 3def fc3b 7cc7 a03d 7af0 6cbd ed91 f3bd
00000070: cffb a93e 122a aabd 7739 f83e 0102 a03e
00000080: 0a51 eebd 58a4 d03c fcf1 16be 99ca 953e
00000090: d5a3 91bc 8a71 27be 81f1 5f3e 083d da3d
000000a0: ded9 73be 0fbb 5bbe 625c 1d3e c7a4 e8bd
000000b0: 8ac5 efbb 71e3 96bc 974b debc 81e6 d0be
000000c0: 4518 be3d 0504 2a3e 462a 043e 18a6 1ebc
000000d0: fd81 24be a2fc debd 4469 93bc 3e9b 6bbe
000000e0: 2f57 033e e70e 083f 3688 4cbe 3196 843e
000000f0: 35df bebc 54d0 163e 1312 013e 7f20 f0bd
00000100: 904a a6be 058f 0fbe 4183 163e e787 03bf
00000110: 0904 59be 68c0 a1be d3b3 e93d 3b88 d63d
00000120: 9d6d c0bd 3c3f a6bd 6ab9 f43e e783 873e
00000130: 3cc4 ad3e cd6f 803e 3d64 84be 4d6d 40be
00000140: 3276 763e 1577 7dbd 793b 09be 8d88 8b3e
00000150: 09d1 c7bd 5cd8 77bd b04f 2f3e 27cb 323f
00000160: 5d13 dbbe 42f2 463e 9c52 23be ab21 95be
00000170: 808a a63d 9285 26be 19b8 90bd 23f3 6dbd
00000180: 6441 21be a996 1d3e 9c48 af3e 7bd5 ff3d
00000190: bcf2 73be e676 11be ff30 b0be de75 a5bc
000001a0: 32ec aabe 4dde c2bc e07f b83e 872f 713e
000001b0: 7569 713e d0e9 73be 8b7c 87be 488d b83d
000001c0: f26b 283d 6aed 6a3e afe0 e63d 0961 8dbb
000001d0: 6b6c 353e 71e0 30be ce17 f2bd 4025 83be
000001e0: 5cc5 393e b235 e7bd dbeb 33be bd6f f83c
000001f0: 4d09 403e ea06 c3bd c4d3 f03d a2c0 a5be
00000200: a282 81be e102 c33e 2078 fcbe 7d66 403e
00000210: 3051 fc3c 6950 a73e 17fc 30bf 6bf7 60bd
00000220: a0e7 bc3e 6e5e c83d d770 15be 0c3c 71be
00000230: 6bad cbbe 4e5f eb3e a610 2b3e 66c8 a73d
00000240: 8f01 04be 782f da3c 6283 bc3c 5050 28bd
00000250: e817 343e 1c85 07be 261a dfbd e3bc 8e3e
00000260: 5086 893e bf8e 87be 5295 4d3e a5d9 ed3d
00000270: b79a 9cbe b729 d83b b519 483e 8a3d b83d
00000280: 3a78 cfbc 5176 323e bd43 2e3e d25d a53e
00000290: 82ae eabd f215 febd d3e6 d9be cbb0 ebbc
000002a0: 125b b7bd 6e84 57be 71c8 1abe fadd 073e
000002b0: f739 6abe bbf6 8bbc 1ba2 62bc dabc 97be
000002c0: 735c 65be 3588 973e 33f1 ff3c f567 343e
000002d0: 259e 873e 628a 46bd c631 d9bc b1d1 01be
000002e0: d49c bbbd 59b4 803e 29c3 35be ee26 f8be
000002f0: f1de 933e 903e a9bd 9e7d d83e 1c14 cc3b
00000300: 9e18 08be c013 373e efd2 903d 30a5 9fbe
00000310: 70d0 27bd 0c58 503e 5d8b 00bf 1446 1d3e
00000320: 14fe 7fbe ad1e ebbc b516 cabe c7f2 62be
00000330: b466 15be f1f7 803e a4a7 e9bc 0c71 c73d
00000340: 16df 37be 1e3c 993e e771 89be 2cec 75be
00000350: 166e 2c3e b783 f8bd f885 5f3e 3ea1 84be
00000360: ffd2 2b3e 1d82 c23e e854 93be 0340 90be
00000370: a9b1 aa3d f114 bebd 8822 f43d f334 163e
00000380: c6a8 de3d 4140 883d 00b6 17be ce42 6b3e
00000390: 8769 4ebe 77ef 5f3e b256 953d b6ce e5bd
000003a0: b94e d7be 2c00 043f 8427 ce3d 7338 93be
000003b0: 787d 4f3e a7e1 bcbc b4a2 05be 135b 6bbd
000003c0: 5db8 ec3d 8ebd 24be 32f9 0bbe e05f 60be
000003d0: 37a4 843e 034b 87be 81d9 a63d 9b94 bbbe
000003e0: ba15 b0bc f0c8 adbe 0316 b2bd e4bf 103e
000003f0: f4be 8abd aeb7 8ebd 1b63 463e f454 1ebe
