parameters/baseline_igmc_games_0.2510.pt (torch, 214261 bytes, 15 tensors)

convs.0.h_bias f4 [32]
0	0xbd4e4768	-0.050361067
1	0x3c26a714	0.0101716705
2	0xbce295dc	-0.02765935
3	0xbc5a7158	-0.013332687
4	0x3d69a16f	0.05703872
5	0x3bd5ea6a	0.0065281885
6	0xbcfd8381	-0.030946495
7	0xbc197af4	-0.009367693
8	0xbdb10444	-0.08643392
9	0x3ca26f39	0.019828426
10	0xbcf8ef7f	-0.030387638
11	0x3c98c9d9	0.018650936
12	0x3b7c7b1e	0.0038525532
13	0x3a0da1e5	0.00054028473
14	0x3c405cee	0.011740906
15	0xbcd2c8ba	-0.02573048
16	0xbc0eda9e	-0.008719115
17	0x3ce04a40	0.027379155
18	0xbcac5d7e	-0.021040674
19	0x3ce11cf7	0.027479632
20	0xbc287195	-0.010280986
21	0x3cb5ff99	0.022216605
22	0x3c0c1139	0.008549028
23	0x3d3afa86	0.045649074
24	0xbd825d5a	-0.06365462
25	0x3d668912	0.056283064
26	0xbc9ed1ef	-0.019387214
27	0x3b628b45	0.0034567874
28	0x3c180168	0.009277679
29	0xbb262cf3	-0.0025356382
30	0xbd14ec7e	-0.03635835
31	0xbd7d6827	-0.061866906

convs.0.loop_weight f4 [4, 32]
0	0xbc1c9c2a	-0.009558717
1	0x3cc5f9c4	0.02416695
2	0xbec58eec	-0.38585603
3	0xbd076b6d	-0.033061434
4	0xbede8d38	-0.43467116
5	0x3d6e199d	0.058129895
6	0x3e29f215	0.16596253
7	0xbed29288	-0.4112742
8	0x3e505e5d	0.20348497
9	0x3e0b353e	0.13594529
10	0xbc86915a	-0.01642673
11	0x3ea66ca6	0.32504767
12	0xbd535097	-0.05159053
13	0xbe8c3864	-0.27386773
14	0x3e8302c1	0.2558804
15	0x3e918321	0.28420356
16	0x3d504534	0.050847247
17	0x3e98f5bd	0.29874983
18	0x3eb65fc7	0.35619947
19	0xbdd63117	-0.10458582
20	0xbe26a34c	-0.1627323
21	0x3ed81067	0.42200014
22	0x3e30132a	0.1719481
23	0x3f07f21d	0.5310381
24	0x3e8a664c	0.2703117
25	0x3be92e64	0.007116126
26	0x3eeb420f	0.45948836
27	0x3f006c9a	0.5016571
28	0x3e826736	0.2546937
29	0x3eec6ba6	0.4617588
30	0xbf05e2d7	-0.52299255
31	0x3df45d55	0.11931864
32	0xbe9ffb99	-0.3124664
33	0xbe8bf5c2	-0.27335936
34	0xbecc7498	-0.39932704
35	0xbebeecc7	-0.37290022
36	0xbec5a19d	-0.38599864
37	0xbf0c42aa	-0.5478922
38	0x3e7105c0	0.2353735
39	0xbe504f30	-0.20342708
40	0x3ed018af	0.40643832
41	0xbe74e9ed	-0.2391736
42	0x3e730ec6	0.23736104
43	0xbe8b0511	-0.27152303
44	0x3ee9b34b	0.45644602
45	0x3f0403a5	0.5156806
46	0x3ca18067	0.019714547
47	0x3eebc22a	0.46046573
48	0xbc5cb692	-0.0134712625
49	0x3eb5ae24	0.3548442
50	0x3e79c065	0.24389799
51	0x3dc62e4a	0.09676798
52	0x3e931958	0.28730273
53	0x3ea36d51	0.3191934
54	0xbec44250	-0.38331842
55	0xbe0fe1bb	-0.14050953
56	0xbedbdd31	-0.42942193
57	0x3ea71838	0.32635665
58	0xbd8bef32	-0.06832732
59	0xbe8397d3	-0.2570177
60	0x3dd53794	0.10410991
61	0xbd8ee981	-0.06978131
62	0x3dc472c2	0.09592201
63	0x3ee815f5	0.45329252
64	0x3ee21b5e	0.44161505
65	0xbdc32720	-0.09528947
66	0x3f03afeb	0.51440305
67	0x3daac832	0.083389655
68	0xbe4dfa9c	-0.20115131
69	0x3eb9c470	0.36282682
70	0x3eda07ed	0.42584172
71	0x3eefad75	0.46812025
72	0x3e905558	0.28190112
73	0x3c1e13b7	0.009648255
74	0x3ef5a2f2	0.4797588
75	0x3e740496	0.23829874
76	0xbed2a290	-0.4113965
77	0x3eb81146	0.3595068
78	0xbda592d5	-0.080846466
79	0x3e2db5ae	0.16963837
80	0xbf0779ae	-0.52920043
81	0xbbe9c433	-0.0071339845
82	0xbe06a84c	-0.13150138
83	0xbeaa6beb	-0.3328546
84	0xbe87d945	-0.2653295
85	0x3bf5d718	0.007502448
86	0xbec4de15	-0.38450685
87	0xbe231e06	-0.15929422
88	0x3dd52ec3	0.1040931
89	0xbeb49bf1	-0.35275224
90	0xbe3640ae	-0.17798111
91	0xbda704ac	-0.08155188
92	0xbec3a7ae	-0.38213867
93	0xbe6c2cd4	-0.23063976
94	0xbd57d656	-0.05269464
95	0x3df9775f	0.12180971
96	0x3e037ec4	0.12841326
97	0x3e780b23	0.24222998
98	0x3eb3ee18	0.3514259
99	0x3eb3365f	0.3500242
100	0x3db61ef6	0.08892624
101	0x3d82b9b9	0.0638308
102	0x3d81b483	0.06333258
103	0x3e71cdec	0.23613709
104	0xbd05eb28	-0.032694966
105	0xbec82ba0	-0.39095783
106	0xbcdb89d4	-0.02679912
107	0xbe8aecc9	-0.27133778
108	0xbd9070d5	-0.07052771
109	0xbee3b6e5	-0.44475475
110	0xbd8b44e3	-0.068002485
111	0xbee6ca38	-0.45076156
112	0x3ecd8ad7	0.4014499
113	0x3e887dd3	0.26658496
114	0x3e904ff6	0.28186005
115	0xbe7ba5c9	-0.24574961
116	0xbe19dd11	-0.15025736
117	0xbd4b7671	-0.0496735
118	0xbf01d225	-0.5071128
119	0xbe891380	-0.2677269
120	0x3e012119	0.12610282
121	0xbee6803a	-0.45019704
122	0xbe6f2689	-0.23354544
123	0xbdd4f151	-0.1039759
124	0xbe486fc6	-0.19573888
125	0x3e631409	0.22175612
126	0xbe664f10	-0.22491097
127	0x3c9ac9b2	0.018895004

convs.0.linear_r.W f4 [5, 4, 32]
0	0xbe93cd28	-0.2886746
1	0xbe3fa494	-0.18715125
2	0x3e67cba1	0.22636272
3	0x3e8fa32d	0.2805418
4	0xbdeadd29	-0.11467964
5	0xbe056072	-0.13025072
6	0xbda0ecbe	-0.07857655
7	0xbb895f54	-0.004192272
8	0xbe8e1259	-0.27748373
9	0x3ea590ff	0.32337186
10	0xbed43d83	-0.4145318
11	0xbec3b533	-0.38224182
12	0xbeed53cc	-0.46352994
13	0xbec5a88c	-0.38605154
14	0xbe41ece8	-0.18938029
15	0x3d81f217	0.06345003
16	0x3ecd035e	0.4004163
17	0x3ed414b3	0.41422042
18	0xbef3efed	-0.47643986
19	0xbe0a29f3	-0.13492565
20	0xbe55e12e	-0.2088668
21	0x3de8aa44	0.113606006
22	0xbeab9e4e	-0.33519214
23	0x3e86caf4	0.26326716
24	0xbe5ba3f5	-0.21449263
25	0xbedf55cb	-0.43620142
26	0xbeb6dd50	-0.35715723
27	0xbec05034	-0.3756119
28	0xbedfdbbc	-0.43722332
29	0x3dbaaa72	0.09114541
30	0x3dc7bc21	0.097526796
31	0x3e618117	0.220219
32	0x3ec00fa1	0.37511924
33	0xbeaa1f01	-0.3322678
34	0x3eb8c810	0.36090136
35	0xbe5137ee	-0.20431492
36	0x3e402526	0.18764171
37	0x3ef1d7df	0.4723501
38	0xbcc5e5ce	-0.024157431
39	0xbdbae21d	-0.09125159
40	0xbec9e7c2	-0.3943463
41	0x3e4c8599	0.19972838
42	0xbee1bed5	-0.44090906
43	0xbd8ca013	-0.06866469
44	0x3ed99707	0.42498037
45	0x3e1908fd	0.14944835
46	0xbe12af89	-0.14324774
47	0x3e130d87	0.14360629
48	0x3e4da684	0.20083052
49	0xbe9935c0	-0.2992382
50	0x3e11754f	0.14204906
51	0xbe57e119	-0.21081962
52	0xbeeacfde	-0.45861715
53	0x3ea7c994	0.3277098
54	0xbe9c6216	-0.30543584
55	0x3eecfbcb	0.46285853
56	0xbedd7fc5	-0.43261543
57	0x3e92aef7	0.28649113
58	0xbef2f774	-0.47454417
59	0x3eac0cf4	0.33603632
60	0x3e81e3e8	0.2536919
61	0x3e09b919	0.13449515
62	0x3dcc4855	0.09974734
63	0xbeca9b6e	-0.39571708
64	0x3debb9b5	0.1151003
65	0xbebe25d4	-0.37138236
66	0xbeb84e67	-0.35997316
67	0x3e412a66	0.1886383
68	0xbea9d89b	-0.3317307
69	0x3dbbe2f5	0.09174148
70	0xbe844e15	-0.25840822
71	0xbe7b4316	-0.2453731
72	0x3dd98c0f	0.10622417
73	0xbe75b289	-0.23993887
74	0x3e1b32ee	0.15156147
75	0x3ea9ee36	0.33189553
76	0x3e8b8e31	0.2725692
77	0xbd68443e	-0.056705706
78	0x3d4126e4	0.04715623
79	0x3e490097	0.19629131
80	0x3d54e451	0.051975552
81	0xbcdba3d1	-0.026811512
82	0xbe353cb8	-0.17698944
83	0xbe71eff8	-0.23626697
84	0x3e829370	0.2550311
85	0xbec02495	-0.3752791
86	0x3e9b62cf	0.30348822
87	0x3d92757b	0.07151314
88	0x3e160ac5	0.14652546
89	0x3e90545c	0.2818936
90	0xbee326b4	-0.44365466
91	0xbe236b38	-0.1595887
92	0x3deac885	0.11464027
93	0xbd2da04b	-0.042389195
94	0xbcd4db8e	-0.025983598
95	0x3cc2c4bc	0.02377545
96	0xbe9a9d41	-0.301981
97	0xbef35a35	-0.4752976
98	0xbd7ccf28	-0.061720997
99	0x3ed14bba	0.40878087
100	0x3e768a7a	0.24076262
101	0x3e17dbaa	0.14829889
102	0x3ed4feb8	0.41600585
103	0xbe21e0a4	-0.1580835
104	0x3ead085a	0.33795434
105	0x3d702ddc	0.058637485
106	0xbd09e516	-0.03366574
107	0xbecdd9d4	-0.40205252
108	0x3e851744	0.25994313
109	0x3ef1b4ec	0.47208345
110	0x3e87533f	0.264307
111	0xbe34ab67	-0.1764351
112	0xbed29251	-0.41127256
113	0xbeab3233	-0.33436736
114	0x3e4ddac4	0.20102984
115	0xbe8a9efd	-0.27074423
116	0xbbc71b27	-0.006076235
117	0xbe2c35da	-0.16817418
118	0xbef2b5e4	-0.47404397
119	0x3eed964b	0.46403727
120	0x3e476345	0.19471462
121	0x3ed40ad4	0.4141451
122	0xbec46423	-0.38357648
123	0x3ebcc332	0.36867672
124	0x3d60ba5b	0.054865222
125	0x3df64497	0.12024801
126	0x3ecc35bf	0.39884755
127	0x3d93777f	0.072005264
128	0xbedf49ea	-0.4361108
129	0x3e9abe75	0.30223432
130	0xbe8ca1b2	-0.27467114
131	0xbe8e0b53	-0.27743015
132	0xbed45fb3	-0.41479263
133	0xbd7a08fb	-0.06104372
134	0x3dfed24c	0.12442455
135	0x3ebc05d3	0.36723194
136	0xbd040231	-0.032228652
137	0x3c39950a	0.011327038
138	0xbda5315e	-0.08066057
139	0x3f3e0339	0.7422367
140	0x3e6d02fe	0.23145673
141	0x3ea5bcbd	0.32370558
142	0xbe8e6c30	-0.27816916
143	0x3ccce069	0.02500935
144	0x3dee80e8	0.11645681
145	0xbe8a0087	-0.26953527
146	0xbef05d0e	-0.46945995
147	0x3e04ea27	0.12979947
148	0xbea7dff8	-0.32788062
149	0xbea5ca9a	-0.32381135
150	0x3e0d5777	0.13802896
151	0x3aceaaa3	0.0015767406
152	0x3e3fb9ac	0.18723172
153	0xbe111d4c	-0.14171332
154	0xbe8d8f18	-0.27648234
155	0xbe145c68	-0.14488375
156	0x3da4f3f7	0.08054345
157	0xbe30e156	-0.17273459
158	0x3eb7ac6e	0.3587374
159	0x3e412fb5	0.18865855
160	0xbcd1255b	-0.025530508
161	0xbf38f861	-0.72253996
162	0x3f08c7b2	0.5342971
163	0x3f63edef	0.8903493
164	0x3e5febf6	0.21867356
165	0x3e3ea97a	0.18619338
166	0xbed86b2c	-0.42269266
167	0x3ebd62c3	0.36989412
168	0x3ebf8960	0.37409496
169	0x3e9bd9a5	0.30439487
170	0xbe0d569d	-0.13802572
171	0xbf5685d8	-0.8379798
172	0xbd6ab6ea	-0.057303347
173	0x3ed047cf	0.40679786
174	0x3ec97cec	0.3935312
175	0x3f1ebb02	0.620041
176	0x3f4fa30e	0.81108177
177	0xbe9198d6	-0.28436917
178	0x3b5f15c2	0.0034040068
179	0x3f349c23	0.70550746
180	0xbf64fdc3	-0.8944971
181	0xbf8a65b6	-1.081229
182	0xbeede938	-0.46466994
183	0xbea69b71	-0.32540467
184	0x3ed8243b	0.42215142
185	0x3e4611e3	0.1934276
186	0xbf34a2e8	-0.70561075
187	0x3f400d4a	0.7502028
188	0xbc00b12f	-0.007854744
189	0xbf2ff924	-0.68739533
190	0xbe16c045	-0.14721783
191	0xbd6a0bec	-0.057140276
192	0x3ea96556	0.33085126
193	0xbc552063	-0.01300821
194	0x3d274061	0.04083288
195	0xbdd12cd0	-0.102136254
196	0xbe13ac99	-0.1442131
197	0xbe3fc947	-0.18729125
198	0xbe264777	-0.16238199
199	0xbdfe6d28	-0.12423164
200	0x3da28376	0.079352304
201	0x3e105ad6	0.14097151
202	0xbe49baad	-0.19700117
203	0xbd999ae6	-0.07500248
204	0x3e88b1be	0.26698107
205	0xbeaeb6ac	-0.34123743
206	0xbe4a7c7e	-0.19774053
207	0xbeb410f1	-0.35169175
208	0x3e778e10	0.24175286
209	0x3eac24dc	0.3362187
210	0xbdbaf374	-0.09128466
211	0x3e8e3daf	0.27781436
212	0xbbe993ce	-0.0071282154
213	0xbdaadd4b	-0.083429895
214	0xbee6126a	-0.44935924
215	0xbf0c0c50	-0.5470629
216	0x3c8f912c	0.017525278
217	0x3ede564f	0.43425223
218	0xbe7e8a83	-0.24857526
219	0x3e4f67e5	0.20254476
220	0x3e87a939	0.26496294
221	0x3eb040b9	0.3442438
222	0x3ca2fe4b	0.019896647
223	0xbeaf0753	-0.34185275
224	0xbe9472c7	-0.28993818
225	0xbf034390	-0.5127497
226	0xbe85a774	-0.2610432
227	0xbe18f6cb	-0.14937894
228	0xbe12b2c3	-0.14326005
229	0xbe6c96bb	-0.23104374
230	0xbea9522b	-0.33070502
231	0x3eac9e3d	0.33714476
232	0x3ec1dab5	0.37862173
233	0xbe82459e	-0.2544374
234	0xbee7b26b	-0.4525331
235	0x3e8a1636	0.2697007
236	0x3c2ce803	0.010553363
237	0xbe56c94a	-0.20975223
238	0x3e4e82a8	0.20167029
239	0xbda0e038	-0.07855266
240	0x3ea55e5c	0.32298553
241	0x3ed72eb9	0.42027834
242	0xbea26a65	-0.31721798
243	0xbeb66697	-0.35625145
244	0x3e80bd15	0.25144258
245	0x3eb43e92	0.35203987
246	0x3ee42d05	0.44565597
247	0xbdf0857f	-0.11744212
248	0xbe4e104a	-0.20123401
249	0x3d0e744f	0.03477889
250	0xbe993ff7	-0.29931614
251	0x3e7d2975	0.24722846
252	0x3e3568b1	0.17715718
253	0x3e9d46a0	0.30717945
254	0xbeb62044	-0.35571492
255	0xbe6ecdee	-0.23320743

convs.1.h_bias f4 [32]
0	0x3b0d739b	0.0021583799
1	0xbbf5cf2b	-0.007501503
2	0xba34343a	-0.00068742374
3	0x3c8039a5	0.015652487
4	0x3cc8e7bd	0.024524564
5	0xbbcacb70	-0.0061888024
6	0x3bbd9b2b	0.0057863197
7	0x3bc17700	0.0059040785
8	0x3a388cac	0.0007040005
9	0xbc80af44	-0.015708573
10	0xbc44540f	-0.011982932
11	0xbd61c9b0	-0.055123985
12	0x3c866440	0.016405225
13	0xbb93b4da	-0.004507643
14	0x3d3fd239	0.046831343
15	0xbd527a2b	-0.05138604
16	0xbc0a7415	-0.008450528
17	0x3ac92b35	0.001534796
18	0xbd0794f2	-0.03310103
19	0xbd4d2cd0	-0.050091565
20	0xbbefbff9	-0.007316586
21	0xbcc7dfe0	-0.024398744
22	0xbb704082	-0.0036659543
23	0x3c5d7d6a	0.013518671
24	0x3ca7f290	0.020501405
25	0x3d2889a5	0.041146893
26	0xbb34fea0	-0.0027617589
27	0x3c5ed481	0.01360047
28	0x3ccf0053	0.02526871
29	0xbc25caa9	-0.010119119
30	0xbc86949a	-0.01642828
31	0x3c887bd9	0.016660618

convs.1.loop_weight f4 [32, 32]
0	0xbcc3f5d8	-0.023920938
1	0x3e9ec040	0.3100605
2	0x3ca3d686	0.019999754
3	0xbeba4ea1	-0.36388114
4	0xbe53aefc	-0.2067222
5	0x3d85a0ae	0.06524788
6	0x3c063feb	0.00819395
7	0xbe4e433e	-0.20142838
8	0x3d94b7d9	0.07261629
9	0xbea0e00a	-0.31420928
10	0x3ed00b57	0.40633652
11	0x3e8b8a79	0.27254084
12	0xbeadae83	-0.33922204
13	0xbe14fef7	-0.14550386
14	0xbd2fdf9f	-0.04293787
15	0xbe869bd7	-0.2629077
16	0xbe35dbf6	-0.1775969
17	0x3e9634c7	0.2933714
18	0x3dc25cf4	0.09490386
19	0xbe85ae7a	-0.26109678
20	0x3e7f06d5	0.2490495
21	0x3ec9e531	0.39432672
22	0xbed8f2d8	-0.42372775
23	0x3e48c0bb	0.19604771
24	0xbd59dd7c	-0.05318974
25	0xbdc36d23	-0.095423006
26	0xbeab4a0d	-0.33454934
27	0x3e8d04f4	0.2754284
28	0xbe69a0f0	-0.22815299
29	0xbe86950a	-0.26285583
30	0xbec3baf1	-0.38228562
31	0xbe4d3ef9	-0.20043553
32	0xbe9832c7	-0.2972624
33	0x3de6332b	0.11240228
34	0xbe9eec30	-0.31039572
35	0xbe8755ed	-0.26432744
36	0x3d2a5f02	0.041594513
37	0x3e56478d	0.20925732
38	0x3ab06ca8	0.0013460116
39	0xbe92a206	-0.2863924
40	0x3dcef5c6	0.10105471
41	0x3ebc0671	0.36723664
42	0xbeb278d8	-0.3485782
43	0xbdeed9be	-0.11662625
44	0xbdc04c80	-0.09389591
45	0x3ec26150	0.3796487
46	0xbe9b3db3	-0.3032051
47	0x3d7d4879	0.061836693
48	0xbed88df7	-0.4229581
49	0xbea12af9	-0.31478098
50	0xbea3b3b9	-0.31973055
51	0x3ea9a5e2	0.3313437
52	0xbe489201	-0.19586946
53	0x3e13e719	0.14443626
54	0xbe3cc5f4	-0.18434888
55	0x3e98a70a	0.2981494
56	0x3dce7c90	0.10082352
57	0x3dba006f	0.09082114
58	0xbe98949e	-0.29800886
59	0xbe477b77	-0.19480692
60	0xbdf6c739	-0.120497175
61	0xbc432fa5	-0.011913215
62	0x3eab5c26	0.3346874
63	0x3d1b7fe0	0.037963748
64	0x3ec73432	0.3890701
65	0x3e7692e6	0.24079475
66	0x3e5ec55a	0.21754971
67	0x3d969379	0.07352347
68	0x3c9d9d2b	0.019239983
69	0x3e914e6f	0.28380153
70	0xbe872210	-0.26393175
71	0x3e78002a	0.24218813
72	0x3d24347f	0.040089127
73	0xbe3841ad	-0.17993803
74	0xbd91926a	-0.071080044
75	0x3ebabb08	0.3647082
76	0x3db89e5a	0.09014578
77	0x3eb85375	0.36001173
78	0xbb842710	-0.004032977
79	0x3d1565d7	0.036474075
80	0x3eb3a19a	0.3508423
81	0xbe9abf27	-0.30223963
82	0xbecc455b	-0.39896664
83	0xbb9c081b	-0.0047617084
84	0x3db66b30	0.08907163
85	0xbeced64d	-0.40397874
86	0x3dd3e18c	0.10345754
87	0xbe68936e	-0.2271249
88	0xbe748b7a	-0.23881331
89	0xbd5edc57	-0.05440935
90	0xbdcfd99b	-0.10148927
91	0x3e63654c	0.2220661
92	0x3eeb79f2	0.45991474
93	0x3e9d2a48	0.3069632
94	0x3e9688ea	0.29401332
95	0xbe688eb3	-0.22710685
96	0x3ec7eba7	0.39046976
97	0x3b550315	0.0032503058
98	0xbe23fc51	-0.1601422
99	0x3e686c06	0.22697458
100	0x3eea00de	0.45703787
101	0xbe994bc9	-0.29940632
102	0x3e2ed921	0.17075016
103	0x3ee41de1	0.44554046
104	0xbeb852f2	-0.36000782
105	0xbec23d07	-0.37937185
106	0x3e99179d	0.29900828
107	0xbc737f52	-0.0148618985
108	0xbe09107d	-0.13385196
109	0xbed74d71	-0.4205127
110	0x3eaabc1d	0.33346644
111	0x3e9c6fa1	0.30553916
112	0xbe31d209	-0.17365278
113	0x3e5e708e	0.21722624
114	0xbec987e4	-0.3936149
115	0xbdcee97c	-0.10103127
116	0x3d81df85	0.06341461
117	0x3ecf265d	0.40458956
118	0x3d9ec63b	0.07752653
119	0xbdbd8a35	-0.092548765
120	0xbeaed894	-0.3414961
121	0xbe9216fa	-0.28533155
122	0xbea267eb	-0.31719908
123	0xbcb2e91a	-0.021839667
124	0x3ea994a3	0.33121213
125	0x3ee69318	0.450341
126	0x3e4c8bb2	0.19975165
127	0x3e7d705c	0.24749893
128	0x3e248e8b	0.16070001
129	0x3e160559	0.14650477
130	0x3e1d9ccf	0.15391849
131	0xbc2df0cf	-0.010616495
132	0xbd4da5b7	-0.050206866
133	0xbe4fcfe6	-0.2029415
134	0xbe9f781b	-0.3114632
135	0xbc641e60	-0.013923258
136	0xbd94ab00	-0.07259178
137	0x3e0878f1	0.13327385
138	0xbed8b162	-0.42322832
139	0x3cd92a40	0.026509404
140	0x3df14ce8	0.11782247
141	0xbdd11a4b	-0.10210093
142	0xbc8c518d	-0.01712873
143	0xbec88b06	-0.39168566
144	0xbe4a0f60	-0.19732428
145	0xbd1e7736	-0.038687907
146	0x3e49eb23	0.19718604
147	0xbe82a9f6	-0.25520295
148	0xbe958ba7	-0.2920811
149	0xbe0485ea	-0.12941709
150	0x3eb3fe9e	0.35155195
151	0x3ea68377	0.32522175
152	0xbdee1440	-0.11624956
153	0xbe1542c6	-0.14576253
154	0xbe36264d	-0.17788048
155	0x3ec741c5	0.38917366
156	0x3e7c7831	0.24655224
157	0x3e580331	0.21094967
158	0xbe1fb34f	-0.15595745
159	0xbde0c64a	-0.10975321
160	0xbe3f259a	-0.18666688
161	0xbdae9ecc	-0.08526382
162	0x3e28aa28	0.1647116
163	0x3e3d5878	0.1849078
164	0x3d305804	0.04305269
165	0x3ebcb256	0.3685481
166	0x3e3debea	0.18547025
167	0xbea6f4c1	-0.32608607
168	0x3defc179	0.11706824
169	0xbe8c2979	-0.2737539
170	0x3e80725c	0.2508725
171	0xbe8917dd	-0.2677602
172	0xbd2b08a9	-0.041756306
173	0xbdaa8d31	-0.083277114
174	0x3e099937	0.13437353
175	0xbca5e18d	-0.020249153
176	0xbe9a2f87	-0.30114385
177	0x3eb367df	0.35040185
178	0xbdf80a6b	-0.12111362
179	0x3e525777	0.20541178
180	0x3e59e8cf	0.21280216
181	0x3d34e419	0.044162843
182	0x3ae41317	0.0017400709
183	0x3c45b3ba	0.012066776
184	0xbee25ef6	-0.44213074
185	0x3e8215a2	0.2540713
186	0x3e352775	0.17690833
187	0xbea91941	-0.3302708
188	0xbe5a9dcb	-0.21349256
189	0xbda64848	-0.08119255
190	0x3dfc614c	0.123232454
191	0xbe8352bb	-0.25649056
192	0x3d0188e7	0.0316247
193	0xbe992d70	-0.2991748
194	0xbe1c33d5	-0.15254147
195	0x3e63e1b9	0.22254075
196	0xbe1c06d2	-0.15236977
197	0xbe28468e	-0.16433164
198	0x3da03d68	0.07824212
199	0x3d769264	0.060198203
200	0xbec3fb56	-0.38277692
201	0xbed1293c	-0.40851772
202	0xbe16c9de	-0.14725444
203	0x3e61d9d3	0.2205575
204	0x3e5129c3	0.20426087
205	0xbe26b763	-0.16280894
206	0xbdf6f94d	-0.12059269
207	0x3e949731	0.290216
208	0xbeee5e4a	-0.46556312
209	0xbe2d25b9	-0.16908921
210	0x3d8dc50c	0.06922349
211	0x3e503753	0.20333605
212	0xbe9408e8	-0.28913045
213	0xbed04b9b	-0.40682682
214	0xbd820ee8	-0.063504994
215	0xbebe24a5	-0.37137333
216	0xbd5d5c36	-0.054043017
217	0x3ed90c86	0.42392367
218	0x3ebd948f	0.37027404
219	0x3e498ae5	0.1968189
220	0xbe8fccfb	-0.28086075
221	0x3eb66fb7	0.35632107
222	0xbe2003cb	-0.15626447
223	0x3e5ed6cf	0.2176163
224	0x3d6a8ca8	0.057263047
225	0x3e9c1d3c	0.30491054
226	0xbed76036	-0.4206559
227	0x3c95cafd	0.018285269
228	0x3cd141de	0.025544103
229	0x3eb20112	0.34766442
230	0xbdd26e65	-0.10274962
231	0xbd2ceda0	-0.042218804
232	0x3db28b99	0.087180324
233	0x3e69113d	0.22760482
234	0xbec81ab6	-0.3908288
235	0x3eb7b8cd	0.3588318
236	0x3e06daaf	0.13169359
237	0xba8d11b2	-0.001076272
238	0xbedb2677	-0.42802784
239	0xbe8ee2a0	-0.27907276
240	0x3ee06a96	0.4383132
241	0xbe98e6f5	-0.29863706
242	0xbee17689	-0.44035748
243	0x3e46bbe3	0.1940761
244	0xbd9f52b4	-0.07779446
245	0x3e1c7da9	0.1528231
246	0xbe4bea6a	-0.1991364
247	0xbe972502	-0.29520422
248	0x3da4d6f8	0.080488145
249	0xbded6f00	-0.11593437
250	0x3e876f01	0.26451877
251	0xbe86b666	-0.26311034
252	0x3eb9e2be	0.36305803
253	0xbede53a8	-0.434232
254	0xbe3e725f	-0.18598317
255	0x3e6d2427	0.23158322

convs.1.linear_r.W f4 [5, 32, 32]
0	0xbc3a7128	-0.011379518
1	0xbd03fdfe	-0.032224648
2	0xbd894388	-0.06702334
3	0x3db1361e	0.086529
4	0x3dd893d0	0.10575068
5	0x3cbf3400	0.023340225
6	0x3d711ce4	0.058865443
7	0x3deb27ed	0.114822246
8	0x3d32e89f	0.043678876
9	0xbe03ff8b	-0.1289045
10	0x3d400fac	0.046889946
11	0x3c4d9bd0	0.012549356
12	0x3e04810a	0.1293985
13	0x3e192cfe	0.1495857
14	0xbe362a87	-0.1778966
15	0xbd824e30	-0.06362569
16	0x3d175c4f	0.036953267
17	0xbe212a7d	-0.15738864
18	0x3e18b945	0.14914425
19	0xbc201a80	-0.009771943
20	0xbdf856a4	-0.121259004
21	0xbd9ebaef	-0.077504985
22	0xbda58d72	-0.08083619
23	0x3df7c485	0.1209803
24	0xbe096636	-0.13417897
25	0xbb5b3e1c	-0.0033453768
26	0x3d37116b	0.044694345
27	0xbe28a92d	-0.16470785
28	0x3d4d138a	0.050067462
29	0x3d8148ba	0.063126996
30	0x3d82995c	0.06376907
31	0xbe0e8783	-0.13918881
32	0xbd9d1dda	-0.07671709
33	0x3e072fb4	0.13201791
34	0x3e2a6106	0.16638574
35	0xbe4bea7c	-0.19913667
36	0x3c53a9a1	0.012918861
37	0x3d8b5980	0.0680418
38	0x3dfe3621	0.12412668
39	0xbc8d91a9	-0.01728137
40	0x3dc02147	0.09381347
41	0x3e050f33	0.1299408
42	0x3e61c870	0.22049117
43	0xbdc5f821	-0.096664675
44	0xbd05af52	-0.0326379
45	0x3d50b411	0.050952975
46	0x3e235f42	0.15954307
47	0xbdf16812	-0.11787428
48	0xbcc55dde	-0.02409261
49	0xbe31ae75	-0.17351706
50	0x3e6c1882	0.23056224
51	0xbe1418c5	-0.14462574
52	0xbd0783f2	-0.033084817
53	0x3c87ffb7	0.016601427
54	0x3dca0aad	0.098653175
55	0xbd36cd84	-0.04462959
56	0x3db965e0	0.09052634
57	0x3e0bb3f1	0.13642861
58	0xbddcef9d	-0.1078789
59	0xbe0eb6b9	-0.1393689
60	0xbda24542	-0.07923366
61	0x3da34d44	0.079737216
62	0x3d92c45a	0.07166357
63	0x3d8e932a	0.06961663
64	0xbda9f901	-0.08299447
65	0x3d91b2dd	0.071141936
66	0x3daa7c94	0.08324543
67	0xbe04e911	-0.12979533
68	0xbd36986b	-0.04457895
69	0x3d0d0383	0.034427177
70	0x3e2ef3a9	0.17085136
71	0xbca46b50	-0.020070702
72	0x3dc632fd	0.09677694
73	0xbe1949e6	-0.14969596
74	0xbdae7867	-0.08519059
75	0xbdcc78bb	-0.09983965
76	0xbe29a0a2	-0.16565183
77	0xbe3b4c73	-0.18290882
78	0xbd5fa389	-0.05459932
79	0x3ba06380	0.004894674
80	0x3dd2dd3f	0.102961056
81	0x3d786fde	0.06065356
82	0x3e038beb	0.12846343
83	0x3be84c78	0.007089194
84	0x3e112bb2	0.14176825
85	0x3da1600f	0.0787965
86	0xbd2ed576	-0.04268404
87	0xbd2a3656	-0.041555725
88	0xbd498ea2	-0.04920829
89	0x3de80c45	0.11330465
90	0x3e120406	0.14259347
91	0xbd8d6305	-0.06903652
92	0x3e6d6912	0.23184612
93	0x3c850a64	0.016240306
94	0xbd541974	-0.051782086
95	0x3d601caa	0.054714836
96	0x3d0c4cf1	0.034253065
97	0x3dccbe38	0.09997219
98	0x3e064c35	0.13115008
99	0xbddaa519	-0.10676021
100	0xbdd0b463	-0.10190656
101	0xbe2dc671	-0.1697023
102	0x3d8d557d	0.06901071
103	0x3d34581e	0.044029348
104	0x3dac3ecc	0.08410415
105	0x3e1971d5	0.1498483
106	0x3db07c64	0.08617476
107	0xbe59ebfd	-0.21281429
108	0xbd5c5b61	-0.053798083
109	0xbd9dd524	-0.07706669
110	0xbdb95634	-0.09049645
111	0x3dc178b3	0.0944685
112	0x3e32a994	0.17447501
113	0x3bd91f64	0.0066260565
114	0x3c8b1033	0.016975498
115	0x3cb6f74f	0.022334723
116	0xbe079474	-0.13240224
117	0x3e29f1b1	0.16596104
118	0x3d59276b	0.053016108
119	0x3c895378	0.016763434
120	0x3ce3893c	0.0277754
121	0x3e259ad9	0.16172351
122	0xbdf99b07	-0.12187772
123	0x3e1758a7	0.14779912
124	0xbdb2dcf0	-0.08733547
125	0xbdbcf654	-0.09226671
126	0x3e191ea0	0.14953089
127	0x3ce336df	0.027736126
128	0xbe013350	-0.1261723
129	0x3b3b747a	0.002860336
130	0xbd3ee471	-0.046604577
131	0xbe03a4cc	-0.12855834
132	0x3d6f1f0f	0.05837923
133	0x3e2539c3	0.16135316
134	0x3dae9d00	0.08526039
135	0x3de1ac6b	0.11019214
136	0x3c309952	0.010778742
137	0x3cc10244	0.02356065
138	0x3d482759	0.04886565
139	0x3e3b8fc9	0.18316568
140	0xbd757ff2	-0.05993647
141	0x3d2c51e6	0.042070292
142	0x3d80e370	0.0629338
143	0xbc7b1b4b	-0.015326331
144	0x3b4d00f1	0.0031281079
145	0x3d3dc1ce	0.046327405
146	0xbe1d9c73	-0.15391712
147	0x3d73ab66	0.05948963
148	0xbe03e692	-0.12880924
149	0x3e0298d5	0.12753613
150	0xbe163055	-0.14666875
151	0xbdc1c471	-0.09461296
152	0x3a96d07a	0.0011506223
153	0x3e0d3e1e	0.13793227
154	0xbda40c8f	-0.08010208
155	0x3dc1ebe3	0.0946882
156	0x3da2c49f	0.07947659
157	0x3dc2057c	0.09473702
158	0xbe0f061f	-0.13967179
159	0xb9e551f8	-0.00043739355
160	0x3e3d8a92	0.18509892
161	0xbde8e4ca	-0.11371763
162	0xbdee62de	-0.11639951
163	0xbe0329dc	-0.12808937
164	0xbe041276	-0.12897667
165	0xbe22c573	-0.15895633
166	0xbc9cce0b	-0.019141218
167	0x3d8bfbfb	0.06835171
168	0x3d9cac4b	0.0765005
169	0x3ce2a470	0.0276663
170	0x3ddf6c79	0.109093614
171	0xbe0af522	-0.13570073
172	0x3e282bc4	0.16422945
173	0xbdc69c6a	-0.09697802
174	0x3d2d7200	0.042345047
175	0x3d202820	0.039100766
176	0x3e371101	0.1787758
177	0x3def30e1	0.11679245
178	0x3e1324c5	0.14369495
179	0x3e0cdb46	0.13755521
180	0xbe189470	-0.14900374
181	0xbcd64ef4	-0.026160695
182	0x3d575a58	0.052576393
183	0x3d98973b	0.0745072
184	0xbe322b9d	-0.1739945
185	0xbd016b78	-0.03159663
186	0x3e06e007	0.13171397
187	0xbdf545f5	-0.11976234
188	0x3d9bd893	0.07609668
189	0x3e26ae6e	0.16277477
190	0x3e0dc583	0.13844876
191	0x3da0bec5	0.078488864
192	0xbd4c4c8e	-0.049877696
193	0x3d538124	0.05163683
194	0xbe05f680	-0.13082314
195	0xbdf6b68a	-0.12046535
196	0x3dae9da6	0.08526163
197	0x3e035ebb	0.12829106
198	0x3deea919	0.116533466
199	0x3b4c092f	0.0031133404
200	0xbe19b602	-0.15010837
201	0x3e3e5117	0.18585621
202	0x3bfcfafc	0.0077203494
203	0xbe114a2f	-0.14188455
204	0x3dba5dfc	0.09099957
205	0x3d3c284c	0.045936868
206	0xbda320c0	-0.07965231
207	0x3d244c33	0.04011173
208	0xbce5b37f	-0.028039692
209	0x3e062769	0.13100971
210	0xbbc54691	-0.006020375
211	0x3b3447a3	0.002750852
212	0xbd9787ec	-0.07398972
213	0xbe33b475	-0.17549308
214	0xbe296490	-0.16542268
215	0x3db194a3	0.08670928
216	0xbd94a4d6	-0.072580025
217	0x3d547ef2	0.051878877
218	0x3dc330d9	0.09530801
219	0x3dcf7ed0	0.101316094
220	0xbdfcfbc6	-0.123527095
221	0x3c1bc973	0.009508478
222	0xbd830e50	-0.06399214
223	0xbd67b6e2	-0.056570895
224	0x3c82061d	0.015872056
225	0xbb9febc3	-0.0048804
226	0xbd48cab0	-0.049021423
227	0x3e12ea9f	0.14347313
228	0xbd051216	-0.03248795
229	0x3e1e54d3	0.15462045
230	0xbdc6def6	-0.09710495
231	0x3e04f2b6	0.12983212
232	0xbe2aab0e	-0.16666815
233	0xbe248791	-0.1606734
234	0x3e280351	0.16407515
235	0x3d76c237	0.06024381
236	0x3cdd6109	0.027023809
237	0x3ddfff69	0.109373875
238	0xbc1117c5	-0.008855765
239	0xbdc2155f	-0.094767325
240	0x3d1ef214	0.038805082
241	0xbcab75bd	-0.020930165
242	0xbe0f494a	-0.13992801
243	0x3cafcdf7	0.021460516
244	0xbe4b95c7	-0.19881354
245	0xbe07c771	-0.13259675
246	0x3e171087	0.14752398
247	0xbc686622	-0.014184507
248	0xbe249052	-0.16070679
249	0xbda77847	-0.08177238
250	0xbdd38f34	-0.10330048
251	0xbd17555b	-0.036946636
252	0x3e106edd	0.14104791
253	0xbdb3023e	-0.08740662
254	0x3d337b60	0.04381883
255	0x3dd86abd	0.10567234

convs.2.h_bias f4 [32]
0	0x3d554f0c	0.052077338
1	0xbd380c59	-0.04493365
2	0x3ca410d4	0.020027556
3	0xbd7dc4f4	-0.061955407
4	0xbc7e8edc	-0.01553699
5	0x3c73b482	0.014874579
6	0x3a800c50	0.0009769294
7	0x3ca9f104	0.020744808
8	0x3c7522b2	0.014961885
9	0x3b4dc26b	0.00313964
10	0x3c0c50f7	0.008564225
11	0xbc1476b6	-0.009061506
12	0x3d18f034	0.03733845
13	0xbb81475e	-0.003945275
14	0x3be261da	0.0069086375
15	0xbadeaa29	-0.0016987968
16	0xbc7d3511	-0.015454547
17	0x3c453d87	0.012038595
18	0x3d46b6c5	0.048514146
19	0x3cbc7784	0.023006208
20	0x3bde1547	0.006777439
21	0x3cafad40	0.021444917
22	0xbcfc3843	-0.030788546
23	0xbba2237d	-0.004948078
24	0xbc002d00	-0.007823229
25	0xbcd788ff	-0.026310442
26	0xbc0b4298	-0.008499764
27	0xba269a03	-0.0006355347
28	0x3c73192c	0.014837544
29	0xbcd0242c	-0.025407873
30	0xbc8a5a76	-0.016888838
31	0x3c507b8e	0.01272477

convs.2.loop_weight f4 [32, 32]
0	0x3e8f6db3	0.2801338
1	0xbcf80371	-0.030275078
2	0x3e8c963a	0.27458364
3	0x3e8d4f86	0.27599734
4	0xbec75837	-0.3893449
5	0xbe72bdff	-0.2370529
6	0x3e825335	0.25454107
7	0x3e92eaa2	0.28694636
8	0xbeb1763c	-0.34660518
9	0xbe86d17e	-0.26331705
10	0x3ec3c1c9	0.38233784
11	0x3e99e2cb	0.30055842
12	0xbe3d0cc7	-0.18461905
13	0xbe28d9a3	-0.16489272
14	0xbe470d73	-0.19438724
15	0xbe872397	-0.2639434
16	0x3ed55543	0.41666612
17	0xbea867c6	-0.32891673
18	0x3d0866e6	0.033301257
19	0x3d0b612f	0.03402823
20	0xbe9482c9	-0.2900603
21	0xbe0368e7	-0.12832986
22	0x3d79bd60	0.060971618
23	0xbd48fb49	-0.04906777
24	0x3e336fcf	0.1752312
25	0xbd0db552	-0.03459675
26	0xbe99232b	-0.29909644
27	0x3ecc04ec	0.39847505
28	0xbe9d2e72	-0.30699497
29	0xbed5f47b	-0.41788086
30	0x3ec1f3ae	0.37881225
31	0xbe48ee4d	-0.19622155
32	0xbd9e4936	-0.07728808
33	0x3eb4e21c	0.35328758
34	0xbe110631	-0.14162518
35	0xbe2652d7	-0.16242538
36	0x3e4a99fe	0.19785306
37	0x3d724ea3	0.059157025
38	0xbd4fb93b	-0.05071376
39	0xbe614760	-0.21999884
40	0xbcad76ca	-0.021174807
41	0xbe804d2f	-0.25058886
42	0x3dbe40f9	0.09289736
43	0x3e1801ff	0.14844511
44	0xbec9fe63	-0.39451894
45	0x3e53b955	0.20676167
46	0x3e2ece95	0.17070992
47	0x3dd7e945	0.105425395
48	0xbe53cf09	-0.20684446
49	0xbd96154d	-0.073282816
50	0x3ea0c939	0.3140352
51	0x3e64330e	0.22285101
52	0x3ed95a74	0.42451823
53	0xbebaae0c	-0.36460912
54	0x3e923e9d	0.28563395
55	0x3ed5f5fd	0.41789237
56	0x3d8bb581	0.068217285
57	0x3c90f35c	0.017694168
58	0x3e2449f1	0.16043831
59	0x3ec3b6c8	0.3822539
60	0xbe3b54cb	-0.18294065
61	0xbe82f265	-0.25575557
62	0xbe9c8684	-0.30571377
63	0xbd8e4dc0	-0.069484234
64	0x3ca50063	0.020141786
65	0xbd9d0c2d	-0.07668338
66	0xbea23cad	-0.31686917
67	0x3e0f431f	0.13990448
68	0x3dc76101	0.09735299
69	0xbe82bce6	-0.25534743
70	0xbed2331e	-0.41054624
71	0x3ea563d0	0.32302713
72	0x3e09b918	0.13449514
73	0xbe74b5d4	-0.23897487
74	0xbeba9c83	-0.36447534
75	0xbe0a6ed8	-0.13518846
76	0xbe1d9114	-0.15387374
77	0xbed881da	-0.4228657
78	0xbe475220	-0.19464922
79	0xbe0fc8ef	-0.14041494
80	0xbc01540d	-0.007893574
81	0x3e148524	0.14503914
82	0xbc4511a5	-0.012028133
83	0xbe81a7ff	-0.25323483
84	0xbebc957b	-0.36832795
85	0x3e65bd12	0.22435406
86	0xbe361747	-0.17782317
87	0xbe861a40	-0.26191902
88	0x3e14bf76	0.14526162
89	0xbe27d39b	-0.16389315
90	0x3e86ff63	0.2636672
91	0x3d82714b	0.06369265
92	0x3edccfa9	0.43127182
93	0xbe31a19c	-0.17346805
94	0x3d396f6b	0.045272272
95	0xbec17ef1	-0.3779216
96	0xbe35d7bd	-0.17758079
97	0xbe37a00a	-0.17932144
98	0xbd8e2d4a	-0.06942232
99	0x3e36fdd2	0.17870262
100	0xbe2a9c73	-0.16661243
101	0xbe5d8688	-0.21633351
102	0x3ea21d8f	0.31663176
103	0x3ee32e93	0.4437147
104	0xbe823e58	-0.2543819
105	0x3e48c67f	0.1960697
106	0xbda20436	-0.079109594
107	0x3e435b60	0.19077826
108	0xbe84fc9c	-0.25973976
109	0xbdee1222	-0.11624552
110	0xbe86084f	-0.26178214
111	0x3e8ceb89	0.2752345
112	0x3d4cee48	0.05003193
113	0x3d84f2ce	0.06491624
114	0x3e319538	0.17342079
115	0x3d74993f	0.05971646
116	0xbeaf5cae	-0.34250396
117	0x3d12778f	0.03575855
118	0xbea46ea0	-0.3211565
119	0xbeddf3c2	-0.43350035
120	0x3ced8f41	0.028998973
121	0x3dff4dc6	0.12466006
122	0xbeb5757c	-0.35441196
123	0xbdfe43ae	-0.124152526
124	0xbe5f0627	-0.2177969
125	0x3e985202	0.29750067
126	0xbe0311d4	-0.1279977
127	0xbeadf08e	-0.3397259
128	0x3ec1ed30	0.37876272
129	0x3eaaa247	0.33326933
130	0x3dbccde1	0.09218956
131	0xbe29fedb	-0.16601126
132	0x3e7cf1c7	0.24701606
133	0x3e64f288	0.22358143
134	0xbe8d801b	-0.276368
135	0xbd7e29ff	-0.06205177
136	0xbc0df74c	-0.008664917
137	0xbdd45a6d	-0.1036881
138	0x3bbaf8f7	0.0057059485
139	0xbe68ec9a	-0.22746506
140	0x3ec284a3	0.3799182
141	0xbea597d4	-0.32342398
142	0xbde67f12	-0.112547055
143	0xbe819711	-0.25310567
144	0x3ea8323e	0.32850832
145	0xbec3afd8	-0.38220096
146	0xbea4c58e	-0.32181972
147	0x3e41846b	0.1889817
148	0x3e96731b	0.29384694
149	0xbec2bf68	-0.38036656
150	0x3e632e28	0.22185576
151	0xbe5acea0	-0.21367884
152	0x3e84bb7a	0.25924283
153	0xbeb980f7	-0.36231205
154	0xbece57e5	-0.40301433
155	0x3e285d86	0.16441926
156	0xbedffed5	-0.4374911
157	0x3de6c3a2	0.11267783
158	0xbed60a08	-0.41804528
159	0xbe15866a	-0.14602056
160	0xbda1d5d8	-0.079021156
161	0x3e5d8641	0.21633245
162	0x3e8b584c	0.27215803
163	0xbdde160e	-0.1084405
164	0x3ecd2569	0.40067604
165	0x3e69cb62	0.2283149
166	0x3ea425f8	0.32060218
167	0x3e8add70	0.27122068
168	0xbe430dbb	-0.19048207
169	0xbd4d3906	-0.05010321
170	0x3d17f7c3	0.03710152
171	0x3e4eee4f	0.20208095
172	0xbec368ad	-0.381658
173	0xbd8c1b45	-0.06841139
174	0x3e92151c	0.2853173
175	0xbe8b32b4	-0.2718712
176	0x3e968edf	0.29405877
177	0xbe600661	-0.21877433
178	0x3df93c2b	0.12169679
179	0xbdbbcdbf	-0.09170102
180	0xbd1bb44f	-0.038013753
181	0x3cd97635	0.026545623
182	0xbdea9c2a	-0.11455567
183	0x3e5c86ae	0.21535751
184	0xbe8bd2b6	-0.27309197
185	0xbec1141e	-0.3771066
186	0xbc38e0f7	-0.011284105
187	0xbca2a86c	-0.0198557
188	0xbe7982dc	-0.24366325
189	0x3d0b98af	0.034081157
190	0x3ea2319d	0.31678477
191	0xbe15e13b	-0.146367
192	0xbd39587f	-0.045250412
193	0x3e3cdf2a	0.18444505
194	0xbe9940f9	-0.29932383
195	0x3e0d7514	0.13814193
196	0xbe974ad4	-0.29549277
197	0xbeb672b1	-0.35634378
198	0x3e898a0c	0.26863134
199	0xbed2dc0e	-0.41183513
200	0xbe474d07	-0.19462977
201	0x3e837e61	0.25682357
202	0xbe90fb54	-0.28316748
203	0xbe8a64d3	-0.27030048
204	0x3e258f3d	0.16167922
205	0x3d2d6f8b	0.042342704
206	0x3c5cb0d0	0.01346989
207	0xbea07c1b	-0.31344685
208	0xbecce3c8	-0.40017533
209	0xbebc1e17	-0.36741707
210	0xbeb3ddad	-0.35130063
211	0xbebd6957	-0.3699443
212	0x3e51db02	0.20493701
213	0x3e133260	0.14374685
214	0xbe81eec5	-0.2537748
215	0xbe41e53a	-0.18935099
216	0xbca7aed4	-0.020469107
217	0xbeca35ba	-0.39494115
218	0x3da6e380	0.08148861
219	0xbec11f43	-0.37719163
220	0x3dd68f19	0.104765125
221	0xbec219c8	-0.37910295
222	0x3e11b341	0.14228536
223	0x3e32c3e8	0.17457545
224	0x3e93cd2b	0.28867468
225	0xbe47b776	-0.19503579
226	0xbe5035d2	-0.20333031
227	0x3e558f7b	0.20855515
228	0xbc4bdc72	-0.012442695
229	0xbd8685db	-0.065685
230	0xbe536ec3	-0.20647721
231	0xbcb8445e	-0.022493538
232	0x3d3e29a2	0.046426423
233	0x3d6400a3	0.05566467
234	0xbe5da0a2	-0.21643308
235	0x3ec6d50c	0.38834417
236	0x3ec9fc8f	0.394505
237	0x3d832fe7	0.06405621
238	0x3dfe7302	0.1242428
239	0xbdc071cd	-0.09396706
240	0x3e8a28dc	0.26984298
241	0x3e0b615d	0.1361136
242	0xbe316c53	-0.17326479
243	0xbe94664d	-0.289843
244	0x3d75db2d	0.060023475
245	0xbe038a5c	-0.12845749
246	0xbecbc532	-0.39798886
247	0x3e37d94c	0.17953986
248	0x3eaf14c2	0.34195524
249	0xbe99ccf4	-0.3003918
250	0x3e2d9117	0.16949879
251	0xbee88042	-0.45410353
252	0x3e3bba3a	0.18332759
253	0x3e5ba0eb	0.21448104
254	0x3e68dbdf	0.22740124
255	0x3e22b350	0.15888715

convs.2.linear_r.W f4 [5, 32, 32]
0	0xbdf6075d	-0.12013123
1	0xbe228c74	-0.15873891
2	0xbd2a290a	-0.041543044
3	0xbd5420db	-0.051789146
4	0xbd006c0b	-0.031353038
5	0x3e5b9867	0.21444856
6	0xbc79537e	-0.01521766
7	0xbc8cb406	-0.017175686
8	0x3e18b154	0.14911395
9	0x3e1b1643	0.15145211
10	0xbe050745	-0.12991054
11	0xbda60cd3	-0.08107915
12	0x3bbfae36	0.005849625
13	0x3d275dad	0.04086082
14	0x3e91f2af	0.28505465
15	0xbe3e37eb	-0.18576019
16	0x3e05a3cd	0.13050766
17	0x3d0f4e04	0.03498651
18	0xbe29f131	-0.16595913
19	0x3e1177fe	0.1420593
20	0x3d9396f6	0.07206528
21	0x3e5e3078	0.21698177
22	0x3df47708	0.11936766
23	0x3cb76c81	0.022390606
24	0xbdcffb2c	-0.10155329
25	0x3be48190	0.006973453
26	0xbe267e9e	-0.16259238
27	0x3de9c811	0.11415113
28	0x3acdb3ba	0.0015693821
29	0xbdd3d1b1	-0.1034273
30	0xbd963379	-0.073340364
31	0xbdc674e0	-0.09690261
32	0xbdb50da4	-0.08840492
33	0x3d785684	0.060629383
34	0xbe04b142	-0.12958243
35	0xbd9fc159	-0.0780055
36	0xbbc75780	-0.006083429
37	0xbe2603f4	-0.16212445
38	0xbde40d76	-0.1113538
39	0xbdbcbb3f	-0.09215402
40	0x3c133333	0.008984375
41	0x3e797274	0.24360067
42	0xbd7b563c	-0.061361536
43	0x3dec0370	0.11524093
44	0x3d207cb9	0.039181445
45	0xbd608da6	-0.054822586
46	0x3dbd15aa	0.09232648
47	0x3c8549ac	0.016270481
48	0x3df565f7	0.11982339
49	0xbdd6a9f4	-0.10481635
50	0x3c749ea3	0.0149304
51	0x3d90d76c	0.070723385
52	0x3e3b52ad	0.18293257
53	0xbde8dc6f	-0.11370169
54	0x3d314fe3	0.043289077
55	0xbd608edc	-0.05482374
56	0x3d8c6aa6	0.06856279
57	0x3db8e7c7	0.09028583
58	0xbe3f11bb	-0.18659107
59	0xbdb9ae1f	-0.09066414
60	0x3e085211	0.13312556
61	0xbdf22d6c	-0.1182507
62	0x3caad639	0.020854102
63	0xbdb5a61c	-0.088695735
64	0xbdb1a41b	-0.08673879
65	0x3dd5613d	0.10418937
66	0xbbb790ac	-0.005601963
67	0xbd6d8617	-0.057989206
68	0xbdfa9d9c	-0.12237093
69	0x3cc38a4f	0.023869662
70	0xbda56d7c	-0.08077523
71	0xbe0f8345	-0.14014919
72	0x3dd01e50	0.10162032
73	0xbe12dbdd	-0.14341684
74	0x3e368033	0.17822342
75	0xbd3c0b33	-0.045909118
76	0x3e430eac	0.19048566
77	0x3db2b699	0.08726234
78	0x3e525a5e	0.20542285
79	0xbe1cfc8e	-0.15330717
80	0x3d9a3bba	0.07530923
81	0xbdb9242d	-0.09040103
82	0x3d6057e2	0.05477131
83	0xbd8c25b9	-0.068431325
84	0xbd203c07	-0.039119747
85	0xbc2b2886	-0.010446673
86	0xbc562ece	-0.013072683
87	0x3e132d19	0.14372672
88	0x3d14d67d	0.036337364
89	0xbd2a88ef	-0.041634496
90	0x3d44449d	0.047916997
91	0x3dcab311	0.098974355
92	0x3d76d764	0.060264006
93	0x3e164b0a	0.14677063
94	0xbe481d22	-0.19542363
95	0x3d4a443b	0.049381476
96	0x3e05fb53	0.13084154
97	0xbcaf5b52	-0.02140585
98	0xbd287f8d	-0.041137267
99	0xbdd8688f	-0.10566818
100	0xbd01e711	-0.031714503
101	0x3e1b8094	0.15185767
102	0x3da8e96b	0.08247646
103	0x3b94947d	0.0045343027
104	0xbd6e7204	-0.058214203
105	0xbd2f76c2	-0.042837866
106	0xbe119357	-0.14216362
107	0x3de3c801	0.11122132
108	0x3bb2829c	0.0054476988
109	0x3d8930ee	0.06698786
110	0xbd2aa9b7	-0.04166576
111	0x3da5c993	0.08095088
112	0x3d9c2ce0	0.07625747
113	0x3adeed24	0.0017007929
114	0x3e5ed016	0.21759066
115	0xbe2df501	-0.16987993
116	0xbd9d77e3	-0.07688882
117	0x3d945544	0.072428256
118	0xbdd59932	-0.1042961
119	0xbdfedff5	-0.1244506
120	0x3d0d6c56	0.034527145
121	0x3ce88cc0	0.028387427
122	0x3deb4b37	0.114889555
123	0xbe44d98b	-0.19223611
124	0xbdfe6451	-0.124214776
125	0x3d1013e9	0.035175238
126	0xbdf9680f	-0.12178051
127	0xbd4447f9	-0.0479202
128	0x3c9c7238	0.019097432
129	0x3d7e1ef4	0.062041238
130	0x3bd546f8	0.0065087043
131	0x3dd4e143	0.10394528
132	0x3ba22a35	0.004948879
133	0xbbded46f	-0.0068002264
134	0xbd5a1b91	-0.053248946
135	0x3d65d8f0	0.05611509
136	0x3de98f64	0.11404303
137	0xbe401748	-0.18758881
138	0x3d5aecdb	0.05344854
139	0xbde4d553	-0.11173501
140	0xbe2d8981	-0.16946985
141	0xbca4b087	-0.020103706
142	0x3d8437b5	0.06455938
143	0xbb06d4b1	-0.0020573551
144	0x3dbac86b	0.09120258
145	0x3d41d11f	0.047318574
146	0x3e45c866	0.19314727
147	0xbce6ebcb	-0.028188607
148	0xbd258561	-0.040410403
149	0x3df8da9b	0.12151071
150	0xbd9e9abf	-0.07744359
151	0x3da8f41a	0.08249684
152	0xbd5957ca	-0.053062238
153	0x3d052c16	0.032512747
154	0xbe041e74	-0.12902242
155	0xbdee16fd	-0.116254784
156	0x3d912c2b	0.070885025
157	0xbc1bdeae	-0.00951354
158	0xbcd35f5e	-0.02580231
159	0x3e0c06d8	0.13674486
160	0xbded53f4	-0.115882784
161	0x3e0ab988	0.13547337
162	0xbd51d19a	-0.051225282
163	0xbdb3f802	-0.08787538
164	0x3d38e6cc	0.04514198
165	0x3d8bca75	0.06825725
166	0xbb3bc388	-0.0028650481
167	0x3d358d0e	0.044323973
168	0xbd66334b	-0.05620126
169	0x3db57f5b	0.08862182
170	0xbdcc9477	-0.09989255
171	0xbcebbe02	-0.028777126
172	0xbc296459	-0.010338866
173	0xbe0b552c	-0.13606709
174	0x3e053d5a	0.13011685
175	0xbcb57074	-0.022148348
176	0x3d2313f1	0.03981394
177	0xbc7c46b2	-0.015397714
178	0xbded3545	-0.11582426
179	0xbd7be43a	-0.06149695
180	0x3e4109f8	0.18851459
181	0x3d4acb9f	0.049510594
182	0x3c08646b	0.008324723
183	0x3d359ddd	0.044340003
184	0x3e339ee7	0.17541085
185	0x3e262099	0.16223373
186	0x3de57b46	0.11205153
187	0x3df4037d	0.11914728
188	0xbddba0ce	-0.107240304
189	0x3ca9a1d7	0.020707054
190	0x3db8c14e	0.09021245
191	0x3d186684	0.03720714
192	0xbe02d867	-0.12777863
193	0xbd981c6e	-0.074272975
194	0x3dc80891	0.09767259
195	0x3dfa143b	0.1221089
196	0xbb93c748	-0.00450984
197	0xbd824626	-0.06361036
198	0xbe217f44	-0.15771204
199	0x3bb8ad90	0.0056359246
200	0x3e2aaaf7	0.1666678
201	0x3e458069	0.19287266
202	0xbd780337	-0.06054994
203	0x3dd3c54a	0.10340364
204	0xbdf4a126	-0.11944799
205	0xbd863939	-0.06553883
206	0xbd431dcc	-0.04763584
207	0x3e2c3ca8	0.16820014
208	0xbdcb6d00	-0.099328995
209	0x3d9cc7d4	0.07655302
210	0xbceecbf5	-0.029149989
211	0xbe0650d6	-0.13116774
212	0xbd505404	-0.050861374
213	0x3c3a008d	0.01135267
214	0xba4c7182	-0.00077988964
215	0x3dd254a9	0.10270054
216	0xbd950531	-0.07276381
217	0xbd06fd50	-0.03295642
218	0xbd7d1324	-0.061785832
219	0xbdc563a5	-0.09638146
220	0x3d915576	0.070963785
221	0x3d87110e	0.0659505
222	0x3e14d477	0.14534174
223	0xbbfa0f26	-0.0076312004
224	0x3d4e242a	0.050327457
225	0xbdd12e0e	-0.10213862
226	0xbc424b45	-0.011858766
227	0x3d725ffd	0.059173573
228	0x3de1dbb1	0.11028231
229	0x3c6c6ae0	0.014429778
230	0x3de531a4	0.11191109
231	0xbdb5d7d2	-0.08879055
232	0xbd60f2b1	-0.05491895
233	0x3e47224f	0.19446681
234	0x3e270a12	0.16312435
235	0xbe4fb700	-0.20284653
236	0xbe23f311	-0.16010691
237	0xbc2ecc19	-0.010668778
238	0x3d9e5867	0.07731705
239	0x3c9d1b7f	0.01917815
240	0x3d69ac14	0.057048872
241	0x3dfe6401	0.12421418
242	0x3e23038f	0.15919326
243	0xbe31fde5	-0.1738201
244	0xbdc9c4d2	-0.098519936
245	0xbdb86d5a	-0.09005232
246	0x3dc7b5aa	0.097514465
247	0xbe31c7f4	-0.17361432
248	0xbde40ad9	-0.111348815
249	0x3d09fa63	0.033686053
250	0xbdaae41a	-0.08344288
251	0x3d619153	0.055070233
252	0x3e029db5	0.12755473
253	0xbe4f983a	-0.20272914
254	0x3bc88df2	0.006120437
255	0xbd8f869d	-0.07008097

convs.3.h_bias f4 [32]
0	0xbb16d895	-0.0023017277
1	0xbc13d9ca	-0.009024093
2	0xbd15822f	-0.036501106
3	0xbc85dc89	-0.01634051
4	0x3c0aeb97	0.008479021
5	0x3c5c5fc0	0.013450563
6	0x3c49f27c	0.012325879
7	0x3ca3aecb	0.019980809
8	0xbcdd4be0	-0.02701372
9	0x3c579750	0.013158634
10	0x3bf0974b	0.0073422543
11	0x3b5ca5ca	0.0033668154
12	0x3c2722ea	0.010201195
13	0x3c8ca439	0.017168151
14	0xbd24501b	-0.040115457
15	0x3c76ee9d	0.015071538
16	0x3cb6a6ad	0.022296274
17	0xbbb94a61	-0.0056546186
18	0x3ce9251c	0.028460078
19	0x3b05abd9	0.0020396619
20	0x3c2c1ad6	0.010504445
21	0x3cb01229	0.021493034
22	0x3d2c5f86	0.042083286
23	0x3c82669e	0.015918072
24	0xbcc3f855	-0.023922125
25	0x3d82b2d2	0.063817635
26	0xbd25ca20	-0.040475965
27	0xbb3046f5	-0.0026897762
28	0xbb3e7cc6	-0.002906607
29	0xbcaf10a7	-0.021370245
30	0x3be73084	0.007055344
31	0xbc16f3ef	-0.009213432

convs.3.loop_weight f4 [32, 32]
0	0x3d8ce6a1	0.068799265
1	0x3e48ff90	0.1962874
2	0xbe84fee7	-0.25975725
3	0x3e977e45	0.29588524
4	0x3e92c822	0.28668314
5	0xbe787145	-0.24261959
6	0x3eccac9c	0.3997544
7	0xbe7a3e1d	-0.24437757
8	0xbcb7b1e2	-0.022423688
9	0xbe3bf6fe	-0.18355939
10	0x3e1d49b1	0.15360142
11	0x3eadaa03	0.3391877
12	0x3e63e19e	0.22254035
13	0x3e90c5ae	0.28275818
14	0xbed05c20	-0.40695286
15	0x3d162b07	0.036662128
16	0xbd884ee4	-0.06655672
17	0x3e373aee	0.17893574
18	0xbecf3ab2	-0.40474468
19	0xbe57d5ae	-0.21077606
20	0x3e2f7da4	0.17137772
21	0xbe8e5251	-0.27797177
22	0xbd5e6192	-0.05429227
23	0x3dda9bdb	0.10674258
24	0xbe4de28e	-0.20105955
25	0x3e86285a	0.2620266
26	0x3e8290aa	0.25500995
27	0xbe6b1c11	-0.22959925
28	0x3e8c03ee	0.27346748
29	0xbe346f2d	-0.17620535
30	0x39492af5	0.00019184857
31	0xbe069453	-0.13142519
32	0x3e9a748f	0.30167052
33	0xbe351737	-0.17684637
34	0x3eadc033	0.339357
35	0xbea9d50d	-0.33170357
36	0x3e4779ab	0.19480006
37	0xbeca603b	-0.39526543
38	0xbe5f67ce	-0.21816942
39	0xbe9f759e	-0.31144422
40	0xbedbe477	-0.42947742
41	0xbe83fa13	-0.2577673
42	0xbe45515c	-0.19269317
43	0xbe0b40f2	-0.13598993
44	0x3e776ed9	0.24163379
45	0x3e768496	0.24074015
46	0xbd68c834	-0.056831554
47	0x3d71b070	0.059006155
48	0xbcc5d2e4	-0.024148412
49	0xbe7794d9	-0.24177875
50	0xbe6316fb	-0.22176735
51	0xbe810bea	-0.25204402
52	0xbee4f91b	-0.44721302
53	0xbeb6df44	-0.35717213
54	0xbebe13fd	-0.37124625
55	0x3ee031a5	0.43787876
56	0xbec5b37b	-0.38613495
57	0x3dcb75e8	0.09934598
58	0xbca35e91	-0.019942554
59	0xbe6670f2	-0.22504023
60	0x3d25b33d	0.040454138
61	0xbe070481	-0.13185312
62	0x3e461092	0.19342259
63	0x3e500c7d	0.20317264
64	0x3db02def	0.08602511
65	0xbda46076	-0.08026211
66	0x3e1aa222	0.15100911
67	0xbe34b68a	-0.17647758
68	0xbe78edbd	-0.2430944
69	0xbeaff7fb	-0.34368882
70	0xbe8e2c36	-0.27768105
71	0x3e5ae6a9	0.21377052
72	0xbeb5c82c	-0.35504282
73	0x3edf65cf	0.4363236
74	0xbddbdc9d	-0.10735438
75	0x3ccd4829	0.025058823
76	0xbe9b61cd	-0.30348054
77	0x3dda73a8	0.10666591
78	0xbeec1cde	-0.46115774
79	0xbe19b141	-0.15009023
80	0xbe5dfcf9	-0.21678533
81	0x3bc5455c	0.006020231
82	0xbcd4ada9	-0.025961714
83	0x3c8e964a	0.017405648
84	0x3ecca72e	0.39971298
85	0xbe82ed71	-0.25571778
86	0xbd1c9489	-0.03822759
87	0x3e7e3af2	0.24827173
88	0xbe6ce8f2	-0.23135737
89	0xbe9d9e2b	-0.30784735
90	0xbdfcbf0f	-0.12341129
91	0xbe60875e	-0.21926638
92	0x3e478118	0.19482839
93	0xbec8e4cf	-0.39237067
94	0x3eb540d7	0.3540103
95	0xbe87c0b3	-0.26514205
96	0xbeda4f42	-0.42638594
97	0x3dabdc53	0.08391633
98	0xbe670126	-0.22559032
99	0x3e812355	0.2522227
100	0x3e86cc70	0.26327848
101	0x3e566297	0.20936047
102	0x3de7706a	0.11300738
103	0xbded9fb2	-0.11602725
104	0xbe144314	-0.14478713
105	0xbdcdc8d9	-0.10048074
106	0xbea33123	-0.31873426
107	0xbe4e1c02	-0.20127872
108	0xbeacc6bf	-0.3374538
109	0xbe4e435a	-0.2014288
110	0xbe723f11	-0.2365687
111	0x3cd9aa9b	0.026570609
112	0xbedbc276	-0.429218
113	0x3eec9854	0.46209967
114	0x3eb12704	0.3460008
115	0xbed4ac04	-0.41537488
116	0xbdab3d5d	-0.083613135
117	0x3dff34ac	0.12461218
118	0xbee7c640	-0.4526844
119	0x3e15fe6c	0.14647835
120	0xbd2fdd2f	-0.042935546
121	0xbe853e5d	-0.26024142
122	0xbe655bf7	-0.22398363
123	0x3e914996	0.28376454
124	0xbe592251	-0.21204497
125	0x3e7b9863	0.2456985
126	0x3ecbfa39	0.39839342
127	0xbdb1972d	-0.086714126
128	0xbe02f63e	-0.12789246
129	0x3d6a8dc0	0.05726409
130	0xbc3662d5	-0.011131962
131	0xbece87c6	-0.40337962
132	0xbe7f20ed	-0.24914904
133	0xbe549db3	-0.20763282
134	0xbd9f3faa	-0.07775815
135	0x3e8c43fa	0.27395612
136	0xbe0562e8	-0.13026011
137	0x3e68bd87	0.22728549
138	0xbd392db2	-0.045209594
139	0xbde5bb4c	-0.11217365
140	0xbda84811	-0.082168706
141	0xbd9c57e9	-0.07633955
142	0xbeb8fd88	-0.3613093
143	0x3a2a3c94	0.0006494012
144	0x3d83b9ca	0.06431921
145	0xbdd51950	-0.104052186
146	0x3ea944a2	0.33060175
147	0x3ec8db70	0.39229918
148	0x3d5c3849	0.053764615
149	0xbe9ad2d5	-0.30238977
150	0x3ee04d4d	0.43808976
151	0x3ea144e2	0.31497866
152	0x3da63e6c	0.08117375
153	0x3d969b13	0.07353797
154	0x3dcbf044	0.099579364
155	0xbe21911d	-0.15778013
156	0xbe546c96	-0.20744547
157	0xbe4621bf	-0.1934881
158	0xbe76c5f4	-0.2409895
159	0xbd7d5d1d	-0.061856378
160	0xbe12dec7	-0.14342795
161	0xbdd8b654	-0.10581651
162	0xbe91489e	-0.28375715
163	0xbd87d264	-0.06631926
164	0xbe6a338d	-0.22871228
165	0xbe2c52b4	-0.16828424
166	0xbec72eed	-0.3890299
167	0x3e93abf0	0.28842115
168	0x3e0a8a39	0.1352929
169	0xbea7bd79	-0.32761744
170	0x3e81b767	0.25335237
171	0xbec41da6	-0.3830387
172	0xbe92dbc3	-0.2868329
173	0x3e791b83	0.24326901
174	0x3e9e2a14	0.30891478
175	0x3eadbb0e	0.33931774
176	0xbc82b6f7	-0.015956385
177	0xbe767b75	-0.24070533
178	0x3eb8e814	0.36114562
179	0x3ed9e4a1	0.42557243
180	0x3d9e54b5	0.07731
181	0x3d19058a	0.037358798
182	0x3e5f9d4e	0.2183735
183	0xbc195745	-0.009359186
184	0x3e34709a	0.17621079
185	0x3c841712	0.016124282
186	0x3dc66ff3	0.09689321
187	0xbe35e28f	-0.17762206
188	0x3cfe9867	0.03107853
189	0xbd93d426	-0.072181985
190	0xbd2d0d76	-0.042249165
191	0x3de049f2	0.10951604
192	0x3df365e1	0.11884666
193	0x3cad7aaa	0.021176655
194	0x3cc4ccc3	0.02402342
195	0xbe6b8886	-0.23001298
196	0xbf01be68	-0.5068116
197	0x3e9f7089	0.31140545
198	0x3ecd4575	0.40092054
199	0x3e5e6bcb	0.21720807
200	0xbe2862f4	-0.16443998
201	0x3e5a0128	0.21289504
202	0xbeb8207b	-0.3596228
203	0xbe2cc1a6	-0.16870746
204	0xbeba36f0	-0.3637004
205	0xbec36123	-0.38160047
206	0xbeb7e29f	-0.35915086
207	0x3e204c81	0.15654184
208	0x3ed3bb4d	0.41353837
209	0x3e810b37	0.2520387
210	0x3dd3b3bb	0.10337015
211	0x3e600c87	0.21879779
212	0x3cea54b1	0.028604837
213	0xbe3fde0a	-0.18737045
214	0x3e12df01	0.14342882
215	0xbecbb1ef	-0.3978419
216	0x3e985dcc	0.2975906
217	0xbe812569	-0.25223854
218	0xbe20dbf7	-0.1570891
219	0x3e3c3348	0.18378937
220	0x3ca9aebc	0.020713203
221	0xbda5c811	-0.080948
222	0x3e4918a3	0.19638304
223	0x3d4cbd4b	0.04998521
224	0x3d0e6377	0.034762826
225	0xbde38ae1	-0.111104734
226	0xbd27aed5	-0.040938217
227	0x3e2b4e4d	0.16729088
228	0x3ebac469	0.36477974
229	0xbea10df4	-0.31455958
230	0xbe6a3af8	-0.22874057
231	0x3e60d58b	0.2195646
232	0xbe8fb329	-0.28066376
233	0x3e328a50	0.17435575
234	0x3e7a9c97	0.24473797
235	0x3e365326	0.17805156
236	0xbe90c0f9	-0.28272226
237	0x3b6049ab	0.0034223597
238	0x3c7393d4	0.014866788
239	0x3e6670ee	0.22504017
240	0xbe528d29	-0.20561661
241	0x3ea78f9b	0.3272675
242	0x3d621526	0.05519595
243	0xbca8198b	-0.020519992
244	0xbdbffaca	-0.09374006
245	0x3e10cff2	0.14141825
246	0x3e26f21a	0.16303292
247	0x3e47477c	0.19460863
248	0xbde3fdf0	-0.11132419
249	0x3d72f2fe	0.059313767
250	0x3d00654c	0.031346604
251	0xbeb4aa9d	-0.35286418
252	0x3ebf6bde	0.37386984
253	0xbeb90c06	-0.36141986
254	0x3ebc5803	0.36785898
255	0x3e67929a	0.22614518
