parameters/baseline_igmc_yelp_0.2773.pt (torch, 214261 bytes, 15 tensors)

convs.0.h_bias f4 [32]
0	0xbc9b2f30	-0.0189434
1	0xbd84e6fb	-0.064893685
2	0xbd179eee	-0.0370168
3	0x3ccf1fe8	0.025283769
4	0xbdcee804	-0.10102847
5	0x3d389ae4	0.04506959
6	0x3d01fabc	0.03173326
7	0x3cb95fa3	0.022628611
8	0x3d91eeaa	0.071256
9	0xbd57fb30	-0.052729785
10	0x3d79ac27	0.060955193
11	0xbddeea15	-0.10884491
12	0xbd843b77	-0.064566545
13	0x3c87e23b	0.016587367
14	0xbe01ae49	-0.12664141
15	0x3c95a9fd	0.018269533
16	0x3bb899ee	0.005633584
17	0xbd9c200f	-0.07623302
18	0xbdcb52ad	-0.099278785
19	0x3d25bb6b	0.04046194
20	0x3cef2ddc	0.029196672
21	0xbd46b8f3	-0.048516225
22	0xbc033b86	-0.008009797
23	0xbd0c07fb	-0.0341873
24	0xbccccfad	-0.025001371
25	0xbbdbb896	-0.006705354
26	0x3ca00ccc	0.019537352
27	0xbb8d2476	-0.004307325
28	0xbdd64567	-0.10462456
29	0x3dfe2389	0.124091215
30	0x3de9c2aa	0.11414082
31	0xbd628418	-0.055301756

convs.0.loop_weight f4 [4, 32]
0	0xbf0c61e9	-0.548369
1	0xbd89c305	-0.0672665
2	0x3e31c242	0.1735926
3	0x3cba012c	0.022705637
4	0xbe252e56	-0.16130957
5	0xbeba6b2b	-0.36409888
6	0xbf0daf31	-0.55345446
7	0xbde5b0c5	-0.11215357
8	0x3e914187	0.28370306
9	0xbdda84ca	-0.10669859
10	0x3ef62311	0.4807363
11	0x3eb96356	0.362086
12	0x3e06d359	0.1316656
13	0x3d63a756	0.055579506
14	0x3d4b8a92	0.049692698
15	0xbe54daf3	-0.20786647
16	0x3ef6feab	0.4824117
17	0xbe262e2b	-0.16228549
18	0x3ecc9109	0.39954403
19	0xbd3a1573	-0.04543061
20	0xbe44063b	-0.19143002
21	0xbeabf8b5	-0.33588186
22	0x3c8c2a90	0.01711014
23	0x3e5eede0	0.2177043
24	0x3ebb47b8	0.36578155
25	0xbece962b	-0.40348944
26	0x3ec90616	0.39262456
27	0x3e9ae9f1	0.30256608
28	0x3ed33a34	0.41255343
29	0xbebf58bb	-0.37372383
30	0xbe420c5a	-0.18950024
31	0x3d9a480e	0.075332746
32	0x3e7e5bec	0.24839753
33	0x3ec198ea	0.37811977
34	0xbd975880	-0.07389927
35	0xbe940e7f	-0.2891731
36	0x3b9c7f0b	0.004775887
37	0xbdbe806c	-0.09301838
38	0x3e440932	0.19144133
39	0x3e25c745	0.16189297
40	0xbdd14c69	-0.10219652
41	0xbeb6da6a	-0.35713512
42	0x3e3df901	0.18552019
43	0x3d343487	0.043995406
44	0x3e87797f	0.26459882
45	0xbee3520f	-0.44398543
46	0xbe590cb0	-0.21196246
47	0xbea8dc59	-0.32980612
48	0x3e351dd8	0.17687166
49	0xbe91bfee	-0.28466743
50	0xbe8886c8	-0.2666533
51	0x3d872a6d	0.06599889
52	0xbe6173c0	-0.22016811
53	0xbea9f529	-0.33194855
54	0xbd803249	-0.06259591
55	0xbe0ef53d	-0.13960738
56	0xbe168fcc	-0.14703292
57	0xbea0c61a	-0.3140114
58	0x3e9c9ad5	0.30586877
59	0xbead8a1a	-0.33894426
60	0x3dfc5e25	0.12322644
61	0xbe03b6aa	-0.1286265
62	0xbeb0e605	-0.3455049
63	0xbda89eec	-0.08233437
64	0x3e6df1b2	0.2323673
65	0x3ea27271	0.31727937
66	0xbe762fc9	-0.24041666
67	0x3db9a898	0.0906536
68	0x3e9a528e	0.3014111
69	0xbe9d0909	-0.30670956
70	0xbe81cb00	-0.2535019
71	0x3e0e3bb0	0.13889956
72	0xbef8b77a	-0.48577482
73	0xbdf7f59e	-0.12107395
74	0xbe59849d	-0.21241994
75	0x3e88e7a8	0.2673924
76	0x3e941ea4	0.28929627
77	0xbe650b68	-0.22367632
78	0x3e62b730	0.22140193
79	0x3e976a2f	0.295732
80	0xbe1fbebb	-0.15600102
81	0x3e0f05fe	0.1396713
82	0x3e2621d0	0.16223836
83	0xbe97c244	-0.296404
84	0x3e59db4d	0.21275063
85	0x3e1830c2	0.1486235
86	0x3e1fade7	0.15593682
87	0xbe6624a3	-0.22474913
88	0x3e173d84	0.1476956
89	0x3ebf25c2	0.37333494
90	0xbd27d166	-0.040971182
91	0xbe175e78	-0.1478213
92	0x3e8cba44	0.2748586
93	0xbd8e1551	-0.069376595
94	0x3ddc4b3e	0.10756539
95	0x3eb44f80	0.35216904
96	0xbc732f30	-0.014842793
97	0xbe91d3d7	-0.28481933
98	0x3e6be2ad	0.23035689
99	0xbdb03e66	-0.086056516
100	0x3e831240	0.2559986
101	0xbdec192d	-0.115282394
102	0x3e07d9c7	0.13266669
103	0xbe17ed5c	-0.14836639
104	0xbeb4e18e	-0.35328335
105	0x3eed2f92	0.46325356
106	0xbd93db99	-0.07219619
107	0x3e943d35	0.28952947
108	0xbd73ef94	-0.05955465
109	0x3e38cad2	0.1804612
110	0xbeae5b62	-0.34054095
111	0xbe6dd27d	-0.23224826
112	0xbdce5dea	-0.100765064
113	0xbe3e86c5	-0.18606098
114	0x3ddf6a1a	0.10908909
115	0xbe161946	-0.14658079
116	0xbe42f42d	-0.19038458
117	0xbd74f4c2	-0.05980373
118	0x3e9ce0ed	0.30640355
119	0x3e35595c	0.17709869
120	0x3dae965f	0.08524775
121	0x3e1736ab	0.14766948
122	0x3e1d946c	0.1538865
123	0x3da3b2f2	0.079931155
124	0xbc636cca	-0.013880918
125	0xbe631607	-0.22176372
126	0xbebf38a8	-0.37347913
127	0x3cfd8717	0.030948205

convs.0.linear_r.W f4 [5, 4, 32]
0	0x3ea4f464	0.32217705
1	0x3d3fb467	0.046802904
2	0xbe878699	-0.26469877
3	0x3d1d4e76	0.038404904
4	0x3e0df6c1	0.1386366
5	0xb8a93dd4	-8.070064e-05
6	0x3ea9f1ae	0.331922
7	0xbe841f15	-0.25804964
8	0xbd42e34e	-0.047580056
9	0xbe6af3b9	-0.22944535
10	0xbe4ad678	-0.19808376
11	0x3e01179f	0.12606667
12	0xbc922375	-0.017839173
13	0x3e91ff13	0.2851492
14	0xbdf9d148	-0.1219812
15	0x3e9dbab3	0.30806503
16	0x3db28c00	0.08718109
17	0xbea82a79	-0.32844904
18	0xbdd9fddb	-0.10644122
19	0x3d92b782	0.071639076
20	0x3dfe5118	0.12417811
21	0x3e4f75b6	0.20259747
22	0x3ce4801d	0.02789312
23	0xbdb0ea4f	-0.08638441
24	0x3d453779	0.048148606
25	0x3ce1aba9	0.027547674
26	0xbe8508b6	-0.25983208
27	0xbe975255	-0.29555002
28	0x3e435525	0.19075449
29	0xbe223dd8	-0.15843904
30	0x3d625647	0.05525806
31	0x3d4b2883	0.04959918
32	0xbd8069f4	-0.06270209
33	0xbd66cd61	-0.05634821
34	0x3d9e6067	0.07733231
35	0xbddfb57c	-0.10923287
36	0xbd98e50c	-0.07465562
37	0xbd15e097	-0.03659114
38	0x3d7a7e95	0.061155874
39	0x3dcec93d	0.10096977
40	0xbe5df223	-0.21674399
41	0x3c47d673	0.012197125
42	0x3ceee6a0	0.029162705
43	0x3db0b26a	0.0862778
44	0xbd966ab8	-0.07344574
45	0x3ee322a9	0.4436238
46	0xbe25d1b0	-0.1619327
47	0x3e3bc4a8	0.18336737
48	0x3e8f3216	0.279679
49	0x3dda6052	0.10662903
50	0x3e726387	0.23670779
51	0x3da3976d	0.079878666
52	0xbe36e394	-0.17860252
53	0xbe201951	-0.15634657
54	0x3e7725cf	0.24135517
55	0x3d5fb93c	0.054620013
56	0x3e89c28a	0.26906234
57	0x3e394d23	0.18095832
58	0xbed085d2	-0.40727097
59	0xbe755ed3	-0.23961954
60	0x3d2d1cc4	0.04226376
61	0x3e832d6c	0.25620592
62	0x3deec95a	0.116594985
63	0x3dab23d1	0.08356441
64	0xbef1132e	-0.47084945
65	0xbdb93914	-0.0904409
66	0x3e815ea7	0.25267527
67	0xbcbb47a2	-0.022861306
68	0xba7b2d90	-0.00095816795
69	0xbdb4d5e3	-0.08829858
70	0x3e1f4dd6	0.15557036
71	0xbe258f90	-0.16168046
72	0x3e9e99a7	0.30976602
73	0xbe639a49	-0.22226824
74	0xbe745e11	-0.23864008
75	0x3d7c5789	0.061606918
76	0x3dd2cde3	0.10293176
77	0x3d4abfe7	0.04949942
78	0x3ec17c87	0.3779032
79	0xbe0f8c48	-0.14018357
80	0x3d3fbcad	0.046810795
81	0x3db82ce6	0.08992939
82	0xbe9dde61	-0.30833724
83	0x3dbc86b5	0.09205381
84	0xbea6cc9c	-0.3257798
85	0xbce38307	-0.02777244
86	0xbd079942	-0.033105142
87	0x3e81807a	0.25293332
88	0x3e409433	0.18806534
89	0xbee993ff	-0.45620725
90	0x3e1c8295	0.15284188
91	0xbe5c6e43	-0.21526437
92	0xbbd01291	-0.0063498695
93	0xbe965ebe	-0.29369158
94	0xbebcce2b	-0.36876044
95	0x3e15f3b6	0.1464375
96	0xbe6e2a41	-0.23258306
97	0x3dcbde08	0.099544585
98	0x3e0e5f58	0.13903558
99	0xbec4f9d9	-0.3847187
100	0xbe782bdf	-0.24235485
101	0xbd131c13	-0.035915446
102	0xbec63cb6	-0.38718194
103	0xbe6752a9	-0.22590126
104	0x3f129abd	0.5726736
105	0xbe7b60a3	-0.24548583
106	0x3de9c663	0.114147924
107	0xbe5ed8d6	-0.21762404
108	0x3e9d86d7	0.30766937
109	0xbe31ab32	-0.17350462
110	0x3edd79e8	0.4325707
111	0x3f1cada0	0.6120243
112	0x3e8f8625	0.28032032
113	0x3c4f11fc	0.012638565
114	0x3e4c840f	0.19972251
115	0xbdefa342	-0.11701061
116	0x3d8d85f2	0.06910314
117	0x3e1cb95d	0.15305085
118	0xbe7f7821	-0.2494817
119	0xbe2da1dd	-0.16956277
120	0x3d54a0f1	0.0519113
121	0xbe85240d	-0.26004067
122	0xbbbf062a	-0.0058295922
123	0xbe67e575	-0.22646125
124	0xbe85ba22	-0.2611857
125	0x3ed5ad30	0.41733694
126	0x3eab8931	0.33503106
127	0x3e8cc9e2	0.27497774
128	0x3cb0c909	0.021580236
129	0xbf2a134d	-0.664357
130	0xbfaafece	-1.335901
131	0xbe88eeac	-0.26744592
132	0x3e8ad3d2	0.2711473
133	0x3f1706df	0.5899486
134	0x3f059d31	0.5219298
135	0xbf615b1d	-0.8802965
136	0xbed3c362	-0.41360003
137	0x3f382e8a	0.7194601
138	0x3f124533	0.5713684
139	0xbeecfe13	-0.46287593
140	0xbf84fd69	-1.0389835
141	0xbff1cdae	-1.8890893
142	0xbdba648e	-0.091012105
143	0x3fb0f5d4	1.3825021
144	0xbe0f5ef9	-0.14001073
145	0xbe08408d	-0.13305874
146	0x3ebc744d	0.3680748
147	0x3fe5d792	1.7956412
148	0x3f35a63f	0.70956796
149	0xbebe4a4c	-0.3716606
150	0x3ffc8c3a	1.9730294
151	0xbd9bf1b6	-0.07614462
152	0x3ed94a29	0.42439392
153	0xbe1baee2	-0.15203431
154	0x3c9c24e8	0.019060567
155	0x3e88dd46	0.26731318
156	0x3ff1a11a	1.8877289
157	0x3faee98e	1.3665025
158	0x3e6e1cd0	0.23253179
159	0xbf78868e	-0.97080314
160	0x3f4b0b1b	0.7931382
161	0x3f08368c	0.5320823
162	0xbf969dff	-1.1766967
163	0xbfdff508	-1.7496653
164	0xbd7bcd5f	-0.061475154
165	0x3e8ca7dd	0.2747182
166	0x3e6d9bbb	0.23203938
167	0x3fa0a75c	1.2551074
168	0x3ee09e27	0.4387066
169	0x40261561	2.5950549
170	0x3f2d7eb7	0.67771477
171	0xbf723223	-0.9460775
172	0xc00c9aab	-2.1969402
173	0xbec05cad	-0.37570706
174	0x3f30be4f	0.6904039
175	0x3e231fd8	0.15930116
176	0x3d9e8052	0.07739319
177	0xbf6bb6fc	-0.92076087
178	0xbe91b770	-0.28460264
179	0x3ea29278	0.31752372
180	0xbeee1ae2	-0.46504885
181	0x3ecd16da	0.40056497
182	0xbe7b95c3	-0.24568848
183	0xbfdf13c0	-1.7427902
184	0x3f23157b	0.6370465
185	0x3f645d9b	0.8920533
186	0xbe19a6c4	-0.15005022
187	0xbf03fa02	-0.51553357
188	0x3f23f927	0.6405205
189	0xbf3fb044	-0.74878335
190	0x3ea016e0	0.31267452
191	0xbe291329	-0.16511215
192	0x3e04561e	0.12923476
193	0xbded5868	-0.11589128
194	0x3e94a287	0.2903025
195	0x3b51c845	0.003201024
196	0xbe08f5c4	-0.13375002
197	0xbf31d7ad	-0.6946972
198	0xbebb86c5	-0.36626258
199	0x3b4b9c8b	0.0031068649
200	0x3c9d2016	0.019180339
201	0xbc1a9f12	-0.009437339
202	0x3f2711aa	0.6526133
203	0xbe86a0cc	-0.26294553
204	0xbe44182f	-0.1914985
205	0xbe91c4d9	-0.28470495
206	0xbd6a726c	-0.057238027
207	0x3db8f746	0.09031539
208	0xbef924f2	-0.48661
209	0xbe3ba127	-0.18323193
210	0x3e8903da	0.2676075
211	0xbd3d2754	-0.046180084
212	0xbeecb8e1	-0.462348
213	0x3d703403	0.058643352
214	0xbda2bd6c	-0.079462856
215	0xbde69e5e	-0.11260675
216	0xbe93ab80	-0.28841782
217	0x3bc0fe58	0.005889695
218	0xbe22df48	-0.15905488
219	0xbdd9f861	-0.10643078
220	0x3f247e34	0.6425507
221	0x3d7669a9	0.06015936
222	0x3e088ad3	0.13334207
223	0x3dc5a482	0.09650518
224	0xbde54e33	-0.11196556
225	0x3e84a7d5	0.25909296
226	0x3ca19ffa	0.019729603
227	0x3ef829d4	0.48469412
228	0xbdfa23c1	-0.12213851
229	0x3efe2910	0.49640703
230	0xbe993396	-0.2992217
231	0xbde3b5ab	-0.11118635
232	0x3d1fa8f0	0.03897947
233	0xbcf8e53d	-0.030382747
234	0x3f0be7e6	0.54650724
235	0xbced5f22	-0.028976027
236	0xbdd29fff	-0.10284423
237	0xbe9c19d1	-0.30488446
238	0x3d24df2c	0.040251896
239	0x3dc88915	0.09791771
240	0xbf6c9b0d	-0.9242409
241	0x3ecec34e	0.4038338
242	0x3e7e00a9	0.2480494
243	0x3d429bfe	0.047512047
244	0x3cd2c3ce	0.025728133
245	0xbd0e6732	-0.034766383
246	0x3f0423a6	0.51616895
247	0xbc0d6c80	-0.008631825
248	0xbe0ec8b7	-0.13943754
249	0x3ea2a3c9	0.31765583
250	0xbe77fd72	-0.24217775
251	0xbe396b46	-0.18107328
252	0xbdf25b1b	-0.11833783
253	0xbcb283ca	-0.021791358
254	0x3f39edc4	0.72628427
255	0x3e180f39	0.14849557

convs.1.h_bias f4 [32]
0	0xbd06c7d2	-0.032905407
1	0xbe6c5919	-0.23080863
2	0xbe085645	-0.13314159
3	0x3c61720b	0.0137601
4	0x3d9f9fb3	0.07794132
5	0x3c177306	0.009243732
6	0xbc0c8327	-0.008576191
7	0xbdc55e2a	-0.09637101
8	0x3d23712c	0.03990285
9	0xbb6c8b4a	-0.0036093765
10	0x3c6c1ac3	0.014410677
11	0x3ccf42a7	0.025300337
12	0x3d20f22a	0.039293446
13	0x3c81c436	0.015840631
14	0xbd350d3e	-0.04420208
15	0xbdbdc77a	-0.09266563
16	0xbcd95a37	-0.026532276
17	0x3d1e54fd	0.03865527
18	0xbb8065ce	-0.003918386
19	0xb901bbbd	-0.00012372337
20	0x3d5559b5	0.052087504
21	0xbcb34506	-0.021883499
22	0xbd3b00a2	-0.0456549
23	0xbd087e65	-0.033323664
24	0xbc93199d	-0.01795655
25	0xbd6f853d	-0.058476675
26	0xbca17ac7	-0.019711865
27	0xbd97d710	-0.07414067
28	0x3d93e19f	0.07220768
29	0xbe2114ff	-0.15730666
30	0x3d05b5e8	0.032644182
31	0xbd81d242	-0.063389316

convs.1.loop_weight f4 [32, 32]
0	0xbe9ed34e	-0.31020588
1	0x3d56cc8d	0.05244117
2	0xbe63b654	-0.22237521
3	0x3e864a14	0.26228392
4	0x3db464ff	0.08808326
5	0x3ebccaca	0.36873466
6	0xbee77594	-0.45206892
7	0x3d5ad56e	0.0534262
8	0xbe7b4c44	-0.24540812
9	0xbd20e366	-0.039279364
10	0xbe21976d	-0.1578042
11	0x3ee017c2	0.43768126
12	0x3eef1866	0.46698302
13	0x3eedf7b6	0.4647805
14	0x3d3b7aa3	0.045771252
15	0x3be19f64	0.006885456
16	0xbdb39b93	-0.08769908
17	0xbeae0d13	-0.3399435
18	0xbe06dd77	-0.1317042
19	0xbe01f657	-0.12691627
20	0xbe186146	-0.14880857
21	0x3e891ef4	0.26781428
22	0x3eac6ef6	0.33678406
23	0xbdc719bd	-0.09721706
24	0xbeb13ac2	-0.3461514
25	0x3eb3edb5	0.35142294
26	0xbec5887c	-0.38580692
27	0xbdd6b22f	-0.104832046
28	0xbe43b0d2	-0.1911042
29	0xbe111848	-0.14169419
30	0x3e833a5d	0.25630465
31	0x3eb49b08	0.3527453
32	0x3ee6ce21	0.4507914
33	0x3e7f3483	0.24922375
34	0xbcd00e60	-0.02539748
35	0xbef8f431	-0.48623803
36	0xbdb5438a	-0.08850773
37	0x3e31f60a	0.17379013
38	0x3e915fc9	0.2839339
39	0x3eba10c9	0.3634093
40	0xbdcd3e72	-0.10021676
41	0xbe2a0cc6	-0.16606435
42	0xbec8c43f	-0.39212224
43	0xbd19c0b8	-0.037537307
44	0xbeaef34a	-0.3416999
45	0x3e4fe7ec	0.20303315
46	0x3eccd5b3	0.4000679
47	0x3ea34c08	0.31893945
48	0x3d2c63f4	0.04208751
49	0x3e4b84c1	0.1987486
50	0x3eabcdaf	0.33555362
51	0x3e8c2e14	0.27378905
52	0xbe99ca1b	-0.30037007
53	0xbed177b6	-0.40911645
54	0xbd8924d5	-0.06696478
55	0xbe7d96f6	-0.24764618
56	0xbe0319b3	-0.12802772
57	0xbe0a7d6a	-0.13524404
58	0xbe95bb3f	-0.2924442
59	0x3d86a43e	0.065742955
60	0x3d1d250b	0.038365405
61	0xbe172064	-0.1475845
62	0x3f09558f	0.5364618
63	0x3d5fe5bc	0.05466245
64	0x3dfbfd36	0.123041555
65	0xbe9fcafb	-0.3120955
66	0xbbafa2ec	-0.005359998
67	0xbd920357	-0.07129543
68	0x3e1b9af5	0.1519583
69	0x3e43b2a4	0.19111115
70	0xbda89765	-0.08232001
71	0x3ec1119c	0.37708747
72	0x3e872266	0.2639343
73	0xbe80e495	-0.25174394
74	0x3df8b709	0.12144286
75	0xbe0a3fe6	-0.13500938
76	0xbf1dcc03	-0.6163942
77	0xbe829b11	-0.2550893
78	0xbe880667	-0.26567385
79	0x3e9c1f16	0.30492467
80	0x3e403f13	0.18774061
81	0x3e579759	0.21053828
82	0x3d8b7e1c	0.06811163
83	0x3ee03eca	0.43797904
84	0xbde89964	-0.11357382
85	0x3da9351c	0.08262083
86	0xbe02ce3a	-0.12773982
87	0x3d2bc253	0.04193337
88	0xbdb3150c	-0.08744249
89	0x3cc6bdd2	0.024260435
90	0x3c105ac4	0.008810703
91	0x3e7fb184	0.2497006
92	0xbc56be19	-0.013106846
93	0xbe4d9817	-0.20077549
94	0xbe48ba4d	-0.19602318
95	0xbe6b62f3	-0.22986965
96	0xbe3d03dc	-0.18458503
97	0xbe92b4a8	-0.28653455
98	0xbeaf4ce1	-0.3423834
99	0xbe9a8f08	-0.3018725
100	0x3ede4fb6	0.4342019
101	0xbd7b33d7	-0.061328735
102	0xbee21338	-0.44155288
103	0xbea7b985	-0.32758728
104	0xbe5342fa	-0.20631018
105	0x3dc0fea9	0.094235726
106	0xbec7a133	-0.38990173
107	0xbe8198f1	-0.25311998
108	0xbe9db881	-0.30804828
109	0xbaf270cd	-0.0018496752
110	0xbdac91f1	-0.084262736
111	0xbe0031d2	-0.12519005
112	0x3ece8ff8	0.40344214
113	0x3eb56dd0	0.35435343
114	0xbe1fb466	-0.1559616
115	0x3e926f82	0.286007
116	0x3de2b340	0.110693455
117	0xbe3e124a	-0.18561664
118	0xbde29432	-0.11063422
119	0xbe74ec6e	-0.23918316
120	0xbe379d57	-0.17931114
121	0x3d2f5e1c	0.04281436
122	0xbc87c353	-0.01657263
123	0x3c6723d1	0.01410766
124	0xbea4108e	-0.3204388
125	0xbda69ca3	-0.08135345
126	0x3e5e0bb1	0.21684147
127	0xbe406ae3	-0.18790774
128	0x3e5279e9	0.20554318
129	0xbd9d3ac4	-0.07677224
130	0x3d94287d	0.07234285
131	0x3eaf8814	0.34283507
132	0x3d3e3ced	0.046444822
133	0x3e876adc	0.26448715
134	0x3f0e3f38	0.55565214
135	0xbe323bf5	-0.17405684
136	0xbd9d0538	-0.07667011
137	0x3d449d6a	0.048001684
138	0xbedc8f44	-0.43078053
139	0x3b85ab06	0.0040792255
140	0xbeeb121c	-0.45912254
141	0xbe69f9f6	-0.22849259
142	0xbe83535c	-0.25649536
143	0x3e76111a	0.24029961
144	0x3e42cf57	0.19024406
145	0xbdca9d8f	-0.09893333
146	0x3dea6cfc	0.11446568
147	0xbe73d521	-0.23811771
148	0x3e460e00	0.19341278
149	0xbd57b7fc	-0.052665696
150	0xbd35b710	-0.044364035
151	0x3de6f8f1	0.112779506
152	0x3e2f25b1	0.17104222
153	0x3edefc89	0.43552044
154	0xbeaadfb7	-0.33373806
155	0xbec18651	-0.37797788
156	0x3ef22e8b	0.47301134
157	0x3ea3deb9	0.3200586
158	0x3b28a0cd	0.002573061
159	0xbf097c2f	-0.53705114
160	0xbe444c30	-0.19169688
161	0xbe0cf6a3	-0.1376596
162	0x3e3fc289	0.18726553
163	0xbc5df843	-0.01354796
164	0xbe83ec5c	-0.25766265
165	0xbe32954f	-0.17439769
166	0xbeabf3c5	-0.3358442
167	0x3dec93ac	0.11551604
168	0x3eb8ac2d	0.3606886
169	0xbe31ca0e	-0.17362234
170	0xbee7f622	-0.45304972
171	0xbde10783	-0.10987761
172	0x3e6f85d8	0.23390901
173	0xbd6bec63	-0.057598483
174	0xbca8142b	-0.02051743
175	0x3d3d28b3	0.046181392
176	0x3cd6b9b8	0.026211604
177	0x3e231ad4	0.15928203
178	0xbd840bb3	-0.06447544
179	0xbea095ec	-0.3136438
180	0xbe4248cc	-0.18973082
181	0xbe7a9576	-0.24471077
182	0xbe55fd66	-0.20897445
183	0xbe97a24f	-0.2961602
184	0xbea6f51d	-0.32608882
185	0xbbfae2ed	-0.007656446
186	0xbea64b3a	-0.32479268
187	0x3e2e5f47	0.17028533
188	0x3e2bde61	0.1678405
189	0x3e251a6a	0.16123357
190	0xbec54373	-0.38528022
191	0x3e801e9f	0.25023362
192	0xbe136342	-0.14393333
193	0xbe1b8080	-0.15185738
194	0x3e8b8a79	0.27254084
195	0x3d86a146	0.06573729
196	0x3ea4c044	0.32177937
197	0xbed0ec1f	-0.40805146
198	0x3e0122a1	0.12610866
199	0xbb5c6a72	-0.0033632782
200	0xbdb4ca42	-0.0882764
201	0xbc9e46cb	-0.019320866
202	0x3d41f874	0.047356084
203	0xbea55e5c	-0.32298553
204	0x3ee612a0	0.44936085
205	0x3e41dc02	0.18931583
206	0xbd8281a5	-0.06372384
207	0xbe6854e7	-0.22688638
208	0x3ee21576	0.44156998
209	0x3dfabc61	0.12242962
210	0x3c16f714	0.009214181
211	0xbedfe8c8	-0.43732285
212	0x3cf8ee45	0.030387053
213	0x3d4c3b03	0.049860965
214	0x3e70a01e	0.2349858
215	0x3e36a482	0.17836192
216	0x3e7d6079	0.24743833
217	0x3e697f84	0.2280255
218	0x3e05d22d	0.13068457
219	0x3e3e2214	0.18567687
220	0xbe203369	-0.15644611
221	0x3d3f3286	0.046679042
222	0x3e75e1bf	0.24011897
223	0xbe73af01	-0.23797227
224	0x3df1b5a6	0.11802225
225	0xbe36d926	-0.17856273
226	0x3d67b99b	0.05657349
227	0xbe3b0f9a	-0.1826767
228	0xbdd7ab9c	-0.10530779
229	0x3e282861	0.16421653
230	0x3efcb3d5	0.4935595
231	0x3e0f7c95	0.14012368
232	0xbeb31fc2	-0.34985167
233	0xbebf060e	-0.37309307
234	0x3ef63c12	0.48092705
235	0xbe8f7354	-0.28017676
236	0x3e3d0f2f	0.18462823
237	0x3e43529f	0.19074486
238	0x3d8c7fc8	0.0686031
239	0x3e18adcf	0.14910053
240	0x3d9887e8	0.07447797
241	0x3e86d322	0.26332957
242	0xbea01c05	-0.31271377
243	0x3ec864d1	0.39139417
244	0xbceec8cb	-0.02914848
245	0xbeaf13c7	-0.34194776
246	0xbec28144	-0.37989247
247	0xbec504b2	-0.38480145
248	0xbe81a4d8	-0.25321078
249	0x3e669e1d	0.22521253
250	0x3cfed518	0.03110747
251	0xbef33528	-0.47501493
252	0x3c79f2e9	0.015255668
253	0x3d553e8b	0.0520616
254	0xbebfd9d2	-0.3747087
255	0x3ea5d548	0.32389283

convs.1.linear_r.W f4 [5, 32, 32]
0	0x3e409c01	0.18809511
1	0x3e551e13	0.20812254
2	0x3e087d71	0.13329102
3	0x3d7744a0	0.06036818
4	0x3c994197	0.018708033
5	0x3bc0625c	0.0058711004
6	0x3e7ebd99	0.24877013
7	0xbb5d4d68	-0.0033768062
8	0xbde0856b	-0.109629475
9	0xbe060eec	-0.1309163
10	0xbd656681	-0.05600596
11	0xbbfbd510	-0.007685311
12	0x3e3b177b	0.18270676
13	0xbc23d8e7	-0.010000444
14	0xbde689ee	-0.11256777
15	0x3d117af1	0.035517637
16	0x3d814ada	0.06313105
17	0xbda74738	-0.08167881
18	0x3e8cee00	0.2752533
19	0xbe486362	-0.19569162
20	0xbcfb6627	-0.030688358
21	0x3cebc4d8	0.028780386
22	0x3d83a651	0.06428207
23	0x3c9ec9b3	0.019383287
24	0x3c9b5702	0.018962387
25	0x3dd65a4e	0.10466443
26	0xbde717d5	-0.112838425
27	0x3bcfa81f	0.0063371803
28	0xbdad3a44	-0.08458379
29	0xbc7d92d2	-0.015476899
30	0x3d0dabfc	0.034587845
31	0xbdf6bcad	-0.12047706
32	0x3e58378f	0.21114944
33	0xbe606cdb	-0.21916525
34	0x3e20bd5b	0.15697233
35	0x3d95d3bf	0.07315778
36	0xbe2a2553	-0.166158
37	0xbd2aa64a	-0.04166249
38	0xbd2b93a9	-0.041888867
39	0x3cce0e00	0.02515316
40	0xbe04ca21	-0.12967731
41	0x3dd0f866	0.10203628
42	0x3d6e9737	0.05824968
43	0x3d877b06	0.06615262
44	0xbdd3517a	-0.10318275
45	0x3e67e27d	0.22644992
46	0x3d6a6f31	0.057234947
47	0xbdb6c55c	-0.08924362
48	0xbd9bfa27	-0.07616072
49	0x3e01543d	0.1262979
50	0xbe1d8ff6	-0.15386948
51	0xbe1c3aeb	-0.1525685
52	0xbda64614	-0.08118835
53	0xbcc72270	-0.024308413
54	0x3e0085d1	0.12551047
55	0x3d37ec2d	0.04490297
56	0x3d143c98	0.0361906
57	0xbd505fe3	-0.050872695
58	0xbd516fb1	-0.051131908
59	0x3d48ec66	0.049053572
60	0xbde73ec1	-0.11291266
61	0x3e527c73	0.20555286
62	0x3dacdf89	0.084410734
63	0x3dd7501d	0.10513327
64	0xbd6c39ae	-0.057672195
65	0x3d53a241	0.05166841
66	0xbd7e22c7	-0.062044885
67	0x3d757e01	0.05993462
68	0x3c7f3b93	0.015578168
69	0xbe303fbe	-0.17211816
70	0x3de09879	0.10966582
71	0x3d3192e2	0.04335297
72	0xbea6c6a5	-0.3257343
73	0x3c05c01e	0.00816348
74	0xbe272ecc	-0.16326445
75	0xbcf053bb	-0.0293368
76	0xbcea1ea7	-0.02857907
77	0x3e3835d4	0.17989284
78	0x3d07db84	0.03316833
79	0x3e0bbf6b	0.13647239
80	0xbb10189e	-0.002198733
81	0x3c0d35ed	0.008618814
82	0xbd67ebfb	-0.056621533
83	0xbe081204	-0.13288122
84	0xbddf95f5	-0.10917274
85	0x3da642f1	0.08118237
86	0xbd412424	-0.047153607
87	0x3cd4f7ab	0.025997004
88	0xbd01bbe9	-0.031673346
89	0x3cfdbffc	0.030975334
90	0xbdb845f2	-0.08997716
91	0xbe44f285	-0.19233139
92	0xbd563b60	-0.05230272
93	0xbe8ba57f	-0.272747
94	0x3d9ca812	0.07649244
95	0x3eb89ac5	0.3605558
96	0x3d9e1c81	0.077202804
97	0xbdf43650	-0.11924422
98	0xbd553e6f	-0.052061494
99	0x3d6b5495	0.05745371
100	0x3dddd7f5	0.10832206
101	0x3e576713	0.21035413
102	0xbe118bf6	-0.14213547
103	0xbdc88bd6	-0.097922966
104	0x3e709ff2	0.23498514
105	0xbe921b42	-0.2853642
106	0xbd88767c	-0.06663224
107	0x3e9bfc38	0.30465865
108	0x3d43af77	0.04777476
109	0x3de25cc1	0.11052848
110	0x3dbf7563	0.093485616
111	0xbd2d6730	-0.042334735
112	0xbd90fbf0	-0.07079303
113	0xbc9c7b82	-0.019101862
114	0xbe53a943	-0.20670037
115	0xbe6b67a5	-0.22988756
116	0xbe00e4bb	-0.12587254
117	0x3d0c7e36	0.03430005
118	0x3dc18bf0	0.09450519
119	0xbdb10756	-0.08643977
120	0x3cf21c27	0.02955444
121	0xbe26c79c	-0.16287082
122	0xbe19cd82	-0.15019801
123	0xbd81236d	-0.06305585
124	0x3db4849b	0.08814355
125	0x3dedbb6b	0.11608013
126	0xbe034409	-0.12818922
127	0xbbe95d70	-0.0071217343
128	0xbe945ae5	-0.28975597
129	0x3cd3e389	0.025865333
130	0xbd727099	-0.059189413
131	0x3e0d288a	0.13784996
132	0x3d6bd87a	0.057579495
133	0xbe3a1302	-0.18171313
134	0x3d449d0c	0.048001334
135	0xbc5a7a50	-0.013334826
136	0xbdb44585	-0.08802322
137	0x3e3a7080	0.18206978
138	0x3d908143	0.07055905
139	0xbde0efae	-0.10983215
140	0xbe488d77	-0.19585215
141	0x3e3893d8	0.18025148
142	0x3ddf83ea	0.109138325
143	0xbd713b91	-0.058894698
144	0x3de79830	0.11308324
145	0xbd96a719	-0.0735609
146	0xbda7b8ed	-0.08189569
147	0x3d8122a7	0.063054375
148	0x3d03554d	0.03206377
149	0xbdbf534b	-0.09342059
150	0x3cc469ce	0.023976233
151	0x3d185c7e	0.037197582
152	0xbd16d4d4	-0.036824062
153	0x3e201cd4	0.15635997
154	0x3e5612c4	0.20905596
155	0x3da3f431	0.0800556
156	0xbda4fbf6	-0.0805587
157	0xbd8c9262	-0.06863858
158	0x3d75cc21	0.060009126
159	0xbdf52b14	-0.11971107
160	0x3e50e6ce	0.20400545
161	0x3da6fc1d	0.081535555
162	0x3d85b544	0.06528714
163	0xbdf5a9cf	-0.11995279
164	0xbd628f0a	-0.055312194
165	0xbe1c242e	-0.15248176
166	0xbe03c85c	-0.128694
167	0x3e05ddba	0.13072863
168	0xbdf1f0bc	-0.118134946
169	0x3e043f78	0.12914836
170	0x3dd11deb	0.102107845
171	0x3ccfd08b	0.025367996
172	0xbdc5243f	-0.09626054
173	0x3dc9b0a7	0.09848147
174	0x3ded1685	0.11576561
175	0x3de1e314	0.1102964
176	0x3d9bcd12	0.076074734
177	0x3d32e591	0.043675963
178	0x3e0070b3	0.12542991
179	0xbe19966c	-0.14998788
180	0x3deeed72	0.11666383
181	0xbe85d422	-0.26138407
182	0x3dec7419	0.11545581
183	0xbddd20d6	-0.107972786
184	0xbd929dc0	-0.07158995
185	0x3be157b5	0.0068769106
186	0xbe10a2aa	-0.14124551
187	0x3d41b179	0.04728839
188	0xbd0fe7fa	-0.03513334
189	0x3df3f4c9	0.119119234
190	0x3c5d6ab5	0.0135142105
191	0xbe35cadb	-0.17753164
192	0xbdc25c2e	-0.09490238
193	0xbdcbe0e5	-0.099550046
194	0xbdd341a1	-0.10315252
195	0xbe28f68f	-0.16500305
196	0xbd9f8306	-0.077886626
197	0xbdbdf8ba	-0.092759565
198	0xbdca9677	-0.0989198
199	0xbd1664c5	-0.036717195
200	0x3e79cfe3	0.24395709
201	0xbded19eb	-0.11577209
202	0x3de7570e	0.11295901
203	0x3d1ac785	0.037787933
204	0x3e21b49d	0.15791555
205	0xbe380629	-0.179711
206	0xbe13d41f	-0.14436387
207	0xbdcf5d76	-0.10125248
208	0x3df894e5	0.121377744
209	0x3d7bb1e5	0.06144895
210	0x3e466e66	0.19378051
211	0x3e25198b	0.16123025
212	0xbc09f281	-0.008419634
213	0xbd619fb6	-0.055083953
214	0xbae3ca5c	-0.0017379033
215	0xbe753804	-0.2394715
216	0x3d8844c6	0.066537425
217	0x3b70b83f	0.0036730913
218	0x3dcbab1e	0.099447474
219	0xbe1fc5dd	-0.15602823
220	0x3da130e8	0.07870656
221	0xbe10cdad	-0.14140959
222	0x3df62098	0.120179355
223	0xbe2333e5	-0.15937765
224	0xbe0a6b4e	-0.13517496
225	0x3e34912a	0.176335
226	0x3e952b01	0.29134372
227	0x3c7aa95c	0.0152991675
228	0xbe2b64da	-0.1673769
229	0xbd7ba1c2	-0.06143356
230	0x3d0d3595	0.034474928
231	0x3e478e28	0.19487822
232	0xbe1af5da	-0.15132847
233	0xbddb9557	-0.10721844
234	0xbe136ec8	-0.14397728
235	0xbdb25150	-0.087069154
236	0x3e9cd82e	0.30633682
237	0x3cf3d7d5	0.029766003
238	0xbe79c34c	-0.24390906
239	0x3e0b3d08	0.135975
240	0x3dbace90	0.0912143
241	0x3ccd85b7	0.025088174
242	0xbd012b2d	-0.031535316
243	0xbd4331a0	-0.047654748
244	0xbcf7115f	-0.03015965
245	0x3da81598	0.08207244
246	0xbe10140c	-0.14070147
247	0xbe7d8468	-0.2475754
248	0xbdd95ea8	-0.10613757
249	0xbdb27f65	-0.08715705
250	0xbdece77c	-0.1156759
251	0x3d9d3cb0	0.07677591
252	0xbc269d08	-0.010169275
253	0x3d8cc07f	0.06872653
254	0xbde2d53f	-0.1107583
255	0x3e50e6d7	0.20400558

convs.2.h_bias f4 [32]
0	0x3da4263b	0.080151044
1	0xbd840b52	-0.06447472
2	0xbd6406b2	-0.055670448
3	0x3d1747dc	0.036933765
4	0x3d1c5d93	0.038175177
5	0xbcb43bbc	-0.02200114
6	0xbbc64d1a	-0.0060516717
7	0xbe143855	-0.14474614
8	0xbc8eacee	-0.017416444
9	0xbcaa0f06	-0.020759117
10	0xbba8e432	-0.005154156
11	0x3ce54dd2	0.02799121
12	0xbd8d5db8	-0.06902641
13	0xbdfc474d	-0.12318287
14	0x3e5be37f	0.21473502
15	0x3e098678	0.13430202
16	0xbbcc7ae4	-0.0062402356
17	0x3db660dd	0.08905194
18	0x3c7d67a9	0.015466609
19	0xbdc481aa	-0.09595044
20	0xbe5c1a02	-0.21494296
21	0xbc8a3220	-0.016869605
22	0xbce27711	-0.027644666
23	0x39c39796	0.0003730624
24	0x3c1e4236	0.009659341
25	0xbd372a52	-0.044718094
26	0xbb6832e9	-0.0035430735
27	0xbd5d06f5	-0.053961713
28	0x3dab1f65	0.083555974
29	0xbc5f919f	-0.013645559
30	0x3db2cae2	0.08730103
31	0xbd3aeab7	-0.045633998

convs.2.loop_weight f4 [32, 32]
0	0x3e4d8ecd	0.20074005
1	0x3e536b54	0.20646411
2	0xbf064e51	-0.5246325
3	0x3eaedb68	0.3415177
4	0xbe946c89	-0.28989056
5	0xbd9b9279	-0.07596297
6	0x3e63dc7c	0.22252077
7	0xbea8a887	-0.32941076
8	0x3e2f2459	0.1710371
9	0x3d829de1	0.06377769
10	0x3cffd3a1	0.031228842
11	0xbecc90a7	-0.3995411
12	0x3eb1390f	0.34613845
13	0xbd73ac95	-0.05949076
14	0xbea9c542	-0.33158308
15	0x3e1bbea0	0.15209436
16	0xbe61a956	-0.22037253
17	0xbca483a4	-0.020082302
18	0xbc27b1ae	-0.010235233
19	0xbe1ed940	-0.15512562
20	0x3eb490b0	0.35266638
21	0xbe344d7d	-0.17607684
22	0x3de9283f	0.113846295
23	0x3e42fc43	0.19041543
24	0xbe8e734e	-0.27822345
25	0x3e6a5f0b	0.22887819
26	0xbe8f43a8	-0.27981305
27	0xbd8f3fdb	-0.06994601
28	0x3a811908	0.0009849379
29	0x3ef8f30f	0.4862294
30	0xbec42d0d	-0.3831562
31	0x3eb63d61	0.35593703
32	0x3e5390c2	0.2066069
33	0x3ea44e7e	0.32091135
34	0x3ea2e6ee	0.3181681
35	0xbe8a4f5a	-0.27013665
36	0xbd5f801f	-0.054565545
37	0x3e68fe86	0.22753343
38	0x3e96b851	0.29437497
39	0x3dda97ce	0.10673486
40	0x3e5574a9	0.20845284
41	0xbcc2bf90	-0.023772985
42	0xbec0a8dc	-0.3762883
43	0xbb2c215f	-0.0026265008
44	0x3d99ea04	0.07515338
45	0x3eadd613	0.33952388
46	0xbf05f74f	-0.5233049
47	0xbc078a3e	-0.008272706
48	0xbea5ee97	-0.32408592
49	0xbea40554	-0.32035315
50	0x3d8c9e0c	0.068660825
51	0xbe7b48d7	-0.24539505
52	0x3e863a02	0.2621613
53	0xbcb2598f	-0.02177122
54	0x3e6200d0	0.22070622
55	0xbbcae997	-0.006192397
56	0xbeb9c758	-0.362849
57	0xbebc8cef	-0.36826274
58	0xbe1be41c	-0.15223736
59	0x3ef5fd6d	0.4804491
60	0xbb65b808	-0.0035052318
61	0xbda108e5	-0.078630246
62	0xbe1161a7	-0.14197408
63	0x3c523fa3	0.012832555
64	0xbc2dc946	-0.010607069
65	0xbedaf8aa	-0.4276784
66	0x3e5aaa16	0.21353945
67	0xbe65546a	-0.22395483
68	0xbe7828ca	-0.2423431
69	0xbe737bcb	-0.23777692
70	0x3db66b30	0.08907163
71	0xbecd5332	-0.40102535
72	0x3d086419	0.033298586
73	0x3e871576	0.2638356
74	0x3e744935	0.23856051
75	0xbeca2cbe	-0.3948726
76	0x3d2c4460	0.042057395
77	0x3e2c1508	0.16804898
78	0xbe90fd71	-0.2831836
79	0xbd95cacb	-0.0731407
80	0xbe02258a	-0.12709633
81	0x3def4b6d	0.11684308
82	0xbdc7c027	-0.09753447
83	0x3e60c16f	0.21948789
84	0x3de82fb8	0.11337227
85	0x3e2f4b91	0.1711867
86	0xbd1d04fe	-0.03833484
87	0xbe8f22a9	-0.2795613
88	0xbeb0610a	-0.34449035
89	0x3e0d6ac0	0.13810253
90	0xbd70354f	-0.05864459
91	0x3d9a3712	0.07530035
92	0x3e2ad587	0.16683017
93	0x3e8be9c1	0.27326778
94	0x3e57c5b8	0.21071517
95	0x3e87a484	0.26492703
96	0xbd347fc4	-0.04406716
97	0xbbfaa519	-0.0076490757
98	0xbe3f2ca0	-0.18669367
99	0xbe533062	-0.20623925
100	0x3d817b21	0.06322313
101	0x3e039945	0.12851436
102	0x3e882658	0.26591754
103	0xbea18533	-0.31546935
104	0x3e1c8719	0.1528591
105	0xbd964386	-0.07337098
106	0xbe97a31e	-0.29616636
107	0x3ea62f89	0.3245814
108	0xbe095d64	-0.13414532
109	0x3d9db510	0.077005506
110	0xbd96f3d0	-0.07370722
111	0xbec14cec	-0.37754
112	0xbecb03d3	-0.39651355
113	0x3ce9e30f	0.028550653
114	0xbe91114e	-0.28333515
115	0xbe392a6e	-0.18082592
116	0x3de1eac9	0.1103111
117	0x3e8d306d	0.27576008
118	0xbe90dba4	-0.28292572
119	0xbdf510f1	-0.11966122
120	0xbe1b2b5d	-0.1515326
121	0xbecf15c2	-0.40446287
122	0xbd64efca	-0.055892743
123	0x3e913ba3	0.28365812
124	0x3e67f598	0.2265228
125	0xbe909f35	-0.28246465
126	0x3ddc7e66	0.10766296
127	0x3e432a31	0.19059063
128	0x3daefff9	0.08544917
129	0xbe8e991b	-0.27851185
130	0xbe8039b3	-0.2504402
131	0x3e412cfb	0.18864815
132	0x3d62df18	0.05538854
133	0x3ea4258d	0.320599
134	0xbdb2f728	-0.087385476
135	0xbe9a3557	-0.3011882
136	0x3df74414	0.12073532
137	0x3e21f8fc	0.15817636
138	0x3e0065ec	0.1253888
139	0xbe09a786	-0.13442811
140	0x3c3a255c	0.011361446
141	0xbe8563aa	-0.260526
142	0x3e3372a2	0.17524198
143	0x3ea08e56	0.31358594
144	0xbcfe4231	-0.031037422
145	0x3e1333a0	0.14375162
146	0x3eb3803c	0.35058773
147	0xbeaa90b5	-0.33313528
148	0xbd87efb1	-0.066375144
149	0xbdcdc909	-0.1004811
150	0x3eaebf09	0.34130123
151	0xbe3841ef	-0.17993902
152	0xbdc0665e	-0.09394525
153	0xbd3d43bb	-0.04620717
154	0xbe68f63d	-0.22750182
155	0x3d6b2cf0	0.057415903
156	0x3d7a1641	0.06105638
157	0xbe56ff16	-0.20995745
158	0xbe5fa257	-0.21839271
159	0x3ea060a6	0.31323737
160	0xbe6bcf91	-0.23028399
161	0xbecf0a91	-0.4043775
162	0xbe473f6f	-0.19457792
163	0x3eb75e48	0.35814118
164	0xbe844ec0	-0.2584133
165	0xbef382a3	-0.47560605
166	0xbed25d4b	-0.41086802
167	0xbd70a8ed	-0.05875485
168	0x3d257fc9	0.04040507
169	0x3ea4806e	0.32129234
170	0x3e015a03	0.12631993
171	0xbe8a5b87	-0.27022955
172	0xbdf7fb66	-0.12108497
173	0x3ece077d	0.40240088
174	0xbe227723	-0.1586576
175	0xbd1dfa75	-0.038568933
176	0x3e558cae	0.20854446
177	0x3e3c6fec	0.1840207
178	0x3e7fa213	0.2496417
179	0xbe16341e	-0.14668319
180	0x3e64b6e1	0.22335388
181	0xbe3f41b4	-0.18677408
182	0x3e3999f7	0.18125139
183	0xbe479a87	-0.19492541
184	0xbe228bdb	-0.15873663
185	0xbd6a7a95	-0.05724581
186	0xbcd654da	-0.026163507
187	0x3ea9e05c	0.33178985
188	0xbeb6dd47	-0.35715696
189	0xbe53db88	-0.20689213
190	0x3d6986b6	0.057013236
191	0xbe53421b	-0.20630686
192	0x3e955f10	0.2917409
193	0xbe95a7f3	-0.29229698
194	0x3eb0ba8b	0.3451732
195	0x3d7abcfd	0.06121539
196	0xbeb8cfe9	-0.36096123
197	0x3e86dd08	0.26340508
198	0x3d912d98	0.070887744
199	0x3ba275e6	0.0049579022
200	0xbe923115	-0.28553072
201	0xbe47287e	-0.1944904
202	0x3e804022	0.2504893
203	0xbe94ac20	-0.2903757
204	0xbdf9f6c0	-0.12205267
205	0xbf15d8fc	-0.58534217
206	0x3e963500	0.2933731
207	0x3de5c90d	0.11219988
208	0x3e3ecd18	0.18632925
209	0x3e0237f8	0.12716663
210	0x3e99e217	0.30055305
211	0x3ddae111	0.10687459
212	0xbea7209a	-0.3264206
213	0xbf0e193a	-0.5550724
214	0xbea69e74	-0.32542765
215	0x3e3c9095	0.18414529
216	0x3d170b3c	0.03687595
217	0x3dc75f16	0.09734933
218	0x3e56841b	0.20948832
219	0x3d1d1b61	0.03835619
220	0x3e3bc520	0.18336916
221	0xbdcedc00	-0.101005554
222	0x3ef4f6e9	0.47844627
223	0x3dc21fcc	0.09478721
224	0x3cf29297	0.029610915
225	0xbe1fad54	-0.15593463
226	0x3e0f7673	0.14010029
227	0xbe5200e6	-0.20508155
228	0xbe166928	-0.14688551
229	0xbe5d3d4d	-0.21605416
230	0x3dcf8740	0.10133219
231	0x3ef861c8	0.485121
232	0xbe7aebdf	-0.2450404
233	0xbd27d67a	-0.040976025
234	0x3e078bc7	0.13236915
235	0xbcbb19d3	-0.022839462
236	0x3e9f00df	0.31055352
237	0xbe83eff1	-0.25768998
238	0xbe0c73a0	-0.13715982
239	0xbd8d75bb	-0.06907221
240	0x3e5e9a43	0.21738534
241	0xbdedb915	-0.11607567
242	0xbd85244c	-0.06501064
243	0xbde61ee6	-0.11236362
244	0xbec4219f	-0.383069
245	0xbec3d15f	-0.38245675
246	0xbe9fea53	-0.31233463
247	0x3eaf6b74	0.34261668
248	0x3e6dc402	0.23219302
249	0x3eb209fd	0.34773245
250	0x3d882e49	0.06649453
251	0xbda15a97	-0.07878607
252	0x3e90a7a6	0.28252906
253	0xbe035a33	-0.12827377
254	0xbee67613	-0.45011958
255	0x3e8812db	0.26576886

convs.2.linear_r.W f4 [5, 32, 32]
0	0x3e23f3e8	0.16011012
1	0xbe08f0ab	-0.13373058
2	0xbe110241	-0.14161016
3	0x3e20b631	0.156945
4	0xbd1c4f66	-0.038161658
5	0x3e3df1b6	0.18549237
6	0x3b29a7d7	0.0025887394
7	0x3e0dacd4	0.1383546
8	0x3dca0a0f	0.098652
9	0x3dcf4d1d	0.1012213
10	0xbcdd5ea0	-0.02702266
11	0xbe235c0e	-0.15953085
12	0x3d25c72c	0.04047315
13	0xbdd3cf20	-0.1034224
14	0xbe038e4b	-0.12847249
15	0x3df05ed6	0.117368385
16	0x3b24f880	0.0025172532
17	0xbca19155	-0.01972262
18	0xbcef5e64	-0.029219814
19	0x3e17fbab	0.14842097
20	0x3d7e1cbb	0.06203912
21	0x3deb04f0	0.11475551
22	0xbe9a4aaa	-0.3013509
23	0x3e89a561	0.26883987
24	0xbbade3c2	-0.005306692
25	0x3d908504	0.07056621
26	0xbdda11b8	-0.10647911
27	0xbe0afbe7	-0.13572656
28	0xbe96e5bb	-0.29472145
29	0x3ddf10e0	0.108918905
30	0xbd086c70	-0.03330654
31	0x3e5c7452	0.21528748
32	0xbe2e50cb	-0.17023008
33	0xbe30ea30	-0.17276835
34	0x3cb0abea	0.02156635
35	0x3e6eb5cf	0.23311542
36	0x3e2ba9ea	0.16764036
37	0xbe0800e8	-0.13281596
38	0xbd3913d4	-0.045184925
39	0xbd985ba9	-0.07439358
40	0xbd191769	-0.03737584
41	0xbe0cf948	-0.13766968
42	0x3d855bad	0.065116264
43	0x3e2707b3	0.16311531
44	0xbe877420	-0.26455784
45	0xbcebf3c5	-0.028802762
46	0xbe41fc81	-0.18943979
47	0xbd055f80	-0.03256178
48	0x3d8a1fb0	0.06744325
49	0xbc9cdd31	-0.019148441
50	0x3dc25554	0.09488931
51	0x3d3fca65	0.046823878
52	0x3d951172	0.07278718
53	0x3e08e596	0.1336883
54	0xbe32f14b	-0.17474858
55	0x3e422358	0.18958795
56	0x3e3c35a0	0.18379831
57	0x3d26e5d5	0.04074653
58	0x3e66d295	0.22541268
59	0xbc1c389c	-0.009534981
60	0xbe619b8b	-0.22031991
61	0xbc768d62	-0.015048357
62	0x3e236bd4	0.15959102
63	0xbeabf464	-0.33584893
64	0x3e0d37cf	0.1379082
65	0x3e256afd	0.16154094
66	0xbd6a8876	-0.057259046
67	0x3dee3402	0.116310135
68	0x3dd6b2ee	0.10483347
69	0xbdbd110f	-0.09231769
70	0xbe012693	-0.12612371
71	0x3d10ec10	0.035381377
72	0x3d03609f	0.032074567
73	0x3d823b2e	0.06358944
74	0xbe6541eb	-0.22388427
75	0xbe40f7c6	-0.18844518
76	0xbd83182f	-0.06401097
77	0xbeb0f977	-0.34565327
78	0xbe3408b6	-0.17581448
79	0x3e162b4a	0.14664951
80	0xbd807365	-0.0627201
81	0xbe0022ef	-0.12513326
82	0xbe54285b	-0.2071852
83	0xbd654716	-0.055975996
84	0xbd77897d	-0.060433853
85	0xbe1d6029	-0.15368713
86	0x3d783bdd	0.060603965
87	0x3d8ca0c9	0.06866605
88	0x3bcf4ca4	0.006326275
89	0x3dd1818c	0.10229787
90	0xbdc8d66f	-0.09806525
91	0xbd904922	-0.07045199
92	0xbc964af9	-0.018346297
93	0x3e283bdf	0.16429089
94	0xbcd08ece	-0.02545872
95	0xbd8ec558	-0.06971234
96	0xbe82ae2f	-0.25523517
97	0xbe269599	-0.16268004
98	0x3d96e358	0.07367581
99	0xbe38ccaa	-0.18046823
100	0x3d3dcbf2	0.046337076
101	0xbdf784f6	-0.12085907
102	0xbebaa14e	-0.3645119
103	0xbab90f63	-0.0014118965
104	0xbddbb6fc	-0.10728261
105	0xbe27b1e0	-0.16376448
106	0xbd6a51d3	-0.05720694
107	0xbe6313cf	-0.22175525
108	0xbe43a417	-0.19105564
109	0x3db9731e	0.0905516
110	0xbdbb604c	-0.091492265
111	0xbd15e28d	-0.03659301
112	0x3e12d398	0.14338529
113	0xbdf910b3	-0.12161388
114	0x3d7a5129	0.061112557
115	0x3db9ebac	0.09078154
116	0xbdcb1285	-0.09915642
117	0x3df17054	0.11789003
118	0x3e84cbe6	0.25936812
119	0x3e0e2722	0.13882115
120	0x3e86fdfc	0.2636565
121	0xbdebfbf8	-0.115226686
122	0x3d8aefc5	0.06784014
123	0xbe43b3c1	-0.1911154
124	0xbe180281	-0.14844705
125	0x3ddd7075	0.10812465
126	0x3e1f7c3b	0.15574734
127	0x3e1f0005	0.15527351
128	0x3e286832	0.16445997
129	0x3e4fb0f4	0.20282346
130	0xbd80b768	-0.06284982
131	0xbe7e887e	-0.24856755
132	0x3ca284af	0.01983866
133	0x3de01f4d	0.1094347
134	0x3e0f99bc	0.14023489
135	0x3d950bc0	0.07277632
136	0x3e0946d5	0.13405927
137	0xbde9f5ea	-0.114238575
138	0x3de4fe43	0.11181309
139	0xbd81369c	-0.06309244
140	0xbd8d7250	-0.06906569
141	0x3d0c608b	0.034271758
142	0x3c7817d2	0.015142398
143	0xbe177d37	-0.1479386
144	0x3d0c1a52	0.03420479
145	0xbc940973	-0.018070912
146	0x3c79dfe0	0.01525113
147	0xbd10552d	-0.03523748
148	0x3de63b2a	0.112417534
149	0xbdf0f6b6	-0.117658064
150	0xbc3b4fd0	-0.011432603
151	0xbd418320	-0.04724419
152	0xbe6b4aa8	-0.22977698
153	0xbd5b762a	-0.053579487
154	0x3d5cd579	0.05391452
155	0xbe6b87aa	-0.2300097
156	0xbc6a27a4	-0.014291678
157	0x3d2678bb	0.04064248
158	0x3cc5a232	0.024125192
159	0x3d008b24	0.031382695
160	0xbe19b6a8	-0.15011084
161	0x3d4c63c7	0.049899843
162	0x3e600a38	0.21878898
163	0x3da79311	0.081823476
164	0xbd6d0c24	-0.057872906
165	0xbe41cadf	-0.18925045
166	0xbd80a6ad	-0.06281791
167	0x3d079434	0.033100322
168	0xbe1d50ee	-0.15362903
169	0xbc8646fa	-0.016391266
170	0x3e5da424	0.21644646
171	0xbd0af07e	-0.033920757
172	0x3ca79cbd	0.02046048
173	0x3e5948bc	0.21219152
174	0xbcef1d56	-0.029188793
175	0x3cb904c5	0.022585282
176	0xbd8d10eb	-0.068879925
177	0xbdc0ecc5	-0.0942016
178	0xbdb0bde0	-0.08629966
179	0x3df4f1a9	0.119601555
180	0x3dc5446c	0.09632191
181	0x3e27cf4b	0.1638767
182	0x3c9bf4e3	0.01903767
183	0x3e639de4	0.22228199
184	0xbda369ac	-0.0797914
185	0xbe670d2a	-0.22563615
186	0xbdf5f3f1	-0.12009419
187	0x3cfd7ff1	0.030944796
188	0x3c441440	0.011967719
189	0xbc8ec71d	-0.017428929
190	0x3cdd4e3a	0.02701484
191	0x3e0ae3d6	0.13563475
192	0x3e406a8f	0.18790649
193	0xbbe27b08	-0.006911639
194	0x3df6d6de	0.120527014
195	0x3e086b18	0.13322103
196	0x3dc2862c	0.094982475
197	0x3dd0c12a	0.10193093
198	0x3def9d96	0.11699979
199	0x3db1b054	0.0867621
200	0x3d88457e	0.066538796
201	0xbd2976f4	-0.04137321
202	0x3d2e9fc4	0.042632833
203	0x3dd96135	0.10614244
204	0xbe3489b9	-0.17630662
205	0xbd97ad13	-0.07406058
206	0x3d1f06d6	0.03882488
207	0xbe1a2326	-0.1505247
208	0xbda993e1	-0.08280159
209	0xbe252839	-0.16128625
210	0xba9a6b6a	-0.001178128
211	0xbdf95aa5	-0.12175492
212	0x3d823aa8	0.06358844
213	0xbdf8771c	-0.12132093
214	0x3d23d9cc	0.04000263
215	0xbdd37262	-0.10324551
216	0x3e7186ab	0.23586528
217	0x3e452970	0.19254088
218	0x3e44ba21	0.19211628
219	0xbd55ec40	-0.05222726
220	0x3e6776e4	0.22603947
221	0x3b49389d	0.003070391
222	0x3e621af3	0.22080593
223	0xbe6178b9	-0.22018708
224	0xbc8eaa33	-0.017415142
225	0x3db19c7a	0.08672424
226	0xbdad8675	-0.08472911
227	0x3e99c3af	0.30032107
228	0xbd3cc044	-0.046081796
229	0x3d97b9f3	0.07408514
230	0x3dd7e57a	0.10541816
231	0x3d95598e	0.07292472
232	0x3df430ca	0.11923368
233	0x3d6d582e	0.057945423
234	0xbde9c7f4	-0.11415091
235	0xbd8d46b1	-0.06898249
236	0x3e24cca5	0.1609369
237	0xbdd0b74c	-0.10191211
238	0xbd2d8c28	-0.04236999
239	0xbdadcfa2	-0.084868684
240	0x3e554b65	0.20829542
241	0xbe0adcf8	-0.13560855
242	0x3e5147a1	0.2043748
243	0x3ddea139	0.108705945
244	0xbdba6725	-0.091017045
245	0xbc2bf4e2	-0.010495396
246	0x3d60f57f	0.054921623
247	0xbe580ed4	-0.21099406
248	0x3e76e591	0.2411101
249	0x3dcefe36	0.10107081
250	0x3e2779a6	0.16354999
251	0xbe10a778	-0.14126384
252	0xbd4db6f5	-0.05022331
253	0x3e2dd2f3	0.16975002
254	0xbdb9abbf	-0.09065961
255	0x3d971757	0.073774986

convs.3.h_bias f4 [32]
0	0xbe22151d	-0.15828367
1	0x3dfa9be9	0.12236769
2	0xbd8269b1	-0.06367815
3	0xbdec92d9	-0.115514465
4	0x3d0025d2	0.03128607
5	0xbe126e20	-0.14299822
6	0xbe185059	-0.148744
7	0xbe4b398a	-0.19846168
8	0x3e63ee96	0.22258982
9	0xbe28dd7b	-0.16490738
10	0x3ccc5fb1	0.024947973
11	0xbe0ba8e4	-0.13638645
12	0xbd4e33a5	-0.05034222
13	0x3d3afa74	0.045649007
14	0x3df0256e	0.11725889
15	0xbdad638c	-0.08466253
16	0x3d60f99b	0.054925542
17	0xbdebb3dc	-0.11508915
18	0x3dd70b4e	0.10500203
19	0xbd174f51	-0.036940876
20	0x3d847620	0.06467843
21	0x3d077120	0.03306687
22	0x3ddedea6	0.108823106
23	0x3ca5f123	0.020256585
24	0x3d87cfa2	0.066314
25	0xbd840f76	-0.064482614
26	0x3e03d5c0	0.12874508
27	0xbe0b8b1e	-0.13627288
28	0x3dd5c805	0.10438541
29	0xbd7e3a78	-0.06206748
30	0x3b4e000a	0.0031433129
31	0xbe4b8da6	-0.19878253

convs.3.loop_weight f4 [32, 32]
0	0x3e7e9571	0.24861695
1	0x3e4fb38d	0.20283337
2	0x3c213504	0.0098393
3	0xbea4934c	-0.3214363
4	0x3e9d94ce	0.3077759
5	0xbdba77d2	-0.09104885
6	0x3e2bbda2	0.16771558
7	0x3e019cb0	0.12657428
8	0xbeaeb5e2	-0.3412314
9	0xbe027b1b	-0.12742274
10	0xbe18fa5c	-0.14939255
11	0x3e2cfac5	0.16892536
12	0x3d9ed7dc	0.07756016
13	0xbd718bea	-0.058971323
14	0xbdc6e3c8	-0.097114146
15	0x3e6d7339	0.23188485
16	0xbeda848e	-0.42679256
17	0x3e612a0f	0.219887
18	0x3ea7a6cd	0.32744446
19	0xbd92022d	-0.07129321
20	0xbd57c78a	-0.05268053
21	0xbebe8651	-0.3721185
22	0x3e9f57ba	0.31121618
23	0x3f0eff35	0.55858165
24	0x3e6dcfbb	0.23223774
25	0x3cf842ca	0.030305285
26	0x3e324dd8	0.17412508
27	0x3e8759f0	0.26435804
28	0xbe252f5f	-0.16131352
29	0xbdb40363	-0.087897085
30	0xbcf4663a	-0.029833902
31	0xbe87cff9	-0.26525858
32	0x3e54ad53	0.20769243
33	0x3de4add7	0.1116597
34	0x3e01cf44	0.12676722
35	0x3bad049a	0.0052800896
36	0xbdddf0f6	-0.10836975
37	0x3df75564	0.12076834
38	0xbe97f23a	-0.29676992
39	0xbd88dbbe	-0.066825375
40	0xbdbfda8f	-0.093678586
41	0xbea5b716	-0.32366246
42	0xbe29146c	-0.16511697
43	0x3f0e3763	0.55553263
44	0xbeaf8859	-0.34283713
45	0x3e4c6f9f	0.19964455
46	0x3d9339f7	0.0718879
47	0x3d3a0034	0.04541035
48	0xbe53044a	-0.20607105
49	0xbc62eedf	-0.013850897
50	0x3e3256ad	0.17415877
51	0xbe2ce8e8	-0.16885722
52	0xbaed1dde	-0.0018090566
53	0x3ea253de	0.3170461
54	0xbe0cb7c2	-0.13741973
55	0x3e5816f5	0.21102507
56	0xbd3e45e7	-0.046453383
57	0x3e569dc8	0.20958626
58	0xbe4c0e6e	-0.1992738
59	0x3dfafd9a	0.12255402
60	0x3ea4a283	0.32155237
61	0xbcd3e88d	-0.025867725
62	0xbe698209	-0.2280351
63	0xbeabf7e4	-0.33587563
64	0x3d07af09	0.03312591
65	0x3ebc3dc9	0.36765888
66	0xbe740b54	-0.23832446
67	0xbeebe13e	-0.46070284
68	0xbe5eab81	-0.21745111
69	0x3e824a88	0.25447488
70	0xbebe2a19	-0.37141493
71	0x3d2992d6	0.0413998
72	0xbe8e2e12	-0.27769524
73	0x3e582f72	0.21111849
74	0x3e910214	0.28321898
75	0x3cfe3a35	0.031033615
76	0x3e6e2764	0.23257214
77	0x3ebf86a3	0.37407407
78	0x3d6da2d9	0.05801663
79	0xbde9cd75	-0.11416141
80	0xbe9a4cbd	-0.30136672
81	0x3e8af88b	0.27142748
82	0xbed8dc40	-0.42355537
83	0xbe3f1634	-0.18660814
84	0x3e951198	0.29114985
85	0xbd8cf497	-0.06882589
86	0x3e2fbd01	0.17161943
87	0x3e927275	0.2860295
88	0xbca9b353	-0.020715391
89	0xbd812e0c	-0.06307611
90	0xbc9dfd2f	-0.019285766
91	0x3e987b26	0.29781455
92	0xbe7ec3d7	-0.24879394
93	0x3c49dc56	0.012320599
94	0xbe9e96f0	-0.3097453
95	0x3ed8b847	0.42328092
96	0x3da81f40	0.082090855
97	0x3eb5112a	0.35364658
98	0x3d131174	0.035905316
99	0xbdfe55b7	-0.124186926
100	0xbcb39b2e	-0.021924581
101	0x3e1d8691	0.15383364
102	0x3e2c7db7	0.16844831
103	0x3e9098b2	0.28241497
104	0x3df92642	0.121655
105	0x3e32710a	0.17425933
106	0xbe356edd	-0.17718072
107	0x3db2be47	0.08727699
108	0xbdcce18c	-0.10003957
109	0x3e5fa350	0.21839643
110	0x3e26ca83	0.1628819
111	0x3e810c89	0.25204876
112	0xbecc8ab8	-0.39949584
113	0xbb449c3a	-0.0030000345
114	0xbcc64082	-0.024200682
115	0xbea2c40f	-0.31790206
116	0x3e0cfcaa	0.13768259
117	0x3ebdb717	0.3705375
118	0xbe203678	-0.15645778
119	0xbdec69de	-0.1154363
120	0x3dfdd7ba	0.12394662
121	0xbe9de393	-0.30837688
122	0x3e331463	0.17488246
123	0xbdf713f1	-0.120643504
124	0xbd923a44	-0.071400195
125	0xbe807469	-0.25088814
126	0x3de7d79c	0.11320421
127	0x3d2093de	0.039203517
128	0xbeab3f7f	-0.3344688
129	0x3df6b48a	0.12046154
130	0xbe33ed7a	-0.17571059
131	0xbda66285	-0.0812426
132	0x3e2c3151	0.16815688
133	0xbf05aff8	-0.5222163
134	0xbd0f08e5	-0.03492059
135	0x3eaef4f0	0.34171247
136	0xbdc3f9d2	-0.09569134
137	0xbe39432f	-0.18092035
138	0x3e92776d	0.2860674
139	0x3d6b94ca	0.057514943
140	0xbeafe654	-0.34355414
141	0xbec80219	-0.390641
142	0x3ea9300c	0.3304447
143	0x3e0780bb	0.132327
144	0xbbe865d0	-0.007092215
145	0x3d81dd00	0.063409805
146	0xbe0995de	-0.13436076
147	0xbe982608	-0.29716516
148	0x3e45f15b	0.19330351
149	0x3e45c081	0.19311716
150	0xbcfeea84	-0.031117685
151	0x3c119039	0.008884483
152	0xbde58673	-0.11207285
153	0xbeca8aae	-0.3955893
154	0x3eab61b5	0.33472982
155	0x3ec75075	0.3892857
156	0x3ed59f25	0.4172298
157	0xbe3e2357	-0.18568169
158	0x3e84b3b4	0.25918353
159	0xbc9f7d62	-0.019468967
160	0xbee9c559	-0.45658377
161	0xbe8aa754	-0.27080786
162	0xbe617bcf	-0.22019885
163	0x3e3d8f01	0.18511583
164	0xbddc9a34	-0.107715994
165	0xbdb9ff0f	-0.09081852
166	0xbd15e80f	-0.03659826
167	0xbe134e13	-0.14385252
168	0x3e50d7d6	0.20394835
169	0xbd826124	-0.06366184
170	0xbee172a7	-0.44032785
171	0xbd4c799c	-0.049920663
172	0x3d4e2636	0.05032941
173	0x3e29d797	0.16586147
174	0x3e3086d8	0.17238939
175	0xbe144a86	-0.14481553
176	0x3b4cc10a	0.003124299
177	0x3eaceb51	0.33773282
178	0xbc4fb56c	-0.012677532
179	0x3eb08622	0.34477335
180	0x3ef7a16c	0.48365343
181	0xbea76adc	-0.32698715
182	0xbe3a4cfe	-0.18193433
183	0xbc6cb669	-0.014447787
184	0x3ea4f959	0.32221487
185	0xbea44516	-0.32083958
186	0x3e0860b9	0.13318147
187	0xbe76142b	-0.24031131
188	0x3e8b19be	0.27168077
189	0xbd5212e6	-0.051287554
190	0xbe3da2f7	-0.18519197
191	0x3e9fd88b	0.31219897
192	0xbe8bced9	-0.2730625
193	0x3bf2abf2	0.0074057514
194	0xbc1e1780	-0.0096491575
195	0xbdfc807e	-0.123291954
196	0xbc973486	-0.018457662
197	0x3df13d00	0.11779213
198	0x3dcf0021	0.101074465
199	0x3dc15719	0.09440441
200	0x3e356ea7	0.17717992
201	0x3e64e1b8	0.2235173
202	0xbdee2315	-0.11627785
203	0x3d73c0f8	0.0595102
204	0xbe578cca	-0.210498
205	0xbe23fd94	-0.16014701
206	0x3e1c0922	0.15237859
207	0x3e1d1f2e	0.15343925
208	0x3d9b42e0	0.07581115
209	0x3da98f5d	0.082792975
210	0x3ecf77cc	0.40521085
211	0x3ec5784c	0.38568342
212	0x3dcdf885	0.10057167
213	0x3d67da6e	0.056604795
214	0xbe5cc684	-0.21560103
215	0x3ea45493	0.32095775
216	0xbea855be	-0.32877916
217	0xbe134f8c	-0.14385813
218	0x3c84670a	0.016162414
219	0x3e23efd9	0.16009463
220	0x3da12618	0.07868594
221	0xbef85bca	-0.4850753
222	0x3d93590c	0.07194719
223	0x3d23390b	0.039849322
224	0x3ec9d5ac	0.3942083
225	0xbebcf70d	-0.36907235
226	0x3e8b64e9	0.27225426
227	0xbe664916	-0.22488818
228	0x3e168839	0.14700402
229	0xbe12471f	-0.14284943
230	0x3e2c038b	0.16798227
231	0x3e5198c2	0.20468429
232	0x3e4a8333	0.19776611
233	0xbe6ad351	-0.22932173
234	0xbe87e96d	-0.26545277
235	0x3e87283f	0.26397893
236	0xbd8d075a	-0.06886168
237	0x3ef968af	0.4871268
238	0xbe563a0c	-0.2092058
239	0x3d37086b	0.044685762
240	0x3df69c47	0.12041526
241	0x3c95770e	0.018245246
242	0x3e89e5c2	0.26933104
243	0x3d219de9	0.039457235
244	0x3e4e7c5f	0.20164631
245	0x3ea043f9	0.3130186
246	0xbea068b5	-0.31329885
247	0x3e6e1a53	0.2325223
248	0xbe249502	-0.16072467
249	0x3dcab9cd	0.0989872
250	0x3d69c14f	0.05706912
251	0xbe86d1a9	-0.26331833
252	0x3e7a85f3	0.2446516
253	0x3ec87130	0.39148855
254	0x3e31ac58	0.173509
255	0x3e5a8564	0.21339947
