parameters/baseline_igmc_movie_0.2315.pt (torch, 214261 bytes, 15 tensors)

convs.0.h_bias f4 [32]
0	0x3d086471	0.033298913
1	0x3d1197d3	0.03554518
2	0xbc09662d	-0.008386177
3	0xbcea8479	-0.028627621
4	0xbc46cc8e	-0.012133731
5	0x3d621789	0.055198226
6	0x3d38aaab	0.045084637
7	0xbcb1557a	-0.021647204
8	0x3d8d5d16	0.0690252
9	0x3c800fc6	0.015632521
10	0xbd473aa0	-0.048639894
11	0xbc3543c7	-0.011063523
12	0x3b9be665	0.00475769
13	0x3d0d716f	0.034532007
14	0x3cbe0374	0.023195006
15	0xbd00578d	-0.031333495
16	0x3c85227d	0.016251797
17	0x3b81109e	0.0039387485
18	0x3ced66b4	0.028979637
19	0x3d01866e	0.031622343
20	0xbd3b6fc8	-0.0457609
21	0x3ce50619	0.02795701
22	0xbda1b6f4	-0.07896224
23	0xbd371998	-0.044702142
24	0xbcbba7ad	-0.022907102
25	0xbc80efe7	-0.015739394
26	0x3d811736	0.06303255
27	0x3ced7ed9	0.02899115
28	0x3ca9beed	0.020720923
29	0xbbd9e31a	-0.006649387
30	0x3b715794	0.0036825882
31	0x3cbee4ba	0.023302425

convs.0.loop_weight f4 [4, 32]
0	0x3c835465	0.016031453
1	0xbf089571	-0.5335303
2	0x3c77b684	0.015119199
3	0xbec06cb8	-0.37582946
4	0x3ea2bb25	0.31783405
5	0xbe6984cb	-0.22804563
6	0xbe762f3e	-0.24041459
7	0x3f020c46	0.5079998
8	0xbe9f5930	-0.31122732
9	0x3e1bf1dd	0.15228982
10	0xbe0cf82a	-0.13766542
11	0x3e0b8072	0.13623217
12	0x3eea6af3	0.4578472
13	0xbd73f441	-0.05955911
14	0xbe36bb4c	-0.17844886
15	0x3c960156	0.018311184
16	0xbef2b1ec	-0.4740137
17	0xbe1e7b02	-0.15476611
18	0x3f07de38	0.53073454
19	0xbe89ef22	-0.26940256
20	0xbc5e4597	-0.013566396
21	0x3deca880	0.11555576
22	0x3eb409a9	0.3516362
23	0x3e8834b0	0.26602697
24	0xbefbb544	-0.49161732
25	0x3ea4e583	0.32206354
26	0xbea9f888	-0.33197427
27	0x3f00efe7	0.5036606
28	0xbd9f291f	-0.07771515
29	0x3d1ac338	0.03778383
30	0xbe7d25d9	-0.24721469
31	0xbec5c334	-0.3862549
32	0x3ef7d649	0.48405674
33	0xbef2169c	-0.47282875
34	0x3ed89a10	0.4230504
35	0xbeea9ad1	-0.4582124
36	0x3eddccf9	0.43320444
37	0x3e866c23	0.26254377
38	0x3eb20348	0.34768128
39	0xbe9cf237	-0.30653545
40	0x3e8d149e	0.27554792
41	0xbda4fa76	-0.08055584
42	0x3ea31b2c	0.31856668
43	0x3ebbef14	0.3670584
44	0xbec0247f	-0.37527844
45	0x3da76570	0.081736445
46	0x3dd6164e	0.10453473
47	0xbeb72ce6	-0.35776442
48	0xbef84599	-0.484906
49	0xbdd501e6	-0.10400753
50	0xbefc6a1d	-0.49299708
51	0xbe7f5245	-0.24933727
52	0xbd253466	-0.040333174
53	0xbf0516f8	-0.5198817
54	0xbe524fd2	-0.20538262
55	0x3f007e94	0.5019314
56	0xbdf22ef7	-0.11825364
57	0xbec1d11d	-0.37854853
58	0xbe497055	-0.19671758
59	0xbee79d31	-0.45237115
60	0xbef9eb1f	-0.48812196
61	0x3cb922d7	0.02259962
62	0xbef0c0dd	-0.47022143
63	0xbee4fbf7	-0.44723484
64	0xbefdc184	-0.49561703
65	0xbeb0ffa7	-0.34570047
66	0x3edb34ae	0.4281363
67	0x3eb34563	0.35013875
68	0xbe11f512	-0.14253643
69	0xbe7a1f58	-0.24426019
70	0xbe599ead	-0.21251936
71	0xbea0659c	-0.31327522
72	0xbee48fda	-0.44641
73	0xbe563d8e	-0.20921919
74	0xbdb94dd8	-0.09048051
75	0x3e03d9eb	0.12876098
76	0xbb48428b	-0.003055724
77	0xbe02e65a	-0.12783185
78	0x3c00cf76	0.007861963
79	0x3db90bfb	0.09035488
80	0xbe1c6192	-0.15271595
81	0xbecf2bd5	-0.4046313
82	0xbef1868c	-0.47172964
83	0xbe9b84e2	-0.3037482
84	0x3d507cfc	0.050900444
85	0xbef26c6f	-0.47348353
86	0x3e48af97	0.19598232
87	0x3e121b2c	0.14268178
88	0x3c918fae	0.017768707
89	0xbeb52fff	-0.3538818
90	0xbee96ef5	-0.45592466
91	0xbe1669e3	-0.1468883
92	0x3eb0aff9	0.34509256
93	0x3ea4711e	0.32117552
94	0x3c40c825	0.011766468
95	0xbe15cf43	-0.14629845
96	0x3ecf5fde	0.40502828
97	0xbed2722d	-0.41102734
98	0x3ed71445	0.42007652
99	0xbe92c42e	-0.28665298
100	0xbe8fa6a8	-0.28056836
101	0x3d3382be	0.043825857
102	0xbec37e04	-0.3818208
103	0x3d6abb26	0.057307385
104	0xbe418c37	-0.18901144
105	0x3eaa56c8	0.33269334
106	0xbd9eb035	-0.077484526
107	0xbe2d8b7b	-0.16947739
108	0x3f095251	0.5364123
109	0xbee3b6ff	-0.44475552
110	0xbf0e77d1	-0.55651575
111	0xbd3e69be	-0.046487562
112	0xbdb549ba	-0.08851953
113	0x3c3018c1	0.010748089
114	0x3d9e3786	0.07725434
115	0xbe93c1e3	-0.2885886
116	0x3e912c39	0.28354052
117	0x3f10c43d	0.56549436
118	0x3ca5a38e	0.02021959
119	0x3ec01ccd	0.37521973
120	0xbe915bda	-0.2839039
121	0x3d13941a	0.036029913
122	0xbd3ea8c5	-0.04654767
123	0xbd6bf7ef	-0.057609495
124	0xbed940c3	-0.42432222
125	0xbefc0a72	-0.4922672
126	0x3cc1c303	0.02365256
127	0xbe474c65	-0.19462736

convs.0.linear_r.W f4 [5, 4, 32]
0	0xbd008030	-0.03137225
1	0xbe5b90f5	-0.21442015
2	0xbed728d9	-0.42023352
3	0x3ed7603f	0.42065617
4	0xbda94e82	-0.08266927
5	0xbd7e75a9	-0.06212393
6	0x3ec8a38f	0.39187285
7	0x3c9ca25e	0.019120391
8	0x3e0575fe	0.13033292
9	0x3ea27e46	0.31736964
10	0x3ebebe32	0.37254483
11	0x3e613e49	0.21996416
12	0xbef0882e	-0.46978897
13	0x3e14dc20	0.14537096
14	0xbd6e90c2	-0.05824352
15	0xbee64513	-0.44974574
16	0xbc496737	-0.012292675
17	0xbc43fa4e	-0.011961533
18	0xbe934ffc	-0.2877196
19	0x3e01e29c	0.12684101
20	0x3da222ec	0.07916817
21	0xbd948a14	-0.07252899
22	0xbe5578f2	-0.20846918
23	0xbd6e6cd4	-0.058209255
24	0x3d8991d1	0.067172654
25	0x3e6a7940	0.22897816
26	0x3d1f8ff4	0.038955644
27	0xbe6ca90f	-0.23111366
28	0x3df3ca2c	0.119037956
29	0xbdc9bd5b	-0.0985057
30	0x3e808fd9	0.25109747
31	0xbeb3ea02	-0.3513947
32	0x3e84c690	0.2593274
33	0xbd4085c9	-0.047002587
34	0xbd3e0072	-0.046387143
35	0xbecb4e8c	-0.39708364
36	0x3e8fde51	0.280993
37	0x3da29e59	0.07940359
38	0xbee1adff	-0.4407806
39	0x3de6e0f3	0.112733744
40	0xbeb51a73	-0.35371742
41	0x3ed3fdec	0.41404665
42	0xbe886e1b	-0.26646504
43	0x3ed7e27f	0.4216499
44	0xbe8f2ba5	-0.27962986
45	0x3e7cc943	0.2468615
46	0xbe0df74b	-0.13863866
47	0x3d38452e	0.04498785
48	0x3da7c1ee	0.08191286
49	0x3b04a434	0.0020239474
50	0xbeb32703	-0.349907
51	0xbea3de10	-0.32005358
52	0xbebf99a9	-0.3742192
53	0x3e3daf7c	0.18523973
54	0xbd250b3f	-0.04029393
55	0xbe198aca	-0.1499435
56	0x3ee54d04	0.4478532
57	0xbe9b83b6	-0.30373925
58	0x3d88061e	0.06641792
59	0xbd8d5291	-0.06900514
60	0xbde6c455	-0.11267916
61	0xb8d14978	-9.979581e-05
62	0xbe502e4f	-0.20330165
63	0xbe107c44	-0.14109904
64	0xbea7e62a	-0.3279279
65	0x3f011b47	0.50432247
66	0x3e064359	0.13111629
67	0xbdbb088e	-0.09132491
68	0xbe452340	-0.19251728
69	0xbe5d8155	-0.21631368
70	0xbc654252	-0.013992863
71	0xbe4104bf	-0.18849467
72	0xbe4ab15f	-0.19794224
73	0x3ce9ffa1	0.028564276
74	0x3e87f901	0.26557162
75	0x3edd0c70	0.43173552
76	0xbbbfd599	-0.0058543202
77	0xbe88f059	-0.2674587
78	0x3df907b6	0.12159674
79	0x3e9b66e2	0.3035193
80	0xbe2a416c	-0.16626519
81	0x3e577ac0	0.21042919
82	0x3eedaa3c	0.4641894
83	0xbe06c798	-0.13162076
84	0x3ed13dd7	0.40867493
85	0x3e9d245b	0.306918
86	0x3e26de2e	0.16295692
87	0x3d4bc868	0.04975167
88	0xbd5b3832	-0.05352039
89	0xbdf43dac	-0.119258255
90	0xbec7c35c	-0.39016235
91	0x3c4247d2	0.011857944
92	0x3e0198b6	0.12655911
93	0xbe62d2bc	-0.22150701
94	0x3db3ff9a	0.087889865
95	0x3e2eb441	0.17060949
96	0x3e1cd992	0.15317371
97	0x3dfcfd4b	0.12352999
98	0xbdb8b12a	-0.09018166
99	0xbea4fd8f	-0.322247
100	0x3e48bda0	0.19603586
101	0x3ed82582	0.42216116
102	0xbe451de8	-0.1924969
103	0xbcde8fce	-0.02716818
104	0xbd298c2c	-0.041393444
105	0xbed9f6e4	-0.42571175
106	0x3e29a172	0.16565493
107	0xbe8ad0ba	-0.2711237
108	0xbedca496	-0.4309432
109	0xbe946225	-0.28981128
110	0xbea4ece8	-0.32211995
111	0xbe54584d	-0.20736809
112	0xbeaaff2e	-0.33397812
113	0x3d919e58	0.0711028
114	0x3ee39fa6	0.4445774
115	0xbe2bd66d	-0.16781016
116	0xbe893728	-0.26799893
117	0x3d779f18	0.060454458
118	0xbdfe25e8	-0.12409574
119	0x3e57c232	0.21070173
120	0x3e6dc12e	0.23218223
121	0xbe629d8d	-0.22130413
122	0xbe99bb82	-0.3002587
123	0xbe92e046	-0.28686732
124	0xbe17f4c5	-0.14839466
125	0x3ed19897	0.4093673
126	0x3ebf8b46	0.37410945
127	0x3de4b4d6	0.11167304
128	0x3e674e45	0.22588451
129	0xbe2b50d0	-0.16730046
130	0x3e3145af	0.17311738
131	0x3ed18875	0.4092442
132	0x3e0f4438	0.13990867
133	0x3ee4d2df	0.44692132
134	0xbea87ac4	-0.32906163
135	0x3ed0d26e	0.40785545
136	0x3c3e89ba	0.011629516
137	0x3eaac984	0.3335687
138	0x3e928283	0.28615198
139	0xbeb36f09	-0.3504565
140	0xbe8555d8	-0.26042056
141	0xbe185709	-0.14876951
142	0x3e6c119a	0.2305359
143	0xbe07bb54	-0.13255054
144	0xbeafee73	-0.3436161
145	0xbd87c9ab	-0.06630262
146	0x3ed26a14	0.41096556
147	0xbe694c8e	-0.2278311
148	0xbed9caa8	-0.42537427
149	0xbd7e4756	-0.06207975
150	0xbef9184b	-0.48651347
151	0x3db3643e	0.08759354
152	0xbea8c392	-0.32961708
153	0xbed8645c	-0.42264068
154	0xbed4c7d1	-0.41558698
155	0xbda0d9b5	-0.07854024
156	0xbd7c3820	-0.061576962
157	0x3e485773	0.19564609
158	0xbe9ae1a7	-0.30250284
159	0xbe2bb084	-0.16766554
160	0x3f86ebd7	1.0540723
161	0xbdb7bb98	-0.089713275
162	0x3c878a5e	0.01654547
163	0x3f1912d0	0.5979433
164	0xbf2f12d6	-0.68388116
165	0xbf1af573	-0.60530776
166	0xbe9e93a5	-0.3097202
167	0xbd986547	-0.07441192
168	0x3e4845b8	0.19557846
169	0xbe9f5203	-0.31117257
170	0x3ec67d61	0.38767532
171	0x3da6cd9c	0.081446856
172	0xbe22d136	-0.1590012
173	0x3e498363	0.19679026
174	0x3efa349d	0.48868266
175	0x3e026029	0.12731995
176	0x3e305e7a	0.1722354
177	0xbe701a7f	-0.23447607
178	0x3ec225af	0.37919375
179	0x3d6bebc5	0.057597894
180	0xbd923459	-0.07138891
181	0x3f2330f9	0.637466
182	0x3ecfd3b8	0.40591216
183	0xbe94cf4d	-0.29064408
184	0xbdbb8987	-0.09157091
185	0xbf288a45	-0.6583598
186	0xbdf1be47	-0.11803871
187	0xbed5e179	-0.41773584
188	0xbe8faebd	-0.28063002
189	0xbec41137	-0.38294384
190	0x3f07e4a4	0.5308325
191	0xbe1caa99	-0.15299453
192	0x3d977df5	0.07397071
193	0x3de10093	0.10986438
194	0x3d73dc18	0.05953607
195	0xbe80aa96	-0.25130147
196	0xbda320e2	-0.07965256
197	0x3e379469	0.17927708
198	0xbdaa15fd	-0.08304975
199	0x3e02b9bc	0.12766165
200	0xbe29400d	-0.1652834
201	0x3e938bab	0.28817496
202	0x3edac502	0.4272843
203	0x3e82930c	0.25502813
204	0xbdbd7f3b	-0.09252783
205	0x3d9b99d1	0.075976975
206	0xbe17c62d	-0.14821692
207	0x3e81f681	0.2538338
208	0xbe894cc2	-0.26816374
209	0x3d76d0cd	0.06025772
210	0xbe801a46	-0.25020045
211	0xbc52400e	-0.012832655
212	0x3ecb9030	0.39758444
213	0x3dd5f6b4	0.104474455
214	0x3f0906c9	0.5352598
215	0xbcc6a0ae	-0.02424654
216	0x3e9a5fd0	0.30151224
217	0x3ea9b139	0.33143023
218	0x3e233726	0.15939006
219	0x3dd9286d	0.10603414
220	0xbda2ce65	-0.07949523
221	0x3db85d68	0.09002191
222	0x3d95e86e	0.07319723
223	0xbe0e8cbe	-0.13920876
224	0x3c39d86c	0.011343103
225	0x3e4093d2	0.18806389
226	0x3d1138f9	0.035454724
227	0x3e18a251	0.14905669
228	0x3e24ae3c	0.1608209
229	0x3ebe409a	0.37158662
230	0xbe8c817f	-0.27442548
231	0xbd74a3fd	-0.059726704
232	0xbecb32f1	-0.39687303
233	0x3d9e3895	0.07725636
234	0xbe7cf2b4	-0.24701959
235	0xbeaa41f4	-0.33253443
236	0xbe6e03af	-0.23243593
237	0xbdb8fd4f	-0.0903269
238	0x3dc5a2f6	0.09650223
239	0xbeb86dc9	-0.3602126
240	0x3d2296dd	0.039694656
241	0x3e9c09dc	0.30476272
242	0x3ef33ef4	0.47508967
243	0xbe5206f3	-0.20510463
244	0xbdd54da1	-0.10415197
245	0x3ee7af41	0.45250896
246	0xbe2c69c2	-0.16837218
247	0x3ef1215d	0.47095767
248	0xbede0a0a	-0.43367034
249	0x3db1c16e	0.08679472
250	0x3ee940bc	0.455572
251	0x3aaf2c30	0.0013364609
252	0xbeb6bfd7	-0.35693237
253	0x3d89adb7	0.067225866
254	0xbed03ca1	-0.40671256
255	0xbd0cbfee	-0.034362726

convs.1.h_bias f4 [32]
0	0xbc38f204	-0.01128817
1	0xbcaeeae1	-0.021352233
2	0xbc63049d	-0.01385608
3	0x3b99d54a	0.0046946155
4	0x3c3949fb	0.011309142
5	0x3c49d90f	0.012319817
6	0x3c3e5842	0.011617722
7	0x3d419a88	0.047266513
8	0x3c984c50	0.018591076
9	0xbc34c62d	-0.011033577
10	0x3a816e56	0.0009874802
11	0x3c3d88c6	0.011568254
12	0xbd310f89	-0.043227706
13	0xbd1e3e82	-0.03863383
14	0x3b1549ba	0.002277954
15	0x3cb93b98	0.022611424
16	0xbbbd1f38	-0.005771544
17	0x3d389e4d	0.045072842
18	0xbc2e2a19	-0.010630154
19	0x3cb8bd28	0.022551134
20	0xbcbde34b	-0.02317967
21	0xbc2dbad6	-0.010603627
22	0xbbe4fa39	-0.0069878367
23	0xbbb88db5	-0.005632127
24	0xbd0954dc	-0.033528194
25	0x3c919299	0.017770099
26	0xbc2506f9	-0.010072463
27	0x3c0283f4	0.00796603
28	0x3c9a4cb3	0.018835401
29	0xbce3ec4c	-0.027822636
30	0xbc893cd8	-0.016752645
31	0x3afbf462	0.0019222612

convs.1.loop_weight f4 [32, 32]
0	0x3d8fe294	0.07025638
1	0xbe74d043	-0.2390757
2	0xbedc7a90	-0.43062258
3	0xbc8c2e7d	-0.017112011
4	0xbe12588c	-0.1429159
5	0x3e396959	0.18106593
6	0xbea16135	-0.31519476
7	0x3c756b65	0.014979218
8	0xbd1a76b7	-0.03771087
9	0xbe91b387	-0.2845728
10	0x3d5de557	0.054173794
11	0xbee199d1	-0.44062665
12	0x3e65e1e0	0.22449446
13	0xbe1579aa	-0.14597192
14	0x3e648030	0.22314525
15	0x3e29d526	0.16585216
16	0x3e4e533c	0.20148939
17	0xbe353938	-0.17697608
18	0xbd761a61	-0.06008375
19	0x3ed77521	0.4208155
20	0xbed3fa70	-0.41402006
21	0x3c9afcb9	0.018919336
22	0xbe6005db	-0.21877234
23	0xbe6ba5c8	-0.2301246
24	0x3e83c3fe	0.25735468
25	0xbe992645	-0.2991201
26	0xbe057e54	-0.13036472
27	0x3ebe305d	0.37146273
28	0xbca9dea3	-0.020736044
29	0xbc4e14d6	-0.01257821
30	0x3e80c13a	0.2514742
31	0xbe9c1a66	-0.3048889
32	0x3e6cafac	0.23113889
33	0x3de43db2	0.1114458
34	0xbebaf7a5	-0.36517063
35	0xbb971a7c	-0.0046113115
36	0x3e9ebda8	0.3100407
37	0xbe6f0b0d	-0.2334406
38	0xbe66c00f	-0.22534202
39	0x3e810bfc	0.25204456
40	0x3ecf950c	0.405434
41	0xbe06076e	-0.13088772
42	0x3db7f083	0.08981421
43	0x3ede35cf	0.43400428
44	0xbecccda5	-0.40000644
45	0xbeaf850d	-0.34281197
46	0xbed01afa	-0.4064558
47	0x3e2f204d	0.17102166
48	0xbe94ae03	-0.2903901
49	0x3dbf0e21	0.09328867
50	0x3e26a952	0.16275528
51	0x3db82fdc	0.089935035
52	0x3e24b970	0.16086364
53	0xbe60c1e3	-0.21948962
54	0xbbd7a034	-0.006580377
55	0xbe110429	-0.14161743
56	0x3ea07c15	0.31344667
57	0x3daae803	0.08345034
58	0xbed205da	-0.4102009
59	0x3ebb2e3a	0.36558706
60	0x3e23b165	0.1598564
61	0x3edbcf7c	0.42931736
62	0x3d914d70	0.07094848
63	0x3edcd3a9	0.43130234
64	0xbe0700f5	-0.13183959
65	0xbe868425	-0.26272693
66	0xbe9edb47	-0.3102667
67	0xbec3ea1d	-0.38264552
68	0x3e6ee1ea	0.23328367
69	0x3eb0c46c	0.34524858
70	0xbda63b3a	-0.08116765
71	0x3ecb9550	0.39762354
72	0xbeb3c8bf	-0.35114095
73	0xbe5e6fef	-0.21722387
74	0xbcecf87a	-0.028927077
75	0x3dccaac2	0.09993507
76	0x3e473de0	0.19457197
77	0xbe91cefa	-0.28478223
78	0x3eb72130	0.35767508
79	0x3e06e88d	0.13174649
80	0x3e0d13e8	0.13777125
81	0xbda05edb	-0.07830592
82	0x3e839beb	0.25704893
83	0xbe517ebc	-0.20458502
84	0xbea28fac	-0.31750238
85	0xbe97e23e	-0.29664797
86	0x3e210689	0.15725149
87	0xbd007e20	-0.031370282
88	0xbda06eda	-0.07833643
89	0xbed07f66	-0.40722197
90	0x3dfe10df	0.12405562
91	0x3eb25641	0.34831432
92	0xbe8705ed	-0.2637171
93	0xbd13047d	-0.035892952
94	0xbeb7dcd1	-0.35910657
95	0x3e5af9d0	0.21384358
96	0xbbe8ce3f	-0.0071046646
97	0xbe465684	-0.1936894
98	0xbeb9d701	-0.36296847
99	0x3e99d559	0.30045584
100	0x3d01e461	0.03171194
101	0xbebb9e48	-0.36644197
102	0x3ec7a2a7	0.3899128
103	0xbd846afc	-0.06465718
104	0xbdfa26da	-0.122144416
105	0x3ed70264	0.4199401
106	0xbe57365b	-0.21016829
107	0x3e82e618	0.25566173
108	0x3e25a637	0.16176687
109	0xbe62f5d2	-0.22164086
110	0xbe7b8c7a	-0.24565306
111	0x3d3d0640	0.04614854
112	0xbd9c07b4	-0.07618657
113	0xbea4d5c3	-0.32194337
114	0xbe132e84	-0.14373213
115	0xbe823dd3	-0.25437793
116	0xbeaaf167	-0.333873
117	0x3da9c574	0.08289614
118	0xbde4b255	-0.11166827
119	0xbe51943c	-0.20466703
120	0x3ee0a48e	0.43875545
121	0x3e9ecb31	0.31014398
122	0xbeaa25dd	-0.33232012
123	0x3eb6094d	0.3555397
124	0x3e11e004	0.14245611
125	0xbd95656c	-0.07294735
126	0xbea23e1c	-0.3168801
127	0x3d101ec9	0.03518561
128	0xbecb39f9	-0.39692667
129	0x3edf5687	0.43620703
130	0xbe503a69	-0.20334782
131	0xbc045ff5	-0.008079519
132	0x3e24669e	0.1605477
133	0x3e28ab80	0.16471672
134	0x3e853f8f	0.26025054
135	0xbe214429	-0.15748657
136	0xbc7a86b7	-0.015290908
137	0xbdc63689	-0.096783705
138	0xbda2f5ba	-0.07957025
139	0x3e321a06	0.1739274
140	0xbeb0e628	-0.34550595
141	0x3ec52d51	0.38511136
142	0xbefb60d7	-0.4909732
143	0xbe41e603	-0.18935399
144	0x3edb608b	0.42847094
145	0xbdde612d	-0.108583786
146	0x3e5015b0	0.20320773
147	0xbe9a06a2	-0.30083185
148	0xbe3132d5	-0.17304547
149	0x3ec06777	0.37578937
150	0xbd5ccd8d	-0.053906966
151	0x3e123049	0.14276232
152	0x3cf7c3f5	0.030244807
153	0x3e836845	0.2566549
154	0x3e33537c	0.17512316
155	0xbe83961f	-0.2570047
156	0x3e33b37c	0.17548937
157	0xbed4f94b	-0.41596445
158	0x3dd0f308	0.102026045
159	0x3dbda9a0	0.09260869
160	0x3e883655	0.26603952
161	0x3e73793b	0.23776715
162	0x3e6008d9	0.21878375
163	0xbe1ab0db	-0.15106528
164	0xbbfebb8f	-0.0077738236
165	0x3e8d1e61	0.2756224
166	0xbe7577b6	-0.23971447
167	0xbe087a19	-0.13327827
168	0x3e6432ef	0.22285055
169	0x3d777bb1	0.060420696
170	0x3e651790	0.2237227
171	0x3e880971	0.26569703
172	0xbe851df5	-0.25999418
173	0xbe652c9a	-0.22380295
174	0x3e850ed2	0.2598787
175	0x3df112ab	0.11771139
176	0xbacab670	-0.0015465748
177	0x3eaadf66	0.33373564
178	0x3e79e8ae	0.24405167
179	0x3e465d44	0.19371516
180	0xbec2e326	-0.38063926
181	0x3c7f0b32	0.015566634
182	0xbdb70e8f	-0.08938324
183	0x3e10f0ed	0.14154406
184	0xbd430ecb	-0.04762153
185	0x3e49c336	0.19703373
186	0xbe84ea73	-0.2596012
187	0xbebf1c54	-0.373263
188	0x3e9efb2f	0.31051013
189	0xbc7207bd	-0.014772353
190	0xbe5bf2e3	-0.21479373
191	0xbe24d48b	-0.16096704
192	0xbd67bdd2	-0.05657751
193	0xbe16efff	-0.14739989
194	0xbe9143f9	-0.28372172
195	0x3e526809	0.20547499
196	0xbe3a1f0c	-0.18175906
197	0x3e14f60d	0.14546986
198	0xbe749712	-0.23885754
199	0xbd1c24f7	-0.03812119
200	0xbeb2979c	-0.34881294
201	0x3e429b4f	0.19004558
202	0xbe8c5be2	-0.2741385
203	0x3ece2a33	0.4026657
204	0xbe3d5a31	-0.18491437
205	0xbe67ddfa	-0.22643271
206	0x3d43f19d	0.047837842
207	0x3e18e83e	0.14932343
208	0x3e69d8f3	0.22836666
209	0xbd960c1c	-0.073265284
210	0x3d49a749	0.0492318
211	0x3e56b6a5	0.20968111
212	0x3e93ec85	0.28891388
213	0xbd0dd169	-0.034623537
214	0x3ed93335	0.4242188
215	0xbe02d546	-0.1277667
216	0xbdb3ec90	-0.08785355
217	0x3e58b8c2	0.2116423
218	0xbe3c8f8e	-0.18414137
219	0xbeabda35	-0.33564916
220	0xbedc7e21	-0.4306498
221	0xbeacdca9	-0.337621
222	0xbe5967f1	-0.21231057
223	0xbebb0471	-0.36526826
224	0x3ea94c6b	0.33066115
225	0xbec3ce9e	-0.38243574
226	0x3ecbdd19	0.39817122
227	0xbed95784	-0.42449582
228	0x3e08c974	0.13358098
229	0x3e5912dd	0.21198602
230	0xbe539829	-0.20663513
231	0x3e473897	0.19455181
232	0x3e3db24c	0.18525046
233	0xbe82f0d9	-0.25574377
234	0x3c251398	0.010075472
235	0x3e87721e	0.26454252
236	0x3e048db7	0.12944685
237	0x3c61e8c2	0.013788404
238	0xbeddfbb2	-0.4335609
239	0xbd9641a5	-0.073367395
240	0xbec18df9	-0.3780363
241	0xbe6a679e	-0.2289109
242	0x3e82a862	0.2551909
243	0x3de1bb49	0.1102205
244	0xbed11cc4	-0.4084226
245	0xbdd5b0b2	-0.104340926
246	0xbe03e9c1	-0.12882139
247	0xbe6ac884	-0.22928053
248	0x3e9f3b17	0.3109977
249	0x3eb4dc1c	0.3532418
250	0xbe732577	-0.2374476
251	0x3e8dfb06	0.27730578
252	0x3dd7ba1a	0.10533543
253	0x3ed43a68	0.4145081
254	0x3eb69107	0.35657522
255	0xbda57d86	-0.08080582

convs.1.linear_r.W f4 [5, 32, 32]
0	0xbd9bc52e	-0.076059684
1	0xbc8c0a91	-0.017094882
2	0x3d5e1226	0.054216526
3	0x3e21054f	0.15724681
4	0xbd48a859	-0.048988674
5	0x3d7c63e8	0.061618716
6	0x3e2d3c61	0.16917564
7	0xbdab603b	-0.08367964
8	0x3d159cba	0.03652642
9	0x3e0f173e	0.1397371
10	0xbd6899d5	-0.05678733
11	0x3d978a0e	0.07399379
12	0x3e10c112	0.1413615
13	0x3dfe6b1f	0.124227755
14	0xbdc84912	-0.09779562
15	0xbe31a8e1	-0.17349578
16	0xbd46103c	-0.048355326
17	0xbe10dd02	-0.14146808
18	0xba9a0dd6	-0.0011753391
19	0xbda74bad	-0.08168731
20	0xbe2f0899	-0.17093123
21	0xbddc08eb	-0.107438885
22	0x3d85cbf5	0.06533042
23	0x3e258500	0.16164017
24	0x3e260ad5	0.1621507
25	0x3d2781f3	0.040895414
26	0x3d9db944	0.07701352
27	0x3d142fb5	0.03617831
28	0x3d497e36	0.04919263
29	0xbe01411f	-0.12622498
30	0xbdd9bd81	-0.10631848
31	0x3e173e85	0.14769943
32	0xbdfdca35	-0.123920836
33	0x3d3173db	0.04332338
34	0x3e350815	0.17678864
35	0x3d877bff	0.06615447
36	0x3dcb8cca	0.09938963
37	0x3e0fd6e2	0.14046815
38	0xbdd8feff	-0.10595512
39	0x3dcd9244	0.100376636
40	0xbc47bc28	-0.012190856
41	0x3d263863	0.04058112
42	0xbe0cbd95	-0.13744195
43	0xbe079c8a	-0.13243309
44	0x3c9164e7	0.01774831
45	0x3dd87524	0.10569218
46	0x3d46113e	0.048356287
47	0x3dcf6fb2	0.10128726
48	0x3df36b1c	0.11885664
49	0x3cdbb23b	0.026818385
50	0x3e3de8ca	0.18545833
51	0xbcc20cfa	-0.023687828
52	0x3e2bc49c	0.1677422
53	0xbdbe0421	-0.09278131
54	0x3cfd8ffc	0.030952446
55	0xbe06d2b0	-0.13166308
56	0x3dace134	0.084413916
57	0x3d6e0c3b	0.058117133
58	0x3d5494d7	0.051899757
59	0x3df883af	0.12134492
60	0xbe30e0fd	-0.17273326
61	0xbc7a67b8	-0.015283518
62	0x3ddd9df8	0.10821146
63	0xbdbc118b	-0.091830336
64	0x3dd42a18	0.10359591
65	0x3d875a46	0.06609015
66	0x3de9bbe3	0.1141279
67	0xbe47e0f9	-0.19519414
68	0x3dfbe91c	0.123003215
69	0x3cb3aa0b	0.021931669
70	0x3d8d858f	0.0691024
71	0xbde5d2c1	-0.11221839
72	0xbda214dd	-0.079141356
73	0xbde0fe9e	-0.109860644
74	0x3df4f996	0.11961667
75	0x3a856065	0.0010175823
76	0x3decd0ca	0.11563261
77	0x3e066363	0.1312385
78	0xbe343e20	-0.17601824
79	0x3df9926a	0.121861294
80	0x3df996f8	0.12186998
81	0xbe317f45	-0.17333706
82	0x3df5ebc0	0.12007856
83	0xbd5fb80e	-0.054618888
84	0xbcee13a3	-0.029062098
85	0x3d1a4aec	0.037669107
86	0x3da5bfa7	0.080931954
87	0x3d99ef34	0.075163275
88	0x3e0859df	0.13315533
89	0x3d4b0f0e	0.049574904
90	0xbe5ae331	-0.21375729
91	0xbce00bf3	-0.027349448
92	0x3b9ae30e	0.004726774
93	0xbc95be9a	-0.018279362
94	0xbce28cd6	-0.027655046
95	0x3c37b651	0.011212901
96	0xbdddca15	-0.1082956
97	0x3e112013	0.14172392
98	0xbde8435a	-0.11340971
99	0xbe29a0cc	-0.16565245
100	0x3c899b32	0.016797636
101	0x3dbf7810	0.09349072
102	0xbddfefc7	-0.10934406
103	0xbdee55a6	-0.1163743
104	0x3e199221	0.1499715
105	0x3e1433c2	0.14472869
106	0x3e37f1ba	0.17963305
107	0xbdef4187	-0.1168242
108	0x3e215b62	0.15757516
109	0xbc8033ff	-0.015649794
110	0x3d5ccfd6	0.053909145
111	0xbde3983d	-0.111130215
112	0xbd934889	-0.07191569
113	0xbdbf08f9	-0.09327883
114	0xbca680a5	-0.020325014
115	0x3a75f52b	0.0009382541
116	0xbda979dd	-0.08275197
117	0xbe25597a	-0.16147414
118	0xbe0213f4	-0.12702924
119	0x3daa62fe	0.083196625
120	0x3da50360	0.08057284
121	0xbdd91b55	-0.10600916
122	0xbde49acd	-0.111623384
123	0xbe133a30	-0.14377666
124	0x3dc429d9	0.09578294
125	0x3d689a65	0.056787867
126	0xbc4a4475	-0.012345423
127	0xbd961f0b	-0.0733014
128	0x3c445722	0.011983665
129	0x3d2b2ec5	0.04179265
130	0xbe339705	-0.17538078
131	0xbe20172a	-0.15633836
132	0xbd004880	-0.03131914
133	0xbe5b535c	-0.21418518
134	0x3dfe0ff1	0.12405384
135	0xbd1d1bf0	-0.03835672
136	0x3d32ca2d	0.04364984
137	0xbd2b601c	-0.041839704
138	0xbe146b8c	-0.14494151
139	0x3d906e5e	0.07052301
140	0xbe025de1	-0.12731124
141	0xbe10d2d4	-0.14142925
142	0xbd81e9a4	-0.063433915
143	0xbd3b2c40	-0.045696497
144	0xbd25f302	-0.040514953
145	0x3e25332c	0.16132802
146	0xbdd92c20	-0.10604119
147	0x3dcfc2c2	0.10144569
148	0x3c7e367a	0.015515918
149	0x3dde931e	0.10867904
150	0xbe10e7f7	-0.14150988
151	0x3e3af91d	0.18259092
152	0xbce9f3df	-0.02855867
153	0xbe47a2ea	-0.1949574
154	0x3d93f81f	0.0722506
155	0x3c4bf5a6	0.012448704
156	0x3da4bf32	0.0804428
157	0xbe2e9191	-0.17047717
158	0xbdaaf3dc	-0.08347294
159	0x3c9ec1ed	0.01937958
160	0xbc8d6665	-0.01726074
161	0x3c3440aa	0.011001745
162	0x3bdc986b	0.006732037
163	0x3dd00a58	0.10158223
164	0x3d8cb328	0.06870109
165	0xbe00b9cf	-0.1257088
166	0x3da6709b	0.081269465
167	0x3df25b14	0.11833778
168	0x3dbf7091	0.09347642
169	0xbdb72bd8	-0.089439094
170	0x3d825c38	0.063652456
171	0x3cca40df	0.024689136
172	0x3e1c76be	0.15279672
173	0xbe0f5c3c	-0.14000028
174	0xbc1ae154	-0.0094531365
175	0xbd37fc52	-0.044918366
176	0x3d99b053	0.07504334
177	0x3e1201e0	0.14258528
178	0x3e290dae	0.16509125
179	0xbdfe66d5	-0.124219574
180	0x3d0ff7cc	0.035148427
181	0xbdc1a1ca	-0.09454687
182	0xbdfe4139	-0.12414784
183	0xbda28e76	-0.079373285
184	0xbe368fc1	-0.17828275
185	0x3d86d386	0.06583314
186	0xbe2642d1	-0.16236426
187	0x3df50225	0.119633
188	0xbcafbf49	-0.021453517
189	0xbe02622f	-0.12732767
190	0xbd50f4be	-0.051014654
191	0x3dcf21dc	0.1011388
192	0xbdc27a35	-0.094959654
193	0xbd9c785d	-0.07640145
194	0x3dccfb75	0.10008899
195	0xbc4d8d8c	-0.012545954
196	0xbda39b94	-0.079886585
197	0x3e52e787	0.20596133
198	0x3e0579af	0.130347
199	0xbd0a861f	-0.033819314
200	0x3da71a94	0.08159366
201	0xbcddf132	-0.02709255
202	0xbd8a48e5	-0.06752185
203	0x3dfc6c23	0.12325313
204	0xbdee7b80	-0.116446495
205	0x3e08b3d3	0.13349847
206	0xbdd7e056	-0.105408356
207	0xbdae8f25	-0.085233964
208	0xbd591fae	-0.053008728
209	0xbd033ab0	-0.03203839
210	0x3dce0ba8	0.10060817
211	0xbe1f158b	-0.15535562
212	0xbdd369e7	-0.10322934
213	0x3d3b9323	0.045794617
214	0xbc970d14	-0.018438853
215	0xbd8c8242	-0.06860782
216	0xbd8f34ab	-0.069924675
217	0xbca6d14e	-0.020363476
218	0xbd4af1f6	-0.04954716
219	0x3de1594c	0.1100336
220	0x3d2e3f79	0.042541
221	0xbe0c9058	-0.13726938
222	0x3de2b959	0.110705085
223	0x3d893489	0.066994734
224	0x3e0935db	0.1339945
225	0x3dc8373e	0.097761616
226	0x3d9ebad2	0.07750477
227	0xbdc9d3b3	-0.098548315
228	0x3e465efa	0.19372168
229	0x3d4cb194	0.04997404
230	0xbdfe77fa	-0.124252275
231	0x3e094248	0.1340419
232	0x3e3fdec5	0.18737324
233	0xbe0ac925	-0.13553293
234	0xbd04ff1b	-0.03246985
235	0xbe272878	-0.16324031
236	0x3da294ef	0.07938563
237	0xbd6dceeb	-0.05805866
238	0x3dc702ac	0.097173065
239	0xbcfbadc8	-0.030722514
240	0xbd30902d	-0.043106247
241	0xbda2be28	-0.07946426
242	0x3cd80716	0.026370566
243	0x3dcefca4	0.10106781
244	0xbd6f1128	-0.05836597
245	0x3db41d4a	0.08794649
246	0x3e041e24	0.12902123
247	0xbe127eb4	-0.14306146
248	0xbdfc3913	-0.123155735
249	0xbd952c95	-0.07283894
250	0x3bea01e2	0.0071413377
251	0x3dfc1945	0.12309507
252	0xbb6b13fc	-0.0035870066
253	0x3de2bc5c	0.11071083
254	0xbdfea8e3	-0.12434556
255	0xbc3f9016	-0.011692068

convs.2.h_bias f4 [32]
0	0x3cffca32	0.031224344
1	0x3bb5cdc8	0.0055482127
2	0xbbb69f6c	-0.005573204
3	0xbc745a04	-0.0149140395
4	0x3cfa47cd	0.030551815
5	0xbd0d2304	-0.03445722
6	0x3c9cb4ed	0.01912924
7	0x3bb22c2e	0.0054373955
8	0xbc5343ad	-0.012894553
9	0xbcd5e909	-0.026112096
10	0x3cc2cac8	0.023778334
11	0x3bea34b5	0.0071473964
12	0x3cb4f7dd	0.022090847
13	0xbc4ebf2e	-0.012618823
14	0xbbd7d44b	-0.0065865866
15	0xbb47fb2b	-0.0030514698
16	0x3c4e51e5	0.012592767
17	0xbd81ffbf	-0.06347608
18	0xbc7290e5	-0.014805053
19	0x3c6ddc1d	0.014517811
20	0xbc68eca4	-0.014216576
21	0xbcc4878a	-0.023990411
22	0x3c4dcce8	0.0125610605
23	0x3ce27552	0.027643833
24	0xbd66dde4	-0.056363955
25	0xbab75fdc	-0.001399036
26	0x3c5dba39	0.0135331685
27	0xb91e75c0	-0.0001511192
28	0x3a5bea6e	0.000838912
29	0xbc39c3ae	-0.011338158
30	0x3c367669	0.01113663
31	0xbd044431	-0.032291595

convs.2.loop_weight f4 [32, 32]
0	0x3e685687	0.22689258
1	0xbe3a97c1	-0.18221952
2	0xbe644564	-0.22292095
3	0x3eab0001	0.3339844
4	0x3e05666a	0.13027349
5	0x3dc8491c	0.097795695
6	0xbe8a34d8	-0.26993442
7	0xbed26353	-0.41091403
8	0xbeba115b	-0.36341366
9	0xbd4c6dd5	-0.04990943
10	0xbc7f7efb	-0.015594239
11	0x3e863bd0	0.26217508
12	0x3def47ab	0.116835915
13	0xbccf4473	-0.025301194
14	0xbeb55fbf	-0.3542461
15	0x3d5f7e1a	0.05456362
16	0xbd582470	-0.052769125
17	0x3eb33d9d	0.35007945
18	0x3e4bc8a7	0.19900762
19	0xbec16e31	-0.37779382
20	0xbe8f9b31	-0.2804809
21	0x3cca5b75	0.024701813
22	0xbea6f1d7	-0.32606384
23	0x3eb59694	0.35466444
24	0xbe3ea374	-0.1861704
25	0x3e693be2	0.2277675
26	0x3e546884	0.20742995
27	0x3e0bc9f8	0.13651264
28	0xbe1a58a9	-0.15072884
29	0x3e6ad871	0.22934128
30	0xbecd18b1	-0.400579
31	0x3e9304a8	0.2871449
32	0x3ec85928	0.3913052
33	0x3d0928c3	0.03348614
34	0x3ed7443e	0.42044252
35	0x3e0711cc	0.13190383
36	0x3eb519cc	0.35371244
37	0x3e9e734e	0.30947345
38	0x3eb8205e	0.35962194
39	0xbeaee490	-0.34158754
40	0x3ed2f914	0.41205657
41	0x3ea548c2	0.32282072
42	0xbd8451b6	-0.064608976
43	0xbcd3b1fa	-0.025841702
44	0x3cc239ab	0.023709139
45	0x3ea23653	0.3168207
46	0xbec81a85	-0.39082733
47	0x3eb4b08a	0.3529094
48	0xbed6e1b3	-0.4196907
49	0x3e47b1a6	0.19501361
50	0xbea249da	-0.3169697
51	0xbe0fcf41	-0.14043905
52	0xbd30d4d2	-0.04317171
53	0x3df98d4e	0.12185155
54	0x3e67bcb8	0.22630584
55	0xbd3bd164	-0.045853987
56	0x3ebd242e	0.36941665
57	0xbec1c906	-0.3784868
58	0xbdaf0401	-0.085456856
59	0xbe83d243	-0.25746354
60	0xbe403efd	-0.18774028
61	0x3e721455	0.23640569
62	0x3da2c60a	0.07947929
63	0x3e0ab411	0.13545252
64	0xba4dd318	-0.0007851585
65	0x3ea463d1	0.32107404
66	0x3e3a9984	0.18222624
67	0x3ec77bc3	0.3896161
68	0x3ebfe6a3	0.3748065
69	0x3e8c3715	0.27385774
70	0xbe89e6a2	-0.2693377
71	0x3ecdeec4	0.40221226
72	0x3e8826c0	0.26592064
73	0x3e20a3bb	0.15687458
74	0xbe7df0e4	-0.24798924
75	0x3da7c24e	0.081913576
76	0x3e642721	0.22280551
77	0xbe9874e1	-0.29776672
78	0x3d51d36b	0.051227015
79	0x3ebc7d20	0.36814213
80	0x3be36802	0.006939889
81	0x3d81cef9	0.06338305
82	0x3e221b38	0.15830696
83	0x3e2ae782	0.16689876
84	0xbd4c5ff6	-0.049896203
85	0xbb7b8e7b	-0.0038384486
86	0xbdae4312	-0.085088864
87	0xbe9f0bf3	-0.31063804
88	0xbccf38d0	-0.025295645
89	0xbd15cf23	-0.036574494
90	0xbe5d40d8	-0.21606767
91	0xbdc1e67d	-0.0946779
92	0x3ccfe786	0.025378954
93	0x3cfc9773	0.030833935
94	0x3d3d157d	0.04616307
95	0xbe6f6e21	-0.23381855
96	0x3dfd1d73	0.123591326
97	0xbde8c27d	-0.11365221
98	0xbe9474fd	-0.28995505
99	0x3eb5bc62	0.35495287
100	0x3cde0c41	0.027105452
101	0xbee58c8d	-0.44833794
102	0xbd3706cd	-0.04468422
103	0xbda6aedf	-0.08138823
104	0xbe662411	-0.22474696
105	0xbe9f3661	-0.31096175
106	0xbeb52e47	-0.3538687
107	0xbd9ecabd	-0.07753513
108	0xbe2eaec5	-0.17058857
109	0xbeee2c0b	-0.46517977
110	0xbc1891b3	-0.009312081
111	0x3ec4f81d	0.38470545
112	0xbe84e395	-0.2595488
113	0xbe3354c9	-0.17512812
114	0xbe6a7194	-0.22894889
115	0xbea1a229	-0.3156903
116	0xbeb0240a	-0.34402496
117	0x3eedbce1	0.46433166
118	0x3e9a005b	0.30078396
119	0xbeba6b68	-0.3641007
120	0x3e66b3bf	0.22529505
121	0xbe20b302	-0.15693286
122	0xbd919c88	-0.07109934
123	0x3d9acbde	0.07558416
124	0x3d95a0e3	0.07306077
125	0xbdf97893	-0.12181201
126	0x3e6a18f7	0.22861086
127	0x3daba640	0.08381319
128	0x3e9620ff	0.2932205
129	0xbe3f9d53	-0.18712358
130	0xbd6ffa45	-0.058588285
131	0xbe36a1d9	-0.17835177
132	0xbdf8a6f3	-0.12141218
133	0xbe2049b9	-0.15653123
134	0xbc67693a	-0.014124209
135	0x3ec9f05a	0.39441186
136	0x3db3e65a	0.087841704
137	0x3e7e4072	0.24829271
138	0xbed5e0e1	-0.4177313
139	0xbe5c1c9b	-0.21495287
140	0xbe00b0b2	-0.12567404
141	0xbd2a9d4c	-0.041653916
142	0xbea5d215	-0.32386842
143	0xbea6fa0d	-0.3261265
144	0x3e8c1918	0.27362895
145	0x3df39ea3	0.11895492
146	0x3e12a43b	0.14320461
147	0x3e036584	0.12831694
148	0x3da5a778	0.08088583
149	0x3e8555b8	0.2604196
150	0xbe976691	-0.2957044
151	0xbe526eeb	-0.20550124
152	0x3d86ead9	0.065877624
153	0xbe4ae05a	-0.19812146
154	0xbe1eaaeb	-0.15494888
155	0x3e5cd015	0.21563752
156	0xbdb8366a	-0.08994754
157	0xbe6fe6c3	-0.23427872
158	0xbebdaa57	-0.3704402
159	0xbce5ba3b	-0.028042903
160	0x3e97fe87	0.29686376
161	0xbe8bd878	-0.2731359
162	0x3e8a10db	0.26965985
163	0xbd3561b1	-0.04428262
164	0xbe07d793	-0.13265829
165	0xbe03d8f3	-0.12875728
166	0x3eafff80	0.3437462
167	0x3ecf3edb	0.40477642
168	0x3d22a586	0.039708637
169	0x3d200859	0.03907046
170	0x3e286116	0.16443285
171	0xbebd6b3f	-0.36995885
172	0x3eaf902f	0.3428969
173	0xbeb51be1	-0.35372832
174	0x3df567c1	0.1198268
175	0x3e437061	0.19085838
176	0xbe1bded5	-0.15221722
177	0x3e82ebc2	0.25570494
178	0xbeb825bc	-0.3596629
179	0xbe2254cb	-0.15852658
180	0x3e4eb877	0.20187555
181	0xbe3450c1	-0.1760893
182	0x3e57bdef	0.21068548
183	0x3db625c5	0.08893923
184	0xbe8effd1	-0.27929547
185	0xbea0a286	-0.31373996
186	0x3c5eead1	0.013605789
187	0xbed6767c	-0.4188727
188	0x3d3899b6	0.045068465
189	0x3eca53f6	0.39517182
190	0x3e51f92b	0.20505206
191	0xbc30b1e8	-0.010784604
192	0xbd8d59fa	-0.06901927
193	0xbc974f8f	-0.018470554
194	0x3ca4c525	0.020113537
195	0xbe55a325	-0.20863016
196	0x3e8504d2	0.2598024
197	0xbeb56871	-0.35431245
198	0x3ed543f7	0.41653416
199	0x3d83a639	0.06428189
200	0x3dc66203	0.09686663
201	0x3e94e421	0.290803
202	0x3ed91e24	0.42405808
203	0xbddadef4	-0.10687056
204	0x3eb3ea8f	0.35139892
205	0x3e5d9caf	0.21641801
206	0x3e374cac	0.17900342
207	0x3eb59913	0.3546835
208	0x3ebeb611	0.3724828
209	0xbde39daa	-0.111140564
210	0x3e9f4650	0.31108332
211	0x3e26319f	0.16229866
212	0xbda6f098	-0.08151358
213	0xbecc6ab9	-0.39925173
214	0xbe8e8538	-0.27836013
215	0xbe8ca0af	-0.27466342
216	0xbe34aaaf	-0.17643236
217	0x3d368c16	0.04456719
218	0x3e9aaeb8	0.30211425
219	0xbbad53d9	-0.0052895364
220	0xbe8b4281	-0.27199176
221	0x3e69deef	0.22838949
222	0x3d9b43a7	0.07581263
223	0xbe9b79e3	-0.3036643
224	0x3e2e3ebb	0.17016117
225	0xbd84c59d	-0.06483004
226	0x3c5b6aca	0.01339216
227	0xbe0782f9	-0.13233556
228	0x3ea3c691	0.31987432
229	0xbe016aec	-0.12638444
230	0xbe10cda8	-0.14140952
231	0x3e93dd40	0.28879738
232	0xbe2198ec	-0.15780991
233	0xbd1ed38f	-0.038775977
234	0x3eb58f0c	0.354607
235	0x3e3220ba	0.17395297
236	0x3eb93ef4	0.36180842
237	0xbc7fba42	-0.015608372
238	0xbce53802	-0.027980808
239	0xbe07e30a	-0.13270202
240	0x3e958e4a	0.2921012
241	0x3cc1eca7	0.023672415
242	0x3ef5a0ec	0.47974336
243	0xbef6163c	-0.48063838
244	0xbc40957d	-0.011754391
245	0x3e788589	0.2426969
246	0x3e4edf53	0.20202379
247	0x3e2932d6	0.16523299
248	0xbe9caf5f	-0.30602548
249	0xbeb44757	-0.35210678
250	0xbe8b0b7a	-0.27157193
251	0x3e8e4562	0.2778731
252	0xbe18729d	-0.14887471
253	0xbe7fbbcd	-0.24973984
254	0xbed29340	-0.41127968
255	0x3e496716	0.1966823

convs.2.linear_r.W f4 [5, 32, 32]
0	0x3e203694	0.1564582
1	0x3e0cc706	0.13747796
2	0xbe3d7580	-0.18501854
3	0xbcdc3460	-0.026880443
4	0xbd59c1c6	-0.053163312
5	0x3dd3056f	0.10303771
6	0x3c6f8a92	0.01462044
7	0xbc43d785	-0.011953239
8	0x3e4f32af	0.20234178
9	0xbc08b886	-0.008344775
10	0xbbaf80f3	-0.005355948
11	0xbe3519d7	-0.17685638
12	0x3d48c409	0.04901508
13	0x3dc1bd17	0.09459894
14	0xbe186480	-0.14882088
15	0xbd9bc7b9	-0.076064534
16	0x3e04c1c9	0.12964548
17	0x3d86fae7	0.065908246
18	0x3bd779ce	0.0065757995
19	0xbd6251b2	-0.055253692
20	0x3bf26039	0.0073967245
21	0x3de666c6	0.11250071
22	0x3da5bb58	0.080923736
23	0x3de8fd55	0.11376444
24	0x3de7177e	0.11283778
25	0xbd62ba71	-0.055353586
26	0xbc22880b	-0.0099201305
27	0x3e2cd07c	0.16876405
28	0x3c24497f	0.010027288
29	0xbd0cabbf	-0.034343477
30	0xbe30e8cb	-0.17276303
31	0xba0ae811	-0.0005298863
32	0xbdad6806	-0.084671065
33	0xbda29559	-0.07938642
34	0xbe25d10c	-0.16193026
35	0xbdaeef05	-0.08541683
36	0xbb82ccd0	-0.0039917007
37	0x3c8a76e3	0.016902393
38	0xbddb7dbf	-0.107173435
39	0xbd2ff411	-0.04295737
40	0xbe277114	-0.1635173
41	0xbdf8111f	-0.121126406
42	0xbe0bf82b	-0.13668887
43	0x3aed9aef	0.0018127839
44	0x3d9a7380	0.07541561
45	0x3d0e7cdf	0.034787055
46	0xbda9c56d	-0.08289609
47	0xbcd94f04	-0.026526935
48	0xbd812c0b	-0.06307229
49	0x3dd8a472	0.105782405
50	0x3d201820	0.039085507
51	0xbc9d0742	-0.0191685
52	0xbe08b411	-0.1334994
53	0xbdd89169	-0.1057461
54	0x3d0690c5	0.032852907
55	0xbbccea9f	-0.006253555
56	0x3d8cfa4b	0.06883677
57	0x3d1554fe	0.036458008
58	0x3d6f9511	0.05849177
59	0x3e07727f	0.1322727
60	0x3cebf891	0.02880505
61	0xbc144231	-0.009048984
62	0xbe3bedd5	-0.18352444
63	0x3d233b96	0.039851747
64	0xbc209193	-0.009800333
65	0x3d718d78	0.058972806
66	0x3e016be3	0.12638812
67	0xbe4cd58e	-0.2000334
68	0xbde174f2	-0.11008634
69	0x3bc4d0e1	0.0060063456
70	0x3d62cc25	0.05537047
71	0x3c1066d1	0.008813576
72	0xbe1e4f65	-0.15459974
73	0xbdbdadca	-0.09261663
74	0xbdc0085b	-0.09376594
75	0xbdb01e3b	-0.08599516
76	0xbdedaa86	-0.116047904
77	0xbdab8f0a	-0.08376892
78	0xbdf071d7	-0.11740463
79	0xbd547f1a	-0.051879026
80	0xbe1076d2	-0.14107826
81	0x3e4abc6e	0.19798443
82	0xbb9e31ed	-0.004827729
83	0xbd84eec4	-0.064908534
84	0xbd15c190	-0.03656155
85	0x3d87399b	0.06602784
86	0xbdf260ea	-0.11834891
87	0x3e04b87c	0.12961
88	0xbe4824b9	-0.19545259
89	0xbc6b7a44	-0.014372412
90	0xbdc28b64	-0.09499243
91	0x3cecfa32	0.028927896
92	0xbdc78e1a	-0.097439006
93	0x3e0bb7c3	0.13644318
94	0x3d724c04	0.059154525
95	0x3cddf38f	0.027093677
96	0x3db818a6	0.08989076
97	0x3d7b5cdd	0.06136786
98	0x3e0f4245	0.13990124
99	0x3d761d03	0.06008626
100	0x3e2506d4	0.16115886
101	0xbda11307	-0.07864957
102	0xbdb2a888	-0.08723551
103	0x3ddcedd0	0.10787547
104	0xbbc2769a	-0.0059345486
105	0x3e043111	0.12909342
106	0xbdbb337b	-0.091406785
107	0xbdf82b31	-0.12117613
108	0x3e354f51	0.17706038
109	0xbd8016a8	-0.06254321
110	0x3dae5515	0.08512322
111	0xbd2ee434	-0.0426981
112	0x3d935fbb	0.071959935
113	0xbd941dab	-0.07232221
114	0x3de4db69	0.11174662
115	0xbdc26a06	-0.094928786
116	0x3bcf6655	0.0063293376
117	0x3dc86f2a	0.09786828
118	0x3ddacc38	0.10683483
119	0x3cd37ae7	0.02581544
120	0x3dab6d1a	0.08370419
121	0xbe020ef7	-0.12701021
122	0xbe1731be	-0.14765069
123	0x3d98be85	0.07458214
124	0x3d2d63db	0.042331558
125	0xbde701cd	-0.1127964
126	0xbdae0083	-0.08496191
127	0xbd811666	-0.063031
128	0xbe1f9b40	-0.15586567
129	0xbbf37b74	-0.0074304882
130	0xbe1448b0	-0.14480853
131	0x3d4dfde9	0.050290976
132	0x3e270a21	0.16312458
133	0xbc9a1157	-0.018807096
134	0x3c2defbf	0.010616242
135	0x3dc07f87	0.09399324
136	0x3d6f27ce	0.05838757
137	0x3e2f461d	0.1711659
138	0xbd36a738	-0.044593066
139	0xbe418045	-0.18896587
140	0xbd7d437c	-0.061831936
141	0x3d88756a	0.0666302
142	0x3da6c180	0.08142376
143	0xbdc3a2ad	-0.09552512
144	0xbe155ecd	-0.14586945
145	0xbe002b2f	-0.12516473
146	0x3d041433	0.032245826
147	0xbe0482d7	-0.12940536
148	0xbdc2e0e8	-0.09515554
149	0x3ccfba6a	0.025357444
150	0x3e3376d0	0.17525792
151	0x3db31d45	0.08745817
152	0xbd9fcade	-0.07802366
153	0x3df6789e	0.12034725
154	0x3c1bf86a	0.009519676
155	0xbdcd96a5	-0.10038499
156	0x3e129d6a	0.14317861
157	0xbd2d8bfc	-0.042369828
158	0x3cf91410	0.030405074
159	0x3d8e785e	0.06956552
160	0xbdd3541f	-0.10318779
161	0xbb8ba041	-0.004261047
162	0x3c2d5932	0.010580348
163	0xbdf1991a	-0.1179678
164	0x3c07daed	0.008291942
165	0xbdb257ce	-0.08708154
166	0x3d9f3990	0.07774651
167	0x3d81cae3	0.06337526
168	0xbc9d123e	-0.019173738
169	0x3e0c5ad2	0.1370652
170	0xbe0c6daa	-0.13713709
171	0x3ca79337	0.02045594
172	0xbdd28fc9	-0.10281331
173	0x3e0d1761	0.1377845
174	0xbd2f8eeb	-0.042860907
175	0xbdf7e231	-0.121036895
176	0xbcede72c	-0.029040895
177	0x3de1f98c	0.110339254
178	0xbd540d2d	-0.051770378
179	0x3e0f119d	0.13971563
180	0x3e0f04b9	0.13966645
181	0xbe23318c	-0.1593687
182	0x3da4dad6	0.08049552
183	0xbceca5a1	-0.028887572
184	0xbd930029	-0.07177765
185	0xbcc7ef85	-0.024406204
186	0xbd94904b	-0.07254084
187	0x3ba0fa6d	0.0049126656
188	0xbd8bd919	-0.068285175
189	0x3db2debe	0.08733891
190	0xba118ba2	-0.0005552118
191	0x3d0ad6b8	0.033896178
192	0xbd8e1951	-0.069384225
193	0x3dc98488	0.098397315
194	0xbcee52dc	-0.029092245
195	0x3bec4ae2	0.007211075
196	0xbe2a3716	-0.16622576
197	0x3e1427d3	0.14468317
198	0x3d250a0a	0.040292777
199	0x3dce40f5	0.10070983
200	0xbd79b20b	-0.06096081
201	0x3a583c7b	0.00082487584
202	0xbd6ae4c1	-0.057347063
203	0x3ddcc201	0.10779191
204	0x3e4ddcfc	0.2010383
205	0x3da1bfc5	0.07897905
206	0x3dd0a3fa	0.10187526
207	0x3d7c2133	0.0615551
208	0xbdd0db2b	-0.10198053
209	0xbe02ab98	-0.1276077
210	0x3d029d9f	0.0318886
211	0xbc24cc52	-0.010058479
212	0xbe2a078e	-0.16604444
213	0xbc0facf0	-0.008769259
214	0x3e199531	0.14998318
215	0x3e3c6558	0.18398035
216	0xbc058a13	-0.008150595
217	0xbd56cc41	-0.052440885
218	0xbe251b54	-0.16123706
219	0x3db57500	0.088602066
220	0xbbc2a0f6	-0.005939598
221	0xbe17e1d8	-0.14832246
222	0xbd5e46da	-0.054266788
223	0xbe3d3ea9	-0.18480934
224	0x3d6fe75b	0.058570247
225	0x3a977503	0.0011555258
226	0xbe0bb59e	-0.136435
227	0x3e00d176	0.12579903
228	0xbd46edb1	-0.048566524
229	0x3e00ff2d	0.12597342
230	0x3de85490	0.11344254
231	0xbe20e52c	-0.15712422
232	0x3d9721b3	0.073794745
233	0xbb8bfd37	-0.004272129
234	0xbd2e7c63	-0.042599093
235	0x3e240d64	0.16020733
236	0x3e1968ec	0.14981431
237	0xbd9440d2	-0.07238926
238	0xbc5134eb	-0.012768964
239	0x3d60e594	0.054906443
240	0x3daea7a5	0.085280694
241	0xbe480837	-0.19534384
242	0xbc70f0be	-0.014705835
243	0xbdd251d4	-0.10269514
244	0x3d78b7eb	0.060722273
245	0x3db310d3	0.08743443
246	0xbdfdb9a7	-0.12388926
247	0xbbd5dff8	-0.0065269433
248	0x3d2c98c9	0.042137895
249	0xbb4dfe40	-0.0031432062
250	0xbcd5c85d	-0.026096517
251	0xbe0af293	-0.13569097
252	0xbd3c8643	-0.04602648
253	0x3c54fa8d	0.012999189
254	0x3e0b7334	0.13618165
255	0xbd87eb52	-0.06636681

convs.3.h_bias f4 [32]
0	0xbb97b4da	-0.0046297135
1	0x3c12a441	0.008950294
2	0xbd99451b	-0.07483884
3	0xbd313c0e	-0.043270163
4	0xbd1403ab	-0.03613631
5	0x3ca4b250	0.020104557
6	0x3c521028	0.012821235
7	0xbb70ab5b	-0.003672323
8	0xbae6dc4a	-0.0017613259
9	0x3a96d138	0.0011506444
10	0x3cf9bb82	0.030484919
11	0xbcec8465	-0.028871724
12	0x3bec7ad0	0.007216789
13	0xbb9e4a74	-0.004830653
14	0xbb71b12f	-0.0036879291
15	0x3cfcae91	0.030844958
16	0xbc3aa50a	-0.011391887
17	0xbd1940f5	-0.037415463
18	0xbabb28b2	-0.0014279096
19	0xbbe867a1	-0.0070924317
20	0x3c85ed7f	0.016348599
21	0x3cab340d	0.020898843
22	0x3d39006a	0.04516641
23	0xbc509b19	-0.012732291
24	0xbbf51dbc	-0.0074803513
25	0xbc1dc523	-0.009629521
26	0xbc715104	-0.014728788
27	0x3d1c7b2a	0.038203396
28	0x3c376a65	0.0111948
29	0xbd259ff4	-0.040435746
30	0xbd0c83e0	-0.034305453
31	0x3c8d0cb9	0.01721798

convs.3.loop_weight f4 [32, 32]
0	0xbe675385	-0.22590454
1	0xbea8b6f8	-0.32952094
2	0xbe89f776	-0.2694661
3	0xbee97750	-0.4559884
4	0xbe8a007d	-0.26953498
5	0xbe258ec8	-0.16167748
6	0xbeaedb14	-0.34151518
7	0x3e851031	0.25988916
8	0x3dcc9571	0.09989441
9	0x3e10f9be	0.14157769
10	0xbea58280	-0.32326126
11	0x3e6beece	0.23040316
12	0xbe454412	-0.19264248
13	0xbe043122	-0.12909368
14	0x3df48d5c	0.11941025
15	0x3eb7992b	0.35859045
16	0x3d6b60fa	0.05746553
17	0xbe654086	-0.22387895
18	0xbccdb92b	-0.025112709
19	0xbd8fb7a2	-0.07017447
20	0x3cec995f	0.028881727
21	0x3e84c75a	0.25933343
22	0x3e28b53a	0.16475382
23	0xbcb93a0b	-0.022610685
24	0x3ece509a	0.4029587
25	0xbea01084	-0.312626
26	0xbd9e486e	-0.077286586
27	0xbe794bd6	-0.24345335
28	0x3e72f1c7	0.23725043
29	0xbeb7b7b6	-0.35882348
30	0xbd4c77fd	-0.049919117
31	0x3ec23b9f	0.37936112
32	0x3e9c1423	0.30484113
33	0xbe8fb298	-0.28065944
34	0x3eb9c776	0.3628499
35	0xbd855538	-0.06510395
36	0x3d137c1c	0.03600703
37	0x3e2cbec7	0.16869651
38	0xbeb93723	-0.36174878
39	0xbec7c8a3	-0.3902026
40	0xbddbdc81	-0.10735417
41	0xbca5b2f3	-0.020226931
42	0xbe8befb1	-0.27331308
43	0x3e499df3	0.19689159
44	0x3e6db00e	0.23211691
45	0xbec1e0f5	-0.3786694
46	0xbe9972ce	-0.29970402
47	0x3e6234fa	0.22090521
48	0xbcdbc4d7	-0.026827259
49	0x3e153f8c	0.14575022
50	0xbde4c61c	-0.11170599
51	0x3e32990b	0.17441194
52	0x3e5cdfba	0.2156972
53	0xbeac82c9	-0.3369353
54	0x3e355731	0.17709042
55	0x3e5e59ca	0.2171394
56	0x3e04797f	0.12936972
57	0xbe989aec	-0.29805696
58	0xbe4a8ea3	-0.19780974
59	0x3e90ee42	0.28306776
60	0xbe991d9a	-0.29905397
61	0x3e5944bb	0.21217625
62	0xbdbce079	-0.09222502
63	0xbdeb7678	-0.114972055
64	0x3ebefbea	0.3730157
65	0x3e18c3e2	0.14918473
66	0xbdc927b7	-0.09822028
67	0x3e981bb0	0.29708624
68	0xbe43d6c2	-0.19124892
69	0xbd345643	-0.044027578
70	0x3e8d3dce	0.27586216
71	0xbec78f69	-0.389766
72	0x3ea887d3	0.32916126
73	0xbd4260f2	-0.047455736
74	0xbea2e2a5	-0.3181354
75	0xbde8f7ae	-0.11375366
76	0xbd6beac9	-0.057596955
77	0x3de4162a	0.1113704
78	0x3e3032ee	0.17206928
79	0xbe95e72a	-0.29277927
80	0x3e8f0b73	0.27938423
81	0xbe88d420	-0.2672434
82	0xbe83f318	-0.25771403
83	0xbe3d818b	-0.18506448
84	0x3e143b96	0.14475855
85	0xbea64e95	-0.32481828
86	0xbbc5b61e	-0.006033673
87	0xbeb2da30	-0.3493209
88	0xbcbe0542	-0.023195866
89	0x3c92d599	0.017924117
90	0xbe1e8bd3	-0.15483026
91	0xbc0eb5e2	-0.008710356
92	0x3ea67d86	0.32517642
93	0xbd85deba	-0.06536622
94	0x3cea929b	0.02863436
95	0x3eb4ddd8	0.35325503
96	0x3d4942b4	0.04913588
97	0x3e4b1577	0.19832407
98	0xbe745341	-0.23859884
99	0x3e81e261	0.25368026
100	0x3e6e8d91	0.23296191
101	0x3e6d8c6d	0.231981
102	0xbdd141bf	-0.10217618
103	0x3d43f812	0.047844
104	0xbc5424b2	-0.012948202
105	0xbebbcc9d	-0.36679545
106	0x3e82c99a	0.25544435
107	0xbdc7aafb	-0.09749409
108	0x3e0d69cd	0.13809891
109	0x3d3dd278	0.046343297
110	0xbed63f32	-0.4184509
111	0xbeb2e7e4	-0.34942544
112	0x3e6ba231	0.2301109
113	0xbd050b96	-0.032481752
114	0x3e2ae89b	0.16690294
115	0x3dc30e88	0.09524256
116	0x3eb8cc4b	0.36093363
117	0x3e0829b9	0.13297166
118	0xbed11415	-0.40835634
119	0xbd1ed8cd	-0.038780976
120	0xbebff7dc	-0.3749379
121	0xbe66afe4	-0.22528034
122	0xbe7fad9e	-0.24968573
123	0xbe84d077	-0.25940296
124	0x3de63319	0.11240215
125	0x3c259f19	0.010108733
126	0xbe915781	-0.28387073
127	0xbce4ca96	-0.027928632
128	0x3c886d68	0.016653731
129	0xbea09161	-0.31360915
130	0xbe3c5241	-0.18390752
131	0x3e929a61	0.28633407
132	0xbe7a2612	-0.24428585
133	0x3eae08be	0.33991045
134	0x3e5babcf	0.21452259
135	0x3d093330	0.03349608
136	0xbe072f0a	-0.13201538
137	0x3e810066	0.25195616
138	0xbe8f6f84	-0.28014767
139	0xbc58a6ac	-0.013223331
140	0x3e993990	0.2992673
141	0x3c5ab829	0.013349571
142	0xbd1dc179	-0.038514588
143	0x3e8c2ca6	0.27377814
144	0xbeb39e43	-0.35081682
145	0xbeb048b8	-0.3443048
146	0xbe0ab7aa	-0.13546625
147	0xbe8af901	-0.271431
148	0x3e93ed10	0.28891802
149	0x3ec83fb4	0.39111102
150	0xbe34db5c	-0.17661804
151	0xbe15a2dc	-0.14612907
152	0x3e3e687c	0.18594545
153	0x3e94f8fa	0.29096204
154	0x3de4a26d	0.11163793
155	0xbe79ab82	-0.24381831
156	0x3cd58b7a	0.026067484
157	0xbbb8cfd3	-0.005640009
158	0xbe99fea9	-0.30077103
159	0xbe49ed9f	-0.19719552
160	0x3e8aa047	0.27075407
161	0xbec52de0	-0.38511562
162	0xbeabad0a	-0.33530456
163	0xbf100494	-0.56256986
164	0x3daca957	0.084307365
165	0xbe83d040	-0.2574482
166	0xbebcc5ce	-0.36869663
167	0xbe7e839f	-0.24854897
168	0x3eebc190	0.46046114
169	0xbc8bb629	-0.017054634
170	0xbce8f91b	-0.028439095
171	0x3ec7d189	0.3902705
172	0xbe57433a	-0.21021739
173	0x3dbfd023	0.09365871
174	0x3e0edb85	0.13950928
175	0xbec7ad99	-0.38999632
176	0xbe94839c	-0.2900666
177	0x3e240ee8	0.16021311
178	0xbeda1124	-0.42591202
179	0x3e31098e	0.17288801
180	0x3ed1a99b	0.4094971
181	0x3e1fa86e	0.15591595
182	0x3dea41d7	0.11438339
183	0x3e22e15a	0.15906277
184	0xbd17d7dc	-0.037071094
185	0x3dc70add	0.09718869
186	0x3eb73cba	0.35788518
187	0x3e1dbac5	0.15403278
188	0xbe8a4253	-0.27003726
189	0x3eb27e61	0.34862044
190	0xbe4f87f4	-0.20266706
191	0x3ecdf5cb	0.40226588
192	0x3ec152ff	0.37758633
193	0x3ddbb08d	0.10727034
194	0xbec0ce3f	-0.37657353
195	0xbde3bd61	-0.111201055
196	0x3e47c816	0.1950992
197	0xbeeb0b7e	-0.45907205
198	0x3d65c5c8	0.056096822
199	0x3dceddd4	0.10100904
200	0xbe9513d0	-0.29116678
201	0xbeb34dd5	-0.3502032
202	0x3da93e72	0.082638636
203	0x3d1052b5	0.035235126
204	0x3ea961de	0.3308248
205	0xbebda90f	-0.37043044
206	0xbe568438	-0.20948875
207	0xbe2b8d98	-0.16753232
208	0x3df5e0b5	0.1200575
209	0xbeacd94a	-0.33759528
210	0x3e0810bd	0.13287635
211	0xbeb52709	-0.35381344
212	0xbeca2378	-0.39480186
213	0x3de50388	0.11182314
214	0x3e62f0e2	0.22162202
215	0xbe1fa79c	-0.15591282
216	0x3e792c2f	0.24333261
217	0xbe999cfd	-0.30002585
218	0x3d0c25f1	0.03421587
219	0x3e972600	0.2952118
220	0xbe4d48dd	-0.20047326
221	0x3ed0bb5e	0.4076795
222	0x3e9452bb	0.28969368
223	0xbd7d24ae	-0.06180256
224	0xbeb01be1	-0.3439627
225	0xbde02017	-0.10943621
226	0x3e8893e2	0.26675326
227	0x3e7d5726	0.24740276
228	0xbd105a08	-0.03524211
229	0x3da1f0ef	0.079072826
230	0x3dc6e94c	0.097124666
231	0xbeb3ab73	-0.35091743
232	0xbe04ce81	-0.129694
233	0xbe4e1e08	-0.20128644
234	0xbe9f2eeb	-0.31090483
235	0x3c82da34	0.015973188
236	0xbdb8ed41	-0.090296276
237	0xbecde58e	-0.402142
238	0xbd539d09	-0.051663432
239	0xbecf5faf	-0.40502688
240	0x3e94379e	0.28948683
241	0xbdda8570	-0.106699824
242	0x3e638405	0.2221833
243	0xbeb1159b	-0.34586796
244	0x3d5db2e7	0.054125693
245	0x3d89fd3d	0.067377545
246	0xbe29553a	-0.16536418
247	0x3e8a1abb	0.2697352
248	0x3ebd69ee	0.3699488
249	0xbe81611f	-0.2526941
250	0x3e2a39df	0.16623639
251	0xbe03f59e	-0.12886664
252	0x3e045f0e	0.12926885
253	0x3d89faf7	0.06737321
254	0xbe5e780e	-0.21725485
255	0xbeb23794	-0.34808028
