parameters/cgmc_movie_edge_0.2211.pt (torch, 270182 bytes, 20 tensors)

conv0.bias f4 [16]
-0.092478916 -0.11849246 -0.14705358 -0.14563692 -0.0924789 -0.11849263 -0.14705397 -0.14563702
-0.09247896 -0.11849261 -0.14705375 -0.14563693 -0.09247884 -0.11849255 -0.1470542 -0.145637
00000000: 9665 bdbd 2dac f2bd 3795 16be d821 15be
00000010: 9465 bdbd 44ac f2bd 5195 16be df21 15be
00000020: 9c65 bdbd 41ac f2bd 4295 16be d921 15be
00000030: 8c65 bdbd 39ac f2bd 6095 16be de21 15be

conv0.fc_node.weight f4 [128, 4]
0.1626495 0.0019997738 -0.028993484 0.17656997 0.05296281 -0.113116086 -0.06642723 -0.15200464
0.013501911 -0.00029961803 0.101036616 0.13919853 0.12894256 -0.2866351 -0.16025375 -0.08387145
-0.05566458 -0.036412008 0.05698668 0.20362265 -0.26604074 0.009135762 0.16365774 0.047441445
0.022070374 0.078141436 0.015949784 -0.035940185 0.04542924 0.19769849 -0.003997976 -0.0007979422
0.039765548 0.179609 0.037852947 0.13400109 0.03284227 -5.116127e-05 -0.037860066 -0.017313207
0.10828236 0.058258627 -0.051148243 -0.0008627302 0.14106633 0.12386444 -0.001495387 0.005817145
-0.1277539 -0.05174672 -0.21315558 -0.13105093 0.10528412 0.052039005 0.10159728 0.13050641
0.12677999 0.05649598 -0.038317893 0.045843583 -0.07575586 0.027659668 -0.0002809246 0.068669446
-0.19499324 -0.1813476 -0.20495056 0.21428055 -0.09041857 0.05989809 -0.13119331 -0.13127585
-0.10019018 -0.096212365 -0.053656075 -0.010802573 -0.08744126 0.02013928 -0.14211294 -0.08076358
-0.2525147 -0.0045122597 0.16228893 0.018264372 0.0033640685 0.19604097 0.15519676 -0.17290615
0.16169131 -0.08021168 0.03914944 0.15943061 0.190801 -0.2600455 -0.0025983546 -0.03448403
0.1173257 0.09240222 0.03173289 -0.19919592 0.13659735 -0.07443526 -0.23912966 0.03213059
0.10024797 -0.11200346 0.004580946 0.051064853 -0.15859453 0.080006145 -0.2334468 0.11802638
-0.13871157 -0.10327811 -0.20910022 -0.22190261 -0.12832427 0.16022857 0.0662013 0.114883915
0.041158892 0.20099986 -0.046639975 0.10869404 -0.11499097 -0.28707156 -0.18800962 0.061295662
-0.07907508 0.012793631 0.2565087 -0.0101879 -0.003699628 -0.104162134 -0.03415487 0.27504265
-0.10966782 -0.19371216 -0.14248294 0.3125815 0.0069934824 -0.005299658 -0.015193547 -0.043272924
-0.23236929 -0.025688965 0.2992883 0.10622617 0.09183572 -0.014236398 -0.053695437 0.048245296
0.17847545 -0.14086418 -0.17120156 0.12259107 0.09891239 -0.10813486 0.12944278 0.2442011
0.01650986 -0.17089848 -0.06921707 0.23610328 -0.0061354637 -0.015208501 -0.20305344 0.094419375
-0.020352818 -0.13665286 0.060816545 0.17682235 -0.046847563 0.025973931 -0.009084265 -0.113571495
-0.14174935 0.012198332 -0.016559044 -0.044910654 0.0057886965 0.15574074 0.15676607 0.13180846
0.079409756 -0.03443404 0.0048362873 0.19701605 -0.099754654 0.094270185 0.03908578 -0.20962738
0.04606106 -0.1172585 0.16076678 -0.0566713 -0.39512098 0.2147294 0.10557833 -0.07971909
-0.12410457 0.006060953 0.04337633 -0.10414177 0.10011197 0.15474576 0.1275929 -0.059991736
0.0149162365 -0.0061172154 0.2614354 0.09179458 0.18566936 0.07146679 -0.08214926 0.032406192
-0.090641245 -0.19870959 0.006549432 0.07717932 -0.16709287 -0.04802957 0.05096368 0.004103989
-0.008128177 0.009907344 0.04999112 -0.017255317 0.24819241 0.0701737 0.098354846 -0.05658938
-0.1678946 -0.22326145 0.069367506 0.07952712 0.04311478 -0.18453602 -0.0725486 -0.12998442
0.01639379 0.07928717 -0.10172629 -0.007364877 0.011090695 -0.088703625 0.17816144 0.07005686
-0.02180055 -0.10237188 0.038783185 -0.12221845 0.111234605 0.15147503 -0.1007907 -0.121004395
00000000: 978d 263e a30e 033b be83 edbc c2ce 343e
00000010: 88ef 583d 68a9 e7bd 000b 88bd 1ba7 1bbe
00000020: 1f37 5d3c 0d16 9db9 49ec ce3d 0f8a 0e3e
00000030: 8509 043e d6c1 92be 8f19 24be cbc4 abbd
00000040: 8b00 64bd c224 15bd dd6a 693d 7582 503e
00000050: 7e36 88be 2aae 153c e595 273e f651 423d
00000060: eecc b43c 9e08 a03d 1fa9 823c 0436 13bd
00000070: 0314 3a3d 7971 4a3e 7401 83bb ff2c 51ba
00000080: 33e1 223d 6ceb 373e b10b 1b3d 9537 093e
00000090: 9e85 063d ff95 56b8 2813 1bbd 6dd4 8dbc
000000a0: 24c3 dd3d 99a0 6e3d d280 51bd d828 62ba
000000b0: b173 103e a4ac fd3d dd00 c4ba c09d be3b
000000c0: ebd1 02be 5ef4 53bd 7545 5abe 3732 06be
000000d0: 339f d73d da26 553d 3c12 d03d 79a3 053e
000000e0: 9dd2 013e 5468 673d 39f3 1cbd 7bc6 3b3d
000000f0: e325 9bbd 8796 e23c 1049 93b9 91a2 8c3d
00000100: 4fac 47be 2fb3 39be 8fde 51be 5c6c 5b3e
00000110: 5f2d b9bd b357 753d 8a57 06be 2d6d 06be
00000120: 8230 cdbd fd0a c5bd 79c6 5bbd 46fd 30bc
00000130: 6714 b3bd 22fb a43c 0e86 11be 6067 a5bd
00000140: 9b49 81be 94db 93bb 122f 263e 2a9f 953c
00000150: b477 5c3b f7be 483e e6eb 1e3e 4f0e 31be
00000160: 6892 253e 0546 a4bd 2a5b 203d c741 233e
00000170: 5661 433e af24 85be 2849 2abb 203f 0dbd
00000180: 7548 f03d 603d bd3d 59fa 013d 04fa 4bbe
00000190: 2de0 0b3e 8371 98bd 68de 74be 5e9b 033d
000001a0: cf4e cd3d 1262 e5bd c31b 963b 6129 513d
000001b0: 9b66 22be 43da a33d ae0c 6fbe d1b7 f13d
000001c0: 680a 0ebe 7983 d3bd 5e1e 56be 703a 63be
000001d0: 7067 03be f512 243e 8c94 873d 4248 eb3d
000001e0: 3a96 283d e8d2 4d3e 8f09 3fbd fb9a de3d
000001f0: 6380 ebbd 0bfb 92be 9885 40be 2911 7b3d
00000200: 1ef2 a1bd 619c 513c 1c55 833e 26eb 26bc
00000210: 7575 72bb f552 d5bd fae5 0bbd 64d2 8c3e
00000220: 8699 e0bd 7b5c 46be 0ce7 11be af0a a03e
00000230: 9529 e53b c1a8 adbb 5bee 78bc f33e 31bd
00000240: 37f2 6dbe aa71 d2bc 513c 993e 1b8d d93d
00000250: 5e14 bc3d c83f 69bc bfef 5bbd dc9c 453d
00000260: 45c2 363e b33e 10be 764f 2fbe 0711 fb3d
00000270: 9492 ca3d cf75 ddbd a68c 043e da0f 7a3e
00000280: b03f 873c 0300 2fbe aec1 8dbd 0fc5 713e
00000290: 000c c9bb 142d 79bc 3eed 4fbe f25e c13d
000002a0: f4ba a6bc baee 0bbe c51a 793d eb10 353e
000002b0: 3be3 3fbd 48c7 d43c 2bd6 14bc 2c98 e8bd
000002c0: be26 11be 83db 473c d5a6 87bc 3cf4 37bd
000002d0: 1baf bd3b 807a 1f3e 4987 203e ccf8 063e
000002e0: 95a1 a23d b50a 0dbd b879 9e3b 93be 493e
000002f0: 2b4c ccbd ba10 c13d 6918 203d 8fa8 56be
00000300: 86aa 3c3d 3925 f0bd 0ca0 243e 2a20 68bd
00000310: 4c4d cabe 06e2 5b3e 7439 d83d c343 a3bd
00000320: 892a febd f59a c63b 61ab 313d 4848 d5bd
00000330: 8107 cd3d ac75 1e3e b7a7 023e e5b9 75bd
00000340: 3b63 743c ec72 c8bb dcda 853e ccfe bb3d
00000350: 1c20 3e3e 2e5d 923d df3d a8bd 5bbc 043d
00000360: 1ea2 b9bd 877a 4bbe 9e9c d63b 3110 9e3d
00000370: 651a 2bbe a8ba 44bd 4bbf 503d c17a 863b
00000380: 0c2c 05bc 6a52 223c 7dc3 4c3d 065b 8dbc
00000390: 2726 7e3e 3bb7 8f3d 446e c93d 44ca 67bd
000003a0: 90ec 2bbe a69e 64be 8d10 8e3d 1ddf a23d
000003b0: 2099 303d 03f7 3cbe 5c94 94bd a31a 05be
000003c0: 454c 863c 5061 a23d e055 d0bd 1155 f1bb
000003d0: bfb5 353c 3faa b5bd f46f 363e f979 8f3d
000003e0: 1197 b2bc 59a8 d1bd 1edb 1e3d ab4d fabd
000003f0: f8ce e33d 451c 1b3e 5b6b cebd 27d1 f7bd

conv0.fc_node.bias f4 [128]
-0.08014738 -0.19410329 0.13519417 -0.16291204 -0.12248355 -0.30278578 -0.36669675 0.28566042
0.14635363 0.12510808 0.2565609 0.3538287 0.1438924 -0.42771414 -0.4598149 0.2655161
-0.30544424 0.45376912 0.27224073 -0.11359925 0.30537924 0.1461275 0.40013877 -0.3567215
-0.24167374 0.2406324 -0.15468113 -0.13160498 0.1748822 -0.20240244 0.17362659 0.106323734
0.31121403 -0.08744667 -0.3413037 0.043434937 -0.38775906 0.30719134 0.33161888 0.12509918
-0.23474418 -0.08390408 0.47778127 0.42057756 0.343134 -0.12220613 0.005704457 -0.26377222
-0.46274617 0.29878983 -0.23513119 -0.36830434 0.15063018 0.15190993 0.059967622 -0.29984728
-0.41355276 -0.020465301 0.31432512 0.2656382 0.30054477 0.38096502 -0.13108157 -0.26515177
0.40271303 -0.47978592 0.086042 0.024683336 0.3682515 -0.11701182 -0.12198773 -0.41761804
-0.3874992 0.15241808 -0.09394978 -0.4612708 -0.22357938 0.2808368 0.43214378 0.0019566186
0.34188572 0.19275944 0.25421643 0.3028646 0.35930547 -0.33696055 -0.44795054 0.13691051
0.26870257 0.09098017 -0.4598124 0.3573345 -0.253275 -0.17797112 0.33475572 -0.16766608
0.34822 0.42357925 0.33863991 0.34165162 -0.054651223 0.37373754 -0.119021304 -0.3473567
-0.49355268 0.4683459 -0.23444769 -0.21761225 0.44036782 -0.19941829 -0.116273284 -0.40135837
0.40168822 0.15162453 0.044260923 0.17044902 -0.3752564 -0.2508991 -0.32360652 0.33706143
0.13753122 0.39469126 0.08820746 -0.14722024 0.22428775 -0.42166033 -0.4524781 -0.17175244
00000000: 4f24 a4bd 03c3 46be 5770 0a3e 6ad2 26be
00000010: a8d8 fabd bd06 9bbe adbf bbbe 1542 923e
00000020: badd 153e 551c 003e f35b 833e 0929 b53e
00000030: 8858 133e 59fd dabe dc6c ebbe baf1 873e
00000040: 3063 9cbe 6d54 e83e 2363 8b3e b9a6 e8bd
00000050: ab5a 9c3e 73a2 153e fdde cc3e 33a4 b6be
00000060: 5279 77be 5768 763e bb64 1ebe 75c3 06be
00000070: 5214 333e 9642 4fbe 2bcb 313e 42c0 d93d
00000080: 7257 9f3e 3d17 b3bd 5cbf aebe d5e8 313d
00000090: 5b88 c6be 2f48 9d3e f3c9 a93e 001a 003e
000000a0: c760 70be e7d5 abbd bf9f f43e f155 d73e
000000b0: 42af af3e 3547 fabd 74ec ba3b 270d 87be
000000c0: 11ed ecbe fbfa 983e 3bc6 70be 6392 bcbe
000000d0: cc3e 1a3e 478e 1b3e 9ca0 753d 9585 99be
000000e0: 30bd d3be d9a6 a7bc 39ef a03e bb01 883e
000000f0: 01e1 993e d90d c33e 3f3a 06be f9c1 87be
00000100: 6730 ce3e 80a6 f5be ca36 b03d b534 ca3c
00000110: 768b bc3e e5a3 efbd b4d4 f9bd 08d2 d5be
00000120: 4c66 c6be 7c13 1c3e be68 c0bd b02b ecbe
00000130: fef1 64be d7c9 8f3e f341 dd3e 9d3a 003b
00000140: a50b af3e bb62 453e a828 823e 1211 9b3e
00000150: e3f6 b73e 1886 acbe c659 e5be 4532 0c3e
00000160: 6293 893e d053 ba3d 886c ebbe 8cf4 b63e
00000170: 43ad 81be 103e 36be 1a65 ab3e a8b0 2bbe
00000180: e449 b23e 61df d83e 3662 ad3e f6ec ae3e
00000190: f6d9 5fbd 875a bf3e 71c1 f3bd bdd8 b1be
000001a0: f0b2 fcbe 09cb ef3e 0e13 70be bfd5 5ebe
000001b0: e477 e13e 4f34 4cbe b020 eebd d87e cdbe
000001c0: 14aa cd3e 7643 1b3e f14a 353d 308a 2e3e
000001d0: 9b21 c0be d975 80be c1af a5be 5193 ac3e
000001e0: fcd4 0c3e f914 ca3e 1da6 b43d e7c0 16be
000001f0: b0ab 653e dde3 d7be 36ab e7be dfdf 2fbe

conv0.fc_fij.weight f4 [16, 34]
0.50698304 0.5830767 0.0015978091 0.79489845 -0.07985755 -0.04694015 -0.043316647 -0.43244007
0.15454964 -0.28741723 0.2710338 0.1598782 0.30982542 -0.10964156 0.32776207 0.5707581
-0.4609436 -0.4577578 -0.04517331 -0.3149559 0.18379645 -0.66305643 0.1585456 0.0693983
-0.21476103 0.42754316 0.27100575 0.13105495 0.5446984 0.8162025 0.4281135 0.43717
-0.105983116 -0.119227625 0.13351908 0.3492638 0.11842302 0.17098959 0.12178862 -0.35182664
-0.48263377 0.0027334467 -0.21901536 -0.31629026 -0.21689448 0.32230157 0.12716554 0.5206861
0.08700516 0.09696663 -9.163415e-05 -0.16652927 0.082087174 0.35202625 -0.10202143 0.103242174
-0.2749166 -0.25722444 -0.46308178 -0.0026274084 0.1967523 0.40950102 0.18914269 0.4784713
-0.03630021 -0.25134316 0.18406178 0.5053036 -0.21168071 -0.20813778 -0.11036669 -0.14567427
-0.534521 -0.43187854 0.25643277 0.42452332 -0.21684961 0.09779546 -0.1771311 0.20222479
-0.10816299 -0.42685834 0.44604933 -0.043554425 -0.2923084 0.31924653 -0.11659683 -0.50040704
-0.2746567 0.5284283 0.103800476 0.18400553 0.1486159 -0.34160575 -0.03378645 -0.04476068
-0.07062269 0.08080218 0.16134314 -0.12376338 -0.25556943 0.28182057 0.3985296 -0.22378385
-0.2999444 -0.15503746 0.84551054 0.4438573 -0.47453198 0.24659048 0.32894823 0.45206827
-0.17031974 0.1531784 -0.015421041 -0.2161003 -0.57336736 -0.19968018 0.11492759 -0.44495568
-0.047332007 0.026620498 -0.22227614 -0.17656094 -0.30562195 0.09636757 0.10132671 -0.32833663
0.23249252 0.37343836 -0.009785252 0.23765025 -0.2329819 0.40654495 0.19729692 -0.11260779
0.05660831 0.41593176 -0.08892614 -0.15711634 -0.39989656 -0.5937224 0.047033213 0.0913619
0.010232486 0.42846212 -0.12686218 0.24750765 -0.3675727 -0.015585196 0.37874916 -0.66133124
0.2135802 0.19120805 -0.03039011 0.3047877 -0.475065 -0.30098188 0.24991557 0.2257916
-0.06630072 0.42387962 0.19043794 0.35694703 -0.14555046 -0.086112276 -0.3631546 -0.21452384
0.18970741 -0.24538666 -0.30133462 -0.20317486 0.18301585 0.16527548 0.15513207 -0.30874404
0.008524832 0.76184857 -0.00856015 -0.071599856 0.34592792 0.5131566 0.124094464 -0.01681364
-0.28159255 -0.08318228 -0.22795397 0.0039709434 0.5897317 -0.4753912 0.1712425 -0.07345537
0.41917303 -0.00095647224 0.10692034 0.32682645 0.15262651 0.37815964 -0.16027765 0.29793537
-0.6073322 0.32002103 0.054547377 -0.50764954 -0.82884616 -0.1691345 -0.14192374 -0.24942009
0.31996495 -0.5351889 -0.07542105 0.6796736 0.0018132414 0.25572246 0.29343456 0.14282477
-0.58887 -0.17132147 -0.35868818 0.28434017 -0.25689554 0.18959267 -0.18632749 -0.18375376
-0.68711793 -0.07997304 0.3787988 -0.19801554 0.15479445 -0.19547743 -0.0065268376 -0.22750792
0.20013069 -0.34888303 0.09348842 0.21435016 0.2686931 0.017440133 -0.48984376 -0.011704795
0.60733324 0.018495556 -0.06359865 -0.27257448 -0.16889386 0.16434343 0.43588358 -0.21078631
-0.124725394 0.49583888 -0.41733918 -0.015023963 0.06549592 0.38438556 0.097970806 0.11633651
00000000: a4c9 013f 8444 153f 946d d13a 777e 4b3f
00000010: 5b8c a3bd 5144 40bd cc6c 31bd c968 ddbe
00000020: 4342 1e3e 5a28 93be f1c4 8a3e 1cb7 233e
00000030: 70a1 9e3e c18b e0bd 6ed0 a73e 341d 123f
00000040: cd00 ecbe 3b5f eabe a607 39bd e641 a1be
00000050: 2335 3c3e 11be 29bf c759 223e b220 8e3d
00000060: 51ea 5bbe f0e6 da3e 44c1 8a3e 4533 063e
00000070: 5b71 0b3f a6f2 503f b131 db3e bfd4 df3e
00000080: ad0d d9bd 9d2d f4bd 3ab9 083e b4d2 b23e
00000090: c587 f23d e517 2f3e 506c f93d 9f22 b4be
000000a0: c61b f7be a023 333b 9045 60be ccf0 a1be
000000b0: 9619 5ebe b604 a53e af37 023e af4b 053f
000000c0: c32f b23d 7196 c63d b62b c0b8 a686 2abe
000000d0: 521d a83d c93c b43e 9df0 d0bd a270 d33d
000000e0: dec1 8cbe ecb2 83be 0e19 edbe 9930 2cbb
000000f0: 6f79 493e 1eaa d13e 9fae 413e 31fa f43e
00000100: 87af 14bd 0db0 80be b17a 3c3e 945b 013f
00000110: d4c2 58be 1222 55be ee07 e2bd a32b 15be
00000120: 5ed6 08bf 2f1f ddbe 284b 833e 1f5b d93e
00000130: d30d 5ebe fc48 c83d db61 35be 0414 4f3e
00000140: 8f84 ddbd 2d8d dabe 9460 e43e 2066 32bd
00000150: 72a9 95be 4874 a33e 52ca eebd ad1a 00bf
00000160: ce9f 8cbe 1447 073f 5895 d43d f26b 3c3e
00000170: c42e 183e f3e6 aebe a963 0abd fa56 37bd
00000180: a1a2 90bd 9d7b a53d 2337 253e a877 fdbd
00000190: ffd9 82be c94a 903e 120c cc3e 9827 65be
000001a0: 5092 99be 24c2 1ebe 6173 583f 4441 e33e
000001b0: dbf5 f2be 3782 7c3e e76b a83e 7e75 e73e
000001c0: 4c68 2ebe ccda 1c3e 89a8 7cbc 6649 5dbe
000001d0: 34c8 12bf f678 4cbe 285f eb3d 3bd1 e3be
000001e0: 35df 41bd 3b13 da3c 5b9c 63be 64cc 34be
000001f0: 7b7a 9cbe 5c5c c53d 6184 cf3d bd1b a8be
00000200: 8512 6e3e 5033 bf3e 5252 20bc 965a 733e
00000210: cf92 6ebe a926 d03e 3408 4a3e ea9e e6bd
00000220: 1ede 673d 02f5 d43e e81e b6bd 1be3 20be
00000230: 3ebf ccbe 31fe 17bf e6a5 403d f31b bb3d
00000240: 28a6 273c 635f db3e 29e8 01be a572 7d3e
00000250: 7d32 bcbe 0d59 7fbc 69eb c13e 014d 29bf
00000260: c5b4 5a3e 0bcc 433e aef4 f8bc 220d 9c3e
00000270: b83b f3be 4c1a 9abe dee9 7f3e ea35 673e
00000280: acc8 87bd c006 d93e 2a02 433e c3c1 b63e
00000290: 2e0b 15be a25b b0bd 66ef b9be 23ac 5bbe
000002a0: a942 423e a446 7bbe 8848 9abe 120d 50be
000002b0: 8268 3b3e fa3d 293e f1da 1e3e b313 9ebe
000002c0: bdab 0b3c 8208 433f df3f 0cbc f2a2 92bd
000002d0: 771d b13e 3b5e 033f 3d25 fe3d c2bc 89bc
000002e0: e62c 90be 795b aabd c46c 69be b01e 823b
000002f0: a8f8 163f 7a66 f3be 325a 2f3e c56f 96bd
00000300: d99d d63e c4bb 7aba 0df9 da3d cc55 a73e
00000310: 204a 1c3e 249e c13e d31f 24be fc8a 983e
00000320: 207a 1bbf ccd9 a33e 126d 5f3d 52f5 01bf
00000330: 432f 54bf 9831 2dbe 7554 11be fb67 7fbe
00000340: 72d2 a33e 2402 09bf 5a76 9abd 17ff 2d3f
00000350: 49aa ed3a 0eee 823e 0e3d 963e a840 123e
00000360: 2fc0 16bf e56e 2fbe faa5 b7be 0995 913e
00000370: d087 83be 9524 423e a2cc 3ebe f229 3cbe
00000380: f6e6 2fbf e8c8 a3bd ebf1 c13e 96c4 4abe
00000390: 7082 1e3e 3c2b 48be 15df d5bb d6f7 68be
000003a0: 0fef 4c3e cca0 b2be db76 bf3d 9c7e 5b3e
000003b0: 2492 893e 9cde 8e3c cdcc fabe 78c5 3fbc
000003c0: 317a 1b3f fe83 973c 0240 82bd e28e 8bbe
000003d0: 83f2 2cbe a549 283e 222c df3e 5ed8 57be
000003e0: 0770 ffbd 98de fd3e 7bad d5be 1127 76bc
000003f0: ba22 863d 2fce c43e eba4 c83d d641 ee3d

conv0.fc_ni.weight f4 [16, 4]
-0.27285337 -0.33736315 -0.19423638 0.3311548 -0.8611373 0.4299675 0.108771704 -0.2508789
-0.42745474 -0.8832827 0.016067361 -0.15621127 -0.037308406 0.30722737 0.05769634 0.28642803
0.87315536 -0.22184145 -0.6253692 -0.06705159 0.49137253 0.29208776 -0.38451087 0.27801833
0.5654303 0.62573916 0.31298283 -0.49756223 -1.325429 -0.040091977 -0.042126484 0.3269338
0.24431121 0.32834473 0.60615045 0.0076608877 0.21409835 0.32564288 -0.3498045 0.26518732
0.43116185 -0.6857846 0.12980661 -0.32272172 0.34126642 0.48258513 0.23971328 -0.21082386
-1.0049555 -1.0071732 0.5394717 -0.82063544 -0.1910309 0.5842699 -0.16287112 -0.38014203
-0.559057 0.28951025 0.75683135 0.39306542 0.24096653 -0.3050421 0.42754018 -0.141157
00000000: 70b3 8bbe ddba acbe e7e5 46be 1f8d a93e
00000010: 7e73 5cbf b324 dc3e b3c3 de3d 3373 80be
00000020: 59db dabe d11e 62bf b39f 833c d9f5 1fbe
00000030: b3d0 18bd e84c 9d3e ff52 6c3d b2a6 923e
00000040: 1c87 5f3f 682a 63be 3218 20bf 5852 89bd
00000050: 2e95 fb3e 878c 953e 9cde c4be 6b58 8e3e
00000060: 0ac0 103f 7130 203f 493f a03e 7ac0 febe
00000070: a8a7 a9bf 7c37 24bd d28c 2cbd de63 a73e
00000080: b82c 7a3e cd1c a83e ad2c 1b3f 2f08 fb3b
00000090: 993c 5b3e aaba a63e 9319 b3be a2c6 873e
000000a0: 3fc1 dc3e 948f 2fbf 06ec 043e c83b a5be
000000b0: 79ba ae3e 6615 f73e 6677 753e 36e2 57be
000000c0: 62a2 80bf 0deb 80bf d11a 0a3f 2a15 52bf
000000d0: 9b9d 43be b692 153f b0c7 26be faa1 c2be
000000e0: 5c1e 0fbf b03a 943e b3bf 413f df3f c93e
000000f0: eebf 763e 7a2e 9cbe 8ce6 da3e 768b 10be

conv0.fc_nj.weight f4 [16, 4]
0.37541422 0.74697787 0.11216127 0.44117957 0.44083273 0.8599885 -0.9714452 0.6065085
-0.044713363 -0.10596675 -0.6182473 0.3281291 0.057605408 -0.023640791 0.37636247 -0.12768671
-0.11246261 -0.5302204 0.45814738 -0.26082033 0.6017661 -0.50001526 -0.58558184 -0.05150013
0.3579137 0.19453871 -0.19096817 -0.96073675 -0.05074865 0.24953249 -0.020092148 0.1351654
0.8108696 -0.75188994 0.53756064 0.07104415 1.1005062 -0.10828596 0.09432532 -0.25773844
-0.19885641 0.19347113 -0.21702218 -0.054439817 0.1518637 -0.29734096 -0.59211624 0.09274999
1.5259087 -0.21373129 -0.21507086 0.012607836 -0.53540325 0.79007757 0.934134 0.15138175
-0.3560106 0.83476853 -0.2365823 -0.38458237 0.39834213 -0.08608936 -0.35902402 0.18225434
00000000: 4b36 c03e f139 3f3f cfb4 e53d 4ae2 e13e
00000010: d4b4 e13e 3528 5c3f a2b0 78bf 2444 1b3f
00000020: 5c25 37bd 1805 d9bd 7445 1ebf 8a00 a83e
00000030: a6f3 6b3d 55aa c1bc 95b2 c03e 4ec0 02be
00000040: cc52 e6bd 86bc 07bf 4b92 ea3e 3e8a 85be
00000050: 580d 1a3f 0001 00bf b1e8 15bf cdf1 52bd
00000060: 7740 b73e 2835 473e 298d 43be d8f2 75bf
00000070: d1dd 4fbd 7285 7f3e 4a98 a4bc cc68 0a3e
00000080: 2695 4f3f dc7b 40bf 939d 093f 987f 913d
00000090: 63dd 8c3f 08c5 ddbd a22d c13d 4bf6 83be
000000a0: 04a1 4bbe 4c1d 463e 103b 5ebe 49fc 5ebd
000000b0: 2882 1b3e 133d 98be ee94 17bf b5f3 bd3d
000000c0: fa50 c33f 60dc 5abe 893b 5cbe 1991 4e3c
000000d0: 3010 09bf 8642 4a3f 6823 6f3f d103 1b3e
000000e0: 0547 b6be 64b3 553f a142 72be fbe7 c4be
000000f0: 80f3 cb3e 9e4f b0bd ffd1 b7be e2a0 3a3e

conv0.fc_edges.weight f4 [16, 48]
0.21719407 -0.11944289 0.15429702 0.14789997 -0.035856813 -0.053478602 -0.059405662 -0.043679085
-0.11148711 0.16613516 -0.039223224 -0.043380633 -0.0441605 0.040776685 0.1492124 0.005885109
-0.09081718 -0.081911005 0.16640723 -0.06715153 0.095524594 0.15408525 0.036280915 0.09355859
-0.006767589 0.037522938 -0.046692777 -0.02164697 0.19884835 -0.03349397 0.21156552 -0.0027576992
-0.05842854 -0.014984622 0.026496245 0.03845727 0.008468142 -0.10953811 0.12142192 0.033023205
-0.1672983 -0.102581345 0.09517522 0.10323142 0.05993529 -0.033405855 -0.04562282 -0.14045885
0.0314218 -0.051469773 0.13531898 0.07494058 -0.057237763 0.030444209 -0.10505416 -0.011930061
-0.1576072 0.06997748 -0.07633181 -0.16158746 -0.010481625 -0.037562616 -0.08021357 -0.011508839
0.15529367 -0.12741776 -0.20788416 -0.059798956 0.01601044 -0.0257149 -0.11685071 0.051980764
0.03539342 -0.0010775381 -0.0042652097 0.03572618 -0.24738917 0.15401277 -0.11941805 -0.0892142
0.028599735 -0.002530827 0.02972749 -0.11986808 -0.004637285 0.006160324 -0.19651271 0.08034056
-0.017725898 -0.043662153 0.026063623 -0.051746923 0.08685013 0.10361223 0.06603175 -0.0062937164
-0.049445134 -0.02631905 0.009435893 -0.051393524 0.09242833 -0.055737745 -0.035789296 -0.035415832
0.0072386605 -0.140937 0.14770482 -0.062155575 0.033374082 0.07686347 -0.14643796 -0.024042081
0.15177841 -0.080819264 -0.069809645 0.28254804 -0.110716 0.06350773 -0.26091298 -0.10800876
-0.008542141 0.07689626 0.03327391 -0.080502294 0.078404985 -0.10929145 -0.062023953 -0.16363683
0.100187525 0.0692948 0.0517749 0.017315183 0.009304652 -0.15916657 -0.11886136 -0.06711145
-0.048861645 0.021687316 0.1566528 0.03073436 -0.11153641 -0.050003238 -0.035198554 0.047073092
0.11738661 0.13943833 -0.016522057 -0.02401177 -0.044700973 0.013766465 -0.23943503 0.20757593
-0.034054622 0.08649238 0.0026038557 -0.04749679 0.028024623 -0.04285892 -0.05466611 -0.1163736
-0.02967619 -0.038703606 -0.21725449 0.11955927 -0.13408136 -0.108911045 -0.13687792 0.1209148
0.059264984 -0.09994622 -0.093066335 -0.09316493 -0.01220664 -0.055795357 -0.20775984 -0.0055040168
-0.15099786 -0.10860335 0.09000482 0.1479019 0.109621055 -0.122251794 0.042861007 -0.1389442
-0.043812003 0.14992347 -0.13640036 -0.044574462 -0.08145617 0.060898997 -0.10732759 -0.00947092
-0.016923934 0.05235145 -0.073171556 0.09028911 0.014782252 0.10186147 0.006545552 0.05057629
-0.028575506 -0.07261151 0.0842829 -0.06963334 0.007470379 0.088622995 0.078324966 0.025097407
0.17011288 0.0011898268 -0.13988976 -0.16107754 -0.010731667 0.109930255 0.019709915 0.013294165
-0.026984613 0.044778652 0.11221506 0.026412604 -0.04784525 0.0025913035 -0.08052023 -0.018140057
-0.08659417 0.10462505 -0.10273017 -0.11227467 -0.017032234 0.050235488 -0.07307716 -0.04702073
0.059925705 -0.050577387 0.0670856 0.040539037 -0.08618366 -0.08137429 -0.086888246 0.040543545
0.03210292 0.12696293 0.070743494 -0.14853847 0.038606588 -0.16273774 -0.072315544 0.07615687
0.1130701 0.030984875 0.0055032973 0.08214479 -0.046568077 -0.07426322 0.09438874 0.0678517
00000000: 1f68 5e3e 799e f4bd 0a00 1e3e 1773 173e
00000010: 98de 12bd 610c 5bbd 5a53 73bd d7e8 32bd
00000020: 5b53 e4bd 561f 2a3e 88a8 20bd e4af 31bd
00000030: a4e1 34bd 7405 273d 23cb 183e dfd7 c03b
00000040: 5cfe b9bd f5c0 a7bd a866 2a3e be86 89bd
00000050: 66a2 c33d 86c8 1d3e 4c9b 143d a59b bf3d
00000060: a7c2 ddbb a7b1 193d ed40 3fbd fd54 b1bc
00000070: e79e 4b3e f930 09bd a2a4 583e 84ba 34bb
00000080: c452 6fbd 0f82 75bc a70e d93c 5f85 1d3d
00000090: f6bd 0a3c 8455 e0bd 0eac f83d 5743 073d
000000a0: 3f50 2bbe 2b16 d2bd 3aeb c23d ff6a d33d
000000b0: b57e 753d 94d4 08bd fede 3abd 72d4 0fbe
000000c0: 25b4 003d f8d1 52bd 0f91 0a3e 727a 993d
000000d0: 2572 6abd 2266 f93c a326 d7bd 4d76 43bc
000000e0: c863 21be 5a50 8f3d da53 9cbd 2f77 25be
000000f0: 1fbb 2bbc 42db 19bd 0347 a4bd 928f 3cbc
00000100: 4e05 1f3e cd79 02be 96df 54be c0ef 74bd
00000110: 5428 833c 0ea8 d2bc 6d4f efbd c8e9 543d
00000120: b1f8 103d 2e3c 8dba 2cc3 8bbb 9d55 123d
00000130: 9653 7dbe 86b5 1d3e 7391 f4bd efb5 b6bd
00000140: fe49 ea3c 3bdc 25bb 1187 f33c 657d f5bd
00000150: 5ef4 97bb 8bdc c93b a13a 49be 9789 a43d
00000160: e735 91bc 16d7 32bd 6183 d53c 95f4 53bd
00000170: 7bde b13d a632 d43d a73b 873d 853b cebb
00000180: fb86 4abd 0c9b d7bc 0199 1a3c 0482 52bd
00000190: 104b bd3d 434d 64bd cc97 12bd 3110 11bd
000001a0: 4932 ed3b ca51 10be ef3f 173e d896 7ebd
000001b0: 43b3 083d 986a 9d3d d5f3 15be e6f3 c4bc
000001c0: cd6b 1b3e 9284 a5bd 5cf8 8ebd 23aa 903e
000001d0: 12bf e2bd 5710 823d 6396 85be b233 ddbd
000001e0: 56f4 0bbc c97b 9d3d 394a 083d 63de a4bd
000001f0: cb92 a03d 32d4 dfbd d40c 7ebd 6a90 27be
00000200: 1e2f cd3d 6fea 8d3d eb11 543d 92d8 8d3c
00000210: 8a72 183c 90fc 22be 966d f3bd ba71 89bd
00000220: 2623 48bd 99a9 b13c 9769 203e a0c6 fb3c
00000230: 346d e4bd 32d0 4cbd 5c2c 10bd b7cf 403d
00000240: 6468 f03d ecc8 0e3e 4459 87bc 55b4 c4bc
00000250: 5e18 37bd bd8c 613c 752e 75be c98e 543e
00000260: dc7c 0bbd eb22 b13d 73a5 2a3b fe8b 42bd
00000270: e593 e53c d68c 2fbd 92e9 5fbd 4855 eebd
00000280: 7b1b f3bc ac87 1ebd f677 5ebe 7edb f43d
00000290: a04c 09be c10c dfbd ba29 0cbe 2ea2 f73d
000002a0: d7bf 723d 9bb0 ccbd 9099 bebd 41cd bebd
000002b0: 5cfe 47bc ac89 64bd ffbe 54be 0a5b b4bb
000002c0: 2f9f 1abe 6f6b debd 7254 b83d 9873 173e
000002d0: 0181 e03d 265f fabd 068f 2f3d 6347 0ebe
000002e0: 3774 33bd 8a85 193e 89ac 0bbe b693 36bd
000002f0: 7ed2 a6bd 3a71 793d 91ce dbbd eb2b 1bbc
00000300: 10a4 8abc 796e 563d f8da 95bd 7fe9 b83d
00000310: 4231 723c bf9c d03d 127c d63b 1529 4f3d
00000320: 2e17 eabc 58b5 94bd 839c ac3d ed9b 8ebd
00000330: 15ca f43b f97f b53d d768 a03d 1499 cd3c
00000340: 1232 2e3e f6f3 9b3a 433f 0fbe 83f1 24be
00000350: e0d3 2fbc 1d23 e13d b076 a13c c5cf 593c
00000360: d60e ddbc d269 373d 02d1 e53d 3f5f d83c
00000370: 62f9 43bd dcd2 293b cae7 a4bd 759a 94bc
00000380: 4958 b1bd a945 d63d 3264 d2bd 43f0 e5bd
00000390: 2f87 8bbc bac3 4d3d 7aa9 95bd cf98 40bd
000003a0: a874 753d 3c2a 4fbd 2d64 893d 430c 263d
000003b0: 0f81 b0bd 90a7 a6bd 77f2 b1bd fd10 263d
000003c0: 5a7e 033d 9202 023e f7e1 903d 781a 18be
000003d0: f121 1e3d b9a4 26be 2c1a 94bd 22f8 9b3d
000003e0: 4c91 e73d fed3 fd3c 0155 b43b 873b a83d
000003f0: 2bbe 3ebd 5117 98bd e24e c13d d5f5 8a3d

conv0.fc_attn.weight f4 [4, 4]
0.22691539 0.24874002 0.6128931 -0.44056994 -0.005853451 0.2234959 0.31782168 0.43532014
-0.29640412 0.3921042 0.6845561 -0.4227876 -0.37839234 0.000898287 0.73947567 0.5432307
00000000: 825c 683e b4b5 7e3e 90e6 1c3f 6292 e1be
00000010: 4ece bfbb 1cdc 643e 86b9 a23e 48e2 de3e
00000020: 48c2 97be e2c1 c83e 123f 2f3f 9e77 d8be
00000030: a4bc c1be 057b 6b3a 474e 3d3f 2b11 0b3f

rgcns.0.h_bias f4 [32]
-0.36321068 0.080562934 0.112836756 -0.07045126 0.090316325 0.0089107165 0.026456395 -0.003009991
-0.06405023 0.12752672 -0.022076512 -0.052914772 0.0102012055 0.04437127 -0.008571856 0.106188476
-0.20060843 0.11111543 0.07222591 -0.022664126 0.012546684 -0.108755015 -0.15513729 -0.06482222
-0.001147838 0.065197825 -0.067573845 -0.10132592 0.055562075 0.17896263 0.085524075 -0.3500383
00000000: c0f6 b9be 2efe a43d f516 e73d c048 90bd
00000010: c4f7 b83d 41fe 113c 15bb d83c 4543 45bb
00000020: c42c 83bd 5d96 023e cdd9 b4bc 29bd 58bd
00000030: f522 273c a6be 353d f870 0cbc 5879 d93d
00000040: 4c6c 4dbe 7d90 e33d 2eeb 933d 1eaa b9bc
00000050: 9b90 4d3c f3ba debd 4fdc 1ebe 83c1 84bd
00000060: 0d73 96ba 7086 853d 2864 8abd f783 cfbd
00000070: 0f95 633d fb41 373e 3f27 af3d 3838 b3be

rgcns.0.loop_weight f4 [32, 32]
-0.36737368 0.072807185 0.2417004 0.32612503 -0.015285751 -0.022477536 -0.06479908 -0.20830567
0.40616623 -0.23472516 0.21383287 -0.39509672 0.2919926 0.306009 0.23033209 0.04128983
0.1756565 0.4085052 0.251051 0.07381077 0.1985431 0.4022193 0.23240168 -0.119033866
-0.24960953 0.06250329 0.11830125 -0.08901056 -0.3027776 0.25933594 0.025029572 -0.27838826
0.49058804 0.4088319 0.43929464 0.044617362 0.19009852 -0.08364746 0.3756135 -0.36566126
-0.2861518 0.067305274 0.116923526 -0.35966575 -0.3514785 -0.030577226 -0.35425836 -0.04359242
0.18083222 0.3547717 0.37047836 -0.33908987 -0.42417353 -0.13579041 0.4376223 -0.39920074
-0.103595294 -0.25171173 0.28608954 0.1298987 -0.4388142 -0.008824544 0.0659569 -0.114436686
-0.11272441 -0.20320036 0.30355373 0.03132083 -0.10132006 0.40614727 0.23016769 0.014166652
0.18859245 0.331048 -0.36325812 0.15573718 0.08140421 -0.100611635 -0.3345743 0.18172102
-0.00034051188 -0.22797903 -0.29255664 0.3976761 0.007531577 -0.32938835 -0.15908724 -0.16748993
-0.19517249 0.31218365 -0.34723544 -0.39588445 0.09267756 -0.23120876 -0.0027574678 -0.31459513
0.3006816 0.32904398 -0.20521206 -0.40702686 -0.114020295 0.24687415 0.3268257 0.3921605
0.36056498 -0.01680874 0.017924344 0.17274106 -0.121227145 -0.17359966 -0.31281194 0.15144813
-0.2770217 -0.2818694 0.23304342 0.20292607 -0.057996783 0.26588696 0.37832278 -0.15224195
-0.24313734 -0.15240036 -0.25566545 -0.27257115 -0.24501087 -0.0692119 -0.26744476 0.28149083
-0.18497342 -0.37522003 0.53718746 0.04784135 -0.03596865 0.14425892 -0.15497799 0.34471434
0.34476116 -0.22268495 0.10497742 -0.10488277 0.13535713 0.40857932 -0.1637795 -0.21652247
-0.51657313 -0.4046048 -0.11047807 -0.015453047 -0.22215128 -0.25543922 0.2884843 -0.36133695
0.14703257 0.04769253 -0.21930382 -0.37691292 0.03541142 0.47397584 -0.39460254 -0.3409513
-0.2695312 0.3297678 -0.21088892 0.086217724 -0.044796947 -0.103580534 -0.06701457 0.02473651
0.40852457 -0.052364606 -0.14399637 -0.13169342 -0.1030689 0.1877136 -0.14345792 0.2634647
0.1617562 0.15044212 -0.24786341 -0.4249484 -0.096622474 -0.107868046 -0.4514909 -0.025990348
0.32303554 -0.18551975 0.2819553 0.108532734 0.18994626 0.37212834 0.18243007 -0.4086734
-0.16794139 0.2777887 -0.013599041 -0.20097902 -0.072277 0.18817654 -0.20869619 -0.44493073
0.37124735 -0.37421748 0.14074422 0.2094548 0.37580362 0.17039584 -0.118902296 0.08803967
0.36688828 0.1221467 -0.17013037 -0.28036228 0.2743336 -0.23567307 -0.03179596 -0.013188581
-0.31609687 0.33558238 0.34444335 0.4266404 0.022286627 0.124696024 -0.070668556 0.36000228
0.2539016 0.29067636 0.44268876 0.00759806 0.18295078 0.18251404 0.08748594 -0.2565096
0.32956564 0.3521459 0.4543366 -0.034513727 -0.1753761 0.26456088 -0.26035 0.28064892
0.22550337 0.09287219 0.1583627 -0.0011599703 -0.0012171668 -0.37102824 0.01795723 -0.19322884
0.06038119 -0.4117031 0.032633625 0.34011212 0.12082599 -0.32351258 0.08399075 0.064842805
00000000: 6718 bcbe ef1b 953d 4f80 773e dcf9 a63e
00000010: 1671 7abc cf22 b8bc 61b5 84bd 154e 55be
00000020: 05f5 cf3e cb5b 70be 01f7 5a3e 1e4a cabe
00000030: 0e80 953e 36ad 9c3e 2ddc 6b3e 861f 293d
00000040: 4cdf 333e 9827 d13e c289 803e 1a2a 973d
00000050: e24e 4b3e b0ef cd3e b5fa 6d3e 07c8 f3bd
00000060: a499 7fbe ba01 803d ed47 f23d 2b4b b6bd
00000070: aa05 9bbe aec7 843e d10a cd3c e888 8ebe
00000080: 5b2e fb3e 6a52 d13e 3aeb e03e b2c0 363d
00000090: 30a9 423e 5c4f abbd 6a50 c03e f437 bbbe
000000a0: 7d82 92be 59d7 893d 9a75 ef3d 1c26 b8be
000000b0: fdf4 b3be 177d fabc 5a61 b5be f78d 32bd
000000c0: 152c 393e a3a4 b53e 57af bd3e 309d adbe
000000d0: 462d d9be a40c 0bbe 0810 e03e 0a64 ccbe
000000e0: c529 d4bd 5ce0 80be 547a 923e 2a04 053e
000000f0: 41ac e0be d294 10bc 6914 873d c85d eabd
00000100: 0edc e6bd c113 50be 656b 9b3e 454a 003d
00000110: e480 cfbd 89f2 cf3e 14b1 6b3e 3f1b 683c
00000120: 611e 413e 207f a93e f8fc b9be 9179 1f3e
00000130: 40b7 a63d 790d cebd 534d abbe 1315 3a3e
00000140: bb86 b2b9 5673 69be fcc9 95be 349c cb3e
00000150: 72cb f63b 97a5 a8be c4e7 22be 7b82 2bbe
00000160: 4cdb 47be 89d6 9f3e d8c8 b1be 5eb1 cabe
00000170: bccd bd3d fdc1 6cbe a2b6 34bb 9d12 a1be
00000180: f0f2 993e 7478 a83e 1c23 52be d365 d0be
00000190: 7983 e9bd 94cc 7c3e b355 a73e 43c9 c83e
000001a0: f99b b83e 7cb2 89bc 13d6 923c 08e3 303e
000001b0: f045 f8bd 1cc4 31be e328 a0be 3815 1b3e
000001c0: cad5 8dbe 3051 90be efa2 6e3e dacb 4f3e
000001d0: 098e 6dbd 5622 883e 86b3 c13e 50e5 1bbe
000001e0: fff8 78be d70e 1cbe 95e6 82be 728e 8bbe
000001f0: 21e4 7abe f8be 8dbd 85ee 88be 911f 903e
00000200: ac69 3dbe d71c c0be 1e85 093f 4bf5 433d
00000210: dd53 13bd 9cb8 133e 8db2 1ebe 667e b03e
00000220: 8984 b03e 8607 64be 67fe d63d c7cc d6bd
00000230: 0f9b 0a3e 4f31 d13e d0b5 27be 11b8 5dbe
00000240: 233e 04bf 5c28 cfbe 5442 e2bd c72e 7dbc
00000250: a07b 63be eec8 82be 37b4 933e 2801 b9be
00000260: b58f 163e 3e59 433d 2e91 60be bbfa c0be
00000270: 910b 113d f6ac f23e 5809 cabe 2b91 aebe
00000280: feff 89be 53d7 a83e 44f3 57be eb92 b03d
00000290: 017d 37bd 0822 d4bd ef3e 89bd 39a4 ca3c
000002a0: 222a d13e 457c 56bd c973 13be a4da 06be
000002b0: ca15 d3bd fe37 403e a2e6 12be d8e4 863e
000002c0: 6ba3 253e 800d 1a3e e8cf 7dbe d692 d9be
000002d0: 01e2 c5bd ece9 dcbd d129 e7be b6e9 d4bc
000002e0: ea64 a53e e4f8 3dbe 725c 903e 6946 de3d
000002f0: 4681 423e 9b87 be3e f3ce 3a3e a43d d1be
00000300: d4f8 2bbe 523a 8e3e 83ce 5ebc 72cd 4dbe
00000310: f705 94bd 5ab1 403e 74b4 55be f6cd e3be
00000320: 2214 be3e 6f99 bfbe 411f 103e 527b 563e
00000330: 5569 c03e 3f7c 2e3e 0c83 f3bd 244e b43d
00000340: c8d8 bb3e 0d28 fa3d a836 2ebe a58b 8fbe
00000350: 7475 8c3e 4854 71be 7b3c 02bd eb14 58bc
00000360: 73d7 a1be 74d1 ab3e e15a b03e 9c70 da3e
00000370: 7292 b63c a160 ff3d adba 90bd 3852 b83e
00000380: 64ff 813e 88d3 943e 1aa8 e23e 26f9 f83b
00000390: 7357 3b3e f6e4 3a3e d42b b33d 3a55 83be
000003a0: d4bc a83e 784c b43e cf9e e83e 445e 0dbd
000003b0: cb95 33be 8674 873e 984c 85be 37b1 8f3e
000003c0: 5bea 663e c633 be3d d529 223e 250a 98ba
000003d0: 5789 9fba 6af7 bdbe 0a1b 933c c8dd 45be
000003e0: 4452 773d c0ca d2be d6aa 053d 2d23 ae3e
000003f0: 9e73 f73d 71a3 a5be 5803 ac3d 4ecc 843d

rgcns.0.linear_r.W f4 [9, 32, 32]
-0.17031285 0.0016847788 -0.023546966 0.016325451 0.03958278 0.014615295 -0.18006462 0.12824714
0.043303587 0.042221837 -0.080716714 0.10590089 -0.13949461 0.020676328 -0.12691243 -0.091602996
0.014419875 -0.14407992 -0.051736258 -0.04017394 -0.13871032 -0.02503541 -0.1322517 0.17297575
-0.007793244 -0.042163525 -0.05766975 -0.010088907 0.0042440486 0.102156565 -0.038030375 -0.088807434
0.16485055 -0.09346405 0.19428891 -0.1029399 0.02611689 -0.064586446 0.15698281 -0.07869172
0.17167868 0.16114567 -0.0162924 0.043626484 -0.09820679 -0.1380075 -0.030124871 0.07330071
-0.1647227 -0.02660639 0.080543496 -0.047421645 0.06874216 -0.033320293 0.16065872 -0.13304377
-0.043972347 -0.004966858 -0.12896764 -0.06951334 0.05419363 -0.03302446 0.032916456 0.061554316
0.008887763 -0.07037944 0.10225372 -0.15045992 -0.058938168 0.046526164 -0.13033275 0.12906897
0.17571586 0.10954601 -0.11271237 0.16028541 -0.08022765 -0.04589448 0.07449615 0.011254413
-0.023012346 -0.08425587 0.023951447 0.15548015 -0.09174385 0.0030542344 -0.083617136 0.13144961
-0.007751517 0.034343854 -0.12938462 -0.14012559 -0.18074511 -0.17690092 0.14706804 -0.03116077
0.077365346 -0.088935785 -0.12448939 -0.061158974 0.051342342 -0.098224945 0.13325898 0.18933249
0.04910588 -0.18304208 -0.16021444 -0.15322863 0.054408558 0.09219877 -0.04299271 -0.019980934
0.12076795 -0.1580384 0.16119531 0.12836154 -0.18289338 0.0024072712 -0.05341224 -0.11047972
-0.06776751 0.16865663 0.05872925 -0.01944791 -0.15783083 0.056378312 0.16636099 -0.20907818
-0.13273418 0.11968693 0.197263 -0.007313205 -0.08548253 -0.05648479 -0.11353933 0.055547014
0.17254701 0.21788362 0.072547674 -0.1273113 0.119286366 0.00884019 0.013512562 0.0040684547
0.0146395285 -0.02078341 0.16805072 0.07993727 0.13833739 -0.070726044 0.17906141 0.086329676
-0.09130737 -0.0458667 -0.083734505 -0.11734102 -0.057213746 0.28943086 -0.17443472 -0.095292665
0.021104818 -0.027158536 -0.0105792815 0.03597967 0.10120155 -0.11915576 -0.12636854 0.067503
-0.08783076 -0.111585744 -0.07130275 -0.056428857 0.10046801 0.0087650735 0.15457262 0.05446154
-0.13610631 -0.020321568 0.06315253 0.027198946 0.030214908 0.013648724 0.061478045 -0.13742048
-0.16395278 -0.11891727 -0.15754491 -0.15062872 0.14811544 -0.026108995 -0.095826246 -0.030130126
0.0058332477 0.1610849 0.12790348 0.073385626 -0.06079387 0.07673127 -0.13489296 -0.181545
0.021717459 0.037095647 0.19066587 0.005274202 -0.040273104 0.12851329 0.09277109 0.0005092459
0.050819602 -0.06552899 -0.08348234 0.10528128 -0.11666358 -0.07221053 -0.07282045 0.0025858262
-0.033900328 -0.076370366 0.0777941 -0.12769473 0.020115023 0.093968935 -0.14611481 0.1356215
0.045427192 -0.11304856 -0.13300441 0.06328317 -0.106474176 -0.102919206 -0.07969011 -0.0034110497
-0.05831125 0.06277454 0.059792325 -0.1668246 0.078769095 0.15303348 -0.12328203 0.07420557
-0.039549407 0.15577522 0.021724356 0.12607966 0.06662906 -0.16749613 0.13709654 0.12035224
0.056674086 -0.12821014 -0.16314511 0.059531122 -0.11401181 0.056323335 0.12563823 -0.050027344
00000000: 7e66 2ebe ccd3 dc3a 91e5 c0bc f4bc 853c
00000010: 8e21 223d fe74 6f3c dc62 38be 3853 033e
00000020: 1a5f 313d cef0 2c3d ce4e a5bd 91e2 d83d
00000030: add7 0ebe 6761 a93c 55f5 01be 5a9a bbbd
00000040: 5741 6c3c b089 13be 66e9 53bd 6e8d 24bd
00000050: 140a 0ebe 0f17 cdbc fd6c 07be 8e20 313e
00000060: 785e ffbb a9b3 2cbd 1e37 6cbd f14b 25bc
00000070: a911 8b3b 7637 d13d bdc5 1bbd ace0 b5bd
00000080: 95ce 283e 146a bfbd acf3 463e 27d2 d2bd
00000090: 17f3 d53c e645 84bd 1ac0 203e 2029 a1bd
000000a0: 89cc 2f3e 5f03 253e a477 85bc afb1 323d
000000b0: a420 c9bd d751 0dbe 6fc8 f6bc af1e 963d
000000c0: 11ad 28be a5f5 d9bc fdf3 a43d 333d 42bd
000000d0: b1c8 8c3d dc7a 08bd b883 243e a03c 08be
000000e0: 591c 34bd 06c1 a2bb 1810 04be 035d 8ebd
000000f0: 24fa 5d3d a844 07bd 68d3 063d 6120 7c3d
00000100: fb9d 113c 1923 90bd 666a d13d 2a12 1abe
00000110: 2669 71bd 3892 3e3d f375 05be a82a 043e
00000120: dcee 333e a959 e03d bed5 e6bd dc21 243e
00000130: 654e a4bd dafb 3bbd 7091 983d 6e64 383c
00000140: 6384 bcbc 578e acbd d335 c43c 3036 1f3e
00000150: 33e4 bbbd 8d29 483b 763f abbd ba9a 063e
00000160: 7000 febb 24ac 0c3d 677d 04be 157d 0fbe
00000170: 3f15 39be 8425 35be 0199 163e df44 ffbc
00000180: b971 9e3d f723 b6bd 4bf4 febd d581 7abd
00000190: 594c 523d 292a c9bd 0b75 083e 60e0 413e
000001a0: 3f23 493d 626f 3bbe 410f 24be f7e7 1cbe
000001b0: 82db 5e3d b5d2 bc3d 2019 30bd 0eaf a3bc
000001c0: 3055 f73d d1d4 21be 6210 253e 3571 033e
000001d0: 6748 3bbe 4fc3 1d3b cbc6 5abd 3143 e2bd
000001e0: b1c9 8abd 53b4 2c3e 158e 703d 3951 9fbc
000001f0: 689e 21be f2ec 663d 895a 2a3e 9718 56be
00000200: 78eb 07be 6c1e f53d 50ff 493e 9ca3 efbb
00000210: 7711 afbd 985c 67bd 4f87 e8bd 4485 633d
00000220: 2ab0 303e e21c 5f3e e093 943d e55d 02be
00000230: 694c f43d 72d6 103c cb63 5d3c ac50 853b
00000240: a2da 6f3c f841 aabc 7d15 2c3e 27b6 a33d
00000250: 51a8 0d3e d1d8 90bd e05b 373e 9dcd b03d
00000260: 5cff babd b9de 3bbd ff7c abbd 7d50 f0bd
00000270: f658 6abd 4830 943e 049f 32be cd28 c3bd
00000280: 03e4 ac3c 947b debc b954 2dbc 6b5f 133d
00000290: c242 cf3d ef07 f4bd c166 01be 033f 8a3d
000002a0: 9de0 b3bd 1187 e4bd 2d07 92bd f221 67bd
000002b0: 2cc2 cd3d 629b 0f3c 4948 1e3e 1013 5f3d
000002c0: 745f 0bbe 6b79 a6bc 1d56 813d 53d0 de3c
000002d0: 4185 f73c e69e 5f3c 67d0 7b3d f4b7 0cbe
000002e0: 3de3 27be e68a f3bd 7453 21be 6a3e 1abe
000002f0: 93ab 173e 88e2 d5bc 8d40 c4bd 74d3 f6bc
00000300: d424 bf3b 71f3 243e 21f9 023e 344b 963d
00000310: fe02 79bd 4925 9d3d 6121 0abe efe6 39be
00000320: d0e8 b13c 9bf1 173d ea3d 433e 37d3 ac3b
00000330: 69f5 24bd fd98 033e c5fe bd3d ea7e 053a
00000340: 3728 503d 1034 86bd caf8 aabd b69d d73d
00000350: 51ed eebd 1de3 93bd e322 95bd f776 293b
00000360: 12db 0abd 1168 9cbd 8352 9f3d 68c2 02be
00000370: 43c8 a43c c972 c03d 1f9f 15be 5de0 0a3e
00000380: dd11 3a3d 0186 e7bd 4f32 08be 9b9a 813d
00000390: 220f dabd 4ec7 d2bd 9234 a3bd eb8b 5fbb
000003a0: c7d7 6ebd f08f 803d cce8 743d 11d4 2abe
000003b0: b151 a13d cfb4 1c3e 4a7b fcbd 17f9 973d
000003c0: 8ffe 21bd 8a83 1f3e 47f7 b13c 071b 013e
000003d0: d174 883d 1b84 2bbe 0963 0c3e 3c7b f63d
000003e0: 1623 683d 8549 03be 830f 27be e8d6 733d
000003f0: 067f e9bd 4cb3 663d 4fa7 003e 79e9 4cbd

rgcns.1.h_bias f4 [32]
-0.12958953 -0.031625796 0.10037658 -0.053524055 -0.051874895 -0.06752211 -0.025458748 0.21205212
0.067516506 -0.07885117 0.06779539 -0.22287819 0.066438936 -0.28047916 0.1086426 -0.22535351
0.08529436 -0.035189923 -0.10689707 0.038694713 -0.06809412 0.12410352 0.03578453 0.053035732
-0.07700739 0.08014978 -0.059249718 0.0008479927 0.15817545 0.06866261 0.12371852 0.011138599
00000000: 1eb3 04be 0d8a 01bd 3d92 cd3d 0a3c 5bbd
00000010: c57a 54bd 0849 8abd dd8e d0bc 3124 593e
00000020: 1846 8a3d b97c a1bd 4fd8 8a3d 2e3a 64be
00000030: 2311 883d f79a 8fbe 0380 de3d 12c3 66be
00000040: cfae ae3d 4f23 10bd daec dabd 597e 1e3d
00000050: ee74 8bbd fc29 fe3d cd92 123d ff3b 593d
00000060: 0db6 9dbd 9125 a43d d5af 72bd d44b 5e3a
00000070: bff8 213e fc9e 8c3d 2360 fd3d ac7e 363c

rgcns.1.loop_weight f4 [32, 32]
-0.27580425 0.19034405 0.10914021 0.08614973 -0.03350998 -0.050614625 0.39006454 -0.2959525
-0.31883296 0.33491296 -0.17271319 0.04846181 -0.17201148 0.23176977 0.082379475 -0.1094985
-0.07853951 0.40062875 -0.14194688 -0.3138945 0.3452033 -0.39053667 0.1004776 -0.26824498
-0.32124865 -0.24557997 0.09691804 -0.43281752 -0.4280417 0.10613681 0.15864533 0.38179055
-0.17376931 -0.06498745 0.24251002 0.09732732 0.1839083 0.24957581 0.3466044 0.031341802
-0.41267315 0.28780687 -0.25622618 -0.2707584 0.26584873 -0.34513006 0.37694126 0.22002955
0.46073362 -0.104902595 0.37577355 -0.22811987 0.3983516 -0.11634725 0.43382803 0.24791676
0.15179075 0.07761844 -0.35911927 -0.30298465 0.11911319 0.22627074 -0.08021997 -0.18147017
-0.3961651 -0.050507907 -0.11244861 0.36992085 -0.42412972 -0.35666454 -0.2757222 -0.05297694
0.33007184 -0.12629697 0.23787235 -0.28010193 0.030556304 -0.27100652 -0.069895364 0.24274118
0.40612307 -0.27876106 -0.43361044 -0.0011760751 0.24443431 -0.19670917 -0.44350144 0.24664079
0.045257006 0.22618979 0.29229107 -0.37464347 -0.32113943 -0.33306482 0.12961502 0.07389471
-0.0756593 -0.37913856 0.2808044 -0.25473455 0.369121 -0.03597873 -0.028276823 0.0032392463
0.2405676 0.29856485 -0.41611102 -0.13520415 -0.31834507 0.37393552 0.011193546 0.23012125
-0.40763626 0.13572527 -0.40080327 0.0033034377 0.0112707885 -0.066063106 -0.20353909 0.40857935
0.058344893 -0.006222812 -0.04034899 0.09905304 -0.08421774 -0.101675026 0.2935926 -0.3273727
-0.3030599 0.10905523 -0.25755888 0.38190177 -0.31637752 -0.096717894 -0.35319525 0.007719227
0.028104387 0.23179084 0.2569074 -0.2904162 -0.069435805 -0.12084629 0.14979093 -0.006407665
0.3732764 -0.2843263 0.061236277 -0.054397803 -0.1504954 -0.32209066 0.23931707 0.36026546
-0.05444763 -0.19326799 -0.23516266 -0.19339587 0.44729784 0.30987534 -0.29313248 0.24635877
-0.11195617 0.3132887 0.10726286 0.35085666 -0.35516986 -0.3206972 -0.018136153 -0.27240646
0.18188602 -0.12705024 0.19378084 -0.07243909 0.18219587 -0.2740028 -0.16483998 0.35310376
0.05506883 -0.32748523 -0.45436293 -0.4196834 0.39419004 0.28362823 -0.37418854 -0.34401166
-0.25152472 0.12317384 0.2455555 0.20354892 -0.3397139 0.2393279 -0.3151251 -0.17982349
0.37175864 0.3628622 0.3472996 0.32404235 0.22332413 0.35453862 0.14517562 0.08583196
0.19547676 -0.15552434 0.09634723 -0.30993113 -0.4180014 -0.27995846 -0.0954006 -0.2882085
0.32645264 0.3128002 -0.11289194 -0.06991731 -0.016263822 -0.15370156 0.29255876 0.053265143
-0.047246475 -0.19998537 0.21792188 -0.11164811 -0.040773503 0.16502401 -0.1856871 0.019473303
0.42790502 -0.046099585 -0.13429788 -0.2546555 0.40189502 -0.19171001 -0.120450065 0.08263698
-0.39472947 0.40354207 0.21221901 -0.07982365 0.114125885 -0.23851158 -0.41015366 -0.312213
-0.1421601 0.16086501 0.009256072 0.2482378 -0.30238155 -0.15297279 -0.08778695 -0.34912556
0.2792567 0.031706832 -0.12597625 -0.42415577 0.3919844 0.011211664 -0.017559534 0.3588729
00000000: 3736 8dbe 8de9 423e e784 df3d 456f b03d
00000010: c341 09bd 4851 4fbd 8ab6 c73e 1687 97be
00000020: 133e a3be b679 ab3e badb 30be e47f 463d
00000030: c723 30be 0e55 6d3e 92b6 a83d c040 e0bd
00000040: 53d9 a0bd 361f cd3e 865a 11be c8b6 a0be
00000050: 7dbe b03e 6cf4 c7be 33c7 cd3d 6857 89be
00000060: b47a a4be 5179 7bbe f77c c63d 429a ddbe
00000070: 4828 dbbe 415e d93d ec73 223e 0d7a c33e
00000080: 95f0 31be 2418 85bd 8c54 783e 8c53 c73d
00000090: 7552 3c3e cd90 7f3e 2276 b13e 4360 003d
000000a0: e549 d3be 6c5b 933e 1430 83be d8a0 8abe
000000b0: 531d 883e e3b4 b0be 72fe c03e 6d4f 613e
000000c0: 47e5 eb3e 2cd7 d6bd 6465 c03e 4198 69be
000000d0: bef4 cb3e 7847 eebd b51e de3e e4dd 7d3e
000000e0: 096f 1b3e 6bf6 9e3d 7bde b7be ce20 9bbe
000000f0: 9ef1 f33d 84b3 673e 5e4a a4bd 51d3 39be
00000100: 27d6 cabe 61e1 4ebd 754b e6bd 4466 bd3e
00000110: 8827 d9be bc9c b6be 762b 8dbe 59fe 58bd
00000120: 2dff a83e fe53 01be cf94 733e 8569 8fbe
00000130: 3751 fa3c 5ec1 8abe 4d25 8fbd 2591 783e
00000140: 5def cf3e c5b9 8ebe 3002 debe 8826 9aba
00000150: fd4c 7a3e 216e 49be 9f12 e3be 678f 7c3e
00000160: 695f 393d 4c9e 673e 2da7 953e 45d1 bfbe
00000170: 636c a4be 7987 aabe cdb9 043e 1c56 973d
00000180: 43f3 9abd 731e c2be 98c5 8f3e 916c 82be
00000190: 6dfd bc3e 6f5e 13bd cca4 e7bc 8949 543b
000001a0: 5a57 763e 7edd 983e 810c d5be f572 0abe
000001b0: 20fe a2be 7a74 bf3e 2265 373c e8a4 6b3e
000001c0: b3b5 d0be 91fb 0a3e 1636 cdbe 7d7e 583b
000001d0: 1da9 383c 184c 87bd 8d6c 50be 5031 d13e
000001e0: 0efb 6e3d bbe8 cbbb fc44 25bd 52dc ca3d
000001f0: 5a7a acbd ff3a d0bd c551 963e 659d a7be
00000200: ab2a 9bbe 5958 df3d c2de 83be a188 c33e
00000210: 3cfc a1be 0814 c6bd 02d6 b4be 92f1 fc3b
00000220: 2c3b e63c 945a 6d3e 5e89 833e 6fb1 94be
00000230: 5c34 8ebd 427e f7bd cb62 193e 64f7 d1bb
00000240: 161e bf3e 3793 91be e4d2 7a3d 3bd0 5ebd
00000250: 771b 1abe 11e9 a4be 890f 753e b774 b83e
00000260: 7a04 5fbd 0be8 45be 7bce 70be 9109 46be
00000270: 3904 e53e fba7 9e3e 7615 96be 7945 7c3e
00000280: 4749 e5bd 6067 a03e a1ac db3d 7ca3 b33e
00000290: d3d8 b5be 6c32 a4be 4592 94bc dc78 8bbe
000002a0: 5440 3a3e 7519 02be 7c6e 463e f25a 94bd
000002b0: 8e91 3a3e 184a 8cbe d0cb 28be 04ca b43e
000002c0: da8f 613d 25ac a7be 42a2 e8be bee0 d6be
000002d0: 47d3 c93e b837 913e a495 bfbe 4c22 b0be
000002e0: d9c7 80be 9142 fc3d e772 7b3e 216f 503e
000002f0: fbee adbe 5f12 753e 1458 a1be a623 38be
00000300: 2657 be3e 13c9 b93e 41d1 b13e e1e8 a53e
00000310: 15af 643e 1686 b53e eba8 143e abc8 af3d
00000320: 0f2b 483e c641 1fbe b251 c53d 4baf 9ebe
00000330: 4804 d6be b756 8fbe 6461 c3bd 1190 93be
00000340: cd24 a73e 5927 a03e e433 e7bd ce30 8fbd
00000350: b53b 85bc f163 1dbe 43ca 953e 8d2c 5a3d
00000360: 8585 41bd f7c8 4cbe ea26 5f3e c4a7 e4bd
00000370: 1e02 27bd 0efc 283e c224 3ebe 7a86 9f3c
00000380: 5e16 db3e ebd2 3cbd 6285 09be 3562 82be
00000390: 2fc5 cd3e a14f 44be 86ae f6bd 943d a93d
000003a0: fb19 cabe 119d ce3e f14f 593e 957a a3bd
000003b0: d5ba e93d 613c 74be a9ff d1be 62da 9fbe
000003c0: 6b92 11be ccb9 243e c8a6 173c 0d32 7e3e
000003d0: c1d1 9abe e6a4 1cbe a5c9 b3bd 96c0 b2be
000003e0: bcfa 8e3e 06df 013d ebff 00be f22a d9be
000003f0: 2eb2 c83e 21b1 373c 03d9 8fbc 30be b73e
