parameters/cgmc_games_edge_0.2438.pt (torch, 270182 bytes, 20 tensors)

conv0.bias f4 [16]
000000 18 89 93 be f9 50 22 be 4f e3 98 be 7f 20 99 be
       -0.28815532 -0.15851201 -0.29860923 -0.29907605
000010 5a 89 93 be d8 50 22 be e6 e3 98 be 38 21 99 be
       -0.28815728 -0.15851152 -0.29861373 -0.29908156
000020 d6 89 93 be 48 50 22 be cd e4 98 be 0a 22 99 be
       -0.28816098 -0.15850937 -0.2986206 -0.29908782
000030 81 89 93 be b0 50 22 be 21 e4 98 be 49 21 99 be
       -0.28815845 -0.15851092 -0.2986155 -0.29908207

conv0.fc_node.weight f4 [128, 4]
000000 be f4 fa 3c 2d 5c 52 3d 4f de 34 3c 40 6a f1 bc
       0.03063428 0.051357437 0.011039331 -0.02946961
000010 03 2a 44 bd 82 7c a8 bd 4a 91 17 3d 67 96 1e 3e
       -0.047891628 -0.08226873 0.037003793 0.15487061
000020 b4 1a 3b 3d 69 2e 11 3e 2e 92 d6 3c 4d b1 2f be
       0.045679763 0.1417786 0.02619275 -0.17157479
000030 43 2f 09 3d 81 3b 19 bd e8 1a 81 be 6f 79 72 be
       0.033492338 -0.037410263 -0.2521584 -0.23679136
000040 29 ae 7c bd 58 80 80 3e 71 50 3a 3d 5f c5 c2 bc
       -0.06168953 0.2509792 0.04548687 -0.023775754
000050 f3 86 23 3d 8e bb 7b 3d 15 8a d2 3d c7 e7 60 3e
       0.03992362 0.061458163 0.10280243 0.21963416
000060 a1 3a 23 bd ba 68 5d 3d bb ee 38 be 23 04 94 bc
       -0.039850835 0.054054953 -0.18059818 -0.018068379
000070 52 2e a5 bd 0c b9 ad 3d a6 c0 f7 bd a7 41 ab 3d
       -0.080654755 0.084825605 -0.12097292 0.083621316
000080 4f d7 cb bd 92 bf 3a be d5 e7 26 bc 2a 5e a7 3d
       -0.09953176 -0.18237141 -0.010187109 0.08172257
000090 fb cb 73 be b8 8b 22 be 07 f4 20 3e 5b e4 bf 3d
       -0.23808281 -0.15873611 0.15718089 0.09369727
0000a0 f4 73 1d 3d 67 66 51 3e 14 14 4c 3c f4 f7 2c be
       0.03844066 0.2044922 0.012455959 -0.16891462
0000b0 3d d4 92 3d 01 27 b4 3d 6e 45 b2 3b db 43 48 3d
       0.071693875 0.08796502 0.0054404056 0.048892837
0000c0 cf b1 59 3e 2f d4 45 3c e9 bf da bd 95 a0 0e 3c
       0.21259235 0.012074514 -0.10681135 0.008705278
0000d0 3b d8 4b be d7 51 fe 3d 50 87 c8 3c 5a 46 74 bc
       -0.19906704 0.124179535 0.024478585 -0.014909351
0000e0 82 89 18 be b6 d0 c2 bc 26 d5 53 be f7 0e b3 bd
       -0.14896205 -0.023781162 -0.20686778 -0.08743089
0000f0 17 bb 4d 3e 1b 26 2c 3e 31 eb 92 bd f1 b8 84 be
       0.200909 0.16811411 -0.071737655 -0.2592235
000100 3a e1 35 be 85 bf 3b bd 09 1d f5 bd ec a2 eb 3d
       -0.17761698 -0.045836944 -0.11968429 0.11505684
000110 ee cb fc bb 87 d0 04 3d 80 c0 60 bd 89 7a 98 3d
       -0.00771474 0.03242543 -0.054871082 0.07445247
000120 6e 92 c4 3d 82 e0 14 be f9 31 48 3e 23 2a 1f 3d
       0.09598242 -0.14538768 0.19550313 0.038858544
000130 ca c9 a8 3d 48 dd 30 3e 36 83 d1 3b 91 4f 95 bd
       0.08241613 0.17271912 0.0063938154 -0.07290567
000140 6c 20 27 bd 4c 37 07 3e 0a 3f ed bd 13 89 2b 3e
       -0.040802404 0.13204688 -0.11584289 0.16751508
000150 b1 9b d1 3d 3d d4 d2 bc d7 39 16 be 51 c0 b7 bd
       0.10234774 -0.025735969 -0.14670502 -0.08972228
000160 0e e1 0e 3e 9d d9 a6 3e a1 b7 5f 3e d6 94 ea bc
       0.13953039 0.325879 0.21847393 -0.028635424
000170 23 e0 58 3e 59 38 a3 3d 81 e0 b5 bd 64 50 10 3e
       0.21179251 0.07969732 -0.08880711 0.14093167
000180 a3 b5 88 3e bb 07 84 3b f3 30 a3 3e fb 40 24 3e
       0.26701078 0.004029242 0.31873283 0.16040413
000190 17 2b 10 be c9 7e 6a bd 40 d2 02 3d 49 68 79 3d
       -0.14078937 -0.057249818 0.03193879 0.06089047
0001a0 1d f4 24 bd c8 b6 97 bd c7 19 48 3e ae a7 59 be
       -0.040271867 -0.0740791 0.19541083 -0.21255371
0001b0 e4 17 01 3e 58 47 2b 3e fb 73 ba be 56 f7 8a 3e
       0.1260677 0.16726434 -0.3641661 0.27141827
0001c0 9a a0 24 be dd 49 fb bd b4 de 28 3d 86 f3 ef 3c
       -0.1607689 -0.12269948 0.04122801 0.029290926
0001d0 9a 10 3a 3c e4 e2 f7 3d bb 90 14 be 79 78 cf 3d
       0.011356497 0.12103823 -0.14508335 0.101304
0001e0 f9 7f e2 bd 6c 96 21 be 35 6e 83 3d 1f 38 89 3e
       -0.11059565 -0.15780038 0.06417505 0.2680063
0001f0 37 85 d4 bd 80 8f 96 be 84 37 88 bd 2f 92 e5 bd
       -0.10376971 -0.29406357 -0.06651214 -0.11209523
000200 76 4d 48 be be 5f e8 3d 53 9b 10 bd 38 e5 53 bd
       -0.19560799 0.113463864 -0.03530438 -0.051732272
000210 72 a3 5a 3d 64 27 3e bd 43 10 9a bd ad d0 ad 3d
       0.05337853 -0.046424285 -0.07522633 0.08487067
000220 d6 7d 01 bd 3b a3 9c bd 2c 79 e7 bd 76 35 df bc
       -0.031614147 -0.07648321 -0.113024086 -0.027247172
000230 34 ed 7d 3d e0 47 61 bc 61 5f 90 3d 3a a9 ad bd
       0.061993793 -0.0137500465 0.07049442 -0.08479543
000240 96 15 0e be 16 ed 2b 3e 71 2c 03 3e 1b c7 76 be
       -0.13875422 0.1678966 0.12809922 -0.2409939
000250 6b 81 19 bc e0 86 19 3e 5d fa e6 bc 45 a0 da 3d
       -0.009369235 0.14992857 -0.028195554 0.106751
000260 fe 87 0f bc 21 e9 03 bd 00 a5 ea 3d f3 dd d8 3c
       -0.00876045 -0.03220475 0.114572525 0.026473021
000270 b5 ee 3b 3e 9d 96 76 3e 95 04 7c bd d8 65 8c bd
       0.18352778 0.24080892 -0.061527807 -0.06855363
000280 4b 00 0b bd 51 10 4f 3d 58 4a 98 3e a3 00 81 3e
       -0.033935826 0.05055267 0.2974422 0.25195798
000290 15 d0 8b bb 48 ca bb bd de bd 5b bc ee 2e 27 3e
       -0.0042667487 -0.091694415 -0.013411967 0.16326496
0002a0 a1 0e 73 3d d5 29 bc bb e5 df 8f 3d 10 29 ad bd
       0.059340123 -0.0057422915 0.07025126 -0.08455098
0002b0 1e 65 86 3e 86 eb 98 3e 79 c5 fe 3c 37 f3 04 bc
       0.2624902 0.2986719 0.031100022 -0.008114628
0002c0 7c 2e 74 3e fe ce d7 3d 8b 08 aa 3e b6 cf 36 3e
       0.23845857 0.105375275 0.33209643 0.17852673
0002d0 19 47 48 be 1b d4 14 3e ab 69 29 3d fb 0d a8 3c
       -0.19558372 0.14534037 0.04136054 0.020514479
0002e0 25 51 46 3b 11 55 08 3e 45 b0 dc 3d 9e ce 7a bc
       0.0030260768 0.133137 0.10775808 -0.01530805
0002f0 07 1f 06 bd 1e 8a 95 3c 51 a4 04 bb 0b a6 ac bd
       -0.032744434 0.018254336 -0.0020239542 -0.08430108
000300 04 b5 01 be 68 c4 91 3d df 8d 2b be 49 fa 44 be
       -0.12666708 0.0711754 -0.16753338 -0.19236101
000310 a3 5a f4 bd 80 aa bb 3d e0 20 32 be 90 06 b0 3d
       -0.1193135 0.0916338 -0.17395353 0.08595002
000320 72 2e 0d 3e 18 83 26 be 85 af 34 be 85 6f 5c 3e
       0.13787249 -0.16260946 -0.1764508 0.21526916
000330 e6 cc b0 3c 39 65 90 3d f7 1d d9 bd e5 31 ac 3d
       0.021582078 0.07050557 -0.106014185 0.08407954
000340 b7 4f 97 3c dc ef 8a bd 28 d7 2a 3e c5 de d0 3c
       0.018470628 -0.06784031 0.16683638 0.02549685
000350 1d 02 4b be c7 a4 27 be fe 81 15 bd 01 20 04 be
       -0.19825025 -0.16371451 -0.036500923 -0.12902834
000360 fc 6e c6 bd d8 64 82 be e7 b6 4b bd 16 7d ff 3d
       -0.09689137 -0.25467563 -0.049734976 0.1247503
000370 e5 a5 c7 bc f3 93 17 be d0 4b 0a bd 98 f8 f6 3e
       -0.024371097 -0.14802532 -0.033763707 0.48236537
000380 51 7e 7c bd db f0 29 ba 64 ef f8 bb 00 e2 05 3d
       -0.061643902 -0.00064827286 -0.007596897 0.032686234
000390 e7 89 aa 3d ca 4a d5 bd ad 22 3d 3b 6d 28 b5 3c
       0.08327084 -0.104146555 0.002885978 0.022114003
0003a0 16 c0 54 be 8a 14 9a bd c4 f4 87 3d 4b 49 46 be
       -0.207764 -0.07523449 0.06638482 -0.19363897
0003b0 dd 98 93 3d 59 0e 07 3d 37 0f 54 bd 46 77 64 be
       0.07206891 0.032972667 -0.051772323 -0.22311124
0003c0 27 d6 e6 3d 97 15 27 be a6 0b a4 3d 14 6c 30 3c
       0.11271315 -0.1631683 0.08010034 0.010767955
0003d0 75 00 65 be 82 11 46 bd 05 37 0b 3e 54 63 09 3c
       -0.22363456 -0.04835654 0.13595207 0.008385498
0003e0 6c 48 d2 3d 4c 26 e0 bd 4b 2f 30 be 21 73 8f bd
       0.102677196 -0.109448045 -0.17205541 -0.07004381
0003f0 30 2e 8a 3d 9f 3a be 3d fb 6a 12 3d d5 5b bc bd
       0.06747091 0.09288525 0.035746556 -0.09197203

conv0.fc_node.bias f4 [128]
000000 55 c3 23 be 97 f1 1a 3d f5 0e ee 3e 9b 7b 93 be
       -0.15992482 0.037828054 0.46495786 -0.2880524
000010 1b 21 f3 3e 48 3d 05 3f b1 d2 47 bd 37 80 d1 be
       0.47486195 0.5204663 -0.048784915 -0.40918133
000020 d0 c4 eb 3e be 62 c7 3e 46 60 b1 be 24 23 9a be
       0.46048594 0.38942522 -0.34643763 -0.30104935
000030 83 ee 04 be b8 c7 78 be 5c 49 a9 bc f8 53 3d 3e
       -0.1298161 -0.24294937 -0.020664863 0.18489063
000040 46 ec 99 3e 24 f1 5b 3e 3d f0 d1 3e 67 cc 6a 3e
       0.30063075 0.21478707 0.410036 0.22929536
000050 03 a3 0a be 34 f0 fe be 75 4b a0 3e a7 b1 4d be
       -0.13538747 -0.49792635 0.3130757 -0.200873
000060 38 ce b8 3e b2 40 ec 3e 19 89 37 3e 53 b1 cc 3e
       0.36094832 0.4614311 0.17923392 0.39979038
000070 e6 49 86 bc e9 c1 3b 3e 73 ec c6 3e b4 2d e0 3c
       -0.01639266 0.1833569 0.3885227 0.027365543
000080 7f 0d be be 96 75 da 3e f5 f7 7e be 24 f1 cc be
       -0.37119672 0.42667836 -0.24899276 -0.40027726
000090 ee fa c5 be ae ad dc be 49 e7 62 bb 43 56 92 be
       -0.38668007 -0.43101257 -0.003462272 -0.28581437
0000a0 eb 7b c0 3e 53 29 ca 3e 28 61 90 bd 3e 5e ca be
       0.37594542 0.39484653 -0.07049781 -0.39525026
0000b0 f5 86 a0 bc 46 ee 8e 3c f0 70 54 3d 06 f7 33 be
       -0.019595603 0.017447602 0.051865518 -0.175747
0000c0 a4 93 30 3e e1 e2 0f be 9f 6a b9 be 88 90 7e 3e
       0.1724382 -0.14051391 -0.36214158 0.24859822
0000d0 e3 43 94 be 07 d7 9e 3e e5 d8 03 be 9f b8 e4 3e
       -0.28958043 0.31023428 -0.12875707 0.44672105
0000e0 66 6d e8 be 64 5b 47 be 25 75 c0 3e fd 5b 72 3e
       -0.45395964 -0.19468457 0.37589374 0.23667903
0000f0 0d 16 0d 3e 05 bf 9f 3e d9 b7 e7 3e 69 0d 92 3e
       0.13777943 0.31200424 0.45257452 0.28525856
000100 f9 cb cd 3e d7 6a 15 be 57 73 00 be ff 44 96 bd
       0.4019468 -0.14591537 -0.12543999 -0.07337379
000110 d3 a5 7e 3c b2 c8 ad be 7d 86 be 3c fe 7e 0a 3f
       0.015542465 -0.3394218 0.023257488 0.54100025
000120 01 22 c8 be 53 88 fb be 57 e7 cb 3d 41 a9 b6 3e
       -0.39088443 -0.49127445 0.09956234 0.35676005
000130 fb 6e 05 3e 61 cc 50 3e e6 e7 e7 bd fd 4c 02 bd
       0.13030617 0.20390464 -0.11323528 -0.031811703
000140 d1 39 4f 3e 77 87 37 3e cc 99 b0 be 80 28 e1 be
       0.20236899 0.1792277 -0.34492338 -0.43976212
000150 68 54 b8 bd ca eb bc 3e 99 ca a9 be 74 4d a1 be
       -0.09000474 0.36898643 -0.33162382 -0.31504405
000160 06 81 d7 be 43 21 33 3d 52 20 48 be fd 53 a8 be
       -0.42090625 0.043732893 -0.19543579 -0.32876578
000170 c3 61 c7 bd e5 d9 a4 3e 03 71 58 be 76 58 a2 3e
       -0.097354434 0.3219749 -0.2113686 0.31708115
000180 ba db e8 3d d3 a5 99 be cd d0 6a bd 98 a4 ad be
       0.113700345 -0.30009326 -0.057328034 -0.33914638
000190 c4 5c 55 be 2f c3 b0 bc 35 fc ad 3d e4 96 43 be
       -0.20836169 -0.021577446 0.0849537 -0.19100529
0001a0 09 93 01 bf 23 1e 55 be d4 cb 35 3e 39 5b c5 be
       -0.5061498 -0.20812277 0.17753536 -0.3854616
0001b0 1f 2b b6 be a5 e7 b0 be d0 e7 15 3b 8a 91 81 3e
       -0.35579774 -0.3455173 0.0022873767 0.2530635
0001c0 b4 c3 cd 3e ef 77 62 3e 5b e6 30 3e 77 5b 44 3e
       0.40188372 0.22116064 0.17275374 0.19175516
0001d0 37 2a de 3e e7 e2 7a 3d d6 fd 4d be d9 b3 e2 3c
       0.43391582 0.061251547 -0.20116362 0.027673649
0001e0 85 ec 98 3e 8b 3b a4 be 9a 2b b7 3e 43 fc e3 be
       0.2986795 -0.32076678 0.35775453 -0.44528398
0001f0 ba a8 dc 3d c4 0f bf be 65 f5 e0 be f0 4d 35 3d
       0.107743695 -0.37316716 -0.4393722 0.04426378

conv0.fc_fij.weight f4 [16, 34]
000000 52 88 35 3f 9a 95 06 3f 07 7c 7d be 92 70 1e be
       0.70911133 0.52572024 -0.24754344 -0.1547263
000010 1b 0b 5d be 49 c9 4a bc 91 02 c7 3e ee 71 7e be
       -0.21586268 -0.012377092 0.38869146 -0.24848148
000020 2f ac 1b be dc 10 c1 be 44 af 20 bc bf e3 14 be
       -0.15202402 -0.37708175 -0.009807412 -0.14540003
000030 84 aa 7d bd aa 8c 1b 3c f5 43 c4 be 35 ff cb 3e
       -0.061930194 0.009493986 -0.38333097 0.39843145
000040 62 23 17 3f 96 fe 3d be 87 1d 11 bf ec d2 bb 3d
       0.59038365 -0.18554148 -0.5668568 0.091710895
000050 d2 37 3e be 13 4d c9 3e 56 43 ac 3e b9 c5 4d bd
       -0.18575981 0.39316615 0.33645123 -0.05023739
000060 ac c2 83 bd 63 8e 2d be 00 34 e5 bc 78 dc f9 be
       -0.06433615 -0.16948847 -0.027978897 -0.48801017
000070 7d 78 0b be d4 56 70 bd 9b 3f 14 be 0d 31 99 be
       -0.13620181 -0.058676556 -0.14477389 -0.29920235
000080 7a 12 61 be aa b5 41 be d0 ac 24 bf ce bf 0b bf
       -0.21979704 -0.18916956 -0.6432619 -0.54589546
000090 ae 3d 50 be 01 3d 71 bc 63 0d d4 3e 54 c7 46 3e
       -0.20336029 -0.014724017 0.41416463 0.19411975
0000a0 de 91 3f be e3 22 18 be a0 34 25 3e 15 80 ae be
       -0.18707988 -0.14857058 0.16133356 -0.34082094
0000b0 1b 0d f9 3d 0d b5 2f be 6f f3 8c 3d f5 28 3d 3d
       0.12160703 -0.17158909 0.06882369 0.046181638
0000c0 cb 61 c9 3d 73 69 cf bd 48 b7 ac be 38 eb 1e be
       0.09833106 -0.10127535 -0.33733582 -0.15519416
0000d0 29 1c 92 be c7 c2 61 be 64 f5 54 be b5 16 60 be
       -0.2853711 -0.22046958 -0.20796734 -0.21883662
0000e0 21 f5 cc be da 42 19 3e 1c 8c f3 3c 6a ae 05 be
       -0.4003077 0.14966908 0.029729895 -0.13054815
0000f0 00 80 11 bf 5f 2f fa 3a 8e 57 b7 3c 99 00 f3 3e
       -0.5683594 0.0019087604 0.022380617 0.47461393
000100 db 9b be bc 40 fe d6 bd 2b 6e f1 be 7c 27 8d be
       -0.023267677 -0.10497713 -0.47154364 -0.27569187
000110 de a7 ec ba 2c 2b b6 be 11 a1 ca bd ba 39 ef 3e
       -0.0018055399 -0.35579813 -0.09894002 0.4672373
000120 82 9e 27 3d dd db 9f 3d 64 44 2b bf e5 ad f8 be
       0.04092265 0.078056075 -0.6690123 -0.4857017
000130 66 85 a8 3d cc 74 3c bf 86 80 01 3d 69 25 b7 be
       0.08228569 -0.7361572 0.03161671 -0.3577073
000140 7f c8 fd 3e 0a 85 16 bf 5c b4 a5 3e 32 b2 43 bd
       0.4956703 -0.5879675 0.32364166 -0.047777362
000150 6e 74 6f bb 56 26 d5 bd 87 77 9b ba a6 ad 80 3e
       -0.0036537903 -0.104077026 -0.0011861183 0.25132483
000160 59 16 da be bc 92 56 3f c7 b5 ab bd 90 40 ba be
       -0.42595175 0.8381765 -0.08384281 -0.36377382
000170 fb e1 2b bd b5 2f 32 3d 69 65 de 3d 2c 3d 5b 3e
       -0.04196356 0.04350253 0.10859186 0.21410054
000180 8e bf 8b 3a e1 e2 22 3e f4 57 c8 be ca 24 fe bd
       0.0010661946 0.1590686 -0.39129603 -0.12409361
000190 e4 86 fb be ff 28 ab be 0b ae d5 3e 7b 4e 6d 3d
       -0.4912635 -0.33429715 0.41734347 0.057936173
0001a0 98 5b 50 3f 91 75 29 bf 40 02 bd be 96 c7 95 be
       0.8138976 -0.6619502 -0.3691578 -0.29253834
0001b0 d9 cf 52 3e 0b 57 7e be d2 05 2f bd 4c e2 d2 be
       0.205871 -0.24837892 -0.04273016 -0.41188276
0001c0 ab 01 60 bd f2 d9 7e 3e 83 7c dc 3d e4 d6 34 bf
       -0.05468909 0.24887827 0.10765936 -0.706404
0001d0 18 ff ef 3d 67 bf 95 3e b1 1d c1 be c0 26 82 bd
       0.11718577 0.2924759 -0.37717965 -0.06355047
0001e0 55 49 07 3f ae 02 01 3e 2f b1 2f 3e 53 55 0f be
       0.5284627 0.12598678 0.17157434 -0.13997392
0001f0 0a ec a6 3e 77 d4 81 3e 9b 13 2e be 51 09 5b 3e
       0.3260196 0.2535741 -0.16999666 0.21390273
000200 2d 08 a1 3e cc 6c 0f 3f 11 c6 9d be e2 ec fc 3e
       0.3145155 0.56025386 -0.30815175 0.49399477
000210 7e 0d 9a 3e e0 97 32 bf a2 7e 0c bd a0 38 78 be
       0.3008842 -0.6976299 -0.034300454 -0.2424035
000220 6d b1 4b 3f 9e b8 e1 bb 4f c7 c0 3e ca 82 c3 3e
       0.79567605 -0.006888463 0.3765206 0.38185722
000230 a1 34 1f bf e8 31 cd 3d 50 91 43 3f 15 00 0e be
       -0.6218968 0.100192845 0.76393604 -0.13867219
000240 80 99 64 3c 31 15 9a bd f9 46 23 be 58 d0 45 be
       0.013952613 -0.07523573 -0.15945043 -0.19317758
000250 a9 7a b1 bd 1c 87 9d be cf b5 26 be 50 d8 80 be
       -0.08665974 -0.30767143 -0.16280292 -0.25165033
000260 8c 53 35 3e d5 34 db bc f7 8a 3a be 87 05 af be
       0.17707652 -0.02675859 -0.18217073 -0.34183905
000270 2a 21 b7 bd 85 13 44 be cb ad 1a 3e f8 93 41 3e
       -0.089418724 -0.19148071 0.1510536 0.18904102
000280 cd 70 df 3e 1f f3 32 3f 57 15 26 3e 3f e6 90 3d
       0.43640748 0.69902223 0.16219078 0.07075166
000290 e5 9c 6a 3e ab 0a 0c be 0f ff ad 3e 05 71 fb 3d
       0.22911413 -0.13675945 0.33983657 0.12277416
0002a0 30 5a 0f bf 46 d0 84 3d a8 09 78 bd ad 48 cf 3d
       -0.5599699 0.064850375 -0.060556084 0.10121284
0002b0 51 fe 63 39 98 d5 9a be 80 02 f2 bc 9b 8d de be
       0.00021743147 -0.30241084 -0.029542208 -0.4346741
0002c0 f5 d1 fe bd b2 5a c5 3e cc 63 a1 be 63 bb ce 3e
       -0.1244239 0.38545758 -0.3152145 0.4037734
0002d0 69 e4 14 3f 41 2a e9 3e 4d b6 78 be 75 fb ef 3e
       0.58161026 0.4554005 -0.24288292 0.46871534
0002e0 a0 5e a8 3d 1e 9b 81 3d 52 d8 0a 3d c7 80 09 be
       0.08221173 0.063284144 0.033897705 -0.13428031
0002f0 9e ca 4b 3e a7 5c 9b be 29 25 9f bb 56 49 92 be
       0.19901511 -0.30344126 -0.0048567248 -0.28571576
000300 53 c1 00 3f f0 6c fa 3d 89 9f 5d 3e 3c 58 a0 3e
       0.5029499 0.122278094 0.21642889 0.31317317
000310 42 b0 4b 3e 53 b8 0b 3e e9 ab 7f 3d b7 4e ac bd
       0.19891456 0.13644533 0.062419806 -0.08413451
000320 a8 04 9a bd 59 e1 b8 bd c6 b8 ba be 85 fe cf 3e
       -0.07520419 -0.09027357 -0.36469096 0.4062387
000330 65 c1 87 3f c3 ec 90 3c 32 ec c3 3e b9 c4 f0 be
       1.0605894 0.017691022 0.3826614 -0.47025087
000340 74 99 dd bd 14 a8 3c 3e 2f 80 08 3e fd c7 05 3d
       -0.108202845 0.18423492 0.13330148 0.032661427
000350 45 15 1e be 95 dc 2e be a7 50 bb 3e b7 33 39 3e
       -0.15437801 -0.17076333 0.3658497 0.18086134
000360 f7 8d 85 3c e5 0e 86 bd 4b ef 51 3e 43 4e 8e bd
       0.016303046 -0.0654581 0.2050144 -0.06948521
000370 c0 ba 03 3f ee 00 46 3e 0f 9a 5d 3e 32 a4 14 bf
       0.5145683 0.19336292 0.216408 -0.5806304
000380 bb 87 a9 3e 29 1d ec be 4d d0 24 3e a3 40 b6 3c
       0.33111367 -0.46115997 0.16095085 0.022247618
000390 c7 7b 08 3f 1f b3 12 3e b2 a7 94 3d 58 2b 87 3e
       0.5331387 0.14326142 0.07258548 0.26400256
0003a0 d5 a9 dd be 97 70 83 3d 03 4f 41 3d b4 1e f7 3d
       -0.43293634 0.06417959 0.047194492 0.12066403
0003b0 01 6c 1f 3f 52 ea ba 3e 4f e1 c1 be 73 f6 0b 3f
       0.62274176 0.36506897 -0.3786721 0.54672927
0003c0 15 04 82 3e c0 9c a5 be 87 c2 14 bf bf e1 f4 3b
       0.2539374 -0.32346153 -0.58109325 0.0074732
0003d0 3e 16 ab 3d c6 80 1a be fb b6 5e be 98 a6 14 3e
       0.08353852 -0.15088186 -0.21749489 0.14516675
0003e0 1d 17 ad 3e c2 f7 9a 3d ad cb 71 3d 99 52 93 bc
       0.33806697 0.07566787 0.05903213 -0.017983722
0003f0 95 33 bb bd 44 40 1b bd e5 6f bd be bf d6 b6 3e
       -0.09140698 -0.037903085 -0.3699943 0.35710713

conv0.fc_ni.weight f4 [16, 4]
000000 a5 24 01 be ac dc 6d bf 0a 39 4c be 7a 25 a8 3e
       -0.12611635 -0.92914844 -0.19943634 0.32841092
000010 06 bf b1 3e bc 1e 29 bf aa e2 18 bf 78 aa 5f 3f
       0.34716052 -0.6606252 -0.5972086 0.8736949
000020 f8 61 0e bf e2 2d aa 3e ff 01 bd be 53 75 66 3e
       -0.5561824 0.3323813 -0.36915585 0.22505693
000030 81 a3 d8 be 7b ff ad 3e c5 42 3e 3d 80 7c c4 3e
       -0.42312244 0.3398398 0.046450395 0.38376236
000040 16 ea d1 3e d9 e5 98 3c 54 8c b9 be bc 98 fe 3e
       0.40998906 0.018664287 -0.36239874 0.49725902
000050 48 2b 34 bf 2f 93 a8 3e 01 c6 5d 3e 61 97 70 bf
       -0.7037854 0.32924792 0.21657564 -0.93980986
000060 dc ed 73 3f 75 7e b3 3e 77 7d 1b 3e a8 4a cc bd
       0.9528482 0.35057417 0.1518458 -0.09975177
000070 84 a8 3e 3e 33 dd 6d 3e f5 36 e5 bd e5 08 88 3d
       0.18618971 0.23228912 -0.11192123 0.066423215
000080 86 ed 4b 3d 71 57 ee bc c0 8e 0b bf 17 d8 32 3f
       0.049787067 -0.02909443 -0.54514694 0.69860977
000090 51 78 7c bd ca 87 7a bf 8a 51 3f 3f f0 35 0b 3d
       -0.06163818 -0.9786345 0.74733794 0.033986986
0000a0 68 1f b9 3e 98 c2 fd be 70 0f 8a be 10 9b 17 3f
       0.36156774 -0.49562526 -0.26964903 0.5922098
0000b0 63 94 16 3e a1 60 cc 3d 3a 13 93 3e e1 48 f0 3e
       0.14705043 0.09979368 0.28725606 0.46930602
0000c0 86 2a bc be 6f 28 27 be be 47 d4 bd bf d6 ed 3d
       -0.36751193 -0.16324018 -0.10365246 0.11613225
0000d0 a1 6c b9 3d 87 8e 45 bd 91 43 ff 3e 29 f2 86 bf
       0.090539224 -0.048231628 0.49856237 -1.0542651
0000e0 b9 63 09 3f 7d 4b 47 3e 9f 89 71 be 3f 62 21 bf
       0.5366779 0.1946239 -0.23587655 -0.63040537
0000f0 78 24 a4 be 93 c8 22 bd 5c f9 1e bf 49 6a 07 3f
       -0.32059073 -0.039742064 -0.6209924 0.52896553

conv0.fc_nj.weight f4 [16, 4]
000000 03 0a 21 bf 02 c0 d8 be 85 32 25 3e 8b 43 2d 3f
       -0.629059 -0.4233399 0.16132553 0.6768119
000010 27 7f 76 3e 30 40 9b be 60 93 11 bf 4f b1 75 bd
       0.24071942 -0.3032241 -0.568655 -0.059983548
000020 3d 81 25 be 52 3b 0f be 1e 9c 59 3f 0a fa 8f 3f
       -0.16162582 -0.13987473 0.8500384 1.1248181
000030 b1 d5 69 bf d9 55 8a be 7c 1a 18 3f e5 30 29 3d
       -0.9134169 -0.27018622 0.5941541 0.041306395
000040 82 13 15 bf a5 19 3d 3e f7 80 91 3e 0a ed db 3d
       -0.5823289 0.18466814 0.28418705 0.10738571
000050 75 72 ef bc aa 1b a4 3e 57 78 21 bf c7 94 63 3e
       -0.029229382 0.32052356 -0.6307425 0.22224723
000060 52 05 22 3e ea 95 e9 3d e8 a2 2c 3e b7 ce 19 3f
       0.15822342 0.11405547 0.16859019 0.60081047
000070 6c 06 20 3d d3 2b 74 3e 82 29 de 3e 1d d9 fa 3d
       0.039068624 0.23844843 0.43391043 0.12248442
000080 e2 b1 02 3e 5f 75 21 bf bf 8a 16 3e c1 ea 0f bf
       0.1276317 -0.6306972 0.14701365 -0.5621758
000090 74 40 06 3e b8 61 02 bf ec 77 48 3e 09 76 e0 3e
       0.13110524 -0.50930357 0.19576997 0.43840054
0000a0 96 78 92 3e 5c e3 95 be 18 25 13 bf 28 04 cb 3e
       0.28607625 -0.29275024 -0.57478476 0.39651608
0000b0 32 37 4d be 62 e7 08 3f cc d5 01 bf a0 e4 2f bf
       -0.20040587 0.5347806 -0.50716853 -0.6870823
0000c0 f4 d6 f7 3d b9 40 d5 be 22 7f 11 3f e8 09 40 bf
       0.12101546 -0.41650942 0.56834614 -0.75015116
0000d0 19 0f 0b be 36 4a 2b bf 67 cc 16 be 8f fd ee 3e
       -0.13579978 -0.6691011 -0.14726411 0.46677825
0000e0 a9 1f 8e be be 5e 53 bf 2b fe 59 bf 8a 5c 37 bf
       -0.2775853 -0.8256644 -0.85153455 -0.7162558
0000f0 0c 60 f8 be 10 41 ba bc 1f 53 af bd 32 79 0e bf
       -0.48510778 -0.022736102 -0.08560776 -0.5565368

conv0.fc_edges.weight f4 [16, 48]
000000 28 99 4f be 0b 98 5b bd 93 d0 a8 bd b8 da 3e be
       -0.20273268 -0.053611796 -0.082429074 -0.18638122
000010 f1 74 34 3d 0d 15 b1 bd 4f a9 86 bd 44 24 f7 bb
       0.044056837 -0.08646593 -0.06575262 -0.007542165
000020 7c b8 65 be f5 ce fb bd 06 18 a2 bd 73 14 7c 3d
       -0.22433656 -0.12295333 -0.07914738 0.06154294
000030 6f 7a 97 3d 66 69 7f 3a e6 2e 21 3e ca 51 84 bc
       0.07396399 0.00097431836 0.15740547 -0.016152281
000040 a1 99 4d 3e ec 7f 8d bb e0 46 2a 3d 40 3a 78 3d
       0.20078136 -0.004318228 0.041571498 0.060602427
000050 41 8d 49 3e d3 69 72 bd a1 14 45 3d ae 32 78 be
       0.1968279 -0.059182953 0.048115376 -0.24238083
000060 5e 3b 79 be 82 45 12 be ac 88 25 be 30 e6 fa 3d
       -0.24339053 -0.14284328 -0.16165417 0.12250936
000070 64 46 b3 3d ca 24 b3 be ac 67 97 bc eb 3a 96 3e
       0.0875366 -0.34989005 -0.018482052 0.29341826
000080 c3 09 ef 3d fe 45 97 bc 25 79 12 3e dc 71 69 3e
       0.11671784 -0.018465992 0.14304025 0.2279734
000090 c1 22 85 bc fa 93 19 be 5a 51 05 bd 67 57 3d bd
       -0.016251924 -0.14997855 -0.032548286 -0.04622593
0000a0 14 0a b8 3d 5a bc 5d 3d 07 cf 10 bd 73 66 3e bd
       0.08986297 0.054134704 -0.035353687 -0.046484422
0000b0 99 ee 36 3e c7 51 b8 3d e3 77 bf 3d 3b f3 10 be
       0.17864455 0.08999973 0.093490385 -0.14155285
0000c0 a3 9e 8c 3c 6f 36 eb 3d 64 f8 4a 3a 7f a4 4e 3e
       0.017165488 0.11484992 0.00077427016 0.20179938
0000d0 70 4d 1c 3e bf 96 26 3d f4 87 55 be 8e 9f b5 bd
       0.15263915 0.040671106 -0.20852643 -0.08868323
0000e0 62 98 92 3d 9f df 9e bd d9 58 34 bd 1c 01 03 bd
       0.07157971 -0.07757496 -0.044030044 -0.03198348
0000f0 a6 22 d9 3d e1 38 60 bd c6 ac 14 bc 08 ab 85 3e
       0.10602312 -0.054741744 -0.0090743955 0.2610705
000100 e0 46 fe 3b c5 4e 1c 3e ac 66 4b bd fc 1c c7 bc
       0.007759914 0.15264423 -0.049658462 -0.024305813
000110 96 c3 3b 3e 7d 05 18 be 32 6e 3a be f9 6e 65 bd
       0.18336329 -0.14845844 -0.18206099 -0.056014035
000120 53 0c e2 bd cc 1f 25 3e 05 cf 28 3e 98 c3 5b 3d
       -0.11037507 0.16125411 0.16485222 0.05365333
000130 cf 66 63 3e af 35 ff bc c1 7d 49 3d 4c 24 18 3d
       0.22207187 -0.031153528 0.049192194 0.03714399
000140 e3 09 cc 3c 59 de 5c 3e 8f 5c c6 3b 01 69 53 bc
       0.024907058 0.21569194 0.0060535143 -0.012903453
000150 6c e7 ff ba 42 3c f1 bc f7 cb 8e 3d 14 35 3a be
       -0.0019523925 -0.029447678 0.06972497 -0.1818431
000160 54 4b 1e bd f2 16 b4 3b dd f2 38 3d 72 d7 32 be
       -0.038646057 0.0054958994 0.045153487 -0.17464998
000170 c2 5d 5c 3c 88 5a 48 3e 45 5c 76 bd 74 89 98 bd
       0.013450088 0.19565785 -0.06014659 -0.07448092
000180 28 44 27 be 06 39 e0 bd 24 8d 42 3e a0 95 00 3e
       -0.16334593 -0.10948376 0.18999153 0.12557077
000190 35 cb 27 3d cf ca 01 3d 3b 7d 0c 3d 8e 93 80 3d
       0.040965278 0.031687554 0.034299117 0.06278144
0001a0 30 a6 85 bd 9e cc e3 bd 5f f4 c4 bd 12 f5 a1 3d
       -0.065258384 -0.11123012 -0.096169226 0.079080716
0001b0 ec 9f a2 bd 36 90 ba bd df 32 18 3e a1 9f 66 bd
       -0.07940659 -0.09109537 0.14863156 -0.056304578
0001c0 98 89 f7 3d 64 f3 6b bd 69 fd 5c 3e 22 b8 41 be
       0.12086791 -0.057605162 0.21581043 -0.18917897
0001d0 c5 e8 b4 3e bc 5e a2 3d b0 68 ec 3c e6 e4 d2 be
       0.3533384 0.079282254 0.028858513 -0.4119026
0001e0 4e b4 14 be fe 15 f1 3d 6b c3 eb 3d 96 5e 55 3e
       -0.14521906 0.11771773 0.115118824 0.20836863
0001f0 b2 01 8c bd 70 57 63 bc 18 eb 3b bd ba f1 ec 3d
       -0.06836261 -0.013875827 -0.0458785 0.11569543
000200 0b 5a 2a be b8 09 fa bc ee 12 10 be 63 b7 85 bc
       -0.16635911 -0.030522212 -0.14069721 -0.016322797
000210 02 9b 3c be 04 e0 2b bc ab 24 94 bb b4 dc 8c 3d
       -0.18418506 -0.010490421 -0.0045209727 0.06878033
000220 56 f4 e7 3d 5f 92 84 3c 08 fe f8 3d bd dc d9 bd
       0.113259 0.016183076 0.121578276 -0.106378056
000230 b6 38 3d 3e 28 ad e0 3d 88 61 2d bd 64 b3 87 bc
       0.18478665 0.10970527 -0.04232934 -0.016565032
000240 93 9c 9b be 0a 7a 1f bd b8 0e 07 bd b0 73 97 3d
       -0.30392894 -0.038934745 -0.03297302 0.073951125
000250 d6 2e 5d bc f7 9b 7a 3e 2b d6 fb 3d fd 75 83 bd
       -0.013499936 0.24473558 0.12296709 -0.06418989
000260 63 3d e4 3b b2 a8 f3 3d 04 d0 69 be ca 1e 02 bd
       0.0069653257 0.118974105 -0.22833258 -0.031767644
000270 2e 91 58 bd 8f 21 53 3e 25 54 14 3d a4 05 bb bd
       -0.05287283 0.2061827 0.03621306 -0.09131935
000280 1d 79 76 3d 61 80 3f 3e d1 56 a9 bd 4a 60 0e be
       0.060174096 0.18701316 -0.08268512 -0.13903919
000290 d6 a1 a8 3e aa d0 8c 3e 60 74 15 be 48 bd b8 be
       0.3293597 0.27502948 -0.14595175 -0.3608191
0002a0 1d 15 a0 b9 fc cb a1 3c 6a c9 2d 3e 2b 8e 59 3d
       -0.0003053331 0.019750588 0.16971365 0.053114098
0002b0 8f 8d f0 bc 87 97 09 be 5d 60 38 bd ac a1 01 3e
       -0.029364375 -0.1343671 -0.045013774 0.12659329
0002c0 a0 9b 6e bd ec 3c 96 3d a2 64 f4 bd f2 ec 12 be
       -0.058253884 0.07335839 -0.11933257 -0.143482
0002d0 33 49 86 bd 20 bf 8a 3d b4 5e ce 3d ff 1b d1 bc
       -0.065569304 0.067747355 0.10076657 -0.025526045
0002e0 a6 d1 16 3e 30 d6 8c 3d 94 dc e9 3d 97 af 48 3a
       0.14728412 0.068767905 0.11419025 0.00076555595
0002f0 ca 96 74 bd 9f 7e 2f be 4c 2c 00 bd 00 95 dd bd
       -0.059714116 -0.17138146 -0.031292245 -0.10819435
000300 db c3 26 3d 2d ad 02 be ae e9 23 3b 1e cc 1d 3d
       0.040714126 -0.12761374 0.002501111 0.03852474
000310 ed 54 7f bd 44 db 1b 3d a4 47 42 ba 98 c0 6d bd
       -0.06233685 0.038050905 -0.0007411188 -0.058045
000320 b8 14 b3 bd d6 01 ac bd aa 4e dd bd 0f 4f 7b bd
       -0.08744186 -0.08398788 -0.108060196 -0.061354693
000330 d9 30 d8 bd 6b 6b 17 3d 5e a5 19 3e 04 58 b3 3d
       -0.10556192 0.036967676 0.15004489 0.08757022
000340 8d c9 4a 3e a1 27 47 bd d0 b5 7e bc 09 d1 9e bd
       0.19803448 -0.048621777 -0.015546277 -0.07754714
000350 69 9e f2 3c 13 43 79 be 8d ab 15 3e f6 e7 1b 3e
       0.029616551 -0.24341993 0.14616223 0.15225205
000360 75 47 39 bd 45 a9 29 be aa b9 89 be 5f a1 2c 3e
       -0.045234162 -0.16568477 -0.26899463 0.16858433
000370 59 2f 30 3e ee 3a 8b be 4e fa 8c 3d 9f cb aa 3d
       0.17205562 -0.27193397 0.06883679 0.08339619
000380 f5 24 11 3b 6b 91 2b bc 31 bd a7 3d 53 31 49 3e
       0.0022147272 -0.010471682 0.08190382 0.19647722
000390 0a 3e c8 3d a0 72 72 bd 6e ec 66 3c 1e ee 08 be
       0.09777458 -0.059191346 0.014094455 -0.13372084
0003a0 57 6c 45 3d a7 a9 97 3c f0 5f c1 3d d0 8f 2b 3d
       0.048199024 0.018513514 0.09442127 0.041885197
0003b0 fc 04 1d 3e 73 b7 9b 3d 57 39 45 3e b0 93 fa 3d
       0.15333933 0.076033495 0.19260155 0.122352004
0003c0 85 10 3b 3e b8 a6 f6 3d e7 31 54 bc ed 5f 8f bd
       0.1826802 0.12043518 -0.012951351 -0.07000718
0003d0 6c 15 07 be a2 8b ae 3d 7f e8 77 be 4f 31 71 be
       -0.13191766 0.085227266 -0.24209784 -0.23553966
0003e0 8a b0 28 3e 12 6d aa bc f8 93 12 be 0b 03 85 bd
       0.16473594 -0.020803962 -0.14314258 -0.06494721
0003f0 ba a3 60 3e b3 7c f5 3c 90 50 03 3e b0 62 87 3d
       0.21937457 0.029966688 0.12823701 0.0661062

conv0.fc_attn.weight f4 [4, 4]
000000 5d 24 2f 3f e6 f8 e6 be b0 7a 15 3f c8 6f 5e 3f
       0.6841486 -0.4511177 0.5839033 0.86889315
000010 6c 6a d7 3e e1 33 66 be fc fa 04 3e 9e be b3 3e
       0.4207338 -0.22480728 0.12986368 0.35106367
000020 e3 d5 b0 3e 5d 10 42 bf 9c 63 aa 3e d6 76 84 3e
       0.34538183 -0.7580622 0.3327912 0.25871915
000030 20 07 f4 bd 95 3d 63 bc 3c c2 12 3f ce 68 55 3e
       -0.119154215 -0.013869663 0.5732763 0.20840761

rgcns.0.h_bias f4 [32]
000000 db 44 23 3e 24 3f 25 3e e0 8c 85 bd d1 b2 25 be
       0.15944235 0.16137367 -0.065210104 -0.16181494
000010 73 ba f4 3d 15 98 36 3d 1b ec c7 be ab a4 29 be
       0.11949625 0.04457863 -0.39047322 -0.16566722
000020 b3 2d b1 3c e1 60 9c 3e 7e f8 32 be 07 3c 42 3e
       0.021628236 0.30542663 -0.17477605 0.18968211
000030 cf 7e 41 bd b6 27 5e 3d 1f 8a 35 3d 56 68 8b 3d
       -0.047240075 0.05423709 0.044321176 0.0680701
000040 b0 c5 d9 3c 45 e6 ea 3c 3b 4c 8c 3e a4 c0 e7 bd
       0.026583523 0.028674254 0.2740191 -0.1131604
000050 07 52 08 3d 2a 09 d2 bb 01 a7 95 3d 61 76 cd be
       0.033281352 -0.006409784 0.07307244 -0.40129378
000060 56 c6 80 3d f6 04 bd bd 13 25 8e be f9 c5 e1 ba
       0.062878296 -0.09229462 -0.2776266 -0.0017225138
000070 df ce 61 3d f9 84 fc 3d a1 27 73 be 78 ca 88 3c
       0.05512893 0.1233005 -0.23745586 0.016698107

rgcns.0.loop_weight f4 [32, 32]
000000 3a a7 82 3e 40 5d 86 be f5 48 bd be 25 8d 19 be
       0.2551821 -0.2624302 -0.36969724 -0.14995249
000010 ea a6 1b be 2a 80 6f 3d bb d9 f9 3e 5e d6 9d be
       -0.15200391 0.058471836 0.48798928 -0.30827612
000020 6f 00 9b be c8 10 0a 3e 5f 5d e4 bd e6 a6 4b 3d
       -0.30273768 0.13482964 -0.111506216 0.049719714
000030 48 31 1f 3d 8f 28 33 3e 74 d5 9f be 18 45 98 be
       0.038865358 0.1749594 -0.3121754 -0.29740214
000040 21 a2 b0 be 3a f9 7f bb 81 47 64 3e 39 5f 58 be
       -0.34498695 -0.0039058463 0.22292902 -0.21130075
000050 25 ef bb be 7c f7 b4 be 62 53 cb bd 90 f3 84 3e
       -0.3670589 -0.35345066 -0.099280134 0.25967073
000060 a8 e6 d4 be 70 19 8b be d7 68 59 be 9c b9 63 be
       -0.41582227 -0.27167845 -0.212314 -0.22238773
000070 f8 e9 04 be 9b d7 d7 be a6 92 bf be 28 be 8d be
       -0.12979877 -0.4215668 -0.3741657 -0.2768414
000080 44 54 21 3e d8 be 82 3e 04 f0 a7 3e 78 b1 7e be
       0.15754801 0.25536227 0.32800305 -0.24872386
000090 7c 19 28 3e be fd b4 bb 54 3b ca 3d 64 20 b0 be
       0.16415972 -0.0055234125 0.09874597 -0.34399712
0000a0 4a 62 1b be 76 fe 3f be 47 87 6a 3e 2d d3 e3 be
       -0.15174213 -0.18749413 0.22903167 -0.44497052
0000b0 a5 eb 8e be b6 db aa be fc 73 90 3e c1 7f 42 3c
       -0.27914158 -0.3337075 0.2821349 0.011871279
0000c0 9a be 19 3e ab ee 3c bc 5a 6f 2e 3e 16 26 9e 3e
       0.15014115 -0.011531512 0.17034665 0.30888432
0000d0 4c 5f d6 bd b0 05 00 3d 66 db 13 bd e3 15 82 be
       -0.10467395 0.031255424 -0.036097907 -0.25407323
0000e0 07 b5 bc 3e 8a a5 bb 3d 05 6c 67 be fe 10 8c be
       0.36856863 0.091624334 -0.225998 -0.27356714
0000f0 78 a6 f8 bd 24 c7 7f be dc b2 30 be a7 4d 88 be
       -0.121411264 -0.2497831 -0.1725573 -0.26621744
000100 91 3e 22 bd 0f e2 70 be 1d ee a8 3e fa 43 0f 3e
       -0.03961045 -0.23523735 0.32994166 0.13990775
000110 21 82 bf be 3e d0 1b be e2 69 ae 3d 8b 95 a2 3e
       -0.37403968 -0.15216157 0.08516289 0.31754717
000120 5b 4f fc 3d ed 13 a4 bd 8b 39 70 be d8 c9 00 bf
       0.12319823 -0.08011613 -0.23459451 -0.5030799
000130 92 d8 a0 3d be 18 57 3e 71 35 78 3e e8 49 74 3e
       0.078538075 0.21005532 0.24239136 0.23856318
000140 ea cb 9b 3e 51 15 88 3e ee 7d 71 3e ba f7 aa 3e
       0.30429012 0.26578763 0.23583195 0.33392125
000150 c4 b6 9d bc f5 54 60 be a3 ee 25 3e 79 18 23 be
       -0.019252189 -0.21907409 0.16204314 -0.15927304
000160 a9 83 7b 3e f3 6f 8c be e4 b1 95 be bb cf ed 3d
       0.24561943 -0.2742916 -0.29237282 0.11611887
000170 08 c7 5f 3b 0d fa b1 be 58 b6 90 3e c7 86 9a 3e
       0.0034145731 -0.34761086 0.28264117 0.30180952
000180 06 a3 98 be 65 70 bc bd 9f 34 1a 3e 64 d3 5a 3e
       -0.29811877 -0.09201125 0.15059136 0.21369702
000190 04 55 65 be 96 12 91 3e 4e 46 82 be 33 48 5c 3e
       -0.22395712 0.28334492 -0.25444263 0.21511917
0001a0 e3 93 94 3e fa f4 8f 3e 1d 6f a5 be 7e d9 8c be
       0.2901908 0.2811659 -0.32311335 -0.27509683
0001b0 43 fc 09 bd 01 0d af be c0 c2 1a 3e e6 d6 90 be
       -0.03368784 -0.3418961 0.15113354 -0.28288954
0001c0 7a 2d 0f 3e db 52 1b 3e e3 9a 86 be d8 92 76 3e
       0.13982192 0.15168326 -0.26290044 0.24079454
0001d0 a1 e7 e0 3d 2a 0b ad bd 76 b4 70 3e 07 a1 8a 3e
       0.1098168 -0.08449395 0.2350634 0.2707598
0001e0 cf e0 83 be 14 df 7d be a6 16 80 3e 05 78 77 bd
       -0.25757453 -0.24792129 0.2501728 -0.060417194
0001f0 d4 bf 67 be a4 82 83 bd ef c5 9b 3e 61 1f 99 be
       -0.2263177 -0.06421402 0.3042445 -0.29906753
000200 d9 be ba be d8 bf 94 bd f0 dc d0 be 69 cc 23 3e
       -0.3647373 -0.07263154 -0.40793562 0.15995945
000210 f0 de 82 be a5 e6 6d 3e 5c 6d 89 bd 21 8b db be
       -0.25560713 0.23232515 -0.06710312 -0.42879584
000220 b8 43 ac bd ed 63 e5 bd 31 63 29 be 8b 5b 7a 3e
       -0.08411354 -0.112007 -0.16541745 0.24448983
000230 bc 34 20 3e c7 71 df 3e 79 af cd 3e 04 fc e0 3e
       0.15645117 0.43641493 0.40172938 0.43942273
000240 b7 00 56 3e 4c e4 21 bd ab 9f 08 3e c4 d1 cf 3d
       0.2089871 -0.03952436 0.13342158 0.101474315
000250 1f b1 e1 3d 6c 4f 9c be 71 2f aa 3e 72 a6 a8 be
       0.11020111 -0.30529344 0.3323932 -0.32939488
000260 7b 04 6d be ce df 8c 3e cb 13 bc 3e 69 7d af be
       -0.2314624 0.275145 0.3673385 -0.34275368
000270 73 b0 6d 3e 54 c7 30 3e 5c 42 00 3c 4b 61 bc 3e
       0.23211841 0.17263538 0.007828321 0.3679298
000280 c9 9a 82 3e 1b 10 1d be 49 89 be be 58 5f 9a 3e
       0.25508717 -0.15338175 -0.37214115 0.30150867
000290 4d f2 ab 3e 57 6f 12 3d 50 26 90 3e 2a ae 8e 3e
       0.33583298 0.035750713 0.2815423 0.27867252
0002a0 d4 c1 e7 3e ba 70 2b 3e 0f 1c 90 bd 47 f9 58 3e
       0.45265067 0.1674222 -0.07036602 0.21188842
0002b0 b2 c8 23 be d5 ab d9 bd bf 0a 2b 3c 43 94 2a be
       -0.15994528 -0.106284775 0.010439574 -0.1665812
0002c0 6f 3b 8c bd 80 1c a2 be 49 2d 28 3e dd e9 ae bb
       -0.068472736 -0.3166237 0.16423525 -0.0053379373
0002d0 f7 f1 62 3d e5 29 89 be 20 3d 58 bc 3b 06 68 3d
       0.055406537 -0.26789775 -0.013198167 0.056646567
0002e0 0f e1 3b 3e 36 e7 96 3e af 15 c4 be 7c 64 b0 be
       0.18347572 0.29473275 -0.38297793 -0.34451663
0002f0 cc 5c 2c 3d 3f 0a 65 be 00 65 05 3e 48 d9 95 be
       0.042080685 -0.2236719 0.1302681 -0.29267335
000300 15 b5 9a 3d a9 4f 8d 3e 65 75 90 3e b3 50 26 3e
       0.0755407 0.27599838 0.28214565 0.16241722
000310 0b ec b6 be 12 65 52 3c 44 34 ee be c0 06 94 3c
       -0.35726961 0.01284148 -0.4652425 0.018069625
000320 6f dc da bc a5 8d 65 3d 12 bb f4 3e 19 ec 96 3e
       -0.026716439 0.056043286 0.47798973 0.29477003
000330 25 e7 7b be 9a 59 98 be 2b ee 6e be f5 b0 d5 3d
       -0.24599893 -0.2975586 -0.23333041 0.104341425
000340 7c e4 e8 3e f1 01 e3 be 76 13 9e 3e aa 40 8b 3d
       0.4548682 -0.4433742 0.30874223 0.06799443
000350 86 75 39 3e 15 b4 ae be c8 de 8d 3e e5 fb 15 be
       0.18111238 -0.34121767 0.2770903 -0.14646871
000360 14 a5 d0 bd eb d7 90 3d d7 45 1e 3e 76 6a c3 be
       -0.10187736 0.07072433 0.1545633 -0.3816716
000370 84 02 45 bd 9f 60 3d 3e a4 a5 e9 bd d1 a6 40 bb
       -0.048098102 0.1849389 -0.114085466 -0.0029396305
000380 10 3f 9b bd 3b c0 83 be 6e b6 fb bd 45 26 6c be
       -0.075803876 -0.25732598 -0.12290655 -0.23061474
000390 e8 9c 06 3d 28 10 2e 3e cf b3 45 be a5 2a 60 be
       0.03286448 0.1699835 -0.19306873 -0.21891268
0003a0 1e 55 96 3e 4e a2 15 be 1e 5d 49 3d d3 f5 8a 3e
       0.29361814 -0.14612696 0.04916107 0.27140674
0003b0 fe f0 26 3e 60 96 6d bd 52 c5 ad be 3e fe 40 3e
       0.16302869 -0.058004737 -0.33939606 0.18846986
0003c0 c4 4c b6 3e 2d 56 c2 bb 69 b7 54 3e 33 78 70 be
       0.35605443 -0.005930683 0.2077309 -0.23483352
0003d0 4f c6 a3 bc b6 d4 13 3e 22 ce 2d 3e a2 5d 78 3e
       -0.019992022 0.14436612 0.16973165 0.24254468
0003e0 c3 b3 b0 be c5 78 07 3e 08 32 6e 3e 24 de 8b 3e
       -0.34512147 0.13229664 0.23261273 0.27317917
0003f0 0a d6 21 3e 67 60 60 3e 57 3b ce bd 7f df af bb
       0.15804306 0.21911775 -0.10069912 -0.005367219

rgcns.0.linear_r.W f4 [9, 32, 32]
000000 49 79 ce bd 7b b6 8e 3d e3 a7 cb bc fc 97 a0 bd
       -0.10081727 0.06968399 -0.024860328 -0.07841489
000010 19 62 17 3d 8b 80 ea 3c d4 17 4f be f8 6d 15 bd
       0.036958788 0.028625747 -0.20223933 -0.036481827
000020 f6 e2 52 3d c0 02 57 3d 78 33 f0 bd c6 62 fe 3d
       0.051485978 0.052492857 -0.11728567 0.12421183
000030 34 4c c8 3d 4c 17 1d 3c 85 20 6f bd c8 60 13 be
       0.097801596 0.009588074 -0.058380622 -0.14392388
000040 d5 fb ff bd 01 0d 46 3e 0b 1a 52 3e 70 50 e0 3d
       -0.12499205 0.19340898 0.20517747 0.10952842
000050 23 45 cd 3d d9 a6 04 be a4 88 a9 3d cf 18 71 3e
       0.100229524 -0.12954272 0.08278015 0.2354462
000060 b3 9f 2c be 51 c2 3f 3e 40 f2 eb bd 84 6c 8b bd
       -0.16857795 0.1872647 -0.11520815 -0.06807807
000070 af 52 91 3d ba 8d 36 be 9f a4 05 be 23 ea 49 bd
       0.07095849 -0.17827502 -0.13051079 -0.049295556
000080 4b 4e 17 3d e5 72 a7 3d bf ea 0c be 2b 25 8b bb
       0.0369399 0.08176211 -0.13761424 -0.004246374
000090 68 f4 9f bd 02 98 36 be 1f f0 8d bd a0 dc 2b be
       -0.07810289 -0.17831424 -0.06930565 -0.1678338
0000a0 07 1e 0b bc e0 02 dd bd 2a a1 11 be 68 89 1e 3c
       -0.008491046 -0.10791564 -0.14221635 0.009676315
0000b0 cc 76 ff 3c ae 1e 39 3e 38 ec 35 be 75 11 0f 3b
       0.031184576 0.1807811 -0.17765892 0.0021830474
0000c0 04 ca ac 3d 11 b2 2b be 12 dd 5b 3d f5 3c 1f 3e
       0.08436969 -0.16767146 0.053677626 0.15550597
0000d0 59 e4 b4 3d 4b a5 64 3d e8 1b ce bd 86 cf db bd
       0.08832616 0.0558217 -0.100639164 -0.10732941
0000e0 05 25 89 3d dd 49 d8 bd 47 05 f4 bd 38 a6 b5 bd
       0.06696514 -0.10560963 -0.11915069 -0.08869594
0000f0 2d a7 95 bd 2f 6f 05 3e 78 fc 2d 3e 26 cb fe bd
       -0.07307277 0.13030694 0.1699084 -0.12441091
000100 de 90 a1 be 37 34 58 be d1 d7 03 bc 01 d7 d0 bd
       -0.31555837 -0.21113668 -0.00804706 -0.10197259
000110 33 21 2e be 82 1f a0 3d 43 fd e5 3d ad 4d a3 3d
       -0.17004852 0.0781851 0.112299465 0.079738
000120 f7 34 28 be 27 c0 ab 3d 1c 59 a2 3d 35 84 10 be
       -0.16426454 0.083862595 0.079271525 -0.14112933
000130 a1 0c bb 3d f5 8b 18 be db 22 29 3e c1 67 e5 bd
       0.09133268 -0.1489714 0.16517203 -0.1120143
000140 f5 78 8c be ce 7c ac 3d 7d ed 7b be fa c6 c0 3e
       -0.27436033 0.08422242 -0.24602313 0.37651807
000150 1d 72 6a be cc 94 de bc 07 13 51 be 53 78 ff 3d
       -0.22895093 -0.027170561 -0.20417415 0.12474122
000160 0a 97 33 be 40 bb cb bc 78 28 5f 3e a1 1a 85 3d
       -0.17538086 -0.024869561 0.21792781 0.0649922
000170 79 38 d0 bd ca 5d 49 be f5 b4 38 3e 9a f2 52 be
       -0.10167021 -0.19664684 0.1803778 -0.20600358
000180 70 00 d8 3c cb 73 c8 bd 1d e7 b3 bd 62 84 06 3e
       0.026367396 -0.09787711 -0.08784316 0.13136438
000190 3e 95 05 3d ae 2e d4 bd 4d c1 8f 3d 36 77 f5 bc
       0.03261303 -0.10360466 0.07019291 -0.02996407
0001a0 fc 7c 1d be eb a5 0c 3e 98 f9 04 be 66 40 b2 bd
       -0.15379709 0.13735168 -0.12985837 -0.08703689
0001b0 14 d7 d6 bc 82 8b ef bd 70 bd c0 3d ab 3e 8d bb
       -0.026225604 -0.11696531 0.09411132 -0.004310449
0001c0 6b 68 a8 bc 97 36 e1 3c f6 36 b0 3d ac b4 f2 bd
       -0.020557603 0.02749185 0.08604233 -0.11850867
0001d0 91 58 6b 3b 89 74 bd bd cc 9e 0c 3e 15 f3 b0 bd
       0.0035910944 -0.09250743 0.13732451 -0.08640114
0001e0 2a e4 e3 bd 97 91 dc bd d4 86 ae 3d a4 4f a3 bc
       -0.11127503 -0.107699566 0.0852181 -0.019935437
0001f0 70 da 0e 3d 02 b9 ca 3d c7 00 d5 3d 8e ba 8a bd
       0.034876287 0.09898569 0.10400539 -0.06773864
000200 85 97 78 bc 6a fc 9e 3d 5e f0 fd 3d d1 9c 83 3d
       -0.015172844 0.07762988 0.12399362 0.06426395
000210 90 97 1b 3e a8 de 23 3e 8d 52 b8 bd 24 98 22 be
       0.15194535 0.16002905 -0.0900012 -0.1587835
000220 b3 70 8c 3d fe 8e f2 bd 3a 3b 5c 3c 90 b5 12 3e
       0.06857433 -0.1184368 0.013441855 0.14327073
000230 a8 08 11 3e 67 af c1 3d d3 a6 97 3d e3 5d 57 3c
       0.14163458 0.094572835 0.07404866 0.013144943
000240 00 6c 69 bd 59 1a df 3d 0e 1a 7a bd 51 a8 10 3e
       -0.056987762 0.10893697 -0.061060004 0.14126708
000250 cf 98 a8 bd cf 97 c7 bd 85 55 da 3d 62 88 6e 3e
       -0.08232271 -0.09745752 0.10660843 0.23294213
000260 97 5f bb 3d a9 57 57 3d 52 ff f2 bd 79 54 7f bc
       0.09149092 0.052573834 -0.11865105 -0.015584105
000270 0e 14 80 3d 03 26 31 be 13 df 28 be 05 20 08 3d
       0.06253825 -0.17299657 -0.16491346 0.03323366
000280 52 c9 0b 3d e4 e1 87 3b 15 8b 40 be 74 7e e1 bd
       0.03412754 0.0041468013 -0.18803056 -0.11010447
000290 19 a7 b0 3c 85 f8 d2 bd a3 e0 f2 3d 53 8c 79 be
       0.021564053 -0.103013076 0.11859252 -0.24369936
0002a0 ac ea 21 3e 7e b7 be 3d 11 b1 f4 bd 0d 46 c0 3e
       0.15812176 0.09312342 -0.11947835 0.37553445
0002b0 d0 e7 48 be a0 a5 c2 3d e9 7b 08 3e 22 bf 10 3e
       -0.1961968 0.09504247 0.13328518 0.14135411
0002c0 03 5e a5 bd 91 85 68 3d 57 c6 84 3d c2 79 40 3e
       -0.08074572 0.056768004 0.06483143 0.18796447
0002d0 7f a8 0c 3e 0d 49 3b be f2 68 d0 b9 ba 81 45 3e
       0.13736151 -0.18289585 -0.00039751042 0.19287768
0002e0 e2 1c 84 3c c4 9a 9b bc ab b7 ce bd 1c 97 22 be
       0.016127054 -0.018994696 -0.10093626 -0.15877956
0002f0 8d f3 44 3d 6c b1 bc 3d 19 9f 86 be fd 31 97 3d
       0.04808383 0.09213528 -0.26293257 0.073825814
000300 ba eb f0 bd d5 60 b7 bd 97 2e cd 3d ae a6 0f 3e
       -0.11763711 -0.08954016 0.10018652 0.14028427
000310 07 68 0a be 16 fc af bd d3 4c fe bd 4e 13 0f 3d
       -0.13516246 -0.085930035 -0.12416997 0.03493052
000320 03 74 be bd 40 4e cc bd 9b da 7d 3e d2 4c 83 be
       -0.09299471 -0.099758625 0.24790423 -0.25644547
000330 7b 87 45 bd a3 cf 34 bd 59 5c 08 be 3e 24 44 be
       -0.048224907 -0.04414333 -0.13316478 -0.1915445
000340 9a 9f 0c be 78 76 25 3d 8d 7f a0 bd 8e 1c 85 3d
       -0.13732758 0.040396184 -0.078368284 0.06499587
000350 41 66 e6 3d d4 a7 48 3d ae ed 60 bd c0 3f 7f 3d
       0.11249972 0.04898818 -0.05491417 0.062316656
000360 3d bb a4 bd 59 a3 15 be ac d9 ac bd cc 77 32 be
       -0.08043525 -0.14613093 -0.08439955 -0.17428511
000370 80 b6 c4 3c 71 e8 10 bd 7d d7 51 3e cd b4 40 be
       0.024012804 -0.035377923 0.20492359 -0.1881897
000380 02 64 52 be 3f 53 14 bd e0 b8 1e 3e c9 67 22 3e
       -0.20545962 -0.036212202 0.15500212 0.15859903
000390 81 81 3e be 67 d6 4f be 40 7a 58 be a5 d5 0f be
       -0.1860409 -0.20296632 -0.21140385 -0.14046343
0003a0 b0 a2 5b be 19 e1 fc 3c c8 66 1e bd ed 2b 15 bb
       -0.21448779 0.030869054 -0.03867224 -0.0022761778
0003b0 cf 72 96 3d a3 53 fb bd 9e d7 64 be 12 ae 72 bd
       0.07346117 -0.12271812 -0.22347876 -0.059248038
0003c0 df db 06 3e 38 c0 55 3e d0 d0 e3 bc 9b 22 17 bd
       0.13169812 0.20874107 -0.02780953 -0.036898237
0003d0 a8 96 92 3d a2 03 15 bd 41 de 2b 3e 0e 89 1e 3e
       0.07157642 -0.036380418 0.16784002 0.1548197
0003e0 f3 4f d2 bd 59 60 62 3c 29 d8 e9 3c a6 ed ed bd
       -0.10269155 0.013816916 0.028545456 -0.116175935
0003f0 4b 2f 64 bc 62 f8 48 3d 42 c5 98 3d f0 08 5c 3e
       -0.013927291 0.049065 0.07459499 0.21487784

rgcns.1.h_bias f4 [32]
000000 d5 75 68 bd 05 5e dc 3d ec 43 37 3d 21 08 20 be
       -0.056753 0.1076012 0.04474251 -0.15628101
000010 c4 97 ce 3d ef fe a8 be 91 a3 cc be bf 59 a3 bd
       0.10087541 -0.33007 -0.3996854 -0.07976102
000020 33 b0 06 bd 18 92 32 be b2 ab 63 be 56 cf fc bd
       -0.03288288 -0.17438543 -0.22233465 -0.12344234
000030 01 30 b4 be bc e6 6c b7 a2 55 43 be 6e cc 29 3e
       -0.35192874 -1.4120418e-05 -0.19075635 0.1658189
000040 33 a0 62 3e e2 fd 9c 3d 70 cc 8d bd 7c 86 cb bd
       0.22131424 0.07665612 -0.06923759 -0.0993776
000050 e7 47 5e 3d 8d 98 9b 3c 1e 13 a9 bd d7 5d 19 be
       0.05426779 0.01899364 -0.082555994 -0.14977203
000060 d0 31 a6 3d 25 90 19 3e b9 f7 e9 3d 26 c2 37 3d
       0.0811497 0.14996393 0.114242025 0.04486289
000070 aa ec a7 bc 1b a6 15 3e 56 81 cb 3d a0 78 98 be
       -0.020498592 0.14614145 0.09936778 -0.2977953
