parameters/cgmc_yelp_edge_0.2706.pt (torch, 270182 bytes, 20 tensors)

conv0.bias f4 [16]
-0.67952496 -0.49224404 -0.50066954 -0.6619729 -0.6795249 -0.49224404 -0.5006694 -0.66197413
-0.67952543 -0.49224347 -0.5006694 -0.6619731 -0.67952394 -0.49224326 -0.5006695 -0.6619734
00000000: 59f5 2dbf 6907 fcbe e12b 00bf 0e77 29bf
00000010: 58f5 2dbf 6907 fcbe df2b 00bf 2377 29bf
00000020: 61f5 2dbf 5607 fcbe df2b 00bf 1277 29bf
00000030: 48f5 2dbf 4f07 fcbe e02b 00bf 1777 29bf

conv0.fc_node.weight f4 [128, 4]
-0.22299226 0.35541457 0.013178602 0.07822617 -0.123901285 -0.023407336 0.118394434 -0.065952815
0.24556929 0.0013579397 0.030879391 0.01788964 -0.028226143 0.33987907 0.09224354 -0.0004449567
-0.20062746 -0.21846586 -0.17606658 0.061625473 0.22591373 0.32260397 0.1282013 -0.14421852
-0.13405684 -0.048943605 0.10900933 0.026523102 -0.14584841 -0.25900865 -0.031162195 0.09705458
0.0046165083 0.40876332 -0.17028804 -0.05302363 -0.16805172 -0.21722735 -0.023916835 0.031439625
0.08652019 0.04904436 -0.3342074 -0.14526476 -0.06551829 0.23242322 0.0042048115 -0.21224713
-0.26685736 -0.00995414 0.07722052 -0.3548806 0.19550154 0.27983794 0.03533765 -0.2912952
0.023042105 0.08336649 0.09641314 0.15784441 0.027196994 -0.118641034 0.2564142 0.12447598
-0.2223644 -0.12462902 0.11634588 0.13860719 0.054064 -0.07873095 -0.18555632 0.029022513
-0.034028232 -0.01611366 0.050854437 0.174405 0.087369606 -0.28163022 0.06926436 0.22419031
0.0777809 -0.15170819 -0.13845068 0.046543464 -0.1510011 -0.09530293 -0.119850494 -0.10598805
0.051804826 0.19061051 0.05749483 -0.23844807 0.16130792 0.043107945 -0.1361736 0.14682898
-0.23294987 -0.16179523 -0.06320521 -0.33398268 -0.135911 0.18593271 -0.014093328 -0.17987052
0.17434664 0.21390025 -0.06386131 0.040942565 -0.18065359 -0.14503548 0.099853545 0.2016615
0.28981975 0.12793632 0.10005054 -0.19735308 0.14650045 -0.03692473 0.2098272 -0.03822529
-0.06282095 0.16467817 0.04302121 -0.15302964 -0.05777414 0.19610876 0.17977814 -0.35064688
0.4133124 -0.114723966 0.02385429 -0.14011838 0.11036486 -0.07035458 -0.026712602 -0.06319641
-0.10933411 0.03278112 0.04275266 0.23085433 0.05940578 -0.03194756 0.013259585 0.1252868
-0.17610571 -0.026398754 -0.16534437 -0.104462005 -0.033381376 -0.07800821 0.14137621 0.17760211
-0.05194731 0.025343552 -0.13690598 -0.03892544 -0.2607256 -0.13760832 -0.15351024 -0.07550045
0.077983074 0.013418927 0.09373116 -0.09915813 0.4091533 -0.1630295 0.020341232 -0.27819282
0.3014038 -0.067747116 0.064485215 -0.07661229 0.009160703 0.014994902 -0.13723099 -0.023942122
-0.050400574 -0.05500594 -0.3315699 -0.038785394 0.013645514 0.11366261 0.18033722 0.025499037
-0.07364082 -0.05653894 -0.2310305 0.15748668 0.024311433 0.17449462 -0.12797403 0.09876619
-0.015631009 -0.020833172 -0.008989895 0.15391679 0.1668813 0.095651396 0.061979342 0.0018600528
0.18234792 -0.0065081585 0.10576218 -0.1459933 0.10318638 0.08920352 -0.027505709 0.110270284
0.006017717 -0.15517016 -0.24909343 -0.06749938 -0.0850376 -0.099673234 -0.12662193 -0.2160851
-0.17930113 0.058020223 0.3634625 0.061231606 0.113694996 0.35149825 0.19519663 0.14396897
0.054926764 0.02610668 -0.18567286 -0.046128217 -0.019013878 0.07776487 0.06605692 -0.054425366
0.07348567 -0.04230962 0.07930244 0.11914833 -0.0747085 -0.0880732 -0.032624185 -0.12566134
-0.073072836 0.06782254 -0.07165776 0.07478991 -0.1394886 0.16885877 -0.026153252 -0.2684258
0.13925263 0.0679347 -0.08273955 0.050185747 -0.047279835 -0.1762442 0.13157526 0.19317175
00000000: 1558 64be e6f8 b53e 10eb 573c 0b35 a03d
00000010: f5bf fdbd bec0 bfbc c878 f23d 4512 87bd
00000020: 8476 7b3e e5fc b13a c7f6 fc3c 4b8d 923c
00000030: 833a e7bc a104 ae3e 2eea bc3d 1449 e9b9
00000040: 4971 4dbe 84b5 5fbe cc4a 34be fe6a 7c3d
00000050: ee55 673e 592c a53e 3447 033e 05ae 13be
00000060: 3246 09be 1779 48bd 4940 df3d fa46 d93c
00000070: 4959 15be c89c 84be dc47 ffbc 8dc4 c63d
00000080: 1446 973b 6d49 d13e fd5f 2ebe 4e2f 59bd
00000090: c015 2cbe d970 5ebe 3ded c3bc d6c6 003d
000000a0: 7f31 b13d bde2 483d 3b1d abbe 49c0 14be
000000b0: 742e 86bd 5a00 6e3e 84c8 893b 5057 59be
000000c0: 87a1 88be b016 23bc cb25 9e3d e9b2 b5be
000000d0: 8e31 483e eb46 8f3e 36be 103d a524 95be
000000e0: ccc2 bc3c 0dbc aa3d 4174 c53d f7a1 213e
000000f0: 3bcc de3c 12fa f2bd b948 833e 43ed fe3d
00000100: 7eb3 63be 803d ffbd c046 ee3d 0bef 0d3e
00000110: 3672 5d3d b13d a1bd 7a02 3ebe 9fc0 ed3c
00000120: 3061 0bbd cb00 84bc be4c 503d 3997 323e
00000130: d6ee b23d d631 90be 79da 8d3d 2592 653e
00000140: 984b 9f3d 6459 1bbe 04c6 0dbe 5ca4 3e3d
00000150: 08a0 1abe 2f2e c3bd 2d74 f5bd 4310 d9bd
00000160: 4c31 543d 672f 433e b37f 6b3d bb2b 74be
00000170: e72d 253e f591 303d 1871 0bbe 565a 163e
00000180: 698a 6ebe a6ad 25be bc71 81bd c7ff aabe
00000190: 412c 0bbe 2565 3e3e b4e7 66bc fa2f 38be
000001a0: ed87 323e ab08 5b3e b8c9 82bd 64b3 273d
000001b0: 41fd 38be 2e84 14be 0480 cc3d 5a80 4e3e
000001c0: 4163 943e bd01 033e 4ce7 cc3d ed16 4abe
000001d0: 3704 163e 633e 17bd f1dc 563e 1f92 1cbd
000001e0: 45a8 80bd 65a1 283e 0237 303d cdb3 1cbe
000001f0: 94a4 6cbd bcd0 483e c317 383e fd87 b3be
00000200: af9d d33e 66f4 eabd 126a c33c 317b 0fbe
00000210: f906 e23d 1016 90bd 63d4 dabc 1f6d 81bd
00000220: 90ea dfbd 7f45 063d 6a1d 2f3d 1465 6c3e
00000230: 7a53 733d 72db 02bd bb3e 593c 2f4b 003e
00000240: 0e55 34be 3342 d8bc 0950 29be 2df0 d5bd
00000250: e9ba 08bd c5c2 9fbd edc4 103e 54dd 353e
00000260: b4c6 54bd 489d cf3c 1531 0cbe 4870 1fbd
00000270: d37d 85be 32e9 0cbe ca31 1dbe fb9f 9abd
00000280: 97b5 9f3d 0fdb 5b3c 1ff6 bf3d 6b13 cbbd
00000290: 8b7c d13e 35f1 26be a8a2 a63c 4a6f 8ebe
000002a0: 9951 9a3e 00bf 8abd d310 843d e8e6 9cbd
000002b0: c616 163c 2dad 753c 4886 0cbe 4522 c4bc
000002c0: d570 4ebd e94d 61bd 88c3 a9be 6fdd 1ebd
000002d0: 6f91 5f3c f1c7 e83d 52aa 383e 5be3 d03c
000002e0: 00d1 96bd 6095 67bd 4293 6cbe 3044 213e
000002f0: c528 c73c b8ae 323e a00b 03be ee45 ca3d
00000300: 9a0c 80bc 54aa aabc 5a4a 13bc 5d9c 1d3e
00000310: eee2 2a3e e1e4 c33d 0dde 7d3d 04cd f33a
00000320: 6ab9 3a3e 6442 d5bb d899 d83d 457f 15be
00000330: 6153 d33d 56b0 b63d a753 e1bc 63d5 e13d
00000340: 4530 c53b ede4 1ebe 5912 7fbe 1d3d 8abd
00000350: 3128 aebd 7b21 ccbd 2ea9 01be 6a45 5dbe
00000360: b79a 37be 9da6 6d3d c217 ba3e fecd 7a3d
00000370: ecd8 e83d 94f7 b33e a0e1 473e 9a6c 133e
00000380: e3fa 603d addd d53c 0721 3ebe f1f0 3cbd
00000390: fec2 9bbc 3043 9f3d da48 873d 22ed 5ebd
000003a0: a87f 963d da4c 2dbd 5169 a23d 0a04 f43d
000003b0: c500 99bd b95f b4bd f0a0 05bd 5ead 00be
000003c0: 36a7 95bd 8be6 8a3d 4ec1 92bd 742b 993d
000003d0: 19d6 0ebe 50e9 2c3e 583f d6bc 1b6f 89be
000003e0: 3e98 0e3e 5921 8b3d 5a73 a9bd 928f 4d3d
000003f0: 80a8 41bd 5c79 34be aabb 063e d1ce 453e

conv0.fc_node.bias f4 [128]
0.25479963 0.42426232 -0.12927495 -0.16105081 0.26299492 0.11158726 -0.14153172 0.38636762
0.3022655 0.2661549 0.21258071 0.4474051 -0.022495817 0.52893513 0.12679738 -0.30173957
-0.3387033 0.019183513 0.14231557 0.17839983 -0.252098 -0.006888565 -0.008904183 -0.36350173
-0.14544244 -0.31106043 0.28646436 -0.5025319 0.47694352 0.18163924 -0.03250272 0.16322953
-0.26656058 -0.21516557 0.17387922 0.09241671 0.2282216 -0.20527294 -0.42382136 0.15325467
-0.37956265 0.12100323 -0.2919422 -0.3221869 0.3039814 -0.26464796 -0.08589979 0.09572034
0.43730837 -0.16349398 -0.2574405 0.20510991 -0.13448216 0.31510773 -0.020493718 -0.3090513
0.13377017 0.20977014 -0.36896825 0.29170886 -0.16442168 -0.20181443 -0.19514008 -0.42286822
-0.1634555 0.3026984 -0.08066364 -0.25811687 -0.20122224 -0.14260249 0.29583982 -0.562259
0.27908933 -0.47450522 -0.18511099 0.1511635 -0.087269954 0.021471396 0.20508374 -0.31919053
0.21888995 -0.29470217 -0.33622807 -0.100688934 0.39969683 -0.046473537 -0.39169374 -0.34031132
0.30710298 -0.19027498 0.22481383 0.31373096 0.042694 -0.10663482 -0.14570014 -0.2098962
-0.0916974 -0.45904958 -0.122260205 -0.021582182 0.090882264 0.23553935 0.38692135 0.3541252
-0.32141164 0.26332632 0.39626697 -0.067156054 0.36020634 -0.429285 -0.21711375 0.1734072
-0.31326216 0.25031185 0.22471648 -0.39367822 0.0837321 0.27262774 0.33254322 -0.04650704
0.100156695 0.36257118 -0.4303821 -0.28669313 -0.31582806 0.247564 0.26332608 0.47890782
00000000: 1975 823e e938 d93e a760 04be 81ea 24be
00000010: 45a7 863e dd87 e43d b1ed 10be fad1 c53e
00000020: 8bc2 9a3e 7445 883e c2ae 593e 4812 e53e
00000030: 2649 b8bc 4b68 073f 2cd7 013e 9c7d 9abe
00000040: 856a adbe be26 9d3c 2cbb 113e 72ae 363e
00000050: fd12 81be 79b9 e1bb dae2 11bc e61c babe
00000060: ddee 14be 5043 9fbe 75ab 923e eea5 00bf
00000070: f131 f43e a3ff 393e 9221 05bd a425 273e
00000080: a17a 88be 5d54 5cbe 650d 323e f944 bd3d
00000090: ecb2 693e 1233 52be 1dff d8be cbee 1c3e
000000a0: 0956 c2be 8bd0 f73d 7379 95be aef5 a4be
000000b0: 73a3 9b3e f07f 87be 3bec afbd 0709 c43d
000000c0: e2e6 df3e f76a 27be 3ecf 83be 5508 523e
000000d0: b1b5 09be cd55 a13e 71e2 a7bc f93b 9ebe
000000e0: 0cfb 083e fccd 563e 68e9 bcbe dd5a 953e
000000f0: 285e 28be 71a8 4ebe cdd2 47be 2f82 d8be
00000100: e160 27be 49fb 9a3e fa32 a5bd e527 84be
00000110: 340d 4ebe 6306 12be 5178 973e 35f0 0fbf
00000120: cce4 8e3e 59f2 f2be bc8d 3dbe 9bca 1a3e
00000130: 97ba b2bd c8e4 af3c 7901 523e f16c a3be
00000140: b024 603e 34e3 96be 1626 acbe 0036 cebd
00000150: 10a5 cc3e 095b 3ebd 158c c8be 493d aebe
00000160: 9a3c 9d3e 72d7 42be 9935 663e 58a1 a03e
00000170: e7df 2e3d 5b63 dabd 6b32 15be 08ef 56be
00000180: d9cb bbbd 8c08 ebbe 8f63 fabd 1ecd b0bc
00000190: 7b20 ba3d 3a31 713e 8e1a c63e e64f b53e
000001a0: 1190 a4be b5d2 863e 81e3 ca3e 1d89 89bd
000001b0: f76c b83e 3ecb dbbe 1153 5ebe a891 313e
000001c0: e663 a0be e028 803e 141c 663e 3190 c9be
000001d0: bc7b ab3d dd95 8b3e 1b43 aa3e 2a7e 3ebd
000001e0: f41e cd3d eea2 b93e 0b5b dcbe 71c9 92be
000001f0: 37b4 a1be 6b81 7d3e add2 863e 6833 f53e

conv0.fc_fij.weight f4 [16, 34]
0.14460194 0.19059019 -0.43893066 0.49581197 0.49744254 -0.13079447 0.11938333 -0.45606956
-0.12646197 0.8408616 0.046180613 -0.010408796 -0.06120693 -0.00684447 0.566553 0.23890717
0.35957128 -0.18732499 0.014595099 -0.45756873 0.26384282 -0.3191314 0.45187274 -0.3694606
-0.39375988 0.20031534 -0.18742956 -0.049943384 -0.2677645 0.23282132 0.49700367 -0.09141195
-0.08785676 -0.23041715 0.46767664 -0.5513129 -0.13677202 0.10114247 -0.13054939 -0.5469772
-0.33221954 -0.15866157 0.7349549 0.05562701 0.15233117 -0.52895665 0.3223815 -0.14797626
0.169337 0.56823677 0.09409277 0.057136707 0.1771676 -0.14592618 0.60404104 -0.35852554
-0.14317182 -0.23164627 -0.014015571 -0.11734599 -0.393673 0.06105446 -0.13082932 0.08289387
-0.09067777 -0.17435387 -0.46483567 0.1884673 0.28165197 -1.0156059 0.21487544 -0.66694254
0.037360057 -0.31499997 -0.222885 -0.3622421 0.11812605 -0.13681807 -0.0943034 -0.06867415
-0.042517643 -0.053745046 0.32607132 0.6255293 -0.01837918 -0.09361542 0.35335535 -0.07140888
0.04718412 0.12731844 0.0002502382 -0.008342137 -0.15478164 -0.0301532 0.04367955 -0.45141095
0.100562885 0.22072288 -0.019885892 0.013157911 0.93863726 -0.16018936 0.5797546 -0.55059975
-0.30389544 0.8092359 -0.6406452 -0.018626673 0.26274726 0.063365765 -0.08203236 0.367735
-0.06940671 -0.10291626 0.26441577 0.24120189 -0.34716746 0.11952964 0.044767752 0.33331507
-0.6566287 0.22212477 -0.21472658 -0.07727509 0.043883104 -0.16001517 -0.34099758 -0.10645781
-0.24308412 0.110966235 0.24355839 0.07854082 0.15533926 0.24381894 0.57434916 0.06472041
0.040934287 -0.29848924 0.8936657 -0.6114453 -0.462843 0.31016508 -0.42703822 0.10221883
0.31675684 0.09974062 -0.25921002 -0.083753735 -0.10174696 0.24191402 -0.22090203 0.13742448
0.34266022 0.19386905 -0.22605082 0.7101598 0.7389523 -0.14169425 -0.069883995 0.1855924
-0.18072754 0.31548694 0.044848505 0.012714443 0.6207598 0.35424688 -0.3990572 -0.3412634
-0.05716918 0.22789566 -0.9265736 0.87207717 0.20760092 0.52460104 -0.5721227 -0.7112138
0.036918044 -0.2079448 0.08607563 0.27761337 0.48609847 -0.2775174 -0.4349944 -0.088738754
0.2294177 -0.6197154 0.025059888 0.005490228 -0.2705782 -0.15181951 -0.0059485547 0.61762094
0.12697886 -0.13489541 0.035023797 0.36202565 0.2564263 -0.29531598 0.15603615 0.06018973
-0.002847588 0.35911068 0.12655707 -0.14311796 -0.18865836 -0.22481413 0.1995765 0.32914016
0.820359 0.24547113 0.055285707 -0.28335333 -0.7295744 -0.07615102 0.425897 -0.0070528775
-0.11977581 -0.057189118 -0.1125323 0.15762413 0.6732476 0.017857501 0.31062537 -0.2902004
-0.06975455 0.32618383 -0.08714308 -0.38608342 -0.74227357 -0.17078982 -0.14870943 0.15745941
-0.09573399 -0.7503365 -0.008647524 0.38805547 -0.09626653 -0.17089652 0.8209987 -0.2525327
0.6822337 -0.42054823 -0.075140886 -0.14152826 0.23440838 -0.07487688 -0.29489914 -0.52206415
-0.08778198 0.09657653 -0.035869706 0.23889689 -0.33930045 0.07511028 0.3371442 0.18449996
00000000: 8812 143e 132a 433e 85bb e0be 11db fd3e
00000010: cab0 fe3e fcee 05be 3f7f f43d f381 e9be
00000020: 3f7f 01be b542 573f e227 3d3d a889 2abc
00000030: 1eb4 7abd 9347 e0bb 9e09 113f 15a4 743e
00000040: ba19 b83e 1fd2 3fbe 4820 6f3c 7346 eabe
00000050: 6816 873e 3165 a3be dd5b e73e f129 bdbe
00000060: e59a c9be 771f 4d3e 89ed 3fbe 6f91 4cbd
00000070: 6e18 89be b668 6e3e 4477 fe3e 3036 bbbd
00000080: 3fee b3bd 79f2 6bbe 5073 ef3e d822 0dbf
00000090: f70d 0cbe c923 cf3d bdae 05be b306 0cbf
000000a0: ae18 aabe 2e78 22be 0126 3c3f 26d9 633d
000000b0: b4fc 1b3e b469 07bf 300f a53e 1787 17be
000000c0: ae66 2d3e f777 113f b6b3 c03d 2e08 6a3d
000000d0: 6c6b 353e ac6d 15be 6fa2 1a3f a990 b7be
000000e0: a29b 12be ae34 6dbe 91a1 65bc 1853 f0bd
000000f0: 828f c9be 3e14 7a3d 1ff8 05be 43c4 a93d
00000100: 44b5 b9bd d289 32be f1fe edbe 92fd 403e
00000110: b034 903e 60ff 81bf 4f08 5c3e bfbc 2abf
00000120: dc06 193d ad47 a1be f73b 64be cc77 b9be
00000130: 12ec f13d 091a 0cbe 2422 c1bd 08a5 8cbd
00000140: fb26 2ebd c423 5cbd d2f2 a63e b022 203f
00000150: ef8f 96bc 71b9 bfbd feea b43e d23e 92bd
00000160: 2344 413d c45f 023e 6732 8339 75ad 08bc
00000170: 147f 1ebe d803 f7bc 54e9 323d 561f e7be
00000180: eaf3 cd3d 2e05 623e bde7 a2bc 4794 573c
00000190: 884a 703f ae08 24be cc6a 143f 1bf4 0cbf
000001a0: 2f98 9bbe 152a 4f3f 5301 24bf f796 98bc
000001b0: cf86 863e e9c5 813d 9500 a8bd c347 bc3e
000001c0: 1b25 8ebd c3c5 d2bd 8161 873e a1fd 763e
000001d0: efbf b1be f5cb f43d 645e 373d 46a8 aa3e
000001e0: d218 28bf ad74 633e 49e1 5bbe 6742 9ebd
000001f0: c5be 333d 04db 23be 3c97 aebe 8d06 dabd
00000200: 0beb 78be 4442 e33d 5f67 793e 02da a03d
00000210: 4111 1f3e acab 793e 8c08 133f 228c 843d
00000220: b6aa 273d 95d3 98be 46c7 643f ae87 1cbf
00000230: c2f9 ecbe f5cd 9e3e c1a4 dabe 1b58 d13d
00000240: f42d a23e cf44 cc3d 2db7 84be 1487 abbd
00000250: b660 d0bd 4fb8 773e 2434 62be 01b9 0c3e
00000260: 2971 af3e 9c85 463e de79 67be 08cd 353f
00000270: fa2b 3d3f 4c18 11be 571f 8fbd ef0b 3e3e
00000280: a410 39be 8187 a13e 11b3 373d 3d50 503c
00000290: 1dea 1e3f d95f b53e 3a51 ccbe 14ba aebe
000002a0: 3b2a 6abd 7b5d 693e ed33 6dbf 7340 5f3f
000002b0: 5695 543e 414c 063f a276 12bf 1c12 36bf
000002c0: 6037 173d 7bef 54be 6b48 b03d 5723 8e3e
000002d0: e6e1 f83e c316 8ebe 96b7 debe aabc b5bd
000002e0: 79ec 6a3e aba5 1ebf 654a cd3c 5fe7 b33b
000002f0: 3a89 8abe 9376 1bbe 18ec c2bb 681c 1e3f
00000300: bf06 023e 0622 0abe 1d75 0f3d 6d5b b93e
00000310: 4f4a 833e a833 97be f1c7 1f3e 8289 763d
00000320: 999e 3abb 5bdd b73e 2d98 013e 848d 12be
00000330: a82f 41be ad35 66be c85d 4c3e 0f85 a83e
00000340: 0c03 523f c95c 7b3e 4473 623d b013 91be
00000350: 63c5 3abf 11f5 9bbd 2c0f da3e d31b e7bb
00000360: 054d f5bd 233f 6abd 5677 e6bd 3868 213e
00000370: f459 2c3f e549 923c 4a0a 9f3e 2695 94be
00000380: 79db 8ebd 9101 a73e 1278 b2bd baac c5be
00000390: a405 3ebf 87e3 2ebe 4947 18be 0a3d 213e
000003a0: 2f10 c4bd 0e16 40bf 58ae 0dbc 35af c63e
000003b0: 6327 c5bd 7fff 2ebe f92c 523f f74b 81be
000003c0: dea6 2e3f 1952 d7be 77e3 99bd c9ec 10be
000003d0: c008 703e 0d59 99bd 05fd 96be ffa5 05bf
000003e0: 0ac7 b3bd eac9 c53d 1dec 12bd 63a1 743e
000003f0: cab8 adbe 6bd3 993d 2a9e ac3e 8fed 3c3e

conv0.fc_ni.weight f4 [16, 4]
0.2003614 0.7516982 -0.18558504 0.10749082 -0.47284037 0.5300025 0.9493611 -0.27483356
-0.8172848 0.27554196 0.13115698 0.1792907 0.16387159 0.05952716 -0.3222442 -0.23047742
0.98963 -0.19770534 0.044188257 -0.13160059 0.29377705 -0.23565558 -0.42808172 -0.31364188
0.30029115 -0.3032296 0.8008113 -0.26149958 -0.28394482 0.11517164 0.11158095 0.80512494
0.020061 -1.2829223 -0.1512334 -0.14224905 0.64467967 -0.066431865 -0.051051147 -0.108218074
0.4092745 -0.18710688 1.0634145 -0.34252277 1.298796 -0.21677023 0.38517585 1.1010461
-0.19354185 -0.21516852 0.11495181 0.036595546 -0.07746936 -0.49199808 0.60160977 0.012106393
0.0024141863 -0.32816035 0.54041594 -0.13444932 -0.14711113 -0.44286445 0.25659895 -1.0942694
00000000: 8a2b 4d3e 4b6f 403f 010a 3ebe 2624 dc3d
00000010: 2218 f2be 3eae 073f 5409 733f fcb6 8cbe
00000020: 9439 51bf d613 8d3e 044e 063e fb97 373e
00000030: f4cd 273e c0d2 733d 31fd a4be 4602 6cbe
00000040: 6458 7d3f 4573 4abe bffe 343d 4ec2 06be
00000050: f269 963e b24f 71be 872d dbbe ab95 a0be
00000060: c3bf 993e e940 9bbe f801 4d3f 46e3 85be
00000070: 3761 91be 1cdf eb3d 8e84 e43d ab1c 4e3f
00000080: f756 a43c cc36 a4bf eedc 1abe bca9 11be
00000090: ba09 253f 6e0d 88bd 021b 51bd 70a1 ddbd
000000a0: 6d8c d13e f298 3fbe f71d 883f 255f afbe
000000b0: f33e a63f 04f9 5dbe c535 c53e 14ef 8c3f
000000c0: d62f 46be 2355 5cbe db6b eb3d 36e5 153d
000000d0: 41a8 9ebd 2ce7 fbbe 1903 1a3f e559 463c
000000e0: 5337 1e3b a204 a8be b358 0a3f 15ad 09be
000000f0: 4da4 16be 21bf e2be f060 833e 0511 8cbf

conv0.fc_nj.weight f4 [16, 4]
0.19716918 -0.36841577 -0.71713257 -0.14707 -0.17035998 0.09250552 0.043536153 -0.063996024
0.28773683 0.2234764 0.06866248 -0.8246197 -0.042481318 0.51881933 -0.4204886 0.0844455
0.7711238 0.60450286 0.34173927 -0.19002402 -0.21665591 0.19107746 -1.1174556 -0.516741
0.13159677 -0.40759712 0.13984558 0.5681633 -0.21235393 0.071883425 0.7840428 1.0543411
-0.2658763 0.056316506 0.07094646 0.2625772 0.17700075 -0.3002396 0.5541392 0.18615474
0.6859673 -0.1742503 0.603519 0.4859558 -0.17871927 -0.8680284 -0.933398 0.11592493
-0.2663519 0.7819239 -0.28770617 0.14801258 0.6869873 -0.59370977 -0.32109398 -0.4257424
-0.21927813 -0.0740234 -0.0041735466 -0.42305964 -0.21042463 0.48985404 0.39960027 0.1718897
00000000: b8e6 493e fea0 bcbe 0096 37bf 8599 16be
00000010: d972 2ebe 8973 bd3d f752 323d 5910 83bd
00000020: 3e52 933e ffd6 643e ea9e 8c3d 471a 53bf
00000030: e400 2ebd 58d1 043f 484a d7be c3f1 ac3d
00000040: 5f68 453f b3c0 1a3f 73f8 ae3e a895 42be
00000050: 0cdb 5dbe cfa9 433e c908 8fbf 2349 04bf
00000060: 4ec1 063e 92b0 d0be ae33 0f3e 2673 113f
00000070: 4f73 59be 9e37 933d 07b7 483f a6f4 863f
00000080: f020 88be 23ac 663d 614c 913d 8570 863e
00000090: af3f 353e 01b9 99be 11dc 0d3f 599f 3e3e
000000a0: 8e9b 2f3f ac6e 32be 3980 1a3f 33cf f83e
000000b0: 2f02 37be 1c37 5ebf 2cf3 6ebf 0d6a ed3d
000000c0: 475f 88be 2a2c 483f 394e 93be 9c90 173e
000000d0: 66de 2f3f 5dfd 17bf 6e66 a4be e8fa d9be
000000e0: 728a 60be 9599 97bd 3fc2 88bb 469b d8be
000000f0: 8e79 57be 26ce fa3e 6898 cc3e db03 303e

conv0.fc_edges.weight f4 [16, 48]
0.091208674 0.024486484 0.13875277 -0.019599544 -0.05742986 0.07636003 -0.09132573 -0.1045274
-0.10753084 -0.09385644 0.048530143 0.032230232 0.04611286 -0.12122513 -0.0071557313 -0.18616031
0.20398864 0.13356443 0.16971149 -0.16761513 0.05441942 -0.45262665 0.03556373 0.34407592
0.3542588 0.04826336 0.3038033 -0.33741155 -0.20310415 0.04586655 0.26420105 0.076088145
-0.023726694 -0.06998966 -0.011736369 0.18428698 -0.12761918 -0.008502709 0.08606343 0.18493901
0.101231046 -0.1479055 -0.10332812 0.15326492 0.15825412 -0.029804586 -0.14393298 0.020827023
-0.12753984 -0.2028544 -0.06338579 0.24747857 0.070813194 0.21838714 0.0037608081 -0.30279684
0.21698572 0.027998291 -0.16542739 -0.32664606 -0.04748638 0.0026728394 -0.08754019 0.17913362
-0.10492812 -0.061624162 -0.34028387 -0.24668805 -0.01845413 0.39999792 -0.101849616 -0.042287245
0.13951057 0.017854217 -0.09788534 -0.27870196 -0.094267346 -0.31743756 0.027653871 0.296076
0.22320421 0.05754896 -0.23326384 -0.11028262 -0.38696218 0.16315065 0.039733842 -0.07912947
-0.040257502 -0.10324701 -0.34104583 0.24874946 -0.13644715 0.21665914 0.117700405 -0.17001733
-0.3880559 -0.22453867 -0.0063733156 0.45310265 -0.23544638 0.41696778 -0.057991948 -0.24558756
0.6039589 -0.23016898 -0.09420536 -0.59149575 0.38811105 -0.073653676 -0.035677258 0.4398685
0.086300604 0.23411064 -0.11435854 -0.5703859 -0.099416465 -0.3770443 0.27868688 0.323492
0.16590765 0.5349927 -0.11509949 -0.24832627 -0.14984427 -0.42572898 -0.41165257 0.018326614
0.6102255 -0.20087631 0.31448388 0.0779091 -0.31371596 0.78507113 -0.34802157 -0.9483026
-0.28218913 -0.4836807 -0.31418622 0.4167876 0.018927645 0.5188266 0.3794492 -0.5845096
-0.012896463 -0.17046948 -0.042087413 0.03305685 0.125821 0.049816966 -0.028745538 -0.0815799
0.047151256 0.1334138 -0.03645427 0.076255396 -0.13706732 -0.21359639 -0.07161553 -0.018468386
0.113396294 -0.26376083 -0.17339239 0.19720009 -0.13406768 -0.12866105 0.14154837 -0.11109744
0.16964518 -0.21508019 -0.048544668 0.2320054 -0.22724871 -0.047180217 0.05966219 -0.0516978
-0.035764784 0.08739474 0.15751976 0.19560228 0.11236336 0.5601698 -0.23078403 -0.30418047
0.05499252 -0.34360138 -0.13917127 0.10704041 0.02389409 -0.053408854 -0.078907184 -0.012312751
0.3183399 0.14603867 0.16037047 -0.06810201 -0.0597161 -0.09400496 -0.114556655 0.122925535
-0.23777476 -0.06314394 -0.023977002 -0.35228273 -0.2718815 -0.11469078 -0.13273439 0.0027773164
-0.2657871 -0.2528684 -0.08952006 0.19384998 0.17618223 -0.2562107 0.20547596 0.21933112
0.43857569 0.1629907 0.494578 -0.37396893 0.28481334 -0.12055569 -0.063145176 0.16904429
0.15984128 -0.06619824 -0.057691306 -0.2263294 0.096264645 -0.04996458 0.07934823 -0.17027718
-0.16559865 0.268623 0.20976828 0.17265171 -0.31070036 0.26851958 -0.09594513 -0.2881997
-0.14144722 -0.01167591 0.011698475 -0.05042913 -0.14500634 -0.090111844 0.19485742 0.00015915166
0.23873629 -0.028467914 0.056968473 -0.2686364 0.24145351 -0.016498214 0.042423863 0.32415766
00000000: 9dcb ba3d e197 c83c 3515 0e3e 398f a0bc
00000010: 933b 6bbd a662 9c3d fc08 bbbd 7612 d6bd
00000020: 2139 dcbd ce37 c0bd 8bc7 463d d903 043d
00000030: d7e0 3c3d e244 f8bd a07a eabb cfa0 3ebe
00000040: 66e2 503e 1dc5 083e d9c8 2d3e 4da3 2bbe
00000050: e6e6 5e3d aebe e7be 46ab 113d b82a b03e
00000060: 6961 b53e cdaf 453d 1b8c 9b3e 35c1 acbe
00000070: 89fa 4fbe 90de 3b3d 5c45 873e 1ad4 9b3d
00000080: 7c5e c2bc bd56 8fbd e649 40bc bab5 3c3e
00000090: 9aae 02be f24e 0bbc 0642 b03d a760 3d3e
000000a0: 3952 cf3d 8a74 17be b29d d3bd 7bf1 1c3e
000000b0: 5e0d 223e bf28 f4bc 2b63 13be 6f9d aa3c
000000c0: ce99 02be 10b9 4fbe 69d0 81bd 066b 7d3e
000000d0: 8206 913d e1a0 5f3e e477 763b 3008 9bbe
000000e0: 8131 5e3e ac5c e53c cc65 29be 273e a7be
000000f0: 1481 42bd ce2a 2f3b 4548 b3bd ce6e 373e
00000100: 8ee4 d6bd 9e69 7cbd b039 aebe cb9b 7cbe
00000110: 1e2d 97bc 87cc cc3e 8896 d0bd 6435 2dbd
00000120: dcdb 0e3e 0243 923c 1c78 c8bd 06b2 8ebe
00000130: 3d0f c1bd 2d87 a2be 5f8a e23c 4697 973e
00000140: a58f 643e 75b8 6b3d b7dc 6ebe dbdb e1bd
00000150: e81f c6be f710 273e f4bf 223d a20e a2bd
00000160: 0de5 24bd 2b73 d3bd 8f9d aebe 2eb8 7e3e
00000170: cdb8 0bbe e5db 5d3e e90c f13d 0619 2ebe
00000180: 43af c6be 77ed 65be 3fd7 d0bb 12fd e73e
00000190: db18 71be cd7c d53e f788 6dbd 4e7b 7bbe
000001a0: 0d9d 1a3f 6bb1 6bbe bdee c0bd 446c 17bf
000001b0: 7eb6 c63e bdd7 96bd 5122 12bd 7236 e13e
000001c0: 5fbe b03d b3ba 6f3e cf34 eabd cf04 12bf
000001d0: dc9a cbbd f30b c1be 0cb0 8e3e bea0 a53e
000001e0: b2e3 293e 48f5 083f 48b9 ebbd 3e49 7ebe
000001f0: c770 19be 26f9 d9be 20c4 d2be b221 963c
00000200: bd37 1c3f 85b2 4dbe 0804 a13e ce8e 9f3d
00000210: 619f a0be 6cfa 483f e22f b2be f6c3 72bf
00000220: 187b 90be ffa4 f7be 04dd a0be 2f65 d53e
00000230: 260e 9b3c d2d1 043f 2a47 c23e 6ca2 15bf
00000240: b04b 53bc 8d8f 2ebe da63 2cbd 9f66 073d
00000250: 38d7 003e e00c 4c3d c37b ebbc 5d13 a7bd
00000260: ad21 413d a19d 083e 1351 15bd ca2b 9c3d
00000270: 605b 0cbe 03b9 5abe 2aab 92bd 034b 97bc
00000280: 513c e83d a90b 87be c68d 31be d2ee 493e
00000290: 0a49 09be b9bf 03be 0ef2 103e 0e87 e3bd
000002a0: 77b7 2d3e fb3d 5cbe c6d6 46bd d392 6d3e
000002b0: e3b3 68be 0b40 41bd 5760 743d 13c1 53bd
000002c0: 187e 12bd 03fc b23d dc4c 213e f74b 483e
000002d0: c31e e63d 4a67 0f3f a652 6cbe 8bbd 9bbe
000002e0: d63f 613d 85ec afbe ea82 0ebe 0138 db3d
000002f0: 8abd c33c 3ec3 5abd 179a a1bd 6cbb 49bc
00000300: 73fd a23e 298b 153e 2838 243e 1179 8bbd
00000310: df98 74bd ac85 c0bd ae9c eabd 62c0 fb3d
00000320: 3a7b 73be 9c51 81bd 6b6b c4bc 675e b4be
00000330: 0d34 8bbe 00e3 eabd 86eb 07be a303 363b
00000340: 3f15 88be f877 81be 4b56 b7bd 9c80 463e
00000350: 1d69 343e 0d2e 83be 4a68 523e 5698 603e
00000360: fe8c e03e 09e7 263e 5439 fd3e db78 bfbe
00000370: 0ed3 913e e7e5 f6bd 4252 81bd f219 2d3e
00000380: 6fad 233e f192 87bd b84d 6cbd e5c2 67be
00000390: 6626 c53d a9a7 4cbd 5381 a23d 245d 2ebe
000003a0: b192 29be f488 893e 7fcd 563e 9ccb 303e
000003b0: 1e14 9fbe 667b 893e e17e c4bd e98e 93be
000003c0: 8ad7 10be 514c 3fbc f6aa 3f3c c78e 4ebd
000003d0: 8b7c 14be 8f8c b8bd b488 473e f3e1 2639
000003e0: 4977 743e 8b35 e9bc c657 693d b68a 89be
000003f0: 973f 773e 4327 87bc a5c4 2d3d fef7 a53e

conv0.fc_attn.weight f4 [4, 4]
0.31783867 -0.302551 0.2902485 0.78790134 0.17351085 -0.35673112 -0.14574024 0.791883
0.1645492 -0.32239577 -0.0024979599 0.60858816 0.8867729 -0.6993768 -0.024542376 1.137998
00000000: c0bb a23e f7e7 9abe 749b 943e e7b3 493f
00000010: d4ac 313e 76a5 b6be ee3c 15be d8b8 4a3f
00000020: 967f 283e 0f11 a5be d0b4 23bb 6fcc 1b3f
00000030: 8c03 633f 5c0a 33bf 180d c9bc eba9 913f

rgcns.0.h_bias f4 [32]
-0.15414152 -0.013091001 0.040905815 0.16130726 0.21981673 0.16551681 -0.049563933 -0.42004472
0.07557337 -0.18882275 -0.05087001 0.1248642 -0.03400446 0.18198968 0.05101584 -0.15998526
0.19900335 -0.12500732 -0.036874082 0.07474105 -0.51225287 -0.19303653 -0.15046726 0.08724956
0.2386446 -0.0121339215 -0.40977368 0.069159724 -0.23140691 0.10361936 0.1431376 -0.79266495
00000000: 46d7 1dbe a37b 56bc db8c 273d bb2d 253e
00000010: a317 613e 3d7d 293e 8d03 4bbd 1a10 d7be
00000020: 36c6 9a3d c05a 41be 125d 50bd cdb8 ff3d
00000030: 4348 0bbd 815b 3a3e fcf5 503d 2dd3 23be
00000040: 89c7 4b3e eb01 00be 4709 17bd d611 993d
00000050: 0123 03bf 5eab 45be 1714 1abe e6af b23d
00000060: 405f 743e 5bcd 46bc dbcd d1be 9da3 8d3d
00000070: eff5 6cbe 6336 d43d aa92 123e 17ec 4abf

rgcns.0.loop_weight f4 [32, 32]
0.09203265 -0.3759096 0.5081357 -0.120713174 -0.1144758 0.22158065 -0.24008454 -0.36603117
-0.3311686 -0.021307506 0.401908 -0.032076474 0.40045297 -0.27407932 -0.2681544 -0.14509895
-0.24513806 -0.3401595 -0.1036364 0.23805095 -0.06332237 0.20240615 0.18947531 -0.29508898
0.5187169 -0.07028755 0.029006124 0.08479382 0.18194023 0.22425097 -0.107162066 -0.25495148
-0.09469576 0.3075211 -0.025726872 0.17905988 -0.17623298 -0.20169826 -0.11524515 -0.06840451
0.05217101 -0.24531287 -0.097839534 -0.39487907 0.38453704 0.08514405 0.049719878 -0.36656216
-0.2106961 -0.26679665 0.12414902 -0.16373824 0.18905963 -0.47004682 0.043051325 -0.298934
0.4038201 0.32409713 -0.24366504 0.0150153665 -0.22732283 0.049651302 0.23259203 -0.23339456
-0.10461008 0.3341026 -0.23561743 -0.09008187 -0.03365427 0.20486182 -0.014638084 -0.39107347
0.3755826 0.08285941 -0.35750195 -0.17996207 -0.31750503 0.033191703 -0.01036423 0.25054568
0.2585684 -0.02720679 -0.19783905 0.1745471 -0.38426113 -0.2136509 0.24928837 -0.06752269
0.04447239 -0.2727638 0.5751961 0.26706064 -0.109519646 -0.012352289 -0.35278738 0.39176324
0.32164574 -0.28529158 -0.10664972 -0.34125522 -0.13303266 -0.12504381 0.17049511 0.25454235
0.14615597 -0.16883364 -0.30348918 0.18530336 -0.36193052 0.057657428 0.4152516 -0.19925791
-0.22739379 -0.52819806 0.00845743 -0.10057261 0.046440277 0.080823354 0.20453687 -0.011219902
0.15360598 -0.22756436 -0.3192237 -0.36384922 0.07907317 -0.39856917 -0.05738746 0.3370267
-0.20089489 -0.12606719 -0.30208278 0.4388033 -0.30535126 -0.22478217 -0.063281514 0.0069843424
-0.386343 -0.01651535 -0.1797961 0.14223729 0.31921136 -0.21656264 -0.1943044 0.2428589
0.3913957 0.38131067 0.20482236 0.17912483 -0.33767414 0.09338464 0.04567736 0.24287194
-0.18472141 0.17255273 0.3744259 -0.2701202 -0.15528612 -0.19566661 0.018311324 -0.08927658
0.2668376 0.25406775 -0.37839526 -0.3086122 -0.1956534 -0.0030140816 -0.46579632 -0.19775404
0.24244371 -0.38161075 -0.0061085178 0.35571754 -0.35690102 -0.56195056 0.2878911 -0.13720927
-0.12336291 -0.5015733 0.010580745 0.115041845 0.33520818 -0.18233746 0.37493104 -0.24894081
0.243646 0.04727266 0.29461747 -0.30754134 0.3336512 0.05207157 0.1550362 0.18980323
-0.2570332 0.15947254 -0.047587786 0.034517378 -0.0566962 -0.03624283 -0.15252756 -0.21451287
-0.37668052 0.10264326 -0.18221036 0.15669023 -0.28434408 -0.06361149 -0.30749106 -0.11649832
0.28502133 0.56761456 0.11121445 0.36248386 0.31061885 0.14736272 -0.05931997 -0.31802887
0.15846395 -0.21699576 -0.1305148 -0.16308643 -0.07454134 -0.16456036 0.20876971 0.28159717
-0.027883425 -0.28117317 -0.12259161 0.07222625 0.09340641 -0.09012364 -0.18328807 -0.39617664
-0.17544582 0.21177508 0.04513026 0.23417419 0.06385699 0.04696316 0.18114507 -0.12917365
0.18259455 0.024114078 0.36940414 0.28133804 -0.3188754 0.09895673 -0.14681743 -0.033782024
-0.11357832 0.18342972 0.10656091 0.2524302 0.004224835 -0.25757498 -0.04257612 -0.0029981567
00000000: 9d7b bc3d 3977 c0be 2e15 023f 7838 f7bd
00000010: 4a72 eabd 0ae6 623e b9d8 75be 7068 bbbe
00000020: ee8e a9be 148d aebc e3c6 cd3e 9f62 03bd
00000030: 2c08 cd3e 2054 8cbe 894b 89be d294 14be
00000040: 7905 7bbe 6329 aebe 523f d4bd a1c3 733e
00000050: 29af 81bd 8f43 4f3e d105 423e e715 97be
00000060: a1ca 043f ebf2 8fbd 409e ed3c 62a8 ad3d
00000070: 8a4e 3a3e 0ca2 653e c977 dbbd 0089 82be
00000080: daef c1bd 6873 9d3e 29c1 d2bc 795b 373e
00000090: 6b76 34be fd89 4ebe a605 ecbd aa17 8cbd
000000a0: 45b1 553d 4c33 7bbe 1860 c8bd 972d cabe
000000b0: 0ae2 c43e 0160 ae3d 12a7 4b3d 09ae bbbe
000000c0: b8c0 57be 9299 88be d741 fe3d ffaa 27be
000000d0: d998 413e faa9 f0be 9656 303d e10d 99be
000000e0: 82c1 ce3e 0ff0 a53e 5483 79be 0303 763c
000000f0: 51c7 68be 2a5f 4b3d 9b2c 6e3e fcfe 6ebe
00000100: cf3d d6bd 7f0f ab3e b245 71be d87c b8bd
00000110: 0fd9 09bd 4cc7 513e 93d4 6fbc c83a c8be
00000120: 5d4c c03e 32b2 a93d 7f0a b7be fa47 38be
00000130: 0590 a2be 06f4 073d bbce 29bc 8647 803e
00000140: 1463 843e c6e0 debc 5296 4abe 7abc 323e
00000150: e0bd c4be 4dc7 5abe 7345 7f3e 5649 8abd
00000160: ae28 363d b2a7 8bbe 0d40 133f 2cbc 883e
00000170: d64b e0bd 4161 4abc 8ca0 b4be 3195 c83e
00000180: c0ae a43e bd11 92be 2b6b dabd 01b9 aebe
00000190: b739 08be 7c0b 00be 4596 2e3e 6053 823e
000001a0: e9a9 153e bae2 2cbe ef62 9bbe 2ac0 3d3e
000001b0: f54e b9be 322a 6c3d dc9b d43e 440a 4cbe
000001c0: ebd9 68be fd37 07bf 0891 0a3c 03f9 cdbd
000001d0: 2938 3e3d b786 a53d 1d72 513e aed3 37bc
000001e0: e34a 1d3e a206 69be 4a71 a3be 724a babe
000001f0: 1df1 a13d 4211 ccbe 1d0f 6bbd c38e ac3e
00000200: 64b7 4dbe c217 01be 98aa 9abe d3aa e03e
00000210: 0057 9cbe 4c2d 66be bd99 81bd e9dc e43b
00000220: c0ce c5be 334b 87bc 781c 38be a7a6 113e
00000230: ac6f a33e 99c2 5dbe bcf7 46be 01b0 783e
00000240: 0465 c83e 273b c33e f4bc 513e 806c 373e
00000250: a0e3 acbe 7240 bf3d 2f18 3b3d 6cb3 783e
00000260: 9c27 3dbe aab1 303e c0b4 bf3e 324d 8abe
00000270: 5303 1fbe d45c 48be a101 963c a4d6 b6bd
00000280: f09e 883e 2b15 823e 06bd c1be 6b02 9ebe
00000290: 5d59 48be e687 45bb db7c eebe 0980 4abe
000002a0: 2a43 783e 7c62 c3be f629 c8bb 9c20 b63e
000002b0: bbbb b6be fedb 0fbf 7666 933e 9680 0cbe
000002c0: b1a5 fcbd 1c67 00bf dc5a 2d3c 0f9b eb3d
000002d0: 68a0 ab3e acb6 3abe f6f6 bf3e 57ea 7ebe
000002e0: 567e 793e faa0 413d 1ad8 963e 0f76 9dbe
000002f0: 55d4 aa3e 0049 553d cfc1 1e3e c75b 423e
00000300: db99 83be c54c 233e 69eb 42bd 1862 0d3d
00000310: 463a 68bd 5d73 14bd 2f30 1cbe 43a9 5bbe
00000320: 45dc c0be a136 d23d 5a95 3abe 6773 203e
00000330: 8c95 91be be46 82bd 786f 9dbe ac96 eebd
00000340: 51ee 913e 304f 113f 67c4 e33d 7c97 b93e
00000350: 6f09 9f3e 41e6 163e 7ff9 72bd aed4 a2be
00000360: 6044 223e 2334 5ebe aca5 05be 2100 27be
00000370: 21a9 98bd 8382 28be bac7 553e 812d 903e
00000380: c86b e4bc eef5 8fbe 4f11 fbbd 5beb 933d
00000390: dc4b bf3d be92 b8bd deaf 3bbe aad7 cabe
000003a0: 12a8 33be 91db 583e 82da 383d 5ccb 6f3e
000003b0: 74c7 823d 715c 403d 187e 393e 1946 04be
000003c0: 11fa 3a3e e38a c53c 8a22 bd3e 8a0b 903e
000003d0: a343 a3be d3a9 ca3d 4f57 16be 055f 0abd
000003e0: c09b e8bd 00d5 3b3e 9b3c da3d 883e 813e
000003f0: 7c70 8a3b dee0 83be 4c64 2ebd b97c 44bb

rgcns.0.linear_r.W f4 [9, 32, 32]
-0.084000185 0.022571586 0.19369505 0.12704341 0.14825094 0.1698174 -0.25911716 -0.35634992
0.009371368 -0.096895516 -0.18281972 0.21855703 -0.0061825057 0.20956239 0.022706633 0.21352485
0.09972823 0.033219397 0.11695514 0.042351965 -0.1001337 -0.11921631 0.09358364 -0.020331368
0.11445179 -0.08559496 0.18814303 -0.20865248 -0.02465541 -0.094181344 0.22000034 -0.058903128
0.023692975 -0.14403519 0.12277533 0.083191186 -0.013059376 0.19117928 -0.098495364 -0.025868943
0.07339937 0.12059596 -0.029162815 0.18587837 0.06564095 -0.2311524 0.128542 0.15391685
-0.06860453 0.207828 0.14013888 0.05717209 -0.20252755 -0.06609241 -0.11198376 0.025538506
-0.036162533 0.32913107 0.06613989 -0.030298077 0.15820597 0.15715794 0.10011288 -0.1570906
-0.17345388 0.051517013 -0.100543916 -0.2088339 -0.09735551 0.024513353 -0.00524765 -0.07544759
0.10078804 0.1019767 -0.10575635 0.12689492 -0.010099612 -0.022554712 0.043538775 -0.053088013
-0.18803619 0.03862816 0.18982054 -0.19058189 -0.13395251 0.09625761 0.103092656 -0.009658455
0.090976685 0.19297616 -0.016293738 0.13476364 0.03793859 0.15038183 0.20558606 -0.037385263
0.012474673 0.034137603 0.015663749 0.028225724 0.2042797 0.02954977 -0.22903667 -0.061189305
0.09902675 -0.044033017 0.031713445 -0.02214967 -0.030443037 0.090151176 -0.10142044 -0.1600154
0.18574487 0.0088241 -0.1023444 -0.12841105 0.025688369 -0.24180892 -0.11957223 0.1370365
0.101057574 0.1617018 0.036324546 -0.012444051 -0.16810596 -0.051978257 -0.091237456 0.042082615
0.2416712 0.15150185 0.15789947 0.08491013 -0.04175187 0.12104164 -0.1314387 0.055200625
-0.09777673 0.20624791 0.010076863 -0.098533094 0.012017865 0.10251178 0.05661292 0.052240103
0.10332666 0.10289814 -0.06622913 -0.038563848 -0.039665658 0.07247641 -0.17139553 -0.10034317
-0.12764378 -0.17734383 -0.06457296 0.2008347 0.22723745 0.094513535 0.14069204 0.0620682
-0.18255863 0.1212507 -0.16652448 0.057992242 0.13569959 0.13242252 0.031176697 0.070254035
0.15278858 0.2019318 -0.10337572 0.1060816 -0.2654349 0.06142792 0.0616153 -0.09918629
0.070440605 0.06800526 0.07528556 -0.14128098 0.17709942 -0.096169405 0.015034419 0.087564304
0.006810744 -0.3567846 0.3752029 0.056166638 0.05278518 0.030115677 0.13890195 0.07875164
0.08208023 0.068254314 -0.09472372 0.20314112 0.06978959 0.019961156 0.20752202 -0.102715865
-0.068557434 0.023516154 0.079261295 -0.12201704 0.06875679 0.009350171 -0.043014433 0.29873496
0.068225086 0.026314402 -0.08916508 -0.076102175 0.09184134 0.1514442 -0.013130046 -0.045319144
-0.22739013 -0.04513101 -0.19863641 0.023974316 -0.01416783 0.27668774 0.05108914 -0.23437677
-0.22839223 0.022761697 0.18889453 -0.021151688 -0.16637564 0.11216247 -0.042133406 -0.0020947778
0.14165935 0.09287397 -0.08009548 0.10949505 -0.018325154 0.19941223 -0.22375268 -0.18910986
0.22622202 0.29805896 -0.024343932 -0.19088554 -0.053088605 -0.08890816 0.05673225 -0.02012806
0.1584744 -0.35724843 0.37484023 0.011483175 -0.1328547 0.029721636 -0.047056716 -0.20230797
00000000: 4a08 acbd 0ce8 b83c ff57 463e ab17 023e
00000010: 18cf 173e 9de4 2d3e 01ab 84be 7f73 b6be
00000020: 5e8a 193c 2871 c6bd 1835 3bbe 6acd 5f3e
00000030: 9e96 cabb 8697 563e 4303 ba3c 42a6 5a3e
00000040: 503e cc3d 1011 083d 2d86 ef3d 4179 2d3d
00000050: e612 cdbd ae27 f4bd c8a8 bf3d f88d a6bc
00000060: b365 ea3d 694c afbd 91a8 403e ffa8 55be
00000070: 24fa c9bc 26e2 c0bd c547 613e 6844 71bd
00000080: c517 c23c f67d 13be a271 fb3d 2460 aa3d
00000090: fef6 55bc 80c4 433e f0b7 c9bd 1beb d3bc
000000a0: 6952 963d 04fb f63d dbe6 eebc e656 3e3e
000000b0: c36e 863d 37b3 6cbe 84a0 033e 619c 1d3e
000000c0: 8880 8cbd ddd0 543e 9180 0f3e 482d 6a3d
000000d0: 6263 4fbe 755b 87bd be57 e5bd 2136 d13c
000000e0: 2a1f 14bd de83 a83e 5a74 873d ac33 f8bc
000000f0: bf00 223e 03ee 203e fb07 cd3d 5cdc 20be
00000100: e59d 31be 8103 533d f8e9 cdbd 8ed8 55be
00000110: 5362 c7bd 3ad0 c83c 7bf4 abbb 4484 9abd
00000120: f669 ce3d 29d9 d03d c996 d8bd bef0 013e
00000130: d878 25bc a9c4 b8bc b755 323d d172 59bd
00000140: 8f8c 40be 9038 1e3d 5160 423e e627 43be
00000150: d92a 09be b622 c53d 3e22 d33d 7f3e 1ebc
00000160: fc51 ba3d 8b9b 453e 727a 85bc 7bff 093e
00000170: 7f65 1b3d b2fd 193e 2785 523e 4a21 19bd
00000180: 9262 4c3c dfd3 0b3d 4351 803c a239 e73c
00000190: b32e 513e 5c12 f23c 9788 6abe a3a1 7abd
000001a0: 89ce ca3d f75b 34bd f5e5 013d 3a73 b5bc
000001b0: ad63 f9bc 2ea1 b83d 85b5 cfbd 14db 23be
000001c0: e733 3e3e f592 103c f199 d1bd 307e 03be
000001d0: 6a70 d23c c29c 77be 49e2 f4bd 4c53 0c3e
000001e0: 46f7 ce3d 2895 253e 0cc9 143d 22e2 4bbc
000001f0: f823 2cbe 27e7 54bd b4da babd d25e 2c3d
00000200: a878 773e 4d23 1b3e 66b0 213e 5de5 ad3d
00000210: 0204 2bbd aee4 f73d de97 06be 0d1a 623d
00000220: 2b3f c8bd a732 533e 6d19 253c b8cb c9bd
00000230: 94e6 443c b2f1 d13d f3e2 673d b8f9 553d
00000240: ee9c d33d 43bc d23d 23a3 87bd 20f5 1dbd
00000250: 7578 22bd 836e 943d 4f82 2fbe b880 cdbd
00000260: 0db5 02be 9f99 35be d43e 84bd 9da7 4d3e
00000270: efb0 683e 5090 c13d 9311 103e 3a3b 7e3d
00000280: a6f0 3abe 4952 f83d 6585 2abe 4689 6d3d
00000290: d5f4 0a3e c599 073e 4666 ff3c 59e1 8f3d
000002a0: 9c74 1c3e 36c7 4e3e a6b6 d3bd 4f41 d93d
000002b0: 15e7 87be d89b 7b3d 5360 7c3d 2e22 cbbd
000002c0: 2a43 903d 5746 8b3d 512f 9a3d f6ab 10be
000002d0: 8d59 353e 77f4 c4bd ec52 763c ea54 b33d
000002e0: a92c df3b 79ac b6be 981a c03e fd0e 663d
000002f0: 4635 583d 27b5 f63c 503c 0e3e 8a48 a13d
00000300: ae19 a83d ebc8 8b3d 82fe c1bd 3a04 503e
00000310: d8ed 8e3d 9485 a33c a780 543e b25c d2bd
00000320: d767 8cbd f3a4 c03c bf53 a23d 12e4 f9bd
00000330: 5cd0 8c3d 7631 193c e72f 30bd caf3 983e
00000340: 98b9 8b3d 4d91 d73c 2e9c b6bd 75db 9bbd
00000350: 5017 bc3d 3014 1b3e 681f 57bc 91a0 39bd
00000360: f5d8 68be 4bdb 38bd 5867 4bbe c965 c43c
00000370: 3020 68bc 04aa 8d3e d942 513d 7700 70be
00000380: a7df 69be bd76 ba3c 916d 413e 4e46 adbc
00000390: 605e 2abe 70b5 e53d 1494 2cbd 8a48 09bb
000003a0: 260f 113e b534 be3d 1909 a4bd f13e e03d
000003b0: a21e 96bc b832 4c3e 6c1f 65be 04a6 41be
000003c0: bfa6 673e 2f9b 983e ed6c c7bc 8077 43be
000003d0: 7073 59bd 7b15 b6bd 1360 683d 9ae3 a4bc
000003e0: 1d47 223e 44e9 b6be 0feb bf3e ed23 3c3c
000003f0: 100b 08be ca7a f33c 8bbe 40bd d229 4fbe

rgcns.1.h_bias f4 [32]
0.06455888 -0.046198912 0.11947983 0.1691768 -0.23470418 0.014399212 0.09693398 -0.04894801
-0.734131 -0.078819916 0.092369124 0.1137976 0.07299207 -0.07306324 0.0075417133 -0.21198298
-0.25604624 -0.10039963 -0.050888035 -0.19714248 -0.011365643 0.10171022 0.14827856 -0.26948738
0.15714319 0.09096744 -0.3498945 -0.12655985 -0.12268308 -0.1997341 -0.08591012 0.07103508
00000000: 7237 843d 123b 3dbd d7b1 f43d af3c 2d3e
00000010: 4b56 70be acea 6b3c 5385 c63d b57d 48bd
00000020: 02f0 3bbf 566c a1bd 062c bd3d b70e e93d
00000030: de7c 953d 2ea2 95bd 7a20 f73b 1112 59be
00000040: 7e18 83be 529e cdbd f96f 50bd b8df 49be
00000050: f636 3abc 734d d03d 56d6 173e 40fa 89be
00000060: 25ea 203e 234d ba3d 5f25 b3be e898 01be
00000070: 4441 fbbd 1987 4cbe a5f1 afbd d77a 913d

rgcns.1.loop_weight f4 [32, 32]
-0.34977108 0.16574231 -0.011319806 -0.5206627 -0.1575813 -0.15641037 -0.069677934 0.47667035
0.44139412 -0.6184582 -0.15795064 -0.20804012 0.006024278 -0.066948034 -0.43520215 0.039786242
0.21786904 0.16643848 -0.16305472 -0.08601323 -0.30386248 0.28166148 -0.006572344 -0.36697242
-0.23066096 0.3144117 0.0045706974 -0.2534714 0.2654397 -0.13103063 -0.25921002 0.24549156
-0.49136758 0.13339697 0.09536906 0.27533135 -0.2375156 0.082899526 -0.08756529 0.2179359
0.1980081 0.12196993 0.50490195 -0.22830302 -0.29678607 0.3627906 0.21369013 -0.03390403
0.4818613 -0.27517277 -0.07494845 -0.04890873 0.0037666443 -0.1294391 -0.36674562 0.28157178
0.44782457 -0.029754147 -0.008668598 0.019144522 0.27251488 0.17756699 -0.47805193 -0.050889637
0.37598598 0.12179615 -0.0782415 -0.4007016 0.27406707 -0.3106767 0.3859664 0.50076777
0.015122781 -0.12004717 -0.08388648 -0.24208458 -0.21088016 -0.17044756 -0.13624418 -0.16730943
-0.17038082 0.026074743 -0.473805 -0.22068858 -0.33128536 -0.50136423 0.037613228 0.075259745
-0.0030532682 -0.36109802 -0.030886317 -0.20637392 -0.30337122 0.029815646 -0.57933193 0.04992846
0.002175131 0.20979318 -0.21514583 -0.11826347 -0.0958755 -0.06970632 0.2789779 -0.1083381
-0.18208063 0.276456 0.025715057 0.15609764 0.038970787 -0.37572324 -0.13525073 0.004920041
0.026531655 -0.3029697 -0.0647149 -0.06259056 0.28885177 -0.46264258 -0.12383613 0.036266904
0.44972563 0.26051557 -0.21487924 -0.14346412 -0.15641963 -0.042905618 -0.1900459 0.3394864
0.22068284 -0.1715224 -0.24083291 0.11692243 0.17297123 0.063586004 -0.38327125 -0.15425718
-0.47664183 -0.3743333 -0.21285711 -0.032478474 0.16471961 -0.12921293 -0.05982231 0.1511649
-0.18120524 -0.23240769 -0.19858114 0.21150681 -0.25547022 -0.028416693 -0.15312171 -0.14502086
0.2492329 0.018895397 -0.20254405 -0.32272977 -0.16613087 0.40293 0.2613053 -0.44570282
0.25015807 0.015521329 0.2932914 0.09681616 0.26164398 -0.4567221 -0.37100095 -0.3202258
-0.3659058 -0.46185088 -0.08396042 0.08532354 0.42247137 0.27812433 -0.2602232 0.17652576
-0.19986087 0.21012944 0.2797463 0.069324404 -0.46995822 0.15471733 0.517118 -0.33665732
0.17627609 0.24483494 0.17284302 -0.23460117 0.37319043 0.22107893 0.041490987 0.11216144
0.02466853 -0.22409807 -0.25732556 -0.4004608 0.037957583 -0.033774197 -0.27173683 -0.13810606
-0.40835845 -0.3614348 0.057417337 0.34061453 -0.019773476 0.36820012 0.44548172 0.29781187
0.11847298 0.29962713 -0.004803483 -0.15021583 0.11884283 -0.33657852 -0.44943595 -0.3767171
0.15671186 0.22754803 -0.38592312 0.16629075 0.2891536 0.16610602 0.08062791 0.031895336
-0.37665403 -0.0049115713 -0.38655883 -0.009116734 0.33678502 -0.0679633 -0.004185 0.0049854903
0.7700757 0.15606196 -0.529269 -0.302156 -0.3448609 -0.08568551 -0.11890696 0.2950402
0.12383166 0.049878113 0.10478687 0.28907794 0.060603183 0.40000173 0.14256914 -0.2496534
-0.3618953 0.36180502 0.057259135 0.22772813 0.0138291605 -0.18657887 0.20812632 0.14963295
00000000: 3215 b3be 5ab8 293e b576 39bc 274a 05bf
00000010: fe5c 21be 0a2a 20be 4eb3 8ebd 230e f43e
00000020: 69fe e13e 4753 1ebf d0bd 21be 7808 55be
00000030: 4e67 c53b 0d1c 89bd d1d2 debe e6f6 223d
00000040: 1019 5f3e d96e 2a3e d1f7 26be b427 b0bd
00000050: dd93 9bbe ef35 903e d15c d7bb cfe3 bbbe
00000060: 6332 6cbe 92fa a03e cac5 953b 01c7 81be
00000070: b6e7 873e e52c 06be 2db7 84be 2462 7b3e
00000080: 8894 fbbe 3799 083e db50 c33d 3bf8 8c3e
00000090: 4a37 73be 3ac7 a93d 6e55 b3bd 972a 5f3e
000000a0: a3c2 4a3e 5fcb f93d 4141 013f 44c8 69be
000000b0: 58f4 97be b1bf b93e 96d1 5a3e f4de 0abd
000000c0: 86b6 f63e 72e3 8cbe 937e 99bd 8554 48bd
000000d0: ced9 763b af8b 04be 15c6 bbbe 2d2a 903e
000000e0: 4349 e53e f8be f3bc bc06 0ebc f9d4 9c3c
000000f0: 1287 8b3e 1fd4 353e 39c3 f4be a771 50bd
00000100: 3c81 c03e 4370 f93d 143d a0bd c328 cdbe
00000110: 8552 8c3e 0411 9fbe 639d c53e 5132 003f
00000120: 8ac5 773c 4adb f5bd adcc abbd 05e5 77be
00000130: f8f0 57be ce89 2ebe 9883 0bbe 2a53 2bbe
00000140: 4f78 2ebe b39a d53c 9296 f2be 30fc 61be
00000150: 3c9e a9be 6859 00bf 5410 1a3d c821 9a3d
00000160: 5719 48bb d7e1 b8be 4d05 fdbc af53 53be
00000170: 7953 9bbe f13f f43c 194f 14bf c981 4c3d
00000180: a58c 0e3b 06d4 563e 304f 5cbe 1e34 f2bd
00000190: 605a c4bd 30c2 8ebd 31d6 8e3e 5ee0 ddbd
000001a0: 5873 3abe a48b 8d3e 62a8 d23c 0fd8 1f3e
000001b0: d59f 1f3d cc5e c0be 2b7f 0abe 4c38 a13b
000001c0: ea58 d93c d81e 9bbe 3f89 84bd 7b2f 80bd
000001d0: 61e4 933e 7ddf ecbe cc9d fdbd 9b8c 143d
000001e0: 7042 e63e 4c62 853e 4e09 5cbe 42e8 12be
000001f0: 782c 20be cdbd 2fbd 649b 42be 29d1 ad3e
00000200: affa 613e 91a3 2fbe e79c 76be 0775 ef3d
00000210: 5f1f 313e 6139 823d 213c c4be 98f5 1dbe
00000220: 660a f4be 9da8 bfbe 37f7 59be 2608 05bd
00000230: 42ac 283e 6550 04be 3d08 75bd f9ca 1a3e
00000240: de8d 39be 48fc 6dbe db58 4bbe 3e95 583e
00000250: fecc 82be 20ca e8bc f0cb 1cbe 5980 14be
00000260: e936 7f3e 85ca 9a3c b567 4fbe d63c a5be
00000270: 361e 2abe d74c ce3e cfc9 853e 2933 e4be
00000280: b814 803e 2c4d 7e3c 4a2a 963e 8d47 c63d
00000290: 33f6 853e 7bd7 e9be d6f3 bdbe a3f4 a3be
000002a0: 0158 bbbe b877 ecbe 71f3 abbd 1cbe ae3d
000002b0: 2b4e d83e 5066 8e3e fa3b 85be 2bc3 343e
000002c0: 54a8 4cbe 2c2c 573e e83a 8f3e f4f9 8d3d
000002d0: 5d9e f0be 386e 1e3e d861 043f 595e acbe
000002e0: b881 343e 03b6 7a3e c3fd 303e 4a3b 70be
000002f0: d112 bf3e 8462 623e 74f2 293d e6b4 e53d
00000300: a815 ca3c f779 65be 2dc0 83be 3309 cdbe
00000310: 6979 1b3d d056 0abd 1721 8bbe ad6b 0dbe
00000320: 5c14 d1be fb0d b9be 712e 6b3d 0765 ae3e
00000330: fcfb a1bc ba84 bc3e 2e16 e43e cc7a 983e
00000340: f6a1 f23d ba68 993e 8966 9dbb 2ed2 19be
00000350: df63 f33d 0554 acbe 781c e6be 10e1 c0be
00000360: 1379 203e 5a02 693e b797 c5be 1f48 2a3e
00000370: f10b 943e b217 2a3e 3f20 a53d afa4 023d
00000380: ccd8 c0be 3ff1 a0bb 0aeb c5be 5b5e 15bc
00000390: 166f ac3e 5830 8bbd 5322 89bb 535d a33b
000003a0: ae23 453f b5ce 1f3e 2c7e 07bf 31b4 9abe
000003b0: 9c91 b0be e27b afbd 7e85 f3bd 820f 973e
000003c0: 749b fd3d fe4c 4c3d 809a d63d 0602 943e
000003d0: 0b3b 783d 07cd cc3e a5fd 113e 24a5 7fbe
000003e0: 574a b9be 823e b93e 8e88 6a3d 9031 693e
000003f0: b493 623c 880e 3fbe 111f 553e 6139 193e
