parameters/cgmc_office_edge_0.2144.pt (torch, 270182 bytes, 20 tensors)

conv0.bias f4 [16]
-0.5021394 -0.46677914 -0.4117155 -0.4171588 -0.5019732 -0.46660167 -0.41172212 -0.41713744
-0.5022848 -0.46690866 -0.4117144 -0.41717896 -0.50215083 -0.466801 -0.4117154 -0.41715738
00000000: 358c 00bf adfd eebe 60cc d2be d795 d5be
00000010: 5181 00bf 6ae6 eebe 3ecd d2be 0a93 d5be
00000020: bd95 00bf a70e efbe 3bcc d2be 7b98 d5be
00000030: f58c 00bf 8a00 efbe 5ccc d2be a795 d5be

conv0.fc_node.weight f4 [128, 4]
0.09570946 -0.15194109 -0.17580304 0.17932993 0.15120147 -0.10250192 -0.009126255 0.19837801
-0.101486705 -0.17038748 0.00828886 0.046289284 0.0014352872 -0.19489197 -0.00030375095 -0.23114847
-0.060854804 -0.24401684 -0.17621806 0.0014654282 0.027876755 0.0072580012 -0.111419745 -0.0075997342
0.24470954 0.006224559 -0.17938788 -0.05791043 -0.16096354 0.070298456 -0.08985012 -0.04537905
-0.12670544 -0.20800242 -0.3249138 -0.040612534 0.031592973 0.15696508 0.22226173 0.034437805
0.16334412 -0.1372317 0.08555072 -0.040446512 0.14186136 -0.004643695 -0.08867149 -0.004489517
-0.0030454649 -0.13440509 0.10008074 7.856437e-05 -0.110664204 0.059929416 0.100299716 -0.07968776
-0.157526 -0.24353494 0.03114825 0.18680039 -0.2497565 0.21602021 -0.017824275 -0.054102525
-0.032375194 -0.18612416 -0.094501324 0.22745308 0.13465005 0.07864817 -0.03235941 0.07674234
-0.075607724 0.014899729 0.06082848 0.046189774 0.31905842 -0.1857638 -0.13621403 0.012516051
-0.015644612 -0.006187628 -0.0074039497 0.15420587 -0.09282551 0.08073325 -0.010270906 -0.0628363
-0.037353393 0.10849474 0.16498573 0.067503124 -0.18898211 -0.10691799 0.12089597 -0.08356991
-0.03823578 -0.12238573 -0.15325674 -0.08815495 0.08308093 -0.015266427 0.10334471 -0.09164294
-0.26757425 -0.3852556 0.1896708 0.038466867 -0.014107778 -0.21548152 -0.03990155 -0.15553652
-0.08686616 0.04785407 0.028144818 -0.0497778 0.0075418795 -0.031560875 -0.027063688 -0.24648765
-0.13583422 -0.11436481 -0.1343497 0.09797738 -0.20957616 0.30949202 -0.14300972 1.7483471e-05
-0.062566265 -0.03371756 -0.10050048 -0.046919152 -0.07106269 0.09732848 0.049448147 0.19615176
-0.1076076 -0.074179344 -0.1860762 -0.022767873 -0.009382035 0.13806 -0.12343268 -0.27906165
-0.13421276 0.12292956 -0.17622872 -4.6810863e-05 -0.040495507 0.08650593 0.009221474 -0.046163324
0.10813066 0.039973795 -0.0538427 0.14038144 -0.13121517 -0.055232722 -0.097212456 0.09477558
-0.10868105 0.027950026 -0.29196754 0.023620317 -0.11826247 0.12769116 -0.049127623 -0.03945908
-0.00042063562 0.048604857 -0.19278112 -0.20332721 -0.22465451 -0.07383529 -0.20046718 -0.018906584
-0.009891521 -0.32786748 0.023047337 -0.02218473 0.15110515 0.13081875 -0.034658954 -0.13241751
-0.1426459 0.07495933 -0.12280445 0.013078902 -0.107580796 -0.15197264 -0.0792621 -0.069248475
0.15711541 -0.27930433 -0.05550447 0.18168886 -0.07437681 -0.23843315 0.063184075 0.20726416
0.20694853 -0.07877309 0.08492419 0.087767825 -0.10792145 -0.18149066 0.018900992 0.16737403
-0.083126634 0.28122747 0.13645522 0.21190567 0.10017232 -0.22890866 -0.020693569 -0.2802918
-0.17774497 -0.13426614 -0.08002572 0.038329307 0.012321137 -0.13119388 -0.11195726 0.17183349
-0.0154508585 0.18139885 -0.109060526 -0.007804148 0.12008803 -0.015674328 0.07614796 -0.009174208
-0.357324 -0.018585386 0.0052672047 0.14317045 0.07980277 0.19942258 -0.06909364 0.26885882
-0.072410084 0.106730744 -0.30140415 -0.00059814856 0.16311873 0.10866401 0.24083236 -0.04944162
0.17971262 -0.083058 0.06885958 -0.17846267 0.080012634 0.039433368 0.18265213 -0.08164567
00000000: 5203 c43d 7296 1bbe b605 34be 44a2 373e
00000010: 8fd4 1a3e 87ec d1bd 4a86 15bc 9b23 4b3e
00000020: 43d8 cfbd 0e7a 2ebe 00ce 073c d599 3d3d
00000030: 3f20 bc3a c391 47be c340 9fb9 2fb2 6cbe
00000040: e342 79bd 8ddf 79be 8272 34be 9c13 c03a
00000050: cb5d e43c 87d4 ed3b 0930 e4bd 3107 f9bb
00000060: 2395 7a3e 63f7 cb3b 75b1 37be 7d33 6dbd
00000070: a0d3 24be a3f8 8f3d 5703 b8bd 62df 39bd
00000080: 12bf 01be 96fe 54be 1a5b a6be 5459 26bd
00000090: a267 013d 74bb 203e 9498 633e a80e 0d3d
000000a0: ae43 273e 7786 0cbe 3735 af3d 3eab 25bd
000000b0: 1b44 113e 232a 98bb 6699 b5bd cc1c 93bb
000000c0: 6c96 47bb 7da1 09be 22f7 cc3d edc2 a438
000000d0: eaa3 e2bd 8c78 753d f069 cd3d 5633 a3bd
000000e0: 7f4e 21be 3961 79be 9d2a ff3c 9a48 3f3e
000000f0: 2bc0 7fbe 6734 5d3e 3704 92bc 9c9a 5dbd
00000100: da9b 04bd 5597 3ebe e989 c1bd 76e9 683e
00000110: b4e1 093e 4b12 a13d 4d8b 04bd 172b 9d3d
00000120: 39d8 9abd fe1d 743c 4927 793d 7d31 3d3d
00000130: a05b a33e de38 3ebe b17b 0bbe 1f10 4d3c
00000140: 2129 80bc 96c1 cabb d59c f2bb 25e8 1d3e
00000150: 4d1b bebd 7957 a53d 4d47 28bc 51b0 80bd
00000160: dfff 18bd 7e32 de3d 05f2 283e 143f 8a3d
00000170: 8784 41be d2f7 dabd 4e98 f73d b326 abbd
00000180: 1f9d 1cbd 5fa5 fabd 56ef 1cbe 958a b4bd
00000190: 5626 aa3d 0920 7abc 64a6 d33d 4baf bbbd
000001a0: 7eff 88be 3940 c5be 1039 423e 6f8f 1d3d
000001b0: 4f24 67bc 30a7 5cbe cf6f 23bd f744 1fbe
000001c0: e3e6 b1bd a102 443d f68f e63c cee3 4bbd
000001d0: df21 f73b fa45 01bd abb4 ddbc 4267 7cbe
000001e0: 2018 0bbe 1938 eabd f892 09be 5da8 c83d
000001f0: 229b 56be bd75 9e3e 2471 12be 78a9 9237
00000200: be22 80bd 6d1b 0abd 32d3 cdbd 4c2e 40bd
00000210: 5189 91bd 2754 c73d 248a 4a3d 02dc 483e
00000220: 6061 dcbd 57eb 97bd c28a 3ebe b183 babc
00000230: 1bb7 19bc 9a5f 0d3e 46ca fcbd 2be1 8ebe
00000240: 126f 09be 7ec2 fb3d 4d75 34be c856 44b8
00000250: 9ede 25bd 052a b13d aa15 173c c115 3dbd
00000260: 9c73 dd3d 90bb 233d 2a8a 5cbd 27c0 0f3e
00000270: 455d 06be b53b 62bd 5317 c7bd b319 c23d
00000280: 2c94 debd 74f7 e43c c57c 95be 657f c13c
00000290: 9833 f2bd 79c1 023e 0c3a 49bd d89f 21bd
000002a0: c288 dcb9 e315 473d 6a68 45be 0235 50be
000002b0: d50b 66be f536 97bd 4547 4dbe fbe1 9abc
000002c0: 0c10 22bc 3fde a7be c5cd bc3c c0bc b5bc
000002d0: 4fbb 1a3e 5af5 053e 8cf6 0dbd 7598 07be
000002e0: c411 12be 4784 993d e680 fbbd e448 563c
000002f0: 5253 dcbd b79e 1bbe 2b54 a2bd 25d2 8dbd
00000300: dde2 203e fa00 8fbe a858 63bd a50c 3a3e
00000310: de52 98bd d227 74be a766 813d 0e3d 543e
00000320: 51ea 533e c953 a1bd bcec ad3d 9ebf b33d
00000330: ec05 ddbd b0d8 39be 41d6 9a3c 1964 2b3e
00000340: 4c3e aabd 0cfd 8f3e ebba 0b3e cdfd 583e
00000350: 2527 cd3d 0867 6abe 8f85 a9bc 6882 8fbe
00000360: c702 36be 107d 09be 86e4 a3bd 31ff 1c3d
00000370: 98de 493c b057 06be d949 e5bd 1ef5 2f3e
00000380: 9925 7dbc 9fc0 393e 205b dfbd f0b9 ffbb
00000390: b7f0 f53d 7367 80bc 76f3 9b3d 6b4f 16bc
000003a0: 2cf3 b6be 6140 98bc 8498 ac3b 469b 123e
000003b0: a26f a33d 6f35 4c3e f780 8dbd dda7 893e
000003c0: bd4b 94bd a695 da3d a551 9abe 12cd 1cba
000003d0: 9908 273e 3d8b de3d c29c 763e 4c83 4abd
000003e0: 9606 383e 501a aabd 4006 8d3d ebbe 36be
000003f0: aadd a33d e284 213d 2909 3b3e d835 a7bd

conv0.fc_node.bias f4 [128]
0.23426723 0.3330133 -0.36386114 0.23448259 -0.07506686 -0.1316213 -0.0034214447 0.24656737
0.18870538 0.107401565 -0.018995093 0.2866091 0.33536676 -0.27834415 -0.25312245 0.079551056
0.016909432 -0.4241195 -0.43052024 -0.04710866 -0.11558671 0.38733464 0.09853554 0.10244385
-0.11795572 -0.309444 0.33069006 -0.1052856 -0.1642679 -0.31965926 -0.14750001 -0.21723747
0.15184766 0.019636024 -0.040855195 0.08726655 0.26011914 -0.31208694 -0.42430833 0.34897152
-0.024057165 -0.4609801 0.032903887 0.39362144 0.4850928 0.17342041 0.1261593 0.2711544
-0.0838556 0.1861532 0.38398895 0.12223111 -0.27620122 0.327911 0.36388 -0.37727723
-0.07287243 0.33605003 -0.4380325 -0.38065514 -0.37023228 0.35708606 -0.18933077 -0.15528557
0.12599993 -0.45900065 0.37722683 0.41678858 0.29617804 -0.15583594 0.5095247 0.35604155
0.052090134 0.23836239 0.3055186 -0.42220473 -0.38789776 0.062855065 -0.43882066 0.037007615
0.3440898 0.43192646 0.30131808 -0.021042684 0.1531169 -0.54288465 -0.22589283 0.15645675
0.34486216 -0.1641908 0.51338756 -0.11186561 0.21746439 0.25705668 0.09944144 0.30501533
-0.33520266 -0.29478538 0.2140475 -0.07524597 -0.10264917 0.19085608 -0.3559309 -0.39151433
0.26928166 -0.0010018807 0.14344066 -0.43112567 -0.33286333 0.07000366 0.3929795 0.028154356
-0.3652793 -0.21653347 -0.27427635 -0.07607755 -0.08780699 0.17040949 -0.12211364 0.36307308
0.13815781 0.07357575 -0.30195984 0.51084274 0.36096856 -0.09512316 0.3655774 0.15847321
00000000: c0e3 6f3e b880 aa3e 024c babe 341c 703e
00000010: a7bc 99bd bcc7 06be 513a 60bb 287c 7c3e
00000020: fc3b 413e 5af5 db3d 999b 9bbc 6ebe 923e
00000030: 31b5 ab3e 2083 8ebe 4499 81be aaeb a23d
00000040: a685 8a3c 3126 d9be 266d dcbe 03f5 40bd
00000050: bab8 ecbd ba50 c63e 00cd c93d 15ce d13d
00000060: c592 f1bd 726f 9ebe 3550 a93e fa9f d7bd
00000070: d835 28be 61aa a3be 3e0a 17be 8073 5ebe
00000080: f47d 1b3e badb a03c c757 27bd ceb8 b23d
00000090: 562e 853e dcc9 9fbe f13e d9be 65ac b23e
000000a0: 8813 c5bc 9505 ecbe 3ac6 063d c088 c93e
000000b0: 155e f83e 1f95 313e e72f 013e c0d4 8a3e
000000c0: 7cbc abbd f29e 3e3e 339a c43e 4e54 fa3d
000000d0: 3f6a 8dbe f3e3 a73e 7b4e ba3e 7b2a c1be
000000e0: 243e 95bd c00e ac3e cc45 e0be 3be5 c2be
000000f0: 168f bdbe fcd3 b63e eddf 41be 2e03 1fbe
00000100: 2006 013e 2202 ebbe e023 c13e 5065 d53e
00000110: a6a4 973e 7593 1fbe 3670 023f 144b b63e
00000120: 775c 553d 4515 743e ef6c 9c3e 382b d8be
00000130: 899a c6be 28ba 803d 1aad e0be 4c95 173d
00000140: 8a2c b03e 7725 dd3e 5d46 9a3e b561 acbc
00000150: adca 1c3e 7dfa 0abf 7350 67be 3336 203e
00000160: c691 b03e a221 28be 5e6d 033f cc19 e5bd
00000170: fcae 5e3e ef9c 833e f4a7 cb3d f82a 9c3e
00000180: af9f abbe 1cee 96be 452f 5b3e 8f1a 9abd
00000190: ba39 d2bd c76f 433e 933c b6be 9174 c8be
000001a0: 49df 893e 8a51 83ba 1ce2 123e 81bc dcbe
000001b0: 106d aabe 145e 8f3d 9c34 c93e f7a3 e63c
000001c0: e305 bbbe f3ba 5dbe f36d 8cbe 8cce 9bbd
000001d0: 27d4 b3bd d37f 2e3e b716 fabd b7e4 b93e
000001e0: 3e79 0d3e e2ae 963d 7b9a 9abe 97c6 023f
000001f0: dfd0 b83e eecf c2bd f62c bb3e cd46 223e

conv0.fc_fij.weight f4 [16, 34]
0.33334723 -0.03606789 -0.4165109 0.18640538 -0.088586174 0.10131091 -0.7494637 -0.099446945
0.04374592 0.0994659 -0.2087649 -0.070948005 0.13925698 0.35183194 -0.124035925 0.23793618
0.40854216 0.27076334 0.127122 -0.2719767 0.042932883 0.31565174 -0.36493483 0.3616908
0.41843036 0.19503486 -0.33647284 0.18252738 0.059308615 -0.025247777 0.47708926 -0.043544784
0.37593663 -0.04891259 0.3381265 0.04399625 0.018211013 -0.4168988 0.04951359 -0.1951275
-0.115863085 -0.16672827 -0.14409456 -0.51299286 0.109489605 0.15222909 0.31374684 0.08261024
0.20288551 -0.11758345 -0.06351057 -0.05029105 0.10164896 0.09810477 0.22606678 0.41508868
-0.08017585 0.024308 0.097460456 -0.12666592 0.46500343 -0.08965918 -0.28589857 -0.017150126
-0.055214126 -0.06522025 -0.37466213 0.48884514 -0.3935887 0.3405636 -0.43084583 0.024947679
0.16111742 -0.1876935 -0.115871325 -0.06621563 -0.10172495 -0.24908672 0.11225684 0.27937773
0.4103313 -0.098470956 0.21742505 -0.070236355 -0.31373334 0.00775984 0.12322265 -0.25757948
0.27116278 0.049651753 -0.018377598 -0.10090341 0.08320493 0.022529243 0.29534864 -0.13703409
-0.34712425 0.38824067 -0.4003358 -0.4184854 0.6022338 -0.2892702 -0.8686651 -0.37036067
0.33307818 0.055596087 0.5535456 -0.55412745 0.47227025 0.12161141 -0.63072896 -0.13665858
0.12290571 -0.13299546 0.29678765 0.10006488 -1.0022616 -0.31051877 -0.002948868 0.42124543
-0.03193297 0.31913826 -0.08114521 -0.2137678 -0.08374481 -0.54654586 0.14289612 -0.13851683
0.121198416 0.4416023 0.073737726 -0.00966309 -0.18930571 -0.0037534346 0.07959333 -0.33574885
0.83514965 -0.6570803 0.1211169 -0.121172436 -0.44917378 -0.36132747 0.32910728 0.2720485
0.44936666 -0.31309363 0.041676424 0.41946527 -0.31919435 0.38085324 0.035846055 -0.22923015
-0.25684592 -0.22965515 0.032331277 -0.15024841 -0.14320517 0.09502021 0.22738513 -0.25815815
-0.1646975 -0.37449086 0.4520453 0.17452136 0.055747386 -0.5953992 -0.684887 -0.32787335
0.52082664 -0.05915924 0.14451209 -0.13239272 -0.06745872 0.5466977 -0.009560413 -0.2796562
-0.061631575 0.26763493 -0.16965778 -0.119346686 -0.08951934 0.13756561 0.2606873 -0.24209133
-0.1031139 -0.13401064 0.20773432 -0.0015576679 -0.26971546 -0.2338294 -0.27590945 0.14572825
-0.09702498 -0.29506594 0.08688709 0.24500698 -0.18988188 -0.082737274 0.27194762 0.15088573
-0.39146015 -0.0892014 -0.52364856 0.8232327 0.50274587 0.25799695 0.21347918 -0.22894944
-0.1495484 0.3625019 -0.027364481 0.10709592 0.25237587 -0.0810561 0.013716871 0.22523463
-0.054913413 -0.04698093 0.17168686 0.033528533 -0.2299097 -0.261391 -0.45759445 0.029650135
-0.33370984 -0.0033529224 -0.18910347 0.28322303 -0.06980325 0.1956117 -0.57976854 -0.20236279
0.02005612 0.06780575 0.16091356 0.6461354 0.8166518 -0.24076727 -0.2691693 0.4108128
-0.1574447 -0.19146957 0.07756925 0.3481011 0.5095821 0.19702059 0.05284369 0.3371867
0.6201435 0.04359468 -0.005446827 -0.059993617 0.012282518 0.2754309 0.500566 -0.21595807
00000000: 7dac aa3e ecbb 13bd eb40 d5be 0de1 3e3e
00000010: ab6c b5bd 187c cf3d dadc 3fbf d7aa cbbd
00000020: ec2e 333d c7b4 cb3d 77c6 55be 304d 91bd
00000030: 6299 0e3e 5123 b43e 8c06 febd 8ba5 733e
00000040: 702c d13e 7ea1 8a3e 452c 023e 8840 8bbe
00000050: 64da 2f3d 1b9d a13e bdd8 babe 892f b93e
00000060: 813c d63e 38b7 473e 2b46 acbe 75e8 3a3e
00000070: 97ed 723d 6dd4 cebc 0b45 f43e 045c 32bd
00000080: c47a c03e 9158 48bd eb1e ad3e 6935 343d
00000090: 432f 953c c273 d5be c3ce 4a3d 81cf 47be
000000a0: a049 edbd d1ba 2abe 868d 13be 8053 03bf
000000b0: 163c e03d f1e1 1b3e 6da3 a03e 8f2f a93d
000000c0: 38c1 4f3e 98cf f0bd d411 82bd fdfd 4dbd
000000d0: 542d d03d 27eb c83d 0d7e 673e 8186 d43e
000000e0: 3c33 a4bd 9221 c73c 5999 c73d b6b4 01be
000000f0: ee14 ee3e 3b9f b7bd 4c61 92be 6c7e 8cbc
00000100: 3528 62bd 3292 85bd b7d3 bfbe e949 fa3e
00000110: 7584 c9be 5a5e ae3e d397 dcbe 135f cc3c
00000120: f7fb 243e ba32 40be f24d edbd 0f9c 87bd
00000130: 2c55 d0bd 9710 7fbe eae6 e53d 990a 8f3e
00000140: f216 d23e 24ab c9bd aca4 5e3e 14d8 8fbd
00000150: a8a1 a0be 4246 fe3b 285c fc3d 75e1 83be
00000160: d9d5 8a3e a35f 4b3d 9e8c 96bc 72a6 cebd
00000170: 5967 aa3d 3f8f b83c f037 973e aa52 0cbe
00000180: 45ba b1be 7bc7 c63e d0f8 ccbe b843 d6be
00000190: ff2b 1a3f 391b 94be d660 5ebf ea9f bdbe
000001a0: 3989 aa3e b9b8 633d 2ab5 0d3f 4cdb 0dbf
000001b0: 68cd f13e 670f f93d 7477 21bf 3af0 0bbe
000001c0: fdb5 fb3d f62f 08be 8df4 973e d1ee cc3d
000001d0: 1c4a 80bf 51fc 9ebe cc41 41bb 7bad d73e
000001e0: 25cc 02bd 1766 a33e 762f a6bd f2e5 5abe
000001f0: 6682 abbd 6eea 0bbf 5c53 123e 5bd7 0dbe
00000200: e036 f83d b219 e23e ce03 973d f051 1ebc
00000210: 5bd9 41be 2ffc 75bb d401 a33d 46e7 abbe
00000220: 5ecc 553f 6a36 28bf 230c f83d 4129 f8bd
00000230: 1bfa e5be eaff b8be c080 a83e f149 8b3e
00000240: 6313 e63e cf4d a0be e6b4 2a3d 27c4 d63e
00000250: 716d a3be 32ff c23e 50d3 123d 4fbb 6abe
00000260: 4f81 83be b82a 6bbe cd6d 043d b8da 19be
00000270: 60a4 12be f599 c23d a6d7 683e 4e2d 84be
00000280: 76a6 28be 44bd bfbe 7b72 e73e bab5 323e
00000290: 5f57 643d 156c 18bf c154 2fbf 04df a7be
000002a0: e554 053f f650 72bd fafa 133e f591 07be
000002b0: cc27 8abd 61f4 0b3f 47a3 1cbc 192f 8fbe
000002c0: 6471 7cbd 7207 893e c5ba 2dbe 096c f4bd
000002d0: ea55 b7bd 00de 0c3e ce78 853e cae6 77be
000002e0: 612d d3bd 163a 09be 4eb8 543e a92a ccba
000002f0: 2518 8abe f970 6fbe 0144 8dbe c939 153e
00000300: 08b5 c6bd e212 97be dcf1 b13d 1ce3 7a3e
00000310: 6570 42be 2972 a9bd b83c 8b3e ca81 1a3e
00000320: 776d c8be 39af b6bd d50d 06bf 61bf 523f
00000330: f4b3 003f 2d18 843e 499a 5a3e b971 6abe
00000340: 3723 19be d999 b93e 7a2b e0bc 1b55 db3d
00000350: 6937 813e be00 a6bd babc 603c e8a3 663e
00000360: e3ec 60bd 136f 40bd aece 2f3e 3755 093d
00000370: 736d 6bbe 0bd5 85be d249 eabe d7e4 f23c
00000380: 04dc aabe b4bc 5bbb 57a4 41be 9c02 913e
00000390: 02f5 8ebd 6f4e 483e b66b 14bf 3138 4fbe
000003a0: bb4c a43c bedd 8a3d 86c6 243e 2169 253f
000003b0: 1810 513f b28b 76be 8fd0 89be 0e56 d23e
000003c0: 2f39 21be 9910 44be a0dc 9e3d 4f3a b23e
000003d0: f973 023f c4bf 493e a072 583d bca3 ac3e
000003e0: b9c1 1e3f 5690 323d 4c7b b2bb debb 75bd
000003f0: 9d3c 493c 4705 8d3e 1825 003f 1d24 5dbe

conv0.fc_ni.weight f4 [16, 4]
0.7446961 -0.111437745 0.024127258 0.07887268 0.17941925 0.30713895 0.77516323 -0.10553392
0.08004812 -0.15843959 -0.14419307 0.8422586 0.41384113 -0.12992083 -0.3089201 -0.051224332
0.397375 0.3555987 0.32882258 0.87510395 -0.23089325 0.672353 -0.22792625 -0.1479772
0.10200657 -0.008720067 0.21947418 -0.20955795 0.010262741 -0.4907938 0.69628567 0.86845344
-0.24222873 1.053239 -0.601009 -0.21919641 -0.29754412 -0.022943044 0.15367793 0.5715944
0.68611217 -0.047287982 -0.117525615 -0.04490037 0.060034182 0.7760938 -0.034301944 0.62028563
0.5218816 0.16244225 -0.70198756 0.6095907 0.3132522 0.26244184 -1.0391034 0.15599154
0.28652528 0.10133807 0.021789392 -0.18742362 0.10182183 -0.48316595 0.097517736 0.45755774
00000000: 67a4 3e3f 7939 e4bd 87a6 c53c 0088 a13d
00000010: aeb9 373e 5141 9d3e 1971 463f 2b22 d8bd
00000020: 45f0 a33d fd3d 22be 59a7 13be 429e 573f
00000030: fce2 d33e f709 05be c62a 9ebe 9bd0 51bd
00000040: bc74 cb3e 0811 b63e 6f5b a83e d006 603f
00000050: 486f 6cbe 541f 2c3f 8065 69be 5687 17be
00000060: d2e8 d03d 9dde 0ebc d7bd 603e 5c96 56be
00000070: 0e25 283c 5349 fbbe c73f 323f f752 5e3f
00000080: cf0a 78be 89d0 863f badb 19bf 0675 60be
00000090: b457 98be 0df3 bbbc bf5d 1d3e 0354 123f
000000a0: 0ca5 2f3f 0bb1 41bd 45b1 f0bd 73e9 37bd
000000b0: 67e6 753d 15ae 463f 3280 0cbd 0acb 1e3f
000000c0: 089a 053f 4357 263e 75b5 33bf 230e 1c3f
000000d0: 9862 a03e c75e 863e 5701 85bf 3fbc 1f3e
000000e0: 71b3 923e 568a cf3d ab7f b23c faeb 3fbe
000000f0: f787 d03d 8761 f7be 61b7 c73d 0245 ea3e

conv0.fc_nj.weight f4 [16, 4]
-0.30861315 0.30098838 -0.75921166 0.13929701 -0.074303016 0.38656494 0.11288619 0.09194769
0.8055923 1.0093114 0.07233174 -0.3225866 -0.11750123 0.34933758 -0.488437 0.6312865
-0.2988968 -0.037580077 0.63546586 -0.527733 0.057115115 0.7690588 -1.1206881 -0.19579418
-0.3406981 0.01674465 0.2643124 -0.62478924 0.32214966 -0.3815365 0.38397232 -0.35245773
0.10210927 -0.74942786 0.22514421 0.3175966 0.38579017 -6.369256e-05 -0.30641985 0.002346053
-0.39387846 0.056417193 0.25629085 -0.7669491 0.6516343 1.0277166 -0.13208248 1.1898988
-0.0360307 -0.16279492 -0.58490354 0.45345265 -0.0704419 0.13393115 0.079786174 0.49578217
1.1809145 0.65996504 -0.3835667 0.14754623 -0.32332984 -0.4766766 0.5813964 0.17547618
00000000: 8b02 9ebe 261b 9a3e b25b 42bf e0a3 0e3e
00000010: 2e2c 98bd d7eb c53e e030 e73d 124f bc3d
00000020: 4c3b 4e3f 1e31 813f aa22 943d 122a a5be
00000030: 7ca4 f0bd 60dc b23e 6a14 fabe fe9b 213f
00000040: 0009 99be 91ed 19bd e4ad 223f 8319 07bf
00000050: 8af1 693d 0ae1 443f b572 8fbf 457e 48be
00000060: fb6f aebe 142c 893c f453 873e 30f2 1fbf
00000070: cdf0 a43e c158 c3be 0598 c43e 5775 b4be
00000080: aa1e d13d 81da 3fbf 348c 663e 069c a23e
00000090: 4a86 c53e af92 85b8 10e3 9cbe 3dc0 193b
000000a0: 70aa c9be b715 673d 8e38 833e c756 44bf
000000b0: 81d1 263f 388c 833f a140 07be 9b4e 983f
000000c0: ed94 13bd b6b3 26be 3dbc 15bf f22a e83e
000000d0: d843 90bd 3f25 093e ef66 a33d 29d7 fd3e
000000e0: 3528 973f 78f3 283f db62 c4be 5c16 173e
000000f0: 7d8b a5be f50e f4be 65d6 143f 07b0 333e

conv0.fc_edges.weight f4 [16, 48]
-0.0692104 -0.035260312 -0.20684953 -0.10730739 -0.10831087 -0.14467902 -0.020889863 -0.041427348
-0.22852626 -0.13028966 -0.10662435 -0.21154879 -0.048395183 0.077469215 0.01101128 0.027336128
-0.09635462 -0.2472856 -0.0951995 0.09453082 -0.14328833 -0.3491754 -0.1576172 0.16554493
0.113595985 -0.2915741 -0.043043442 0.049948677 -0.041733775 0.110540316 -0.29873845 -0.05098612
0.35836986 -0.1420082 -0.022379605 0.032862514 -0.0061754393 0.12970968 0.14601897 -0.12545162
-0.008715807 0.1281841 0.23324251 -0.1668243 0.01676652 -0.12830526 -0.20331572 -0.03597435
0.05563991 0.083294004 -0.024381896 0.035762098 0.105291516 -0.13967218 0.06016945 -0.11104158
0.086651444 -0.024869084 0.19081746 0.053144626 -0.12277465 0.13129865 0.013691021 -0.08742008
-0.10995753 -0.06295599 0.07675016 -0.13633646 -0.011225224 -0.25781316 0.04976147 0.043136843
-0.10968517 0.04181977 -0.23125654 0.07458625 0.16704595 -0.048812754 -0.2616295 -0.1466288
0.034118623 -0.03285783 -0.13561222 -0.17912175 0.070138276 -0.05850436 0.10479615 0.045749202
0.08726091 -0.16644593 0.024504883 -0.086475454 0.008977909 0.025374083 -0.058558606 0.08699791
0.011579182 -0.1930936 -0.048212014 0.11916936 0.033312827 0.009351124 -0.018350117 -0.018685307
-0.106682405 -0.027179176 0.153037 -0.20269318 0.09729776 0.12057484 -0.09185681 -0.060891397
-0.308566 0.13954312 0.09019127 0.24271753 0.12873319 -0.05708125 0.0766824 0.024835838
-0.001560796 -0.0996446 0.31081918 0.020273393 -0.13830987 0.04960159 -0.23067257 -0.53450084
0.24565506 0.12830871 0.069964685 0.20871545 0.079157226 0.12149848 0.14429215 -0.30663964
-0.029349415 -0.07099924 0.1248438 -0.019980276 0.1767491 -0.08878843 0.007234002 -0.088920936
-0.066081956 -0.15747589 0.081353925 0.1095319 0.059225187 -0.11478773 0.10986935 0.000626258
-0.03716407 0.070038795 0.07153562 0.1185488 0.089841396 0.000783103 -0.10830643 0.07531036
-0.098294154 -0.038309682 -0.18084715 0.15530838 -0.03831265 -0.20941383 0.10734852 0.1179573
-0.057395034 -0.20559832 0.16470434 0.4116501 -0.2604539 -3.033926e-05 0.21154194 -0.0012281605
0.010928412 -0.066388555 -0.042580727 -0.1390048 0.15466154 0.064048216 -0.010344203 0.13181393
0.03375288 -0.23448345 -0.004467027 -0.23223978 0.07613782 0.001692921 -0.04084459 0.034016494
-0.16731063 0.061840013 -0.055117343 0.0022348664 0.05067425 0.09836739 3.4730333e-06 -0.16444713
0.19323888 0.03089651 -0.07115601 0.1555915 0.11182672 -0.06773784 0.040365193 -0.07775307
0.16309682 -0.1700641 0.23144217 0.16955793 0.20006916 -0.13360327 0.27109325 -0.17802611
-0.05230383 -0.01286573 -0.0493261 0.053270876 0.33282685 -0.09321022 -0.00954297 0.06821806
0.12768 -0.101355426 -0.07877094 0.13028334 0.032236196 0.2584164 0.049984876 0.009631884
-0.011970576 0.14218211 0.06522501 0.0715758 0.15977389 0.015139007 -0.024063963 -0.11292389
0.07656916 -0.013760859 -0.20270418 0.13687524 -0.15419161 0.11452561 -0.05545809 -0.37748343
0.07092169 -0.24043232 0.07055218 -0.042579547 0.20760138 0.18663548 0.19397295 -0.14369032
00000000: 2fbe 8dbd 1e6d 10bd 5dd0 53be fac3 dbbd
00000010: 17d2 ddbd bd26 14be 3821 abbc b9af 29bd
00000020: ca02 6abe a76a 05be de5d dabd 3fa0 58be
00000030: 073a 46bd 2ea8 9e3d a868 343c 04f0 df3c
00000040: 9255 c5bd 7038 7dbe f5f7 c2bd 6099 c13d
00000050: 2dba 12be 1ec7 b2be 6766 21be 9c84 293e
00000060: 03a5 e83d 3349 95be 524e 30bd fc96 4c3d
00000070: 09f1 2abd f662 e23d 3ff4 98be d2d6 50bd
00000080: 417c b73e 996a 11be 6f55 b7bc d89a 063d
00000090: 575b cabb 9dd2 043e ff85 153e 6476 00be
000000a0: bfcc 0ebc b142 033e 20d7 6e3e fdd3 2abe
000000b0: f159 893c 7462 03be ff31 50be d759 13bd
000000c0: ade6 633d 0c96 aa3d 8bbc c7bc 477b 123d
000000d0: 14a3 d73d 3906 0fbe 3e74 763d c569 e3bd
000000e0: 5076 b13d 40ba cbbc a765 433e 2eae 593d
000000f0: 4771 fbbd 2773 063e 4e50 603c 4d09 b3bd
00000100: 6a31 e1bd 12ef 80bd 302f 9d3d c99b 0bbe
00000110: 00ea 37bc 1600 84be afd2 4b3d 42b0 303d
00000120: 9ea2 e0bd 354b 2b3d 84ce 6cbe adc0 983d
00000130: 180e 2b3e e2ef 47bd 4df4 85be dc25 16be
00000140: f8bf 0b3d ef95 06bd eedd 0abe b16b 37be
00000150: a8a4 8f3d 45a2 6fbd 5d9f d63d 8463 3b3d
00000160: d9b5 b23d cd70 2abe 77be c83c 0b1a b1bd
00000170: 1418 133c 4fdd cf3c 26db 6fbd f62b b23d
00000180: 9cb6 3d3c 54ba 45be f679 45bd 110f f43d
00000190: 0873 083d 7535 193c fc52 96bc ee11 99bc
000001a0: 4e7c dabd dda6 debc bbb5 1c3e cd8e 4fbe
000001b0: 0c44 c73d f1ef f63d 6c1f bcbd 4269 79bd
000001c0: 5dfc 9dbe 64e4 0e3e 33b6 b83d f28a 783e
000001d0: a2d2 033e 07ce 69bd aa0b 9d3d 8774 cb3c
000001e0: a093 ccba 7812 ccbd b123 9f3e 6314 a63c
000001f0: 1aa1 0dbe 092b 4b3d 6e35 6cbe 0cd5 08bf
00000200: 008d 7b3e 5c63 033e a549 8f3d 81b9 553e
00000210: 2f1d a23d 32d4 f83d 52c1 133e dfff 9cbe
00000220: 2f6e f0bc 0d68 91bd 1bae ff3d adad a3bc
00000230: b7fd 343e b5d6 b5bd 350b ed3b 2e1c b6bd
00000240: fa55 87bd 5c41 21be e39c a63d 4352 e03d
00000250: 1c96 723d d415 ebbd 2f03 e13d 772b 243a
00000260: 5a39 18bd 8070 8f3d 4481 923d b7c9 f23d
00000270: c4fe b73d 2749 4d3a c3cf ddbd 513c 9a3d
00000280: 724e c9bd 9dea 1cbd ff2f 39be 2909 1f3e
00000290: baed 1cbd 9470 56be 8ad9 db3d 9993 f13d
000002a0: 0e17 6bbd 5e88 52be 41a8 283e cdc3 d23e
000002b0: 375a 85be 1181 feb7 739e 583e 3afa a0ba
000002c0: 150d 333c b9f6 87bd 2169 2ebd 4657 0ebe
000002d0: 985f 1e3e b62b 833d bb7a 29bc 3bfa 063e
000002e0: 7640 0a3d 6e1c 70be 2360 92bb 44d0 6dbe
000002f0: 25ee 9b3d 01e5 dd3a a84c 27bd e154 0b3d
00000300: 7a53 2bbe f44b 7d3d b9c2 61bd d676 123b
00000310: cd8f 4f3d d874 c93d 4212 6936 d464 28be
00000320: 6ae0 453e ae1a fd3c 3eba 91bd 6153 1f3e
00000330: 6805 e53d 23ba 8abd f955 253d 003d 9fbd
00000340: da02 273e 4925 2ebe 2dff 6c3e 98a0 2d3e
00000350: eede 4c3e 4ccf 08be bccc 8a3e 7a4c 36be
00000360: 8a3c 56bd c8ca 52bc 2a0a 4abd 9032 5a3d
00000370: 4868 aa3e 00e5 bebd 1e5a 1cbc e9b5 8b3d
00000380: 8cbe 023e 6f93 cfbd a952 a1bd ff68 053e
00000390: 1a0a 043d 284f 843e f1bc 4c3d 0dcf 1d3c
000003a0: 3c20 44bc 3098 113e b194 853d 5596 923d
000003b0: c49b 233e 9909 783c ca21 c5bc a444 e7bd
000003c0: 4bd0 9c3d 3a75 61bc af91 4fbe 0629 0c3e
000003d0: 68e4 1dbe 678c ea3d 0628 63bd 8245 c1be
000003e0: 643f 913d e433 76be a97d 903d e467 2ebd
000003f0: 7595 543e 5f1d 3f3e d8a0 463e 8e23 13be

conv0.fc_attn.weight f4 [4, 4]
0.55609506 1.0947746 -0.22300972 0.44734675 0.5589547 0.8392807 -0.020339841 0.6004069
0.62122387 0.8277121 -0.34664217 -0.042660084 0.32035255 1.246115 0.36741653 0.016894279
00000000: 3f5c 0e3f 9321 8c3f a95c 64be a20a e53e
00000010: a817 0f3f 1adb 563f bd9f a6bc 44b4 193f
00000020: 8708 1f3f f1e4 533f 157b b1be 57bc 2ebd
00000030: 4005 a43e b280 9f3f 051e bc3e df65 8a3c

rgcns.0.h_bias f4 [32]
-0.13507502 -0.16655576 -0.10455981 -0.120430015 -0.05229138 0.011461894 -0.09097757 0.03847092
-0.12176906 -0.45040387 -0.2039779 -0.08570861 -0.028612075 0.029202284 0.072232686 0.11477502
0.081519604 -0.043129947 -0.120509975 -0.44581133 0.090154566 0.027989957 0.092410445 0.050542336
-0.10233887 -0.5599623 0.07745506 -0.10714661 0.102190234 0.07985661 -0.1735295 -0.097973704
00000000: 1b51 0abe 988d 2abe 7423 d6bd 03a4 f6bd
00000010: 7c2f 56bd abca 3b3c 7352 babd af93 1d3d
00000020: 0f62 f9bd 569b e6be 95df 50be ff87 afbd
00000030: df63 eabc a139 ef3c bbee 933d 2a0f eb3d
00000040: c0f3 a63d 07a9 30bd efcd f6bd 6241 e4be
00000050: f5a2 b83d 324b e53c b041 bd3d 7b05 4f3d
00000060: 0b97 d1bd b059 0fbf c2a0 9e3d af6f dbbd
00000070: 1d49 d13d dd8b a33d b8b1 31be 70a6 c8bd

rgcns.0.loop_weight f4 [32, 32]
0.14071026 0.050256718 -0.22031021 -0.39503807 0.23898236 -0.3256014 -0.042054825 0.28100654
0.37750602 -0.04685943 -0.3596504 -0.43020323 -0.0044216784 -0.22997373 0.23633851 0.12482861
0.17163464 0.005108046 0.16667202 -0.03908423 0.14645256 0.041854102 0.015279677 -0.38594937
0.02983332 0.18518256 -0.48647258 -0.32039234 0.33252195 0.35196555 -0.13432741 0.2859588
0.22241393 0.41201067 -0.438179 0.20468926 0.0678775 0.29917622 -0.0028729725 -0.07557166
-0.11248343 0.5040758 -0.18408135 0.23178813 -0.3985615 0.26452982 0.32037815 -0.038541593
0.185785 0.047741223 -0.17631523 0.32350588 0.42406377 0.060110796 -0.23328277 -0.10337823
0.17122704 -0.11634822 -0.2542157 0.36103478 0.41076928 -0.37129813 0.22095844 -0.2319764
0.48401806 -0.4256849 -0.31372097 -0.0976752 -0.38005403 -0.022228578 0.21169907 -0.2848612
-0.14745477 -0.56697905 0.18935348 -0.40083766 0.14512749 -0.28385997 0.10243947 0.41184005
-0.33749515 0.18732198 -0.12687714 -0.34088767 0.118577704 0.19069327 0.09646283 0.36077195
-0.14647529 0.33910257 0.03965371 0.18249011 -0.414753 -0.048928224 0.0840193 -0.39251363
0.2257145 0.17112002 0.12745717 0.32340366 -0.043360975 0.011556083 -0.081519864 0.32113066
-0.31412125 -0.39032188 0.2281066 0.05832584 0.28553027 -0.25015083 -0.3600104 -0.30724475
-0.20477799 0.2431165 -0.23460847 -0.42829 -0.48856387 0.077539 0.26811138 -0.25009334
-0.24020395 -0.46035483 0.41320825 -0.037890613 -0.27067918 0.4138593 0.20804578 -0.36634004
-0.02360062 0.041508354 0.40018582 0.3496997 -0.05686748 0.30440632 0.14295113 -0.018569056
-0.3229139 -0.5785504 -0.11437025 0.09412705 -0.06901117 -0.17743379 -0.24555276 -0.14386688
0.07349522 -0.24041486 -0.015315252 -0.19432813 0.25930965 -0.026918028 -0.2770733 -0.042588986
0.04215842 -0.055393662 0.36961472 -0.35719854 -0.1847801 0.32292935 0.090471946 0.35774016
0.3700152 -0.20102093 0.10883349 0.31535324 0.09565528 -0.11778686 -0.34162164 -0.13217053
-0.3108594 0.14404298 0.011525798 -0.20129122 0.03716735 -0.2013282 0.19639196 -0.3665548
-0.33958212 -0.069289334 0.35995832 0.19208728 0.35052547 0.26329532 0.39475855 0.23657028
0.29548395 0.088160135 -0.18458657 0.34323162 -0.45468888 -0.05672234 0.1132239 0.24725987
-0.110236734 0.06881743 0.12662452 0.123773605 0.3195373 0.4334321 0.001396304 0.24159704
0.363228 0.19893308 0.32085484 0.10062705 -0.15576799 -0.07442897 -0.10967042 0.3334755
-0.32056057 0.12665887 -0.15563984 0.03058306 0.27356625 0.28131837 -0.10841676 -0.33832496
-0.19128905 0.0321822 -0.16028298 -0.23781115 -0.4614785 0.22156626 -0.40328953 -0.29178482
-0.36659932 -0.23314361 0.31401414 0.3067491 0.057765048 -0.24496242 -0.23918782 -0.34093365
-0.21734029 -0.34623182 -0.17790164 -0.34127024 -0.36404058 -0.3860952 0.14997062 -0.3340307
0.4484474 -0.00017052008 -0.18751232 -0.32562 -0.0026931656 0.010221473 -0.048083324 -0.06042457
0.049480535 -0.35547966 0.29142168 0.35759786 -0.23255588 -0.28202087 -0.006005291 -0.09823659
00000000: 5a16 103e fdd9 4d3d 0099 61be 6e42 cabe
00000010: cbb7 743e 3ab5 a6be ae41 2cbd 17e0 8f3e
00000020: 7848 c13e acef 3fbd 1924 b8be 9943 dcbe
00000030: bae3 90bb 3c7e 6bbe b902 723e 24a6 ff3d
00000040: fec0 2f3e 6561 a73b 12ac 2a3e c916 20bd
00000050: a9f7 153e 356f 2b3d 9c57 7a3c 289b c5be
00000060: 0265 f43c 7fa0 3d3e ef12 f9be 770a a4be
00000070: 5140 aa3e d434 b43e 208d 09be 3169 923e
00000080: 7ac0 633e 10f3 d23e ff58 e0be 109a 513e
00000090: 5c03 8b3d a02d 993e 7b48 3cbb 51c5 9abd
000000a0: b65d e6bd 1d0b 013f d27f 3cbe de59 6d3e
000000b0: 4110 ccbe 7470 873e 9b08 a43e cadd 1dbd
000000c0: 6c3e 3e3e 4d8c 433d fb8b 34be 90a2 a53e
000000d0: e31e d93e bd36 763d aee1 6ebe f7b7 d3bd
000000e0: 2456 2f3e fa47 eebd 8f28 82be 8dd9 b83e
000000f0: 5a50 d23e ca1a bebe ee42 623e 398b 6dbe
00000100: 37d1 f73e 5ff3 d9be 09a0 a0be ef09 c8bd
00000110: 7196 c2be b518 b6bc a4c7 583e 54d9 91be
00000120: 62fe 16be 8a25 11bf e1e5 413e 983a cdbe
00000130: 4d9c 143e 1856 91be c9cb d13d b3dc d23e
00000140: 2acc acbe 55d1 3f3e 15ec 01be d488 aebe
00000150: ded8 f23d 1945 433e 4e8e c53d 1ab7 b83e
00000160: 9efd 15be da9e ad3e ee6b 223d b0de 3a3e
00000170: 815a d4be f668 48bd 5012 ac3d 8cf7 c8be
00000180: b421 673e 163a 2f3e 2284 023e 2a95 a53e
00000190: 479b 31bd ba55 3d3c e3f3 a6bd 3d6b a43e
000001a0: 80d4 a0be 45d8 c7be c794 693e 13e7 6e3d
000001b0: 0631 923e c513 80be 4853 b8be 2f4f 9dbe
000001c0: 52b1 51be 88f3 783e 343d 70be d448 dbbe
000001d0: 0b25 fabe c4cc 9e3d e545 893e 3c0c 80be
000001e0: 06f8 75be a1b3 ebbe 0890 d33e 3033 1bbd
000001f0: 7696 8abe 5ee5 d33e f409 553e ec90 bbbe
00000200: 1656 c1bc aa04 2a3d 28e5 cc3e d70b b33e
00000210: e0ed 68bd 25db 9b3e c861 123e 221e 98bc
00000220: f854 a5be e11b 14bf f33a eabd afc5 c03d
00000230: ba55 8dbd 34b1 35be 2f72 7bbe d751 13be
00000240: a984 963d 502f 76be d3ec 7abc f4fd 46be
00000250: 3cc4 843e 3283 dcbc 8ddc 8dbe ca71 2ebd
00000260: 4fae 2c3d 77e4 62bd 243e bd3e bae2 b6be
00000270: ff36 3dbe ff56 a53e 5b49 b93d b829 b73e
00000280: a272 bd3e 6ed8 4dbe 18e4 de3d fb75 a13e
00000290: eae6 c33d 3d3a f1bd 08e9 aebe b657 07be
000002a0: f728 9fbe 0180 133e b3d6 3c3c 491f 4ebe
000002b0: cb3c 183d fb28 4ebe f91a 493e 12ad bbbe
000002c0: b5dd adbe 91e7 8dbd 754c b83e 87b2 443e
000002d0: 1378 b33e a5ce 863e cb1d ca3e 7b3f 723e
000002e0: ac49 973e 4d8d b43d 4304 3dbe 0ebc af3e
000002f0: fbcc e8be af55 68bd efe1 e73d b131 7d3e
00000300: ccc3 e1bd 27f0 8c3d dca9 013e 047d fd3d
00000310: 659a a33e d0ea dd3e 3004 b73a 3765 773e
00000320: 05f9 b93e 1db5 4b3e 1647 a43e 8e15 ce3d
00000330: a581 1fbe 376e 98bd e39a e0bd 4dbd aa3e
00000340: 8420 a4be ddb2 013e 0d60 1fbe 5389 fa3c
00000350: e010 8c3e f608 903e 9b09 debd ee38 adbe
00000360: 47e1 43be 7cd1 033d 3921 24be c484 73be
00000370: e946 ecbe 44e2 623e f77b cebe d264 95be
00000380: e8b2 bbbe 33bd 6ebe 76c6 a03e 380e 9d3e
00000390: 0b9b 6c3d 6ed7 7abe a7ed 74be db8e aebe
000003a0: 748e 5ebe 4c45 b1be d92b 36be f9ba aebe
000003b0: 8763 babe 45ae c5be e691 193e 1206 abbe
000003c0: e69a e53e a3cd 32b9 3b03 40be aab7 a6be
000003d0: d27f 30bb f777 273c 05f3 44bd c17f 77bd
000003e0: 1aac 4a3d 6e01 b6be 3935 953e 1117 b73e
000003f0: 2123 6ebe 0a65 90be 08c8 c4bb 4430 c9bd

rgcns.0.linear_r.W f4 [9, 32, 32]
-0.03989012 0.012846372 0.06462285 -0.08924811 0.08074324 0.058727082 0.19757155 -0.08812516
0.19982694 -0.1756371 0.038017027 -0.04476878 -0.04442684 -0.030089665 -0.0015880574 0.1580876
0.14708002 0.09253035 -0.1679004 0.0404093 0.12862273 -0.10279566 -0.022626711 0.021396898
0.0016514622 -0.10186231 0.06986474 0.27891707 -0.21758729 -0.042138673 -0.12593439 0.10358223
0.016305141 0.20400882 0.06781299 -0.09491521 -0.0068825125 -0.021955907 -0.23702584 -0.16132164
-0.057300504 0.31989926 -0.07337276 -0.12862332 0.15003602 0.07881061 0.04534343 -0.05908648
0.105134286 -0.10562609 -0.012426825 -0.16472691 0.13294658 -0.028707834 0.10394893 0.10222484
-0.1064473 -0.08321119 -0.041093986 0.05632825 0.054189757 0.14056885 -0.10113727 -0.056564715
0.16126543 0.19771816 0.19357036 -0.018337678 0.11234337 -0.07895261 -0.005696111 -0.035115086
0.012862313 -0.006867409 0.010986714 0.0016860601 -0.1191732 0.11067971 0.2073147 0.20044574
0.062851295 0.106069714 0.0927942 0.1552425 0.10110797 0.050692227 0.04805758 -0.0026034538
-0.06308571 -0.061137743 -0.0677618 -0.027912972 0.026785845 -0.16339745 0.08202684 -0.109960675
-0.10547061 -0.037372574 -0.0952439 -0.067141525 0.08793603 -0.106136575 -0.103916116 -0.03681433
0.086092494 0.029160667 -0.062554814 0.16120543 0.032758053 -0.07238199 0.050448485 0.13915372
-0.082675286 -0.04051634 0.17741227 0.061628416 -0.04732834 0.04323908 -0.07985935 0.14067985
-0.008850584 -0.06795538 0.21705984 -0.057669137 0.10675515 -0.15108453 -0.11834623 0.1554933
-0.117312975 0.14711018 -0.14111084 0.097972535 0.10364786 -0.055505905 0.13477808 0.06238252
0.18439125 -0.0046804394 0.049863193 -0.13913457 -0.15086296 0.016886804 0.034887478 0.06494024
0.06968046 -0.015638566 -0.0015393005 0.070319116 -0.13136388 -0.18133222 0.051088225 -0.20774968
0.1379269 -0.034273617 -0.0053829863 -0.115154736 0.034362204 -0.054116827 -0.09615673 -0.0559891
-0.11990457 -0.067588724 0.09235132 -0.04253477 0.036180377 0.032678474 0.0066114804 -0.0029434904
0.118250445 0.25362524 -0.112849236 0.003104041 -0.01234701 0.0098985545 -0.1389026 0.10640618
-0.081892125 -0.15276358 -0.02727151 0.15928598 -0.067771636 0.12169662 0.009065097 0.100187
-0.050388906 0.09994651 -0.13100567 -0.2037939 0.100566596 0.108943656 -0.08291205 0.10249887
0.061597005 0.05392078 -0.14031897 0.07219474 0.1092297 0.21151634 -0.08756349 -0.03329366
-0.047513418 0.1385812 0.019755054 -0.11294243 -0.07430016 -0.08646269 -0.008282949 -0.059296176
-0.14199288 -0.09438196 -0.22333707 0.088661775 0.0677586 0.18964599 0.19257306 -0.005004042
-0.12693213 -0.109712444 -1.0363706e-06 -0.0731571 -0.27423954 -0.19618319 -0.06145627 0.037004102
-0.05216601 -0.18028998 -0.050363794 -0.07352817 0.17043646 0.11066505 -0.07591128 0.004559835
0.0025133826 -0.08738649 0.13368061 -0.12378207 0.15513818 -0.11545279 0.15232335 -0.09114967
0.01121708 0.13205746 -0.081525914 0.0052422225 0.09906382 0.03299245 -0.13705218 -0.036926355
-0.008149172 0.16804405 0.023242548 -0.08356284 -0.020363068 -0.044219185 0.11042153 -0.106168516
00000000: d363 23bd 9779 523c fc58 843d b7c7 b6bd
00000010: b65c a53d cf8b 703d 3250 4a3e f77a b4bd
00000020: 6f9f 4c3e 36da 33be beb7 1b3d 785f 37bd
00000030: ebf8 35bd 9a7e f6bc 5d26 d0ba b7e1 213e
00000040: 259c 163e 8d80 bd3d 15ee 2bbe 3984 253d
00000050: adb5 033e 8886 d2bd a75b b9bc 8c48 af3c
00000060: e075 d83a 309d d0bd 3f15 8f3d 38ce 8e3e
00000070: 34cf 5ebe 9a99 2cbd f2f4 00be ec22 d43d
00000080: 5c92 853c b0e7 503e 89e1 8a3d e862 c2bd
00000090: b386 e1bb e0dc b3bc e7b6 72be 8031 25be
000000a0: efb3 6abd d6c9 a33e 7544 96bd d5b5 03be
000000b0: 0ba3 193e 7567 a13d 08ba 393d aa04 72bd
000000c0: a550 d73d 7e52 d8bd e299 4bbc 2cae 28be
000000d0: 2623 083e b12c ebbc 2de3 d43d 425b d13d
000000e0: 0b01 dabd a16a aabd 2b52 28bd 73b8 663d
000000f0: 14f6 5d3d 48f1 0f3e 0f21 cfbd 67b0 67bd
00000100: c422 253e a176 4a3e 4f37 463e e638 96bc
00000110: 4814 e63d e8b1 a1bd 71a6 babb d6d4 0fbd
00000120: 73bc 523c 0108 e1bb 9e01 343c cafe dc3a
00000130: 1411 f4bd 0bac e23d 4e4a 543e a641 4d3e
00000140: 2eb8 803d 143b d93d e30a be3d e4f7 1e3e
00000150: b211 cf3d a7a2 4f3d 06d8 443d b59e 2abb
00000160: 1533 81bd 926b 7abd b3c6 8abd bfa9 e4bc
00000170: fd6d db3c a951 27be b0fd a73d 1033 e1bd
00000180: fa00 d8bd fc13 19bd 3c0f c3bd 7f81 89bd
00000190: ce17 b43d 225e d9bd f9d1 d4bd 9fca 16bd
000001a0: 4351 b03d 5ae2 ee3c bd1c 80bd 0913 253e
000001b0: 4f2d 063d 023d 94bd 12a3 4e3d 507e 0e3e
000001c0: a951 a9bd 76f4 25bd 90ab 353e 146e 7c3d
000001d0: 5ddb 41bd 761b 313d 4d8d a3bd 610e 103e
000001e0: 0a02 11bc 312c 8bbd ef44 5e3e 7936 6cbd
000001f0: 72a2 da3d e7b5 1abe 825f f2bd a339 1f3e
00000200: c941 f0bd 0da4 163e 5c7f 10be d3a5 c83d
00000210: 5445 d43d 295a 63bd 4403 0a3e d084 7f3d
00000220: 0fd1 3c3e 5f5e 99bb 593d 4c3d 4b79 0ebe
00000230: d27b 1abe 3256 8a3c 2ce6 0e3d 63ff 843d
00000240: a1b4 8e3d 731c 80bc 5bc2 c9ba 7803 903d
00000250: 4184 06be 27af 39be e341 513d 55bc 54be
00000260: b63c 0d3e 7e62 0cbd c363 b0bb 3fd6 ebbd
00000270: 62bf 0c3d 9ba9 5dbd d2ed c4bd d454 65bd
00000280: 8790 f5bd f56b 8abd b022 bd3d f038 2ebd
00000290: e031 143d ddd9 053d 1ea5 d83b 93e7 40bb
000002a0: 4a2d f23d 2bdb 813e 801d e7bd 2b6d 4b3b
000002b0: 1d4b 4abc 8c2d 223c 7c3c 0ebe 7ceb d93d
000002c0: 0fb7 a7bd 0e6e 1cbe 8068 dfbc dd1b 233e
000002d0: dbcb 8abd 143c f93d c685 143c d82e cd3d
000002e0: 9964 4ebd c1b0 cc3d 5a26 06be 59af 50be
000002f0: dcf5 cd3d da1d df3d cbcd a9bd edea d13d
00000300: 244d 7c3d 09dc 5c3d c7af 0fbe d6da 933d
00000310: d2b3 df3d bd97 583e 7d54 b3bd ef5e 08bd
00000320: 6e9d 42bd 3be8 0d3e 5ad5 a13c 5c4e e7bd
00000330: af2a 98bd 5a13 b1bd 35b5 07bc 8ce0 72bd
00000340: 9566 11be 544b c1bd 79b2 64be 4e94 b53d
00000350: 05c5 8a3d 8f32 423e df31 453e f2f8 a3bb
00000360: 7ffa 01be ebb0 e0bd 6c19 8bb5 64d3 95bd
00000370: 2069 8cbe 3fe4 48be 92b9 7bbd 9d91 173d
00000380: 07ac 55bd f09d 38be 444a 4ebd f095 96bd
00000390: e586 2e3e 5ca4 e23d 6077 9bbd ab6a 953b
000003a0: 90b7 243b b0f7 b2bd 92e3 083e 7481 fdbd
000003b0: 8bdc 1e3e 8372 ecbd a7fa 1b3e aeac babd
000003c0: d8c7 373c 123a 073e 0ff7 a6bd f3c6 ab3b
000003d0: f9e1 ca3d 1723 073d 6857 0cbe 1740 17bd
000003e0: 1b84 05bc bd13 2c3e 2867 be3c ff22 abbd
000003f0: 73d0 a6bc 2d1f 35bd af24 e23d e16e d9bd

rgcns.1.h_bias f4 [32]
0.084704936 0.053578217 0.28454176 0.0094926255 0.009233085 0.10630709 -0.08297875 -0.15567647
0.114490956 -0.13088033 0.075996466 0.20964822 0.21852536 0.052150916 0.079821445 0.123746246
-0.054147962 0.049282003 0.1506553 0.06605012 -0.1469882 -0.059726395 -0.16047789 -0.10261627
-0.024330128 0.09335364 -0.15894085 -0.050057363 -0.19592279 0.024565801 -0.02779827 -0.21432655
00000000: c879 ad3d d574 5b3d 75af 913e f586 1b3c
00000010: 5e46 173c 88b7 d93d c3f0 a9bd a769 1fbe
00000020: 3c7a ea3d 7e05 06be 09a4 9b3d 06ae 563e
00000030: 1dc5 5f3e 339c 553d 6d79 a33d ac6e fd3d
00000040: 41ca 5dbd eddb 493d 6245 1a3e 4945 873d
00000050: 1384 16be aaa3 74bd 5154 24be 7b28 d2bd
00000060: fa4f c7bc 3130 bf3d 64c1 22be f308 4dbd
00000070: fc9f 48be 383e c93c 33b9 e3bc 6b78 5bbe

rgcns.1.loop_weight f4 [32, 32]
0.11005848 -0.19956273 -0.2433688 0.32824177 0.24635446 -0.20799454 0.28539726 -0.23537785
0.26021785 0.21729304 0.084548466 -0.2145125 0.17354614 0.36655238 0.23102413 0.38445544
0.21920031 -0.16942449 -0.20067374 0.0968054 0.35068926 -0.096267864 0.25343928 0.15968047
-0.12445775 0.14086588 -0.004995312 -0.13190116 0.41142005 0.15950719 0.1290197 0.39618585
-0.3142314 -0.019289302 -0.61480135 -0.41025016 -0.33267835 -0.32631648 0.02184903 0.21418875
0.20451735 0.38223737 0.019753445 0.39888385 -0.13611567 0.18677199 -0.379817 0.0014375879
-0.420926 0.36618388 -0.3875345 0.19329032 0.40913168 -0.22652248 -0.4911356 0.31096783
-0.17626458 -0.015907332 -0.0114047825 0.060187593 0.0569956 -0.40488514 0.13988279 0.21418561
0.038827736 -0.08284859 -0.38978574 -0.38089257 0.2439823 0.088372655 -0.07233049 0.33207393
0.2484042 -0.43335718 0.43798852 -0.30260324 -0.43785736 0.07591268 -0.27207828 -0.21449205
0.19191942 0.1329539 0.09939585 0.18246622 -0.007435709 0.29996422 0.34851226 0.21881539
0.3595789 0.06593362 -0.27819178 0.41704834 0.471932 0.04082239 0.050830312 0.3360038
-0.53405136 -0.2071055 0.045531616 0.26029286 -0.4462573 0.008320282 -0.5507678 0.25247973
0.14171343 -0.41699734 -0.033575274 -0.12175292 -0.117588 0.37025368 -0.03050372 0.2260845
-0.30075943 0.045547295 -0.38305902 -0.21563259 -0.44571772 -0.46809074 0.28544983 0.24387413
0.08755018 -0.19080953 -0.09314315 0.27122012 0.33412156 0.1504606 -0.104583085 -0.067279056
0.04729635 -0.38291124 -0.01003559 -0.5636386 -0.0024256601 0.36946782 -0.20653991 -0.3182644
-0.088624865 -0.50175834 0.267503 0.2863311 0.16164267 -0.16535185 -0.048943993 -0.21951762
-0.39534125 -0.025598139 -0.068796925 -0.4760683 0.334226 -0.21657135 -0.23841152 -0.06890923
-0.31179366 0.036641255 0.13966477 0.14339286 -0.31284562 0.17211778 0.19050913 0.29130644
0.14269663 -0.06745291 0.30474728 -0.5195461 -0.14261062 0.04173211 -0.1637846 0.3097814
0.054605424 -0.43364954 0.14086203 0.05518464 0.25161847 -0.119878136 -0.37385932 0.28728732
0.1851293 0.0006288388 -0.1900476 -0.31591225 0.19484113 -0.12279602 -0.5203469 -0.16370636
-0.16013671 -0.123041615 -0.14021474 0.273823 -0.0438689 -0.13587652 -0.18452291 0.12921962
-0.40200967 -0.05308466 0.32292506 0.19060695 -0.22695859 0.38354754 -0.2850024 0.010256528
-0.07139058 0.033230074 -0.025467416 -0.42090514 -0.25699508 -0.123954386 -0.021844825 -0.19680083
0.3357559 0.15335758 -0.067307845 -0.007935548 -0.03734889 0.33538824 -0.2780932 0.051912975
-0.09780714 -0.058331333 0.25779864 0.1860963 -0.23469315 0.37354085 0.21103252 -0.090845145
0.1819926 -0.3591322 0.23394662 0.117303915 -0.4371334 -0.23981152 -0.38869658 -0.095378876
-0.43472505 -0.3810835 -0.19942538 0.32662547 0.009886703 -0.10762138 0.17111072 0.2561079
-0.03365824 0.027158018 -0.09803963 -0.1753634 -0.4292724 0.25043467 0.05384609 -0.44680673
-0.4633099 -0.27169752 -0.4561325 -0.21862076 -0.23791887 0.039887816 0.17218749 0.30065095
00000000: 5766 e13d 2c5a 4cbe ac35 79be 4e0f a83e
00000010: 5844 7c3e 85fc 54be 971f 923e e406 71be
00000020: 463b 853e 1182 5e3e bf27 ad3d 2aa9 5bbe
00000030: 14b6 313e c1ac bb3e 9791 6c3e 58d7 c43e
00000040: 0c76 603e 9d7d 2dbe 6b7d 4dbe e941 c63d
00000050: 8b8d b33e 1628 c5bd cbc2 813e 4783 233e
00000060: b4e3 febd 253f 103e b7af a3bb 1911 07be
00000070: a6a5 d23e da55 233e be1d 043e dfd8 ca3e
00000080: f0e2 a0be 9904 9ebc 9f63 1dbf 4f0c d2be
00000090: d154 aabe f412 a7be bdfc b23c 4c54 5b3e
000000a0: ff6c 513e 9eb4 c33e fad1 a13c 813a cc3e
000000b0: e861 0bbe 2841 3f3e 6077 c2be 726d bc3a
000000c0: 9d83 d7be 747c bb3e ec6a c6be e6ed 453e
000000d0: b579 d13e 82f5 67be 2076 fbbe 2d37 9f3e
000000e0: b47e 34be 1850 82bc 20db 3abc 4487 763d
000000f0: 3874 693d 1b4d cfbe 6f3d 0f3e 7953 5b3e
00000100: d509 1f3d 86ac a9bd ff91 c7be 5a04 c3be
00000110: 7fd6 793e b9fc b43d 0222 94bd 9805 aa3e
00000120: ac5d 7e3e fee0 ddbe 0840 e03e d0ee 9abe
00000130: d72e e0be 1b78 9b3d d84d 8bbe cea3 5bbe
00000140: 8686 443e 1125 083e 0d90 cb3d 6dd8 3a3e
00000150: 3fa7 f3bb e994 993e 3370 b23e 2411 603e
00000160: ba1a b83e 3508 873d 276f 8ebe 5c87 d53e
00000170: 12a1 f13e 6135 273d 7233 503d b108 ac3e
00000180: 97b7 08bf 7713 54be 5c7f 3a3d 1b45 853e
00000190: d67b e4be cb51 083c 1eff 0cbf 0645 813e
000001a0: 531d 113e ad80 d5be 3a86 09bd 9859 f9bd
000001b0: fad1 f0bd e491 bd3e f0e2 f9bc b282 673e
000001c0: 24fd 99be cd8f 3a3d 5020 c4be cace 5cbe
000001d0: 1d35 e4be 97a9 efbe 7b26 923e 24ba 793e
000001e0: 824d b33d 9363 43be d6c1 bebd 5ddd 8a3e
000001f0: fb11 ab3e 5812 1a3e a82f d6bd 9ac9 89bd
00000200: d1b9 413d f10c c4be 516c 24bc 9f4a 10bf
00000210: d3f7 1ebb e32a bd3e 337f 53be 8df3 a2be
00000220: f480 b5bd 3c73 00bf 27f6 883e fd99 923e
00000230: a885 253e ff51 29be 7f79 48bd 3ac9 60be
00000240: 2b6a cabe 30b3 d1bc 67e5 8cbd 39bf f3be
00000250: ac1f ab3e e1c4 5dbe 2622 74be 4820 8dbd
00000260: 6ba3 9fbe 2415 163d 4804 0f3e 94d5 123e
00000270: 4d2d a0be a53f 303e d314 433e 1e26 953e
00000280: 111f 123e c024 8abd d607 9c3e f900 05bf
00000290: 8508 12be 4aef 2a3d 26b7 27be ab9b 9e3e
000002a0: f0a9 5f3d 5007 debe 233e 103e 4a09 623d
000002b0: 23d4 803e ab82 f5bd 7d6a bfbe 5317 933e
000002c0: 8992 3d3e a8d8 243a d79b 42be 40bf a1be
000002d0: 6f84 473e 7b7c fbbd 7435 05bf a4a2 27be
000002e0: e1fa 23be 3efd fbbd 7494 0fbe 8732 8c3e
000002f0: e0af 33bd 3723 0bbe 93f3 3cbe 2652 043e
00000300: 36d4 cdbe 4d6f 59bd 6f56 a53e 782e 433e
00000310: d567 68be 5860 c43e d6eb 91be ff0a 283c
00000320: 3935 92bd 421c 083d 0ba1 d0bc e180 d7be
00000330: dc94 83be ccdb fdbd ebf3 b2bc 2886 49be
00000340: 33e8 ab3e c509 1d3e b2d8 89bd 1a04 02bc
00000350: 26fb 18bd 02b8 ab3e 3b62 8ebe b3a2 543d
00000360: 1c4f c8bd d6ec 6ebd 2ffe 833e 0790 3e3e
00000370: 6753 70be bf40 bf3e e918 583e 050d babd
00000380: 455c 3a3e 2de0 b7be b48f 6f3e 093d f03d
00000390: f3cf dfbe 2791 75be 3d03 c7be 0056 c3bd
000003a0: 4894 debe 601d c3be 2b36 4cbe 743b a73e
000003b0: d7fb 213c 9968 dcbd a637 2f3e 9320 833e
000003c0: 39dd 09bd 7e7a de3c 00c9 c8bd 7792 33be
000003d0: 98c9 dbbe f938 803e b88d 5c3d dac3 e4be
000003e0: f536 edbe f01b 8bbe 338a e9be 1fde 5fbe
000003f0: 01a1 73be 6861 233d eb51 303e ecee 993e
