parameters/cgmc_movie_edge_0.2194.pt (torch, 300070 bytes, 20 tensors)

conv0.bias f4 [24]
00000000: de6f 6cbe d80c 76be fe15 66be 0409 3dbe
00000010: 453e 67be efda 63be 896f 6cbe 900d 76be
00000020: f515 66be 7f09 3dbe 9a3e 67be 8adb 63be
00000030: 8470 6cbe 4f0c 76be 0616 66be 7808 3dbe
00000040: e63d 67be 98da 63be a571 6cbe e90b 76be
00000050: fa15 66be 5e08 3dbe d53d 67be 85da 63be
-0.23089549 -0.24028337 -0.22469327 -0.1846047 -0.22582348 -0.22251485 -0.23089422 -0.24028611
-0.22469313 -0.18460654 -0.22582474 -0.22251716 -0.23089796 -0.24028133 -0.22469339 -0.18460262
-0.22582206 -0.22251356 -0.23090227 -0.24027981 -0.22469321 -0.18460223 -0.22582181 -0.22251327

conv0.fc_node.weight f4 [128, 4]
00000000: 3ffc 5fbe 7623 a1bd b818 e03d 5ef3 1abe
00000010: 0d9b d0bd a5c8 583e b513 7ebe 4610 2b3d
00000020: 540f adbd b7d1 163e f9d4 14bb 65d5 08be
00000030: d90d f3bc bfda 68bd 553a f83b 631c 53bc
00000040: eb31 d93d 99d5 c0bd 7ca4 6ebd d2d1 0f3d
00000050: 2fbd 01bd ba24 10be 2e7f 933d 3e2d 28bd
00000060: 4f04 6ebe 9de3 6f3d 5dc9 783d cb4c 44bd
00000070: 5970 23be c79f be3c 998b 043e a4b4 26bd
00000080: 6133 6ebe 71f1 e8bc 76a3 00bd 46bf a53d
00000090: 717f bb3c 7ca1 c33d bf99 d13d c82f 4f3d
000000a0: 47fa 0f3d 10ea af3d 313f f3bb 6f57 bdbd
000000b0: 811e fb3d cf1e 92be 1065 0d3e ad2e d8bd
000000c0: 2a52 1b3e a92b 243e ca31 793c 04cc 14be
000000d0: 1392 8abd c90e 2a3d ca32 0ebd 9cd0 0dbc
000000e0: 77ee cd3d 665d e0bd 2116 5f3e 9317 56be
000000f0: 2295 ee3d 027a 2b3e 5966 babd be48 00be
00000100: 667d 2abe dacf 1c3e 70a4 373e ca3a 883d
00000110: c135 15bd b8b4 97be 195f 873d 01d6 373c
00000120: 0567 47bc 39dc 853d cef8 843e 2aa9 9cbd
00000130: 1282 23bd 6bef 953d f14f 8ebe 413b 37bc
00000140: cac9 da3c 3dba 33be 0d94 5c3e 8ed9 8d3e
00000150: 582b ffbd 9f86 74bc c883 db3d aaa9 d2bd
00000160: 126b 3bbd 6888 07be 0a93 46be ac7b 283d
00000170: e505 f8bb c1ef 92bd e474 333e 18db 1b3d
00000180: a59a f93d 89db c1bd 3a2d ea3d 7420 bbbc
00000190: ec3a dfbd bd40 bfbd 644f 4cbe c74a 763e
000001a0: 0766 82be ae5c 43be bb6c c13d 8fa3 f7bd
000001b0: a4f7 3dbe 618c e73d 5e42 3d3e 0bc6 5fbd
000001c0: b892 923d 2330 dbbd 194b 87bd e270 19be
000001d0: 64aa 97bc a1f4 793e 52af babd e1e9 e5bd
000001e0: 07cb f63d 19a4 81be 4021 27be 311c 4bbe
000001f0: fc0b fa3d 26af b6bd 6116 c1be f7aa 5bbd
00000200: 08b4 77bd d289 14bd 7dda d13b f082 8a3e
00000210: d38a 40be e9aa f63d de01 d83d 3544 8e3b
00000220: 16c0 16be b4e0 3d3e d286 af3d 13a2 c7bd
00000230: d3f5 5cbc 4d2b 3f3e 8c7a 80be e460 50bd
00000240: 3f62 27bd 098d 9fbd ac7a 233b 2a17 2ebe
00000250: 9d63 803b 4eeb 0ebe 60c2 42bd 4c22 20bc
00000260: 0f9c a13d 4efe 053d b477 283c 10ef 0fbe
00000270: 3324 283e aa0b a63d dd53 a13e bacf 23be
00000280: dd4a 173e 4c22 75bd 571b d63d 2f1b a63d
00000290: fa2a 62bc c155 d53d 3bd1 95bd 3ccc e63d
000002a0: 9dfb adbe 8344 afbd 328c 0c3e 467a 9e3c
000002b0: 940c fa3d 54cf 5c3e 9022 ed3d ad8e a5be
000002c0: 2ba1 a7bc 1d1e 383e 25c3 95bc 2fab b73d
000002d0: 95b8 ab3e 379c 41bc 50e8 eebd 2b08 1dbc
000002e0: b076 10be 2453 883d 952b 3dbe 0e23 e2bd
000002f0: 5b6c da3d 3da7 3e3e 5704 8b3d 9067 b53a
00000300: 1060 503e 9193 2a3d 677b acbd a282 13be
00000310: f007 aabe 3fc7 52bc cb55 65bd c07a 2dbd
00000320: 5bcf 76bc 94e3 003e 29ee 533e 73f1 2b3d
00000330: 54e2 52bd 6225 633c 1060 7bbe 64a5 70bd
00000340: b58b 23be 39b7 82bd 51c8 203d cd15 063e
00000350: e167 bcba ffda eebd 402a c6bd 2746 b53d
00000360: dcf1 723d 07a9 55be 3fc3 aabe d144 093e
00000370: 32b1 5cbd e5b2 b6bd 3334 0cbe 3ddf f13d
00000380: 0c26 29be 3d24 273e e0ab f5bc 242f bfbd
00000390: 88ac 9fbe c9b6 58bc 6b81 30bd f44b a93d
000003a0: 49d0 b7bc bcb6 47be e659 13be e275 60be
000003b0: 207b 193e dc0e cc3c 2a32 943c 3ab8 0f3e
000003c0: 7c18 05be 0cbf f63d 27dd 963d d52c 8cbd
000003d0: f6f4 f2bc eed9 a4bd d5a0 45be 648f afbd
000003e0: 1e31 e13d f881 4cbd bec5 c93d 472a 323e
000003f0: c227 69bd 83bf 26bd 948b 3bbe c895 40be
-0.21873568 -0.07868092 0.10942215 -0.151319 -0.101858236 0.2117029 -0.24812205 0.041763566
-0.08450189 0.14728437 -0.002270995 -0.13362654 -0.029669689 -0.056849238 0.007575313 -0.012885186
0.10605224 -0.094157405 -0.058262333 0.03511221 -0.03167456 -0.1407651 0.07201992 -0.04105877
-0.23243831 0.05856668 0.06073891 -0.047924798 -0.15960826 0.023269547 0.12943877 -0.040699616
-0.23261787 -0.02843544 -0.03140589 0.08093123 0.022887917 0.09552285 0.10234403 0.050582677
0.035150792 0.08589566 -0.0074233045 -0.09245192 0.122616775 -0.2853913 0.13808084 -0.10555778
0.15168062 0.1603228 0.015209625 -0.14530951 -0.06766143 0.041518006 -0.034716405 -0.008655693
0.10055249 -0.10955314 0.21785785 -0.2090743 0.116495386 0.16745761 -0.091015525 -0.12527749
-0.16649398 0.15313664 0.17933822 0.06651838 -0.036428217 -0.29630065 0.06609935 0.011220456
-0.012170558 0.06536145 0.25971073 -0.07649453 -0.039918967 0.07321056 -0.27795365 -0.011183561
0.026707549 -0.17551513 0.21540852 0.27705044 -0.12459439 -0.014924674 0.10718495 -0.10286267
-0.045756407 -0.13235629 -0.19392028 0.041133568 -0.007569062 -0.07174636 0.17525059 0.03805074
0.12187699 -0.09465701 0.114344075 -0.022842623 -0.1089991 -0.0933852 -0.1995216 0.24051963
-0.25468466 -0.19078323 0.09444567 -0.12091743 -0.18551499 0.11306072 0.18482348 -0.054632228
0.07156891 -0.10702541 -0.066061206 -0.14984468 -0.018513866 0.24409725 -0.09115471 -0.112262495
0.12050443 -0.2532051 -0.16321278 -0.19834973 0.12209317 -0.08920126 -0.37712386 -0.05362984
-0.060474426 -0.03626425 0.0064042197 0.27053022 -0.18802957 0.12044317 0.10547231 0.004341627
-0.14721712 0.18542749 0.08570637 -0.0974771 -0.013486343 0.18668862 -0.25093496 -0.050873652
-0.04086518 -0.07790572 0.0024944944 -0.17001024 0.003918125 -0.13956949 -0.04754865 -0.009773802
0.07891094 0.032713227 0.010282446 -0.14056039 0.16420059 0.081076935 0.31509295 -0.1599721
0.14774652 -0.05984716 0.104544334 0.081106536 -0.013804192 0.10416747 -0.07315298 0.11269423
-0.33981028 -0.085579894 0.13725355 0.019345414 0.1220943 0.21563464 0.11578858 -0.32335415
-0.020462593 0.17980237 -0.018281529 0.089681976 0.33539262 -0.01181703 -0.11665404 -0.009584467
-0.14107776 0.06656483 -0.18473656 -0.110418424 0.106651984 0.18618484 0.06787937 0.0013840068
0.20349145 0.041644637 -0.08421975 -0.14405301 -0.3320918 -0.012864887 -0.05599002 -0.04235339
-0.015064086 0.12586814 0.2069632 0.04197831 -0.051485375 0.013863893 -0.24548364 -0.05875148
-0.15971263 -0.06382603 0.039253537 0.13094254 -0.001437422 -0.11662864 -0.09676027 0.08851271
0.059312686 -0.2086526 -0.33352086 0.13405158 -0.053879924 -0.0892084 -0.13691787 0.118101574
-0.1651842 0.16322418 -0.029989183 -0.09335163 -0.31186318 -0.013227173 -0.043092173 0.0826644
-0.022438185 -0.19503301 -0.14389762 -0.21919969 0.14988375 0.02490943 0.018090326 0.1403512
-0.12997621 0.12048158 0.073664 -0.068444885 -0.029657822 -0.08049379 -0.19299634 -0.085722715
0.109956965 -0.049928635 0.098521695 0.1739894 -0.05692268 -0.040709984 -0.18314964 -0.18807137

conv0.fc_node.bias f4 [128]
00000000: bb0f 6f3e e52a 76be 2044 0ebe 0fc5 ac3e
00000010: cd27 99be 49da 763e c801 18be f9df 40be
00000020: 2f51 b63e 20a5 c5bd 28d8 973e ed35 b1be
00000030: db0c 4ebe f5a6 c2be 2420 b63c 4d8c d0be
00000040: 2d76 293e 8d9e d3bd 3fa0 093d 68fd c2bb
00000050: b2dd 693e c60a a03e 3747 74be b844 2cbe
00000060: c42d 11bd 8f4b 333e a075 32be ffb4 b2be
00000070: 6f7c aabe 74bf d23d cde2 6f3d 0a11 8fbd
00000080: 439b eebe d0b4 703e b860 493e 1834 86bc
00000090: 203e ffbd 71e7 2bbe 1a08 1a3c 761e a8bc
000000a0: 0646 7bbe 6a2e e9bd 7bc8 bbbe d8d3 fb3e
000000b0: 15da 09bc 8b5c 81be 51c5 a23e d0af 5e3e
000000c0: 1bc4 a1be 5416 233d 95fb 6c3e 6001 f5bd
000000d0: 500f e0be 9f7f 8c3e ce27 c33e 672f d03e
000000e0: c6ae 02be 735b 903b 7c0b ec3e 5980 be3e
000000f0: af57 a2be 2486 6c3d f670 903e 8112 993e
00000100: b2cf 3bbe 2170 4c3e f36d 9b3e f406 c2be
00000110: 04f7 bd3e edfc b43e 2982 93be 24f8 6dbe
00000120: 5e7d de3e fbf0 233e 6867 c03e 3f75 ccbe
00000130: ceb9 c2be 6063 bb3d db14 b7be 59e0 35be
00000140: 71fc 643e 549a 2a3e 1961 c2be 71d9 dc3e
00000150: b79a ba3e 52ee 843e f47c 2cbe 52c0 ed3d
00000160: 4d02 70bd 2d79 dcbd bd23 6b3e b1fe c7be
00000170: 0c4a 9c3d d24d b53e eab0 e5be 7ff0 c13e
00000180: e478 e03d fc61 9d3e bad2 fdbd dec1 453e
00000190: f2a8 4e3e ca31 e6be d7c3 f13e 2fb6 c2be
000001a0: a479 96be d14b c83d c1f0 b13e fa84 bdbd
000001b0: a1b4 9dbe aff3 133e 3137 f23e 284f db3e
000001c0: 7b65 91be 007a af3e a47d 83be a784 793d
000001d0: 7a55 8bbe 494e 52bd acc4 603e 1a44 e4be
000001e0: c587 c73e 8579 6f3e 0874 a7be 899f abbe
000001f0: 45b1 323d bc46 c03e 2a25 863d 33ce 313d
0.23345844 -0.240398 -0.13893175 0.33744094 -0.29913178 0.24106707 -0.1484443 -0.18835439
0.35608813 -0.09650636 0.29657102 -0.34611455 -0.20122091 -0.38018003 0.022232123 -0.4073204
0.16548987 -0.103329755 0.03360009 -0.0059506185 0.22838476 0.3125822 -0.23855291 -0.16823089
-0.035444036 0.17509292 -0.17427683 -0.34903714 -0.3329806 0.10290423 0.058565903 -0.06985672
-0.4660283 0.23506474 0.19665802 -0.016382262 -0.12463021 -0.16787507 0.009401346 -0.020522337
-0.2453843 -0.11385806 -0.36676392 0.4918506 -0.008413811 -0.25265917 0.31791165 0.21746755
-0.3159493 0.039816216 0.23142846 -0.11963153 -0.43761683 0.27441117 0.38116306 0.40661165
-0.12761983 0.004405433 0.46102512 0.37207296 -0.31707522 0.057745114 0.28211182 0.2989693
-0.18340948 0.19964649 0.30357322 -0.3789593 0.3710252 0.35349217 -0.28810242 -0.2323919
0.43455023 0.16009896 0.37578893 -0.39933202 -0.38032383 0.09149814 -0.357581 -0.17761363
0.22361924 0.16660434 -0.37964705 0.43134645 0.36446163 0.25963074 -0.16844541 0.11608948
-0.058595944 -0.107653 0.22962852 -0.39061502 0.07631311 0.35410935 -0.44861537 0.37878796
0.10960558 0.3073882 -0.123937085 0.19312236 0.20181635 -0.4495986 0.47219726 -0.3802962
-0.2938968 0.09780086 0.34753993 -0.09253879 -0.3080187 0.14448427 0.47307733 0.4283383
-0.28397736 0.34272766 -0.25681794 0.060917523 -0.2721365 -0.05134419 0.21950024 -0.44583207
0.3897077 0.233862 -0.32705712 -0.33520153 0.04362609 0.37553966 0.06550057 0.043409538

conv0.fc_fij.weight f4 [24, 34]
00000000: 74ad 703e 18a2 093f 938c 073e e6b1 d93e
00000010: 824d 483d ef99 6a3e 0760 0a3e 2a31 6abe
00000020: c33b e3be afd9 ca3d 0fc2 6dbd a0c9 6cbe
00000030: 3682 bf3e baa6 023c 18d9 f93d 3aae 0dbe
00000040: f375 9e3b 0e10 fa3d ba3f 48be 8118 19be
00000050: d56c cabd 0a4f 7a3e 3414 dabd 6631 8a3e
00000060: 1a6c 9bbe 6b65 ce3e d7d8 0abe d7ab 8b3d
00000070: 5bcc 3e3e f7a8 c9be 8915 f03d d4ab 8a3e
00000080: ecc3 123e e8c5 e3be 3fc8 693d d7f8 2ebf
00000090: f7d5 05be 63d1 bbbe a215 86bd 70b8 cdbe
000000a0: 9188 303e fd17 483e a2f9 ccbe ec54 8abe
000000b0: c3ae 1ebc 2afe 003e f4c8 c8bd 216d d4be
000000c0: b429 b43d 6cbf 0abf 19cd 29be 0caa 1b3f
000000d0: 7b3b 68be 073e 6b3e 6aa7 50be 845d febe
000000e0: e396 ffbd 8841 75be 6b19 b63e b617 1cbf
000000f0: 01cc ba3d 6407 8abd dcd1 7d3e 5979 443e
00000100: 124f 67be 46e0 6fbe e726 113f e9e1 c23e
00000110: 6bc0 47bf d164 04bf dab9 4bbe 8d7d 49be
00000120: 1089 87bd 82ae 6ebe 220e ce3e ba20 ab3d
00000130: b07c 843d eb8f 353d 8dc7 62bd 2c94 7e3e
00000140: de51 dbbe 0c84 e3bd c004 82be f7da 593e
00000150: d1f6 82bd f401 ae3c 83f1 cebe 7a87 5c3e
00000160: 088e c0be 3383 883d 6652 e83b 2540 3bbe
00000170: 9127 803e 7962 323e 70fd 2a3d 6d6d a23e
00000180: 6008 d13c f176 2dbe c668 b13d d14c c4be
00000190: 26a8 323e 5948 b83d 7aaa 193f 5ee7 c83d
000001a0: 11fd 89be 783e 973d 523e 1dbd dc88 643e
000001b0: 8e21 9dbe 6444 29bf b996 4b3e 91f0 bbbe
000001c0: 1ee0 013f 925b fdbe c11d 813e ce2a 88bd
000001d0: 47bc 4bbd 5652 1b3e 215d d93e 9960 58be
000001e0: 3f0b 42bf 464b e2bd 64c2 d93e 89c1 afbe
000001f0: 443e 8ebe 090b a4be a3bd 9e3d 16ce 8e3e
00000200: 003d a23e 101d d43e e371 033f 7e47 653e
00000210: 315e d83e ba38 7e3e 5987 cbbd 5dd2 57bd
00000220: 9883 68bf 43c6 a7be 45be 8f3e 583e 3c3e
00000230: 9a0a 1f3e 0940 24be 0632 873d 0c9c d6be
00000240: 8fa1 b43e db15 7cbe ff6f 3c3f f72e 0d3e
00000250: f2d2 d9be 3274 663e e9ac 613e 50a1 45bd
00000260: 9a96 3f3d f863 afbe 3813 9bbe 9053 2bbe
00000270: 96d4 08be b8ae 6d3e 8622 94be f83c a83e
00000280: 9563 45be 9cd9 65be 746b 6e3d 9be4 4e3e
00000290: 2d88 893d 9e22 26be b0df b43c 44c5 3a3e
000002a0: ff1d 9d3c d6bc 05bf 949b e33e ab3d 103f
000002b0: 2ec5 19bf 4ec8 b93e 8ff4 17bd 3726 d63e
000002c0: 84d8 16be ec26 34bf 5f66 18be 7fd2 843e
000002d0: a55f 8fbe 8e19 863e f749 083f 05f3 df3d
000002e0: fe23 c83c d7f4 003e 3341 8b3e 6f89 243d
000002f0: b472 e0bb 0fb9 73bd 8c2b 993e 6b7b 28bd
00000300: 7c7e 623e 2451 393e be2e be3e 5680 44bd
00000310: c7c3 d9bd e759 6e3e 7a65 32be 1621 113f
00000320: 2fb2 553e a024 e13d f2e8 c83e 6956 9bbd
00000330: b031 da3d 553a 2c3f f17d 643b ae5e 9d3d
00000340: 49cc 06bf 45c5 debd af03 ffbd 8aed b6be
00000350: 7541 3a3d 005c 1a3d 14de af3e 13b4 a1be
00000360: f05e 933e 2afe 57be a5f3 4dbe dae3 e83d
00000370: 7b64 0f3e fa2b 733e b8dd 0fbf 93f2 74bd
00000380: d7a4 ba3d 517a 0bbe 112e a4be 71b5 c43d
00000390: f6f2 c33d f79d c63d fea6 4abc b707 0f3f
000003a0: 42f2 28be f582 a6be ea2d 533e 6c0d ed3d
000003b0: 6066 a73e e99f 3cbe 0cc9 13be a620 e0bd
000003c0: 330f b83e 4fa0 92be 7cc4 07bd 9aef c43e
000003d0: e307 cabe 73e5 a43d 4a31 0a3b 6575 063d
000003e0: 3566 67bd 98ca 343f cc79 cfbe b74b 893e
000003f0: 83c3 f1be f2d2 55be 4a5b 863c b5d9 273e
0.23503667 0.5376296 0.13237219 0.42518538 0.048902042 0.22910284 0.13513194 -0.22870317
-0.44381532 0.09904801 -0.058046397 -0.23123789 0.3740403 0.007974321 0.121996105 -0.13835993
0.004835838 0.122100934 -0.1955556 -0.14950754 -0.09884039 0.24444214 -0.10648385 0.26990813
-0.30355912 0.4031175 -0.1355928 0.06819885 0.18632643 -0.39386722 0.117228575 0.2708422
0.14332551 -0.44486928 0.057075735 -0.6834845 -0.13069902 -0.36683187 -0.06547095 -0.40179777
0.17239596 0.19540401 -0.40034205 -0.27017915 -0.009685221 0.12596956 -0.09803954 -0.4148951
0.08797017 -0.54198337 -0.16582145 0.60806346 -0.2267894 0.2297288 -0.20376363 -0.49680722
-0.12479951 -0.2395078 0.35566267 -0.6097368 0.09120942 -0.06739691 0.24787086 0.19186915
-0.22588757 -0.23425397 0.56699985 0.3806298 -0.7802798 -0.51716334 -0.19895115 -0.196768
-0.066179395 -0.23308757 0.40245157 0.083558515 0.06469095 0.044326704 -0.055366088 0.2486121
-0.42835897 -0.1110917 -0.2539425 0.21274935 -0.06394733 0.021241166 -0.40418634 0.21536055
-0.3760836 0.06665649 0.007089901 -0.18286188 0.25030187 0.17420377 0.041745603 0.3172411
0.025516689 -0.16939904 0.08662562 -0.38339856 0.17446956 0.08998174 0.6002575 0.09809755
-0.26950887 0.07384962 -0.03838951 0.22317833 -0.30689663 -0.6611998 0.19881715 -0.36706975
0.507326 -0.49483925 0.25218013 -0.06648789 -0.049740102 0.15168127 0.42453864 -0.21130599
-0.7579841 -0.110495135 0.4253112 -0.34327343 -0.2778188 -0.3203967 0.07751014 0.27891606
0.31687164 0.41428423 0.5134565 0.22390553 0.42259362 0.24826327 -0.09937925 -0.052690852
-0.90825796 -0.3276845 0.28074852 0.18383157 0.15531388 -0.16040052 0.06601338 -0.4191593
0.3527951 -0.24617712 0.7360839 0.13787447 -0.4254375 0.22505262 0.22038616 -0.048249543
0.046774484 -0.34255958 -0.302881 -0.16731095 -0.13362345 0.23211181 -0.2893259 0.32859015
-0.19276269 -0.22446293 0.058207944 0.20204394 0.067154266 -0.16224143 0.022079319 0.18239313
0.019179342 -0.52241266 0.44454634 0.563441 -0.600665 0.36285633 -0.037098464 0.4182603
-0.14731032 -0.7037189 -0.14882801 0.25941846 -0.28002658 0.26191372 0.5323786 0.10935024
0.024431225 0.12593399 0.2719818 0.04017013 -0.006849611 -0.059502658 0.29916036 -0.041133326
0.22118562 0.18097359 0.37145036 -0.047973953 -0.10633045 0.23276483 -0.17421523 0.5669111
0.20868753 0.10993314 0.39240223 -0.07584841 0.106540084 0.6727651 0.0034865106 0.07684074
-0.52655464 -0.1087747 -0.124518745 -0.35728103 0.04547258 0.037685394 0.3434912 -0.31582698
0.2878337 -0.2109305 -0.20112474 0.11371584 0.14003174 0.23747244 -0.5619769 -0.05980165
0.09113472 -0.13620879 -0.32066396 0.0960492 0.095678255 0.09698098 -0.012368916 0.55871147
-0.16498664 -0.32521787 0.20622984 0.11574826 0.32695293 -0.18420376 -0.14432162 -0.10943727
0.35949096 -0.2863793 -0.033146366 0.3846405 -0.39459142 0.080515765 0.0021086507 0.0328268
-0.056493957 0.70621634 -0.4052261 0.26815578 -0.47219476 -0.2088125 0.016400952 0.16391642

conv0.fc_ni.weight f4 [24, 4]
00000000: 80a6 9e3e fe74 13bf 3db3 09bf 3fcd 2d3d
00000010: d49b c73e 74f4 16bf e658 a63d bf0d a03e
00000020: 9aea c1be 6b28 b1be f49a 32be ad75 d03e
00000030: 3b9b 0d3f fb04 e3be dc55 84be b101 423d
00000040: 2d2c 06bf ca62 a8bd d3c1 3e3f 97ae 163f
00000050: be7a 3c3f 82ab 60bf dc81 7d3e 0ec9 d4be
00000060: 7b59 ec3e 04b9 c9bd ccc6 553e 0ee3 193f
00000070: 3fc2 9c3e 0958 24bf f8a0 0bbf 2f84 e2bd
00000080: 43db e93c df10 4ebe 74f7 1abc 9d0e 3c3e
00000090: 9fef 073d b64f 99be ea28 42bf ab36 283e
000000a0: 1990 8b3e 3913 62bf f43b 10bf ed98 4b3d
000000b0: c073 b6bd 532c 6ebe 7be0 e33e 8122 e93e
000000c0: 63b2 62bd dd35 9ebe c325 b2be c976 3dbe
000000d0: 71ba 1a3e d0a8 7f3e f966 c6be adad 263f
000000e0: 3564 5fbe 48a1 56bd 9eea 513e e7e2 46be
000000f0: 8957 ef3e d192 063e 541b 443d cb2c 1abe
00000100: 4915 f43e ff25 ed3e 33f6 9e3e a3db 913e
00000110: 06b5 a8be e1a8 c2bd 3d92 9e3e 0bea 84be
00000120: d2ce 84be c15e 7d3e 43b5 403e 656a 1d3f
00000130: 3228 893f 7958 2fbe 3e0a 98bc 2600 9ebd
00000140: a841 543f 02d9 12bf 8247 29be af8d a1bd
00000150: 4310 9abe 18ce 613e 2549 36bf 6e96 b53e
00000160: 4fc3 2dbe 588c 103d 416d 55bc 4211 a8bc
00000170: 3947 6c3e 3c06 913e 3e8a cebe b468 f8be
0.30986404 -0.5760039 -0.5378912 0.042432066 0.38986075 -0.58966756 0.08122425 0.31260487
-0.378743 -0.3460115 -0.17441922 0.4071478 0.5531499 -0.44339737 -0.25846756 0.047364894
-0.52411157 -0.082219675 0.745145 0.5886015 0.7362479 -0.877617 0.24756569 -0.41559643
0.46162018 -0.09849742 0.20876616 0.6011208 0.30616948 -0.6419683 -0.54542494 -0.11060368
0.028546935 -0.20123623 -0.0094584115 0.1836495 0.033187505 -0.29943627 -0.7584368 0.16427104
0.27258375 -0.8831058 -0.5634148 0.04970639 -0.08908796 -0.23259096 0.44507203 0.45534137
-0.055345904 -0.3090047 -0.34794435 -0.18502344 0.15110184 0.2496674 -0.38750437 0.6510876
-0.2181557 -0.052399904 0.20499656 -0.19422494 0.46746472 0.13141944 0.047877625 -0.1505615
0.4767249 0.4631805 0.3104721 0.28487882 -0.3295061 -0.09504867 0.30970946 -0.2595981
-0.2593904 0.24743177 0.18819146 0.6149047 1.0715392 -0.17123593 -0.018559571 -0.07714872
0.82912683 -0.5736238 -0.16531184 -0.07888352 -0.30090532 0.22051275 -0.7120536 0.3546633
-0.16969036 0.035290092 -0.013026536 -0.020516042 0.23074044 0.2832507 -0.40339845 -0.48517382

conv0.fc_nj.weight f4 [24, 4]
00000000: e1fc 54be fd6f 353e 48ef 4b3f f937 cbbe
00000010: 7fd1 6bbd 5e7b 45be 4ede e8bd 8211 de3e
00000020: e902 a2bd 084a 3a3f f78f a13e 7c83 debd
00000030: 94a0 29be 6094 91be 7f56 c8bd ff7e 91bd
00000040: 8f1d f1bc 84a2 c03e 2e6c fabe 7031 543e
00000050: 73a3 923e 8033 093f 6f64 c1be 7fee 633e
00000060: 961f 64be dc88 083f f246 8b3e ea32 adbe
00000070: 938f 103e 2a32 a33e 0487 8ebe fdb9 b4be
00000080: 57b3 703e 2392 903d d5f3 f93d bafa d93d
00000090: e7e1 d53e 6359 393c 258a bdbe d3d2 9fbd
000000a0: e69b 153e c00f c33e aafc 0bbf ac03 b73e
000000b0: 17b5 253f 99e2 d23e ece7 84bc cf06 21be
000000c0: 27ca 3b3e 2c92 393c d2f9 1b3e 3054 13bf
000000d0: 0ecd 4c3f 464a 74bd b5f7 d73a 2eb9 843e
000000e0: 4d1c 13bf adaf 1bbe 9d44 943d 91cd 94be
000000f0: 012a e1bd 2a02 8d3d dace d63d f329 983e
00000100: a5a2 173f 765a d7be 86b5 ab3d 87ee 773e
00000110: 520b 0a3f 2fd0 6a3e 7ee5 393f c8b6 553e
00000120: be6a e0bd 7509 dabe 91b3 d6be 035b 48be
00000130: 2d65 163e 9d9b 143f 0d58 3e3f fc21 55be
00000140: 69cd 6c3c b4c3 7d3e 69b0 5bbe 125f afbc
00000150: c624 663e 0cba f93e 2765 48bf e3c3 703e
00000160: 0eb4 4f3f ef09 c33d 50d5 863e 9acc fa3e
00000170: f883 85be 0b19 643d 0c08 dc3e 816a 6f3e
-0.2079959 0.17718501 0.7966199 -0.3969114 -0.057572838 -0.19285342 -0.11370526 0.43372732
-0.07910711 0.7276921 0.3155515 -0.108649224 -0.16565162 -0.28433514 -0.09782123 -0.07104301
-0.02943304 0.3762399 -0.4891066 0.20721984 0.28640327 0.5359421 -0.37771937 0.22258948
-0.22277674 0.5333383 0.27202564 -0.33827907 0.14117269 0.3187421 -0.27837384 -0.35298148
0.23505913 0.07059123 0.122047104 0.106435254 0.41773912 0.011312815 -0.37019458 -0.078038834
0.14610252 0.38097954 -0.5468241 0.3574499 0.64729446 0.41188505 -0.01622387 -0.15725254
0.18338834 0.011326354 0.15232018 -0.57550335 0.8000039 -0.059641145 0.0016477021 0.2592253
-0.5746506 -0.15203734 0.072396494 -0.29063085 -0.1099434 0.068851784 0.104886726 0.29719505
0.5923255 -0.42061204 0.08384232 0.24212085 0.53923523 0.22930978 0.726158 0.20870507
-0.109578595 -0.4258534 -0.41933873 -0.19565968 0.14687033 0.5804995 0.74353105 -0.20813745
0.0144532705 0.24781686 -0.21454014 -0.021407638 0.22474965 0.48774755 -0.78279346 0.23512225
0.81134117 0.09523379 0.2633462 0.48984224 -0.26077247 0.055687945 0.4297489 0.23380472

conv0.fc_edges.weight f4 [24, 72]
00000000: 0d26 8a3d 1800 86bd 6088 223e 6cdf 843d
00000010: df81 293e 3dc5 c5bd 1089 9ebd 6dd4 00be
00000020: bc79 17bd 65d4 483d f3f2 81bd 9efc 173c
00000030: 9dfc f3bc 910b ff3b bdbf 9a3d ff4d a6bd
00000040: a158 4dbd 64b4 a0bd 2018 b43c 1879 40be
00000050: a631 8fbd ab41 033e b444 933d 7c96 26be
00000060: 1475 49bc 40f2 a23d 435e 27bd 9839 dfbd
00000070: 550e bdbc af1e 13be 40b3 0abe 6895 2c3d
00000080: 0290 2b3e 38c5 253c 38a0 22be eaa9 903d
00000090: b0ab 803c 00f0 9bbd 9953 863c cbdb 343d
000000a0: 8210 783e f50c 233d a1ae 9c3d b8c4 a2be
000000b0: 2fd1 f8bd 391c 373d 67e1 a43e 614b c4be
000000c0: 07fd 2a3e a1b7 623d 75ed dd3d eaea dbbc
000000d0: 503e 8abd 85a5 b43c 4643 ab3d f81f 11bd
000000e0: 755e 383b 37bf 94bc 37ab 9fbd 18b8 9dbd
000000f0: 23d2 1c3c b1d9 413d 138f b03d 9ead ab3c
00000100: 12e6 523d 6371 893c 06ff 4bbd fb84 033e
00000110: c881 4dbd 18a5 7a3c e7b8 1fbd 4d62 7e3c
00000120: 0be6 003e 32ab a4bd 7ee6 b93a c561 8c3d
00000130: 133d 0b3d b8b0 3c3d c1fb 0d3b 7a42 6bbd
00000140: c78a 57bd 3656 33bd 5c2e 433d 74fb ecbd
00000150: dc59 93ba 3e07 b23d 250e 5d3d 7b97 9a3c
00000160: f0af f9bd 6e9f 1abd c44f c0bd 59c2 89bb
00000170: a475 d6bd a978 31bd 84d6 8cbd 4486 b73d
00000180: 243d 513d 9e61 523d b5d0 74bd c030 58bd
00000190: d724 f23d 8cac abbd afa9 01be 1ff6 c03d
000001a0: 41b5 3abd 49ff 6e3d e30d 3f3d 3f5e c1bd
000001b0: c448 1d3c e73f 7abd 0563 6b3d f8ff 15be
000001c0: 0d71 83bd b503 eabc 2e25 f8bd 31ee 24bd
000001d0: 31b9 153e 0ad6 973d 0149 e63d 5df2 203d
000001e0: 810a 9e3d 615b b83c 9c28 2abd 7406 203e
000001f0: a46d 17bd f821 b5bc 479c e4bd e0e0 33ba
00000200: 6c32 12be 881d 663d 8302 a23c 1c97 2abd
00000210: d006 9dbd f1f1 d6bc f66c ac3d a095 d13d
00000220: 9c24 22bd 6925 00be 6f5a 233e 4843 1fbd
00000230: d5b8 a2bc a6b6 36bd ec0c 87bd 8fb8 77bd
00000240: 7357 b6bc 15db 1b3d 74f1 523e 09c0 a53c
00000250: e797 cdbc 37ef 2ebd 355c 28bd 3734 3dbd
00000260: 930c f7bc feaa 5a3d dc3a f23d d57a 503c
00000270: 35fb 2cbd e04f 51bb dd3d e8bd c6e7 2fbe
00000280: 8deb fdbd cc9b eabb 4857 863d 33c5 d5bd
00000290: c217 183e a1bb be3d 4fb7 7a3d 92fb 0ebd
000002a0: b3db aebd c4ed 02bd 7ad3 6a3e 0876 d4bd
000002b0: a4f0 1d3e a1f0 1bbe 6737 ecbc 1cb0 203e
000002c0: 20cd 163e eb53 77be 59e6 b1bd 6eb6 63be
000002d0: 00e3 24bc 7991 4fbe 9a41 bb3b 1101 7d3d
000002e0: 6ca8 06bd 04d4 2b3e faf7 b4bc c63b dc3d
000002f0: bff9 fd3d 9b96 ebbd 93e1 db3d 5293 b6bd
00000300: 90ea 8a3d 93c6 bb3d 0fa7 a83b 4e80 193e
00000310: e759 edbd 892b 2cbe f4ea 98bd e0c5 c63c
00000320: 6bf5 f0bd 84ca 033d 7d8d eabd 2259 c6bd
00000330: 3f11 2d3c 7897 23bd a68e f13d 7919 35bd
00000340: 5ef8 c9bd a38f a13c 4fe0 133e ccd5 87bd
00000350: 18ea e2bc d4a9 01bd 94b1 363d e359 9e3a
00000360: c614 123e 0ebd 5fbd 704a 173e f7e4 47bd
00000370: d07c 983d 31ec d2bd 807b 393d cc22 f9bc
00000380: b62d 2a3e bce0 6d3d 59c1 c0bc 5685 c63d
00000390: 74d1 abbc 6aee 8c3c 067e fdbd c45e dabd
000003a0: 7f4b 6cbd d101 aebd 2680 39bd a2a7 5abe
000003b0: 6126 9bbd fcb8 163e a469 b6bd 1e4a 393d
000003c0: e13a 003d 7de9 4d3d 732c a73b 0f7c 4c3e
000003d0: c374 d53d c69e 573d c613 0c3d 318e 933c
000003e0: 6e4d 77bd d25f 173e 6c55 bb3d 2ff4 0fbe
000003f0: b77c 19be c742 7abd 7d74 aa3c 309d 8d3c
0.06745539 -0.06542987 0.15872335 0.06487927 0.16553448 -0.09656761 -0.07740986 -0.12581034
-0.03698133 0.04903068 -0.06345167 0.009276537 -0.029783541 0.0077833612 0.075561024 -0.08120345
-0.05013335 -0.07846907 0.02198416 -0.18796194 -0.069918916 0.12818019 0.071908385 -0.16268343
-0.01229598 0.07956362 -0.04086138 -0.10899657 -0.023078123 -0.14367174 -0.13544941 0.042134672
0.16754153 0.010117821 -0.15881431 0.070636585 0.015706867 -0.07614136 0.016397284 0.044154923
0.24225047 0.03980728 0.07650495 -0.3179071 -0.121492736 0.04470465 0.32203218 -0.3833876
0.16698085 0.055350903 0.10836307 -0.026845414 -0.067501664 0.022051582 0.08362441 -0.03543088
0.0028132473 -0.018157585 -0.077963285 -0.07701129 0.009571585 0.047326747 0.08621039 0.02095681
0.051488943 0.0167777 -0.049803756 0.12843697 -0.050172597 0.0152981505 -0.038994696 0.015526366
0.12587754 -0.080404654 0.0014183072 0.068545856 0.03399379 0.04606697 0.002166495 -0.057436444
-0.052622583 -0.04378339 0.047651634 -0.115713984 -0.001124199 0.086927876 0.053968567 0.01887106
-0.121917605 -0.0377497 -0.09390214 -0.0042040762 -0.10471657 -0.04332796 -0.06876853 0.08961156
0.0510837 0.051362626 -0.05976935 -0.052780867 0.11823433 -0.0838252 -0.12662385 0.09421944
-0.045583013 0.058348928 0.046644103 -0.09441804 0.009599868 -0.0610961 0.05746748 -0.14648426
-0.06418047 -0.02856622 -0.121164665 -0.04026622 0.14621426 0.074138716 0.11244393 0.039293636
0.07716847 0.02250451 -0.041542634 0.15627462 -0.036969796 -0.022110924 -0.1116262 -0.0006861817
-0.14277047 0.056180507 0.019776588 -0.041648015 -0.07667315 -0.026238414 0.0841922 0.10233617
-0.039585695 -0.12514271 0.15952466 -0.038882524 -0.019863525 -0.04460778 -0.065942615 -0.060478743
-0.022258496 0.03805073 0.2059992 0.020233171 -0.025096847 -0.0427086 -0.04110356 -0.046192374
-0.030157363 0.053385727 0.11827633 0.012724598 -0.042231757 -0.0031938478 -0.113399245 -0.17178258
-0.12398443 -0.0071596857 0.06559616 -0.104380034 0.14852813 0.09313131 0.061209973 -0.034907885
-0.08537998 -0.031965032 0.22932234 -0.10374075 0.15423828 -0.15228511 -0.028835012 0.1569218
0.14726686 -0.24153106 -0.086865135 -0.2223756 -0.010063887 -0.20270337 0.0057146074 0.061768595
-0.032875463 0.16780096 -0.0220909 0.107535884 0.12401151 -0.11503335 0.10736384 -0.08914818
0.067830205 0.091687344 0.005146868 0.1499035 -0.11589413 -0.16813482 -0.07466689 0.024264276
-0.1176556 0.032175556 -0.11452768 -0.096849695 0.010563194 -0.039939374 0.11794786 -0.044213746
-0.098618254 0.019721812 0.14441036 -0.066325754 -0.027699515 -0.0316561 0.044602945 0.0012081232
0.14265737 -0.054623656 0.1477449 -0.048802342 0.07445681 -0.10298956 0.045283794 -0.0304121
0.16619 0.05807565 -0.023529695 0.096934006 -0.020973898 0.017203528 -0.12377553 -0.10662606
-0.057689186 -0.0849644 -0.045288227 -0.2135301 -0.075756796 0.14719003 -0.08906868 0.0452367
0.03130615 0.0502715 0.0051017343 0.199692 0.10422661 0.052641653 0.034198545 0.018012138
-0.060376577 0.14782646 0.09147152 -0.14057992 -0.14988981 -0.06109884 0.020807499 0.017286867

conv0.fc_attn.weight f4 [4, 6]
00000000: b707 da3e bf7a 0cbf d64f c93e 4550 d5be
00000010: 00e5 e7be d1d3 e0bd 5268 003f 74f7 d5bd
00000020: 4051 85be bd87 f3be b697 0c3e a593 02bf
00000030: a636 0c3f d45d 9d3d 1d55 7ebe 2b35 cbbe
00000040: ec6f 07bf cdcf bfbd 61b5 053f f87b d1be
00000050: c47b 3d3e eadc 6c3d 9720 25be 330b ddbe
0.4258401 -0.54874796 0.39318722 -0.41662803 -0.452919 -0.10977901 0.5015918 -0.104475886
-0.2603855 -0.47564498 0.13729748 -0.5100654 0.54770887 0.07683912 -0.24837156 -0.39689
-0.52905154 -0.09365807 0.5222989 -0.40914893 0.18504244 0.057827868 -0.16125713 -0.43172607

rgcns.0.h_bias f4 [32]
00000000: 4f1f 66bf 64dd 523e 3fb4 f8bb 9ba5 c03c
00000010: 4a4b 9dbd 3af6 8fbd a738 c93d 8049 f63d
00000020: b71d d2bd c442 f43b 8ee2 f63b b5e5 78bc
00000030: 41bd d6bd 9cbf 22bf 9112 f0bd 1de7 3ebf
00000040: def6 b53d 5d83 d2bd f673 91be 8f42 403d
00000050: 96fc 8cbd fadd f73d 3091 e33d 0698 eb3c
00000060: 300c 993c cccf f33d 543d 273d a8bf af3a
00000070: 5883 9cbd 91b6 cdbe 376b 123c 0195 17be
-0.89891523 0.20592266 -0.0075898464 0.023516467 -0.07680376 -0.07029386 0.09825259 0.12025738
-0.10259574 0.007454248 0.0075343316 -0.015191485 -0.10485316 -0.6357362 -0.11722291 -0.745714
0.08884977 -0.10278962 -0.28408784 0.046938475 -0.068841144 0.121028855 0.11111677 0.028759014
0.01868257 0.119048685 0.04082997 0.0013408558 -0.07642239 -0.4017835 0.008936695 -0.14802934

rgcns.0.loop_weight f4 [32, 32]
00000000: c0a5 53be d23f 8fbe f977 b1be e65b e53d
00000010: 1a31 1abe ad52 fabe 17fe 9f3e 862f 693d
00000020: fe03 f1be 04c1 e7bd ebfc 92bd c102 34be
00000030: a2c4 0fbe 7ce1 c23e ffc9 af3e c80d 75be
00000040: 0f65 c23e 458f 6e3d c9fe 83be b782 023e
00000050: 4c96 5dbd 937f e83d 40ba f93e f4c3 c8be
00000060: 2350 983e e300 85be a6c7 e4bc 60e5 8e3e
00000070: 80a1 6c3e d160 043e 89fb d43e 560b c5be
00000080: 4c92 90be d9c8 3dbe d702 763e 4579 e2bd
00000090: 0ca4 033e 9122 a2bc fc6f bb3e 4e86 87bd
000000a0: 7e47 c1be f38c c13e 7420 923e 2e72 44be
000000b0: a6f5 92bd 1181 1abe ea7e ac3e fd61 223e
000000c0: 771b c53e fdf4 6fbe e243 3bbd 9969 333d
000000d0: 6450 893e db57 a3be abd5 d6be 8bb7 c13d
000000e0: ea5d 9b3d 580f a6be fa52 39be ca87 99bd
000000f0: 04b7 0c3e b202 4b3d d720 843d fc4d 68be
00000100: 60d8 223e 46b9 393e 386a bdbe 6fa1 bb3e
00000110: 477d b93e 6d18 df3e 9578 ab3e 93a6 71be
00000120: c35e 2c3e 35f5 9dbe e818 3c3c 3b62 c03d
00000130: 5453 aebe 9b53 92be 278e d33e a19c 903d
00000140: bf33 21be 9559 71be 9119 93be 2d10 743e
00000150: 6f13 a33e 6888 d1be 42d9 75bd d9ae 66bb
00000160: 12b7 a83e 2a81 ccbd dae1 88be afc9 15be
00000170: 8e8c bd3e 6226 d63e 4772 dabe c6f2 6b3e
00000180: 898f aa3e 25bf cdbd a52a a5be d552 7abe
00000190: c2d2 d33e 4763 debe 3f4d f0be e796 95be
000001a0: 5b16 13be 2bc5 5bbe e943 7cbe 6eab c4be
000001b0: 2f29 74be 61ee a53e 664a 693e 70a4 0bbe
000001c0: fdd6 473e 949e 9bbe ad07 5a3e b0cd 31bd
000001d0: ba5b a4be 2602 c03e e217 4d3e b878 e1be
000001e0: 68d5 063e 92f0 3c3e 5c74 c23e 90d6 d1be
000001f0: 66ea b53e cec2 ba3e 036c d23e 2726 abbd
00000200: bbff 9d3e af0e 71be f802 443d b590 833e
00000210: f2b6 3fbe d5ce f9bd 5b8b 0e3e 3f7c ee3d
00000220: beed cebe 1dc0 19be 3d99 c3be a6d4 b63c
00000230: 45b8 003e 0008 b6be 0c09 e43d b603 07be
00000240: 6b41 cf3e fcbf cbbe 632c 60be 4003 46be
00000250: 9695 5e3e 14a2 aebb f9ff 45be ddbc 5cbd
00000260: 467b 383d dd5b a33d c907 5e3e 62af c4be
00000270: 1f2f 5dbe f137 d13e e5c9 b83e 5c00 da3e
00000280: 15b7 fb3e e5c7 013e effa 0cbd bade 973d
00000290: e784 90be 4b94 bcbe ba1d a7bd 189b 48be
000002a0: a1c1 efbd cd7e a5be 608c 8c3d ca37 57be
000002b0: 370a ad3e 899f 5b3d 3f64 b7be 1d04 9a3e
000002c0: a022 7bbd 88d8 a23e 469e 8abe 5587 8e3e
000002d0: 3ed7 df3c 937c bebe a853 f53e fb8b 23be
000002e0: 9e37 cb3e 8ed3 ba3d d880 723e f57e 913e
000002f0: accd b33d 9c34 823e 9138 42be efe4 92bc
00000300: a7c3 e63e bc0f 8a3d cbc3 b73c 43a5 cbbe
00000310: ff8e 323e 6cd5 5c3e a32b 173d eacc 89be
00000320: b76a 1abe b169 c73e ea49 a6be 718e 84be
00000330: a1bb cabe 6f1d 8d3e 0e31 563e 3fbc e63e
00000340: c52d 883d 93f9 a63d 7917 85bd 2434 783e
00000350: 442d a3be 8688 e7bd 376d 28be 9c86 a03e
00000360: 3c10 29be 4ff4 e73c 43c3 53be 41f2 653e
00000370: aa2f 11be 2355 763d ccc2 6abe 3a80 59bc
00000380: a3a4 a63e 4bbe adbe 87d4 a73d edc8 813e
00000390: 3097 ea3e fe79 973e 0389 d6bc 5549 a3be
000003a0: 10c2 3cbd 9e6c ce3e fce2 d6be 6f58 b23e
000003b0: d795 233e 1ba4 89be 1d79 293e 8ff9 f73e
000003c0: 45f1 c33e b591 a8be 677e 823e 8358 9fbe
000003d0: f4a5 29be 99f1 6c3e 3972 fe3d c693 cebd
000003e0: 2b3d cbbe 3f2e a8be c562 bfbe cdb4 d3be
000003f0: 14c9 06bd 210e bd3d d949 b83e ef24 903e
-0.20668697 -0.2797838 -0.34661844 0.11199169 -0.15057793 -0.48891202 0.31248543 0.056930088
-0.47073358 -0.11316112 -0.071771465 -0.17579176 -0.14039853 0.38062656 0.34333798 -0.23931038
0.37967727 0.0582421 -0.25780323 0.12745176 -0.054098412 0.11352458 0.4877491 -0.39212
0.2974864 -0.2597724 -0.027927231 0.27909374 0.23108482 0.12927558 0.41598156 -0.3848521
-0.28236616 -0.18533649 0.24024521 -0.110582866 0.12855548 -0.019791873 0.36608875 -0.066174135
-0.37749857 0.37802848 0.28540385 -0.19184181 -0.0717576 -0.15088297 0.33690578 0.15857692
0.38497517 -0.234333 -0.045719035 0.043801878 0.26819146 -0.31902966 -0.4195989 0.09458836
0.07586272 -0.3243358 -0.1809806 -0.07496603 0.1374169 0.049563117 0.06451576 -0.22685999
0.15902853 0.18137082 -0.369951 0.36646602 0.36228392 0.43573323 0.33490434 -0.235987
0.16833024 -0.3085114 0.0114805475 0.09393736 -0.3404795 -0.2857941 0.4131939 0.070611246
-0.15742396 -0.23569329 -0.28730443 0.23834296 0.31850764 -0.40924382 -0.060021646 -0.0035199432
0.32952172 -0.099855736 -0.2673481 -0.14627717 0.37021297 0.4182616 -0.42665312 0.2304183
0.33312634 -0.100462236 -0.32259098 -0.2444566 0.41371733 -0.43435118 -0.46933934 -0.29216692
-0.14363997 -0.21461932 -0.2463528 -0.3841204 -0.23843835 0.3240843 0.22782287 -0.13636947
0.19515605 -0.30394423 0.2129199 -0.04340905 -0.32101232 0.3750164 0.20028642 -0.44037414
0.13167346 0.18451145 0.379794 -0.4098401 0.35530394 0.3647675 0.4109803 -0.08356886
0.3085917 -0.23540758 0.047854394 0.2569634 -0.18722132 -0.12197653 0.13920347 0.11644792
-0.40415758 -0.15014692 -0.3820285 0.022318196 0.12570293 -0.3555298 0.11134538 -0.1318501
0.40479597 -0.3979491 -0.21891932 -0.19337177 0.2173675 -0.00532938 -0.19335927 -0.05389105
0.045039438 0.07976506 0.21682657 -0.38415056 -0.21600007 0.40862992 0.36091533 0.425784
0.49163118 0.1267391 -0.034418996 0.074155286 -0.28226396 -0.3683189 -0.08159967 -0.19590414
-0.11706854 -0.32323304 0.06862712 -0.21017376 0.33796856 0.05361894 -0.3581867 0.30081263
-0.061312318 0.31805825 -0.27073878 0.27837625 0.027324315 -0.37204418 0.47915387 -0.15971367
0.3969087 0.09122382 0.23681962 0.28417173 0.08779463 0.25430763 -0.18966891 -0.01793143
0.45071146 0.06741282 0.022432229 -0.39774522 0.17437361 0.21565789 0.03690685 -0.2691415
-0.15079771 0.38947824 -0.32478267 -0.25889924 -0.39596274 0.2756152 0.2091715 0.45065495
0.06649355 0.08153071 -0.06498618 0.2423864 -0.31870472 -0.11305337 -0.16447912 0.313527
-0.16510099 0.028314738 -0.20679955 0.22455694 -0.14178339 0.060139786 -0.22925872 -0.0132752005
0.32547483 -0.33934245 0.08194833 0.25348607 0.45818472 0.2958526 -0.02618838 -0.31891885
-0.04608351 0.40317243 -0.4197005 0.34833094 0.15975128 -0.26883015 0.16550107 0.48432586
0.38270012 -0.32923666 0.25487062 -0.31122217 -0.16567212 0.23139037 0.1242413 -0.10086779
-0.39695105 -0.32847783 -0.37380043 -0.41348878 -0.032906607 0.092312105 0.3599384 0.28153178

rgcns.0.linear_r.W f4 [11, 32, 32]
00000000: 4cd3 a8bc ab33 db3c 17a4 2c3e 722e 1cbe
00000010: 7696 edbd 29f4 6f3c e3fc 323d 2ca7 dabb
00000020: 1282 5bbe 4a21 50be 506e abbc 94d8 0abd
00000030: 5162 09bd 22a6 f5bc 2e84 7bbd 7910 323e
00000040: 64c6 4a3e 430d 10be b2db ae3d e59d f9bc
00000050: c000 46bc 153f 00be da12 883d 7141 8a3c
00000060: 44c0 bfbd ad73 0a3e 16b9 b2bd 3473 c0bd
00000070: d62e 5abd 29ed 23be 6ed1 99bd 3cfd 973d
00000080: 00db 67be 2f8d e43d a48d babd 3e89 043e
00000090: 1875 0ebe 70fc 4c3e 08cc db3d e918 8b3d
000000a0: e77f fe3d 9ee1 afbd 9fcc f23d 57c7 68bd
000000b0: 5036 aebd a084 21be c214 ac3d 7d5c 83bd
000000c0: 2a21 53be d1ca dfbd dbf2 8c3d a2a4 9f3d
000000d0: 1d58 49bd b955 093e 458a c7bc 1859 62bd
000000e0: 069b e8bc 29d8 5e3d 0f4b 14be fff3 3e3e
000000f0: 5db5 4c3d 9620 63bc aea9 04be ba83 f2bc
00000100: b73b 8dbe f4c0 ee3d 63b4 bebd 3e10 853d
00000110: 51e1 523d 47e2 873e 5c6e 18bd 03b6 853d
00000120: f938 c2bc 99f9 923d 2a80 1ebd 64a7 2dbe
00000130: 1850 dfbd d944 eebc 71fe 033e 27aa 433d
00000140: cda8 8ebe 1571 893b bfc7 4bbd 7935 eb3c
00000150: ca7d 083e aca6 ef3d 8f17 67bc 09a0 3d3d
00000160: 25f6 c7bb ba93 2cbe 2a66 3ebe 8e70 263e
00000170: 029e be3d e957 993e bfbc 013e b57b e2bd
00000180: af5d 963d 298e b0bd 046f 283e 0a56 8b3d
00000190: 8bc7 87bd b912 00be 9b5a d33d 89e1 38be
000001a0: 1752 c7bd 57c5 be3c d925 30be 0283 e23d
000001b0: 57fd 31be 1640 183e 0bec e13d f68b eb3d
000001c0: 7b09 08be 9d59 f13d 2109 423e fa25 85bd
000001d0: 184f 443e efa9 afbd 164a d93d 4b23 0e3b
000001e0: 0bd1 293d f15c 88bd 1eb8 0abe b9b5 4abd
000001f0: 6bbd 243e 0768 00bd 5714 9f3d 6b21 373e
00000200: a352 0abd 2c75 5dbe 846c 5e3d 3dad 3e3b
00000210: c008 b6bd 76fd 85be e629 25ba 90e9 723c
00000220: 946a 36be e342 173e 3a6e 39be 1e85 123e
00000230: 45ad bcbc 75aa f53d f3c8 98bd f624 f23d
00000240: 66e0 63bd 8bb1 283d 68d6 783c dfb7 6a3e
00000250: 976f 053e 35c0 e23d 0b40 b33c 02ec 50bd
00000260: 3b02 ab3d 7b48 b73d 98b1 423e 5a31 fabc
00000270: d9cc 8bbc 560c 7a3d b052 b93d 1133 1a3d
00000280: 7cc2 713d 9c64 273e 51e3 b33c b5c7 ad3d
00000290: 3dfe 033e 26c2 e4bd 6d94 a6bb b60d 9c3b
000002a0: 0a5b 6bbe 261c 643d fb5c bf3d b24e f3bd
000002b0: dc8e 0fbd 171c b63d cdf1 3a3d 00a2 da3d
000002c0: 1a54 513e f282 85bd 5b59 7bbd 4b81 0fbb
000002d0: 79b2 c93d 042f 55bd 1168 f43d fabc 8dbd
000002e0: 180b 8c3d 5687 a63d 0ba9 0ebe ce03 c1bd
000002f0: ea3d 883d eb53 a7be 5b39 883d dc56 6abe
00000300: 3aee e03d 7996 d93c d00c 27be 576e 10bd
00000310: 3d9f 043d 6ee2 5f3d 3eac 13be e039 e9bb
00000320: 2daa 7a3c cd7f 933d 3328 273b 5472 3e3e
00000330: b09a 063e 49db 3fbe 68a6 96bb 67e8 37bd
00000340: e6a4 a5bd 4732 84bd 1180 28bc 3e09 eebd
00000350: b632 7abc 0c87 2ebe f434 373e 26d3 ae3c
00000360: 005b 14be e236 89bc c2a3 07bd 7add 2abd
00000370: 5cc6 3a3e 0bf5 38be 792c cd3d 2a72 29be
00000380: 8304 643e dd29 c6bd a220 913c c14d d63c
00000390: e004 66bd d4e7 bc3d 6663 3dbe e764 90bd
000003a0: 7e6f eabd cad6 c5bd de87 dc3b 4211 573c
000003b0: c837 c5bd 57a9 153e 325c 34be a323 1c3e
000003c0: 2332 c2bd 44fc 80bb a93a 34bc fe70 51be
000003d0: 92ee d5bd c6a1 2bbe a435 b23d 2d07 62bd
000003e0: 237b 21be f8c1 b8bd fde5 693d c3f1 403d
000003f0: 515a 0dbe bba5 81be c90f 013e 905a 0fbe
-0.020608567 0.026758036 0.1685947 -0.15252092 -0.11600964 0.014645615 0.043698203 -0.0066727605
-0.21436337 -0.20325199 -0.020926625 -0.03389795 -0.033541027 -0.029986445 -0.061405353 0.17389096
0.19802243 -0.14067559 0.08537997 -0.030470798 -0.01208514 -0.12524064 0.06644221 0.016876908
-0.09362844 0.1352069 -0.087267086 -0.09396973 -0.053267322 -0.16008438 -0.07510649 0.074213475
-0.22642136 0.11159741 -0.09109047 0.12942979 -0.13911855 0.20018172 0.10732275 0.067918606
0.12426739 -0.08587955 0.118554346 -0.05683073 -0.08506453 -0.15773249 0.08402397 -0.06414125
-0.2061812 -0.10927356 0.068822585 0.07795073 -0.049156297 0.13411607 -0.024357924 -0.055260748
-0.028394233 0.054405365 -0.14481758 0.18647765 0.04997765 -0.01386275 -0.12955353 -0.029603828
-0.2758462 0.11657897 -0.0931175 0.064972386 0.05148441 0.26539823 -0.037214622 0.065288566
-0.023708807 0.07176513 -0.038696446 -0.16958386 -0.109039485 -0.029085563 0.1289003 0.04776969
-0.2786316 0.0041943886 -0.04975104 0.028712021 0.13329235 0.11701712 -0.014104738 0.0462952
-0.0061023408 -0.16853228 -0.1859366 0.16253874 0.09307481 0.29949883 0.12669657 -0.110587515
0.073420875 -0.08620865 0.16448599 0.0680352 -0.06629857 -0.12507142 0.10320016 -0.18054785
-0.09732454 0.023287458 -0.17201938 0.11060144 -0.17381798 0.14868197 0.1103135 0.11501305
-0.13284867 0.117846705 0.18948795 -0.06501384 0.19170797 -0.08577334 0.10609834 0.0021688517
0.041459125 -0.06658352 -0.13546798 -0.04948971 0.16087882 -0.03134921 0.077675514 0.17883842
-0.033770215 -0.21626729 0.054302707 0.0029094957 -0.08888388 -0.26169938 -0.0006300494 0.014826193
-0.17814094 0.14771609 -0.18108454 0.14308593 -0.02303184 0.11995403 -0.07460203 0.11823456
-0.055633925 0.041184943 0.015187837 0.22921704 0.1303085 0.11071817 0.021881124 -0.051006325
0.08350035 0.089493714 0.19013059 -0.03054111 -0.017065452 0.06104692 0.090489745 0.037646357
0.059023365 0.16346973 0.021958979 0.08485357 0.12889953 -0.111698434 -0.0050836117 0.0047623767
-0.22983947 0.055690907 0.093439065 -0.11880244 -0.03504835 0.088920765 0.045640755 0.1067543
0.20442238 -0.065191165 -0.061364513 -0.0021897133 0.09848494 -0.05204679 0.119339116 -0.0692081
0.068380535 0.08131282 -0.13931672 -0.09424554 0.06652434 -0.32681212 0.06651565 -0.22884697
0.10982938 0.026561009 -0.16313481 -0.03526148 0.032378424 0.0546593 -0.14421174 -0.007117495
0.015299362 0.072021104 0.0025506138 0.185983 0.13144946 -0.18735994 -0.004597474 -0.04489937
-0.080880925 -0.06454902 -0.01028444 -0.116228566 -0.0152708795 -0.17043704 0.17891294 0.021340918
-0.14487839 -0.016749803 -0.033115156 -0.041715123 0.1823973 -0.18062226 0.10018248 -0.16547456
0.22267346 -0.096759535 0.017715756 0.026160123 -0.056156993 0.09223905 -0.18494949 -0.070504956
-0.11447047 -0.096601084 0.006730064 0.013126673 -0.0962978 0.1461538 -0.17613295 0.1524797
-0.09482219 -0.0039363224 -0.011000314 -0.2045326 -0.10445894 -0.1676093 0.087016374 -0.055182625
-0.15769629 -0.090213716 0.0571041 0.047105562 -0.13803984 -0.25321755 0.12603678 -0.1399939

rgcns.1.h_bias f4 [32]
00000000: 9836 38bd e6b3 d5bd 10e3 c53c d4dd 583c
00000010: e804 843d 39ee b5bd 5214 a9bd 577a f1be
00000020: cca9 17be 2792 babc de91 e33d 3349 bc3d
00000030: 3a41 c3be 8958 4dbd 9c5b 233e d24f 79be
00000040: 6131 cfbd eb44 7cbe 70d0 243d 636e babc
00000050: bd22 ac3d 6b28 9bbc 6e90 3fbe b3c5 013d
00000060: 33b6 c03d 6bc6 17bc c297 3ebd 85bd c8bd
00000070: ad69 0a3e 3173 08be 2962 bb3b 877c bdbd
-0.04497394 -0.104347035 0.024156123 0.013236482 0.06446248 -0.08883328 -0.08255829 -0.4716365
-0.14810866 -0.022774769 0.11111806 0.09193649 -0.381357 -0.05013326 0.15952915 -0.24346855
-0.1011684 -0.24635665 0.040237844 -0.022757715 0.08405063 -0.018940171 -0.1870744 0.03168268
0.09409752 -0.009263615 -0.046531446 -0.09801773 0.13516875 -0.13325192 0.0057184887 -0.09252267

rgcns.1.loop_weight f4 [32, 32]
00000000: eb9a d13e e7a5 83be 718a 9c3e b755 2dbe
00000010: 20d6 2fbe 67a9 cdbd e4f2 d43d dc84 0abd
00000020: 8472 6f3e 1323 133e 6354 8ebe 6bd9 13be
00000030: e3f4 943e 7dc9 703e b353 86bd 1ba7 63be
00000040: dbff c43e eecc 323e 0459 8abe ee73 c13e
00000050: 5bff 9cbe ec3c 2cbe 39f4 8dbe 8966 8cbe
00000060: b70f dbbe 5d61 d23e 0eb3 a13c a08e b03e
00000070: fdee 603e 3313 133e 9d33 b1be f140 333d
00000080: 5f22 ab3d 71c0 ccbe a6c2 47bd 1ef0 f2bd
00000090: e0db 373c ef50 a6be 82dd 3fbe f367 a6be
000000a0: 2222 64be f2fb 603e bc42 86bd a106 a53a
000000b0: 9dd7 f3be 2a5f 983e 94ba 60be 5e7a 013e
000000c0: be9a aebe 010a 50be 3842 0dbe 2cb6 64bd
000000d0: db75 c2be a74f 79be d5be 5e3e 613f 8f3e
000000e0: 8d49 cc3e e99b febd a3eb aabe 9901 2a3e
000000f0: bb6a 5a3e e716 acbe 5d17 773e 91eb 1cbe
00000100: 9208 cebe c16b c13d e679 e53e 2ccc fa3d
00000110: 6845 90be dff3 44be 267c 793e aea2 10be
00000120: ae6d 04be 2783 743c 73ce 5fbe 6e0d 0c3e
00000130: c833 4d3e 05a5 a7be 0908 84be 5360 e03e
00000140: 52ae 893e bc5b 453d 0aa9 aa3d 541b 843e
00000150: 87f2 aabe 0ffb 3bbe d399 313e 512d 99be
00000160: ba06 b83e 4105 98be 9d52 e0bb 0a13 7f3e
00000170: 623f 733e 2ac5 293d 611f 863e 4c75 0d3e
00000180: e88a 603e 4f54 83be 938b 2c3e 8ffb b73d
00000190: ae11 793e 4123 ccbe a8f5 6b3d d58e 72be
000001a0: 956f 6abe 2237 9cbe c35c 233d d814 b0be
000001b0: 472c 19be 3575 f9bd 116f 8fbe 6a9c 4e3d
000001c0: 899a c73e 7c2e 0bbe feef 333d 68f6 263e
000001d0: 84aa a03e 1979 a2be b6e7 c2be cfb1 e53c
000001e0: de07 523e de39 39be cd44 79be 5ddd 703e
000001f0: 2119 ea3d 613e 6ebe 8a05 833e ff0b 2fbc
00000200: f4ba ec3e d77b 85bd 1dbe ce3e c474 a6bc
00000210: 0fea 40bd d010 3f3e d632 aebe 80b3 833c
00000220: 529a d93d 1a3a 863d 65d9 a43e bd13 42be
00000230: 0967 f6bc 847c be3e 2fad 07be 5b9f ab3e
00000240: 8c4c b93e 3c33 c33d d6f8 7a3e 2f31 263f
00000250: 6d17 c43e a794 d2bd 4739 16be d3d9 ba3c
00000260: 8d5b 7c3c 066b 3f3d feda 963e ea0e 033e
00000270: bbe8 3d3e 3ca8 d63e b056 a2be f602 29be
00000280: 3071 c9be 750c 7cbe 7c11 41be d45d 49be
00000290: d145 be3e 26c6 5cbd ebf3 c1bd 4295 3a3e
000002a0: 0dfc 83be c6f2 60be abbb 1ebe be7f 19be
000002b0: 9294 e73d 9562 dc3d 253f de3e c291 783d
000002c0: f8b3 d9bd c833 e13e 8852 dfbd fa5d a93e
000002d0: ccd4 8fbe 590f 3b3d a0c8 c23e 3e8d 88be
000002e0: 8c04 b03e 8b50 323e b046 dabc 7ba1 d6be
000002f0: bfc2 363e a885 57be 3e73 de3e c166 a0be
00000300: 45dc bd3e 4d90 2f3e e955 debd 65c1 c63d
00000310: 22cb bc3e ba35 1b3e babf 713d 0e8a 313d
00000320: e81a 76bd 6afd 963e 4273 a9be 9fc6 b83e
00000330: 0ebb ac3b 0078 56be 56b0 e23e c426 83be
00000340: eb28 b6be 5119 483e a0fc 7e3e 7825 ff3e
00000350: 4efe 933e e89d 65be 7d8e e13c 0797 75be
00000360: 080e 41be 220d c63e bdd0 883c d48b bdbe
00000370: 1f7d e13e 293a 0e3e 9d73 a9be 741f c1bd
00000380: 621d 75be 1488 b9be 16c2 b13e 33b3 c43d
00000390: 97a5 ddbe e8c5 5dba 1977 a93c a734 cd3e
000003a0: 2779 b73e 16df 7d3e bc97 863e cf8a b33e
000003b0: 02df d33d bd55 b6bc b375 803e a96d 183d
000003c0: e121 8abe ae23 063e 3dba 913d e916 b33e
000003d0: 7a48 f43e eaa1 e03a f6e7 a4bb 317b 45be
000003e0: 3bf3 0cbe 818c 56be 8c29 bb3e dc5b 96be
000003f0: 8eb5 f13d ee9e bcbe a737 783e 5932 263b
0.40938506 -0.2571251 0.30574372 -0.16927229 -0.17171526 -0.100420766 0.1039789 -0.03381811
0.23383528 0.14368849 -0.27798757 -0.14438407 0.29093084 0.23514362 -0.06558933 -0.22231714
0.38476452 0.17460987 -0.2702104 0.3778376 -0.3066357 -0.16820115 -0.2772539 -0.27421978
-0.42785427 0.41089907 0.0197387 0.34483814 0.21966167 0.14362793 -0.3460969 0.043763105
0.08356165 -0.3999057 -0.048769616 -0.11862205 0.011221856 -0.32483622 -0.18736842 -0.32501182
-0.22278646 0.2197111 -0.06555697 0.0012590477 -0.47625437 0.29760104 -0.21946174 0.12644336
-0.34102434 -0.20316316 -0.13794792 -0.055837795 -0.37980542 -0.24346791 0.21752484 0.27978042
0.39899865 -0.12432081 -0.33382902 0.16602172 0.21329777 -0.33611223 0.24130006 -0.15324236
-0.40240914 0.094443806 0.44819564 0.12245974 -0.28177953 -0.19233654 0.24363765 -0.14124557
-0.12932464 0.014923847 -0.21856098 0.13676998 0.20039284 -0.32743087 -0.2578738 0.4382349
0.26890808 0.048183188 0.08333023 0.258021 -0.3338816 -0.1835749 0.17343836 -0.29917386
0.35942632 -0.29691508 -0.006845786 0.24909607 0.23754647 0.041447796 0.26195815 0.13814276
0.21927989 -0.2565026 0.16850118 0.08983528 0.2432315 -0.39870647 0.057607323 -0.23687299
-0.22894128 -0.30510813 0.039883386 -0.34390903 -0.14958297 -0.121805586 -0.28014424 0.050442137
0.38985088 -0.13591951 0.043930046 0.16304934 0.31380093 -0.31733015 -0.38067406 0.028038887
0.20510814 -0.18088481 -0.24342652 0.23521943 0.11430574 -0.23265983 0.25590163 -0.010684012
0.46236384 -0.06517761 0.4037942 -0.02031935 -0.047098216 0.18658757 -0.3402316 0.016076803
0.106251374 0.06554051 0.3219711 -0.18952842 -0.030078428 0.37204373 -0.13249658 0.33520016
0.36191213 0.095312566 0.24508986 0.649188 0.38299122 -0.102822594 -0.14670287 0.022808945
0.015402687 0.046732925 0.29463953 0.12798658 0.18545811 0.41925228 -0.31706762 -0.16505036
-0.39344168 -0.24614127 -0.18854326 -0.19664699 0.3716264 -0.053899907 -0.09470352 0.18221
-0.25778237 -0.2196761 -0.15501277 -0.14990136 0.113076344 0.107609905 0.4340755 0.06068588
-0.106300294 0.43984818 -0.109044135 0.3307951 -0.2809204 0.045668934 0.3804369 -0.2667026
0.3437847 0.17413537 -0.026645035 -0.41920075 0.17847727 -0.2104708 0.43447298 -0.31328395
0.37082115 0.1714489 -0.1085623 0.09704856 0.36873728 0.15157214 0.059020735 0.04334455
-0.060084254 0.29490215 -0.33095747 0.36089036 0.005271322 -0.20944214 0.4427516 -0.25615513
-0.35578093 0.19540907 0.24901056 0.49833274 0.28904957 -0.22423518 0.027533764 -0.23983394
-0.18853009 0.38681895 0.016701097 -0.37020743 0.44040772 0.13889374 -0.33096018 -0.09429827
-0.2393699 -0.36236632 0.34718388 0.09604492 -0.43290398 -0.0008459971 0.020686673 0.40079233
0.3583462 0.24792132 0.2628764 0.3506684 0.1034527 -0.02225768 0.25089797 0.037213955
-0.26978973 0.13099548 0.071156 0.34978417 0.47711545 0.0017138098 -0.0050325347 -0.19285275
-0.1376466 -0.20952035 0.36555135 -0.29366958 0.11802207 -0.36840004 0.2423998 0.00253596
