parameters/cgmc_music_edge_0.1366.pt (torch, 270182 bytes, 20 tensors)

conv0.bias f4 [16]
-0.32391307 -0.32417908 -0.4399631 -0.4415594 -0.3239122 -0.3241741 -0.43996078 -0.4415606
-0.3239157 -0.32418594 -0.43996707 -0.44155803 -0.3239131 -0.324181 -0.43996388 -0.44155934
00000000: efd7 a5be cdfa a5be d842 e1be 1314 e2be
00000010: d2d7 a5be 26fa a5be 8a42 e1be 3b14 e2be
00000020: 47d8 a5be b3fb a5be 5d43 e1be e513 e2be
00000030: f0d7 a5be 0dfb a5be f242 e1be 1114 e2be

conv0.fc_node.weight f4 [128, 4]
0.20500143 0.086132176 0.017378468 -0.15622017 -0.0009135546 0.062371656 -0.0005796289 0.20274766
0.055084087 0.04453506 -0.07188469 0.18828551 0.15953425 0.29539445 0.16042623 0.08094239
0.074305706 -0.07543652 -0.024115222 0.069427446 -0.007825933 0.19988802 -0.01730853 -0.091952674
-0.058321994 -0.1515464 -0.06981369 -0.18547466 0.08278907 0.09417566 -0.12270077 0.0699737
0.18537833 -0.15082423 0.003070129 -0.20276618 -0.20592639 -0.2941817 -0.062673815 0.060297877
-0.1115495 -0.11406127 -0.06925203 -0.24560334 -0.06499993 -0.15857837 -0.03016257 -0.0023151487
-0.103278555 -0.023324847 -0.08951693 -0.09546949 0.21232706 -0.0032052747 0.0240534 0.18696111
-0.17605618 -0.0042943303 -0.031002797 0.12226252 0.10546596 -0.111348905 0.040093724 -0.0010991395
0.08878116 0.08203103 0.05625004 -0.08322941 0.0800265 0.07613815 0.087626874 0.15002088
-0.117308706 0.024412895 -0.038817585 -0.264256 0.1380338 -0.28487864 -0.014117564 0.18602552
0.3547957 0.065289676 0.19303 -0.051329732 0.11638568 0.058346573 0.0067824693 0.09143076
-0.29428732 0.14073016 -0.15415886 0.12964618 0.21299054 -0.2071441 0.036313206 0.0012703113
0.1869557 -0.04541663 -0.015714813 0.028990978 -0.11712631 0.13153495 -0.02371417 0.04064144
0.008681239 0.12415991 0.34040752 -0.08157037 0.016267266 0.16949178 -0.11008676 -0.074651614
0.17772076 0.16725634 0.02038347 0.017239682 -0.08303297 0.03342882 -0.055059846 -0.22207996
0.28927782 -0.03686514 -0.014800828 0.2763461 0.02384012 -0.015122092 -0.06508839 -0.043798447
-0.12782617 -0.04664297 0.004696686 0.06922236 -0.15267302 -0.0521114 0.07752743 0.12805377
0.08132228 -0.10982605 -0.12240364 -0.06097279 0.29712757 0.19097038 -0.07992015 0.1228169
0.18097858 0.038893454 -0.07873933 -0.009629311 0.261896 0.11951718 -0.17232321 -0.24179134
0.040091835 -0.12738873 -0.026836045 -0.23665537 0.0657216 0.16741431 -0.020427257 -0.12937982
0.028164085 0.008053137 0.018319989 0.028394766 0.003083897 -5.339256e-05 -0.11663632 0.22903953
0.1922463 -0.015349051 -0.062500805 0.011861065 -0.07940539 0.062434074 0.2629426 -0.19782983
-0.24397217 0.017398672 -0.22231156 0.02856978 0.034337766 0.0710291 0.0841285 0.0065461146
-0.18348777 -0.16657132 0.04954831 0.11093863 -0.14478795 -0.052392237 -0.16489615 0.2037597
-0.16991253 -0.02954733 -0.109100625 -0.26843563 -0.100208096 0.055084877 0.14666523 0.10024369
-0.23411943 -0.051244836 0.19053534 0.04857553 -0.03141915 0.06844697 0.047927365 0.22713421
-0.004729783 -0.021390334 0.03911824 0.13411039 0.0745669 -0.10081574 0.16690207 -0.055603042
-0.06661756 0.012207725 -0.066983245 -0.021575391 -0.03977162 0.07947376 -0.1823144 0.09632428
-0.16067469 0.04487789 0.1302345 0.14635599 -0.14207877 -0.010132993 0.12724079 0.012502079
0.0436244 0.32090262 0.10491937 0.19501169 0.032093264 -0.071264215 0.064757794 0.19087206
0.031734113 0.30614948 -0.056407634 -0.041149497 0.006360513 -0.1812287 0.034637857 -0.008819968
0.0016171598 0.010074564 -0.038197946 0.17265677 0.17015052 -0.1775542 0.013122015 0.15258045
00000000: e5eb 513e 1166 b03d 4a5d 8e3c 2ef8 1fbe
00000010: 9d7b 6fba 6c79 7f3d 3df2 17ba 159d 4f3e
00000020: da9f 613d 656a 363d 4838 93bd ebcd 403e
00000030: f25c 233e f13d 973e c646 243e 20c5 a53d
00000040: 972d 983d 767e 9abd 498d c5bc fa2f 8e3d
00000050: 5838 00bc 72af 4c3e 9eca 8dbc af51 bcbd
00000060: 0be3 6ebd fb2e 1bbe 7bfa 8ebd 12ed 3dbe
00000070: 518d a93d 2bdf c03d 8b4a fbbd 5f4e 8f3d
00000080: d1d3 3d3e ab71 1abe 3834 493b f0a1 4fbe
00000090: 5ede 52be fc9e 96be 215b 80bd e8fa 763d
000000a0: 1074 e4bd f598 e9bd 02d4 8dbd 717f 7bbe
000000b0: af1e 85bd 5e62 22be 7e17 f7bc c0b9 17bb
000000c0: b583 d3bd c013 bfbc a754 b7bd 8285 c3bd
000000d0: 446c 593e 960f 52bb a30b c53c bc72 3f3e
000000e0: 1248 34be 74b7 8cbb 94f9 fdbc c664 fa3d
000000f0: 8afe d73d e50a e4bd 5139 243d 0011 90ba
00000100: e6d2 b53d e2ff a73d 7166 663d 2e74 aabd
00000110: efe4 a33d 52ee 9b3d b875 b33d 139f 193e
00000120: 8c3f f0bd 8dfd c73c 30ff 1ebd 904c 87be
00000130: bc58 0d3e 9ddb 91be 5b4d 67bc 797d 3e3e
00000140: c8a7 b53e 98b6 853d a8a9 453e 203f 52bd
00000150: 9e5b ee3d d1fc 6e3d 7a3f de3b 0d40 bb3d
00000160: d4ac 96be 911b 103e d2db 1dbe f8c1 043e
00000170: 311a 5a3e 951d 54be 28bd 143d 9380 a63a
00000180: 5171 3f3e ca06 3abd 5abc 80bc 7d7e ed3c
00000190: ebdf efbd 19b1 063e 3844 c2bc a377 263d
000001a0: c13b 0e3c 8d47 fe3d e549 ae3e 5e0e a7bd
000001b0: ee42 853c 418f 2d3e 2b75 e1bd f2e2 98bd
000001c0: 6efc 353e 3f45 2b3e 3cfb a63c 3c3a 8d3c
000001d0: 310d aabd a9ec 083d 6f86 61bd ee68 63be
000001e0: 391c 943e e7ff 16bd 2c7f 72bc 3c7d 8d3e
000001f0: 5b4c c33c a7c2 77bc 104d 85bd 0066 33bd
00000200: dde4 02be b30c 3fbd a8e6 993b 74c4 8d3d
00000210: 5156 1cbe c372 55bd b4c6 9e3d 8720 033e
00000220: 4c8c a63d 7bec e0bd c2ae fabd 9bbe 79bd
00000230: 1b21 983e bd8d 433e 2dad a3bd 6d87 fb3d
00000240: 7352 393e be4e 1f3d 1642 a1bd 42c4 1dbc
00000250: 3c17 863e 6cc5 f43d 7f75 30be 2698 77be
00000260: 5637 243d 3172 02be 44d7 dbbc c955 72be
00000270: 0c99 863d a86e 2b3e 1057 a7bc 257c 04be
00000280: 5eb8 e63c 4ef1 033c cd13 963c 249c e83c
00000290: 351b 4a3b d3f1 5fb8 06df eebd 5789 6a3e
000002a0: 37dc 443e 967a 7bbc 6c00 80bd ea54 423c
000002b0: 4b9f a2bd dfba 7f3d 6aa0 863e e793 4abe
000002c0: d7d3 79be a987 8e3c a4a5 63be 2c0b ea3c
000002d0: c2a5 0c3d b477 913d 904b ac3d ca80 d63b
000002e0: 38e4 3bbe ac91 2abe 2bf3 4a3d cb33 e33d
000002f0: 4b43 14be 3e99 56bd 89da 28be 62a6 503e
00000300: 8dfd 2dbe 3e0d f2bc 2670 dfbd 6570 89be
00000310: e739 cdbd aea0 613d 692f 163e 904c cd3d
00000320: 01bd 6fbe 1be6 51bd b21b 433e 23f7 463d
00000330: 5eb1 00bd ed2d 8c3d 7c4f 443d df95 683e
00000340: 4cfc 9abb c83a afbc 733a 203d 3c54 093e
00000350: 88b6 983d 7c78 cebd 60e8 2a3e 04c0 63bd
00000360: ca6e 88bd e902 483c 832e 89bd e0be b0bc
00000370: 91e7 22bd 24c3 a23d a0b0 3abe aa45 c53d
00000380: e887 24be e1d1 373d 315c 053e 58de 153e
00000390: 197d 11be da04 26bc 694b 023e 85d5 4c3c
000003a0: 80af 323d 594d a43e f7df d63d 25b1 473e
000003b0: 3a74 033d f9f2 91bd bc9f 843d f773 433e
000003c0: a1fb 013d a0bf 9c3e b10b 67bd 608c 28bd
000003d0: da6b d03b 0494 39be 6de0 0d3d a181 10bc
000003e0: e1f6 d33a c90f 253c 7375 1cbd f0cc 303e
000003f0: f03b 2e3e c5d0 35be b8fd 563c 0d3e 1c3e

conv0.fc_node.bias f4 [128]
0.019149043 0.23844047 -0.19567639 -0.14889736 -0.047133263 0.47397485 0.106569774 -0.19611174
-0.51481414 0.26229563 0.172098 0.38982853 0.2928218 0.066426225 -0.039669044 0.03630031
0.09136603 0.21376143 0.068759404 -0.39817446 -0.3902987 0.24658713 -0.25646788 -0.22474933
-0.29536614 0.3165389 0.11888891 -0.16703257 0.17168052 -0.23749594 -0.41209736 0.08023825
0.11871085 0.049148224 0.41383076 -0.07489747 0.24936378 0.067868136 -0.17299221 0.17579265
0.38340878 0.059236076 -0.12394594 -0.4339391 0.20280091 -0.2781291 0.050690383 0.00048751823
0.20659234 0.13368286 -0.43757507 -0.15144323 -0.0804996 -0.24171911 -0.3812033 0.21655862
0.3320861 -0.37495098 -0.15323582 -0.21023637 -0.27870008 0.22245282 0.035330266 0.27554545
-0.29473972 -0.06501907 -0.4302107 -0.14879192 -0.28408876 -0.39771435 0.25310764 0.26163137
-0.004291208 0.21051495 0.30426964 -0.2926166 0.2824917 0.30445334 -0.1669725 0.32494187
-0.4782214 -0.3350832 0.29034206 0.458834 0.11488611 -0.22632302 0.20939307 0.3617136
-0.21648799 0.12469795 -0.18470988 0.44143358 -0.27001372 0.15237369 -0.2820629 -0.32373443
0.14569901 -0.3824313 0.38832152 -0.18072543 -0.07430583 -0.12942114 0.047841787 0.14191203
0.3685441 -0.35240367 0.3372886 0.3534616 0.046647888 -0.41795313 0.27420425 -0.25097078
0.44837487 -0.1339872 -0.05753457 -0.32121813 -0.2031815 -0.020940956 0.082579985 0.026616443
0.04224259 0.037080366 -0.13098194 -0.030119136 -0.11938799 0.00042766312 -0.16299684 -0.076771274
00000000: 74de 9c3c bd29 743e 645f 48be 8d78 18be
00000010: cf0e 41bd d5ac f23e 4141 da3d 84d1 48be
00000020: dcca 03bf 9d4b 863e 753a 303e 9b97 c73e
00000030: bdec 953e 790a 883d 027c 22bd a2af 143d
00000040: 1d1e bb3d 47e4 5a3e bbd1 8c3d 86dd cbbe
00000050: 3bd5 c7be 5681 7c3e c24f 83be b024 66be
00000060: 3b3a 97be 6311 a23e 077c f33d 960a 2bbe
00000070: 05cd 2f3e 2332 73be 6dfe d2be f453 a43d
00000080: ad1e f33d a64f 493d a0e1 d33e d863 99bd
00000090: 3859 7f3e 73fe 8a3d df24 31be fd02 343e
000000a0: 284e c43e 87a1 723d 5ed7 fdbd 442d debe
000000b0: 0bab 4f3e f066 8ebe b8a0 4f3d 9799 ff39
000000c0: f18c 533e 29e4 083e d709 e0be ef13 1bbe
000000d0: f9dc a4bd 3785 77be 142d c3be 8bc1 5d3e
000000e0: 3007 aa3e 93f9 bfbe dae9 1cbe 3448 57be
000000f0: c7b1 8ebe acca 633e 78b6 103d 4b14 8d3e
00000100: 20e8 96be b828 85bd 9444 dcbe e95c 18be
00000110: 1574 91be 37a1 cbbe 5397 813e 8cf4 853e
00000120: 439d 8cbb 3b91 573e 3bc9 9b3e d8d1 95be
00000130: c1a2 903e 4fe1 9b3e d7fa 2abe c85e a63e
00000140: 6fd9 f4be 0690 abbe b7a7 943e 4aec ea3e
00000150: 6949 eb3d 39c1 67be 236b 563e 8632 b93e
00000160: 07af 5dbe a461 ff3d 9624 3dbe 9503 e23e
00000170: 3d3f 8abe d907 1c3e 8c6a 90be 85c0 a5be
00000180: 1f32 153e 09ce c3be 14d2 c63e 1610 39be
00000190: a82d 98bd fa86 04be c0f5 433d 6351 113e
000001a0: d0b1 bc3e 416e b4be 17b1 ac3e ebf8 b43e
000001b0: db11 3f3d f4fd d5be 8064 8c3e 3e7f 80be
000001c0: 6491 e53e f133 09be 5fa9 6bbd b476 a4be
000001d0: d00e 50be 5e8c abbc b21f a93d ba0a da3c
000001e0: 9106 2d3d 95e1 173d 2120 06be 68bc f6bc
000001f0: b181 f4bd f937 e039 a5e8 26be 423a 9dbd

conv0.fc_fij.weight f4 [16, 34]
-0.16808313 0.48284233 -0.105754174 -0.0009821921 0.3178791 -0.40607968 -0.30295417 -0.3905629
-0.17321348 0.2633414 -0.23411752 -0.37810662 -0.2905748 -0.62500745 0.44999704 -0.17322834
0.021479623 -0.23132333 0.80271083 0.1829435 0.25386575 0.3280323 -0.4424063 -0.3692379
-0.29201925 -0.025906269 -0.15282275 -0.0770397 -0.6287446 0.04006202 -0.15956287 -0.5419578
-0.06504639 0.32218575 0.5878583 0.18121532 0.17174804 -0.41998318 -0.69403815 -0.29834947
-0.34202743 0.34777158 0.14386642 0.009458308 0.6987503 -0.06686762 -0.07136687 -0.04240513
-0.0121810045 0.63937646 0.15421183 -0.7416902 -0.25490767 -0.23305108 -0.25891072 -0.12669082
-0.10624407 -0.013350844 -0.080021776 -0.24477409 -0.09147336 0.08223234 -0.25417808 -0.15286031
0.51555055 -0.38359514 0.08029047 0.3591971 -0.34396634 0.0041097472 0.12976086 -0.71006066
-0.015624537 0.23598522 0.09099934 0.17086402 0.24332178 -0.25191462 -0.122737326 -0.041467674
-0.12668344 0.19349931 -0.48092964 -0.16628906 -0.16406284 -0.019697584 0.112629004 -0.1297594
0.2594525 0.16745988 -0.054656677 -0.47947195 0.33758467 -0.21876805 -0.09834379 0.11943366
-0.1615928 -0.31168163 0.06925252 0.22390991 -0.19544867 -0.050924826 -0.19167405 0.17673367
0.0138958255 -0.33832267 -0.002711596 -0.0679543 0.12952304 -0.05387943 -0.20989402 0.048257113
-0.18917903 -0.31756005 0.085888 -0.17074418 0.46029985 -0.10534938 0.39110595 0.47998592
0.025281714 0.23020336 -0.2535464 0.2695028 -0.31982774 -0.1809919 0.31624898 0.21138859
-0.07532309 0.41994944 0.29153782 -0.13007766 0.34209976 0.2938989 0.15058278 -0.12523003
-0.25090936 0.26852518 0.022354973 0.011915363 -0.18484381 0.26851904 0.2139684 0.10538656
-0.35149285 -0.05341304 0.1640477 0.06777076 -0.040366996 -0.1307416 -0.16476257 0.1107272
0.510442 0.1887921 0.3559212 -0.057649214 0.06372433 -0.5217091 0.103144415 0.23209128
0.29064292 0.15780428 0.440281 -0.08779202 -0.5378165 -0.0926584 0.00594259 0.021590099
-0.19975601 0.6469741 -0.2488167 -0.18824866 -0.093843035 0.107604474 -0.50795364 -0.3490805
-0.21405005 -0.3243135 -0.2933188 -0.180965 0.36704406 -0.2655407 0.065788426 0.3272747
-0.24858348 0.014211971 -0.6129546 -0.24704887 -0.03435935 -0.035613026 0.25230014 -0.08738023
-0.39345315 0.06773615 0.36029354 0.019792277 0.404842 0.15360717 -0.24447967 0.54461765
-0.15438858 0.16696554 0.037133425 0.23782149 -0.22270995 0.14144601 0.22695082 0.46196535
0.28578803 -0.30616847 0.087716475 0.36169904 -0.08167881 0.206455 0.18286298 0.08309809
0.6016142 -0.15175958 -0.17862692 0.4275275 -0.17260233 -0.13225755 0.077633075 -0.58808
0.28368977 -0.09870621 0.18654992 -0.013650319 0.54117477 0.13364851 -0.13332906 0.17841218
0.054379668 0.055924222 0.03727493 0.16397916 -0.14490168 -0.2592197 0.33327633 -0.1859949
0.116085485 0.04539912 0.2135293 0.116001196 0.09054231 -0.013901145 0.139943 -0.22948495
0.27669826 0.029820474 0.4986598 -0.15041931 -0.3409353 0.029061979 0.46321294 0.13494442
00000000: fc1d 2cbe 1c37 f73e a595 d8bd e6bc 80ba
00000010: 0dc1 a23e ade9 cfbe cf1c 9bbe dcf7 c7be
00000020: e05e 31be afd4 863e 81bc 6fbe 3197 c1be
00000030: 38c6 94be 7d00 20bf 0366 e63e c562 31be
00000040: 09f6 af3c 06e0 6cbe 757e 4d3f 8a55 3b3e
00000050: b1fa 813e daf3 a73e 1483 e2be c00c bdbe
00000060: 8c83 95be 6239 d4bc 917d 1cbe fdc6 9dbd
00000070: 68f5 20bf 1318 243d 7364 23be bfbd 0abf
00000080: 0b37 85bd 88f5 a43e e27d 163f 8290 393e
00000090: b8de 2f3e 0908 d7be 7cac 31bf 43c1 98be
000000a0: 381e afbe 1e0f b23e b851 133e 05f7 1a3c
000000b0: 4de1 323f e4f1 88bd cb28 92bd 00b1 2dbd
000000c0: d692 47bc 2dae 233f b5e9 1d3e 69df 3dbf
000000d0: 4283 82be f1a4 6ebe f28f 84be 3dbb 01be
000000e0: 7e96 d9bd 80bd 5abc 75e2 a3bd 0fa6 7abe
000000f0: 6356 bbbd 6e69 a83d a123 82be 6a87 1cbe
00000100: 1ffb 033f 9566 c4be 546f a43d afe8 b73e
00000110: 5b1c b0be 0fab 863b 08e0 043e 89c6 35bf
00000120: 0ffe 7fbc 1ca6 713e dd5d ba3d faf6 2e3e
00000130: 5829 793e f4fa 80be b55d fbbd 02da 29bd
00000140: 4eb9 01be af24 463e 693c f6be ae47 2abe
00000150: 1700 28be d45c a1bc 09aa e63d a6df 04be
00000160: f5d6 843e 9a7a 2b3e aedf 5fbd 597d f5be
00000170: e6d7 ac3e bb04 60be 7868 c9bd a299 f43d
00000180: 9578 25be bc94 9fbe 44d4 8d3d a448 653e
00000190: b223 48be 8d96 50bd 3446 44be acf9 343e
000001a0: 51ab 633c a138 adbe 08b5 31bb a02b 8bbd
000001b0: b0a1 043e adb0 5cbd 75ee 56be 40a9 453d
000001c0: 26b8 41be 3b97 a2be 0ce6 af3d 90d7 2ebe
000001d0: 6cac eb3e 6ac1 d7bd 0a3f c83e b7c0 f53e
000001e0: 991b cf3c 6eba 6b3e d5d0 81be 45fc 893e
000001f0: 76c0 a3be f155 39be 63eb a13e 4076 583e
00000200: fe42 9abd 9d03 d73e 7244 953e 1433 05be
00000210: b327 af3e eb79 963e 5f32 1a3e 4d3c 00be
00000220: 3177 80be 227c 893e c721 b73c a838 433c
00000230: b247 3dbe 547b 893e 881a 5b3e e9d4 d73d
00000240: dff6 b3be a2c7 5abd 1ffc 273e 65cb 8a3d
00000250: dd57 25bd 20e1 05be 85b7 28be f1c4 e23d
00000260: 54ac 023f b752 413e 4e3b b63e 9521 6cbd
00000270: e781 823d ba8e 05bf 613d d33d 56a9 6d3e
00000280: 26cf 943e 7297 213e 836c e13e 4dcc b3bd
00000290: 58ae 09bf b0c3 bdbd 0fba c23b b8dd b03c
000002a0: d78c 4cbe 18a0 253f cec9 7ebe 42c4 40be
000002b0: c730 c0bd bc5f dc3d 4009 02bf aeba b2be
000002c0: f02f 5bbe 6b0c a6be e22d 96be e44e 39be
000002d0: 33ed bb3e f3f4 87be 15bc 863d 8d90 a73e
000002e0: ab8c 7ebe 54d9 683c 98ea 1cbf 61fa 7cbe
000002f0: 64bc 0cbd f7de 11bd 7c2d 813e 68f4 b2bd
00000300: b172 c9be 40b9 8a3d 6578 b83e 6a23 a23c
00000310: 7347 cf3e 334b 1d3e e158 7abe 106c 0b3f
00000320: 0a18 1ebe 04f9 2a3e 3819 183d 7a87 733e
00000330: 140e 64be 39d7 103e cc65 683e b986 ec3e
00000340: cf52 923e 1dc2 9cbe b2a4 b33d 9e30 b93e
00000350: 3847 a7bd f168 533e 6f40 3b3e 552f aa3d
00000360: 6303 1a3f dd66 1bbe fae9 36be e2e4 da3e
00000370: aabe 30be 866e 07be 17fe 9e3d 698c 16bf
00000380: c93f 913e 7b26 cabd f106 3f3e 96a5 5fbc
00000390: 6e8a 0a3f 28db 083e 6a87 08be afb1 363e
000003a0: 37bd 5e3d cc10 653d 99ad 183d 27ea 273e
000003b0: 1b61 14be 72b8 84be 32a3 aa3e 7275 3ebe
000003c0: 3abe ed3d 6df4 393d 6da7 5a3e 0992 ed3d
000003d0: 3f6e b93d a1c1 63bc 384d 0f3e 1afe 6abe
000003e0: 65ab 8d3e 114a f43c 5650 ff3e 8507 1abe
000003f0: 128f aebe 6313 ee3c 3f2a ed3e df2e 0a3e

conv0.fc_ni.weight f4 [16, 4]
-0.012776454 -0.1148939 -0.22205882 0.61453277 0.116082676 -0.08016959 0.36030978 0.016919108
0.57545424 -0.08100783 0.7598574 -0.97076935 -0.5252263 0.3587588 -0.5532623 0.23671928
-0.88173956 0.40890184 0.17616604 -0.22361667 -0.7061477 0.47099483 -1.0335455 -0.24668197
-0.9770905 0.33600587 0.056485835 -0.34168452 0.35857883 -0.6882547 0.19674489 -0.17106718
0.12435553 0.122940876 0.024280146 0.06921632 0.2425061 0.3997781 0.10738977 0.38672295
-0.86571413 -0.47339174 -0.049719002 0.42598557 -0.10730635 -0.14981961 -0.07596744 -0.021913966
0.22294323 -0.09190358 0.2110725 -0.019840818 -0.24041884 0.11021421 -0.19151136 0.17831112
0.44631094 -0.5628356 -0.38860008 -0.38571143 -0.18556361 -0.38478982 0.09548629 -0.33028704
00000000: 5554 51bc 7e4d ebbd 6363 63be 0552 1d3f
00000010: c1bc ed3d f42f a4bd 867a b83e f199 8a3c
00000020: f850 133f 6fe7 a5bd 0486 423f 5784 78bf
00000030: 3b75 06bf 3caf b73e 99a2 0dbf 8a66 723e
00000040: afb9 61bf 955b d13e df64 343e c5fb 64be
00000050: 18c6 34bf 3c26 f13e 384b 84bf 339a 7cbe
00000060: 9a22 7abf f608 ac3e b15d 673d 46f1 aebe
00000070: a597 b73e 7631 30bf 7e77 493e 3c2c 2fbe
00000080: 1dae fe3d 6dc8 fb3d 28e7 c63c 49c1 8d3d
00000090: 8553 783e b7af cc3e 2bef db3d 8d00 c63e
000000a0: 719f 5dbf 6760 f2be 27a6 4bbd c81a da3e
000000b0: 6ec3 dbbd 506a 19be d194 9bbd eb84 b3bc
000000c0: 3b4b 643e f237 bcbd 6423 583e 3689 a2bc
000000d0: 5b30 76be fdb7 e13d 8e1b 44be 3197 363e
000000e0: de82 e43e fe15 10bf 97f6 c6be f87b c5be
000000f0: 6304 3ebe 2c03 c5be 518e c33d 621b a9be

conv0.fc_nj.weight f4 [16, 4]
0.22428077 -0.30879474 0.41148552 0.25827593 0.022243466 0.8033843 0.39609852 -0.5229626
0.66599613 -0.14338265 0.4748331 0.09395872 0.8730765 0.29531053 0.037620604 0.39909223
0.22979884 -0.11293935 -0.4197943 0.18734917 0.15497214 0.20182924 -0.5665693 0.23556732
0.0065948553 0.40350822 -1.0790236 -0.46814618 0.5573078 0.17097504 -0.13884664 0.05420018
0.09193838 0.44422564 1.207981 -0.4353348 0.49154603 0.35220355 0.7341629 0.11357855
0.2603941 0.31698054 -0.011152946 -0.38980156 -0.5966113 0.19427525 -0.33713952 0.043536928
-1.3677919 0.76920277 -0.44892487 -0.6433737 -0.79884106 -0.0030652068 0.58877873 -0.06556047
0.11430143 -0.12112691 -0.84132636 0.36799115 0.42546338 0.14439192 -0.515159 0.46156287
00000000: dca9 653e 581a 9ebe 3bae d23e be3c 843e
00000010: ee37 b63c 98aa 4d3f 6dcd ca3e e1e0 05bf
00000020: b97e 2a3f e7d2 12be 531d f33e 6e6d c03d
00000030: f181 5f3f f132 973e 1018 1a3d d155 cc3e
00000040: 6350 6b3e bf4c e7bd 47ef d6be 76d8 3f3e
00000050: 04b1 1e3e 53ac 4e3e b00a 11bf 8f38 713e
00000060: a819 d83b a198 ce3e 721d 8abf dbb0 efbe
00000070: b9ab 0e3f 1514 2f3e d02d 0ebe 0201 5e3d
00000080: 304a bc3d 8b71 e33e 1f9f 9a3f 34e4 debe
00000090: ecab fb3e 0654 b43e 1af2 3b3f df9b e83d
000000a0: 6052 853e 464b a23e d9ba 36bc 1294 c7be
000000b0: 85bb 18bf 17f0 463e 8d9d acbe c753 323d
000000c0: ce13 afbf 79ea 443f 7bd9 e5be 24b4 24bf
000000d0: d980 4cbf a3e1 48bb 34ba 163f 9144 86bd
000000e0: de16 ea3d 6311 f8bd 2a61 57bf 5669 bc3e
000000f0: 56d6 d93e 7adb 133e 76e1 03bf f851 ec3e

conv0.fc_edges.weight f4 [16, 48]
0.00085119775 -0.10258206 0.033270832 0.026942214 -0.09091998 0.020812472 -0.0009847742 -0.07777584
-0.0527179 -0.20997727 0.15012687 0.062418204 0.09365369 -0.06242954 -0.08814695 0.06428095
0.05781949 0.05026562 0.175261 0.14913575 -0.15843394 0.0010132917 0.00832664 0.123078786
0.1239828 0.035561938 0.0045503704 -0.04215952 -0.12766191 0.010866954 0.08249512 0.025691789
-0.08517767 0.012078435 -0.052165348 -0.1604888 0.08357025 0.1031182 0.026213992 0.057350527
-0.12623718 -0.0893199 0.035271045 -0.052804284 0.0016881617 0.05540753 0.023577552 -0.019663768
-0.012713542 -0.11189906 0.032481372 -0.016122242 -0.040699217 0.1412349 -0.10280296 0.019281972
0.05249753 -0.12596424 -0.05949222 0.069222905 -0.1619878 -0.073376566 0.102929175 0.0315786
0.0065687345 -0.11623549 0.2922861 0.08026996 -0.12330548 -0.00037899977 -0.05470331 -0.008462877
0.10427046 0.20717749 0.023217367 0.016881086 -0.031205362 -0.072546445 0.21240789 0.10543739
-0.068421945 -0.088858776 0.013162425 -0.12977673 -0.026541835 0.021779783 -0.076681875 -0.010813632
-0.16326645 -0.18479985 -0.0076834667 0.1553547 0.08890349 0.032573633 -0.12663858 0.105330564
0.0074083046 0.035478152 -0.034562014 0.026758408 -0.07260102 0.16587427 -0.048552606 -0.08835231
0.04749951 -0.17450047 -0.026407827 -0.034531984 0.084030576 0.11941904 0.12964165 -0.013924062
0.005166773 -0.061981197 0.16689536 0.078643724 -0.01745385 -0.027267817 -0.082673915 0.16286637
0.06636362 -0.009479939 0.031062737 -0.17987455 0.049178734 0.096249305 0.11379576 0.11507082
-0.04878558 -0.026065392 0.024482798 -0.01934047 0.07266331 0.10703032 0.13177468 -0.1576866
0.0051659495 -0.1046163 0.033237975 -0.041878868 -0.058810376 0.06604971 0.09080167 -0.08498651
0.04188962 0.041461874 0.048223596 -0.028679436 0.061455805 0.096588254 0.061708532 0.028035974
-0.1092164 -0.024813697 -0.027623285 0.07841776 0.045529835 0.008784275 -0.06453589 -0.021513466
-0.1268428 -0.11437623 0.14790285 0.018146526 0.061508015 0.04445633 -0.033686087 0.16429143
0.030190397 0.021891538 0.08739609 0.0077479086 -0.045701485 -0.15017223 -0.060670964 0.029740239
0.038434483 0.012286883 -0.11020696 0.017599035 0.014987679 -0.0854749 -0.061253335 -0.07265251
-0.15819983 -0.077206165 -0.016110925 -0.11416874 0.10409096 0.0063960715 -0.033042274 -0.09360355
0.06826193 0.055417124 0.010330854 -0.017419836 0.13855903 0.10670205 -0.09960162 -0.034579277
-0.13204566 -0.10111243 -0.0079812715 0.06926399 0.07322043 0.031530008 -0.016443277 -0.020940553
0.03736948 -0.0713488 -0.0559459 0.17300053 -0.034773204 0.04976934 0.13826086 0.10119318
0.0977501 0.15523414 0.049378064 -0.1353945 -0.08490765 -0.1366023 0.13785927 0.09405236
-0.058056258 -0.025778083 0.08322667 -0.181461 -0.08311271 -0.14005162 0.10939308 -0.049900636
-0.17466669 0.055108532 0.028264154 0.115402006 0.02314955 -0.12948531 0.1332599 -0.023686402
0.10266199 -0.15115757 -0.011466737 -0.047250845 -0.030585768 0.15741764 -0.06505288 -0.120740324
-0.07016445 -0.12393321 0.066117465 -0.06562256 -0.0843377 0.114607945 -0.03571187 0.09009616
00000000: ea22 5f3a 8b16 d2bd ff46 083d ebb5 dc3c
00000010: 4134 babd eb7e aa3c 8a13 81ba f148 9fbd
00000020: baee 57bd 4804 57be dcba 193e 3baa 7f3d
00000030: 81cd bf3d 1eb6 7fbd 6386 b4bd bba5 833d
00000040: 21d4 6c3d 53e3 4d3d 9f77 333e 0bb7 183e
00000050: 823c 22be 6dd0 843a 766c 083c bb10 fc3d
00000060: b2ea fd3d 65a9 113d 461b 953b 76af 2cbd
00000070: ceb9 02be 4f0b 323c 34f3 a83d 9677 d23c
00000080: a171 aebd a1e4 453c 55ab 55bd 2d57 24be
00000090: e126 ab3d a32f d33d babe d63c 63e8 6a3d
000000a0: 5244 01be 5aed b6bd 5f78 103d 4e49 58bd
000000b0: 4f45 dd3a 02f3 623d b625 c13c e915 a1bc
000000c0: 764c 50bc 562b e5bd 300b 053d cb12 84bc
000000d0: 39b4 26bd e29f 103e 5c8a d2bd 3af5 9d3c
000000e0: a607 573d c5fc 00be 1dae 73bd bdc4 8d3d
000000f0: 21e0 25be 7446 96bd 88cc d23d 9058 013d
00000100: 8a3e d73b df0c eebd 86a6 953e 9464 a43d
00000110: 9587 fcbd 7db4 c6b9 9410 60bd e1a7 0abc
00000120: c08b d53d 5626 543e 5932 be3c 344a 8a3c
00000130: 63a2 ffbc 3b93 94bd 7481 593e 8fef d73d
00000140: ce20 8cbd 97fb b5bd 36a7 573c 31e4 04be
00000150: 436e d9bc 846b b23c 630b 9dbd a92b 31bc
00000160: 522f 27be 2c3c 3dbe 97c5 fbbb 4d15 1f3e
00000170: 0813 b63d ee6b 053d 8bad 01be 8db7 d73d
00000180: 5dc1 f23b 8a51 113d e690 0dbd 7334 db3c
00000190: d8af 94bd f2da 293e 19df 46bd 0ef2 b4bd
000001a0: d98e 423d 40b0 32be 3a55 d8bc 6971 0dbd
000001b0: 3918 ac3d f891 f43d c8c0 043e c021 64bc
000001c0: 094e a93b ffdf 7dbd 9ee6 2a3e f60f a13d
000001d0: 60fb 8ebc c260 dfbc f150 a9bd 71c6 263e
000001e0: a6e9 873d bf51 1bbc 4877 fe3c 0931 38be
000001f0: a46f 493d 5b1e c53d c00d e93d 40aa eb3d
00000200: 63d3 47bd 1787 d5bc 2690 c83c e86f 9ebc
00000210: 80d0 943d b632 db3d f1ef 063e 9978 21be
00000220: 2047 a93b 1241 d6bd 8b24 083d 2d89 2bbd
00000230: 26e3 70bd 1245 873d 3af6 b93d 680d aebd
00000240: 7394 2b3d edd3 293d 1b86 453d 23f1 eabc
00000250: 15b9 7b3d 10d0 c53d 16c2 7c3d b3ab e53c
00000260: d9ac dfbd 1846 cbbc 3a4a e2bc 7e99 a03d
00000270: 7e7d 3a3d ebeb 0f3c 652b 84bd 023d b0bc
00000280: 14e3 01be 163e eabd d873 173e 06a8 943c
00000290: d4ef 7b3d d717 363d 6cfa 09bd 033c 283e
000002a0: da51 f73c e255 b33c b9fc b23d 2be2 fd3b
000002b0: 7b31 3bbd c0c6 19be 1e82 78bd cda1 f33c
000002c0: 7a6d 1d3d ec4e 493c 30b4 e1bd da2b 903c
000002d0: e28e 753c 770d afbd c7e4 7abd d7ca 94bd
000002e0: 23ff 21be 441e 9ebd 0ffb 83bc 4dd1 e9bd
000002f0: a42d d53d 2396 d13b 5657 07bd 38b3 bfbd
00000300: e9cc 8b3d 11fd 623d be42 293c 0bb4 8ebc
00000310: 6be2 0d3e 9b86 da3d effb cbbd 00a3 0dbd
00000320: fa36 07be 0914 cfbd e1c3 02bc 47da 8d3d
00000330: 98f4 953d 9c25 013d 0db4 86bc 868b abbc
00000340: bd10 193d 521f 92bd 8727 65bd 0d27 313e
00000350: 596e 0ebd efda 4b3d 4194 0d3e 5f3e cf3d
00000360: 3431 c83d b3f5 1e3e a740 4a3d dba4 0abe
00000370: 10e4 adbd 79e1 0bbe fb2a 0d3e 869e c03d
00000380: 66cc 6dbd 8f2c d3bc bf72 aa3d ead0 39be
00000390: ff36 aabd b169 0fbe 7b09 e03d 9c64 4cbd
000003a0: d3db 32be 7cb9 613d 3a8a e73c e357 ec3d
000003b0: 20a4 bd3c cc97 04be 4975 083e fc09 c2bc
000003c0: 7340 d23d 0dc9 1abe fbde 3bbc 1a8a 41bd
000003d0: 018f fabc 1732 213e 723a 85bd b446 f7bd
000003e0: 61b2 8fbd b2d0 fdbd 9868 873d 1f65 86bd
000003f0: 3eb9 acbd 92b7 ea3d 9c46 12bd 5684 b83d

conv0.fc_attn.weight f4 [4, 4]
0.2443475 0.64032495 0.35907733 0.33390048 0.18955502 0.5715717 0.2553094 -0.11383128
0.05084211 0.44196096 -0.37158966 -0.097600706 -0.08580657 0.18708253 0.39893943 -0.42387077
00000000: 3b36 7a3e 56ec 233f fcd8 b73e 01f5 aa3e
00000010: b61a 423e 8652 123f eab7 823e 6020 e9bd
00000020: d13f 503d b548 e23e 0041 bebe e1e2 c7bd
00000030: 5bbb afbd 9092 3f3e ca41 cc3e 9705 d9be

rgcns.0.h_bias f4 [32]
0.41047996 -0.057065945 -0.29371685 -0.08102613 -0.24047926 -0.13036482 -0.2838639 -0.019593054
-0.048886053 0.19812852 0.20412675 -0.15953001 -0.17386909 -0.4925996 0.04729717 0.1287918
-0.0756657 -0.21629512 0.15009132 0.009212151 -0.083657406 -0.24715373 0.015094403 0.14262752
-0.31995866 -0.006085356 -0.26142254 0.28909615 -0.13687289 0.09829314 -0.25657266 -0.25750756
00000000: 6e2a d23e fbbd 69bd 0e62 96be 07f1 a5bd
00000010: 3240 76be 5b7e 05be 9c56 91be 9d81 a0bc
00000020: be3c 48bd 34e2 4a3e 9a06 513e d65b 23be
00000030: bd0a 32be 0436 fcbe adba 413d ffe1 033e
00000040: 9ef6 9abd 787c 5dbe 8ab1 193e 90ee 163c
00000050: 9354 abbd de15 7dbe 844e 773c f30c 123e
00000060: 9fd1 a3be ab67 c7bb 2dd9 85be 6904 943e
00000070: 6828 0cbe ea4d c93d 7e5d 83be 08d8 83be

rgcns.0.loop_weight f4 [32, 32]
0.20615879 -0.11625548 0.046801288 -0.22700319 -0.16381054 0.035171904 -0.18805902 -0.17369863
0.30868042 0.36697146 0.019532507 -0.2791731 -0.23860307 0.29702955 -0.15448861 -0.53372896
-0.14490834 0.40427262 0.21547858 -0.2870153 -0.29424018 -0.057298157 0.03337245 -0.042836986
-0.10572125 -0.23263958 -0.11768054 0.09954177 0.3794858 -0.15861133 -0.025362637 -0.35739103
0.29657596 -0.34542072 0.16968222 -0.06740441 -0.024858238 -0.05056154 0.10233138 0.33409935
0.29587817 0.15382044 -0.12865956 0.302057 0.034704942 0.35680076 0.21397161 -0.33038217
0.27622256 -0.30839542 -0.44381192 -0.09358187 0.33118898 -0.2569511 -0.15452862 -0.2106987
0.06714542 -0.15438336 0.09365056 0.26156232 -0.4424699 0.13084425 -0.1113512 -0.17232613
-0.27542317 -0.05964172 0.31794947 -0.3596466 0.40491536 -0.32100636 -0.49583146 0.11119569
-0.1791625 0.33349985 -0.284057 0.10884274 -0.05277639 -0.15370642 0.46473145 0.2637794
-0.09051939 0.32068554 -0.25805095 -0.17196344 0.19083689 -0.32531458 -0.41285324 0.20491208
0.3525084 -0.11017726 0.34880984 -0.1953883 -0.14796719 -0.37546223 0.1779198 -0.21745843
0.33611694 -0.103535935 -0.073784575 0.3369096 0.15160142 0.08003421 0.012110044 -0.10979464
0.11512954 -0.17154703 -0.043530285 0.11212243 0.071915634 0.51062495 -0.015417839 -0.37730175
-0.30005297 -0.19159846 0.4078018 0.15091586 0.19186735 0.20481578 -0.30570388 -0.04042546
0.3769921 -0.31807792 -0.23049621 -0.35801607 -0.1815872 -0.26701358 0.46047914 0.12436866
0.16345859 0.07193617 0.40306398 -0.15123804 -0.12158244 -0.14143932 0.41624454 0.23889711
-0.38327804 -0.19857436 0.18446094 0.35455847 0.35255048 -0.3303668 -0.18798327 -0.41250077
-0.35956654 0.026501937 -0.24657334 -0.3629406 -0.32110688 -0.35731772 -0.17926046 -0.15051705
-0.35772374 0.10598778 0.2659491 0.07158225 0.15928553 -0.3420428 -0.363454 -0.29230466
-0.38735414 -0.27108762 -0.30804205 0.3740792 -0.15243919 -0.2616627 -0.23909469 -0.24029739
0.115215264 -0.2764016 -0.26376042 -0.36480743 -0.10847796 -0.25052693 0.44461608 -0.46521178
-0.34565237 -0.02020826 -0.01928141 0.017729724 -0.10875565 -0.092501506 -0.30503064 -0.54142666
-0.40337843 -0.46207222 0.3382774 -0.47065628 -0.21488413 0.017378302 0.46795025 0.08463251
0.08502384 0.10635858 -0.16816337 -0.31058183 0.2514663 -0.23936015 -0.19160289 0.32156548
0.30724987 0.0939892 -0.11940171 0.28382894 -0.07314583 -0.017190317 0.08370313 -0.055641312
-0.032213204 -0.3615117 0.07605532 0.34394753 -0.326 0.032987364 -0.09359361 0.042298105
0.25451523 0.07415578 -0.16821325 0.114792004 -0.10698901 0.32948095 -0.4280449 0.33371487
-0.12870616 -0.10316553 -0.113142386 0.23442996 -0.018796708 0.09142639 0.36450392 0.034843594
0.3633093 0.024214951 0.30499396 -0.10128287 0.41214556 -0.402723 -0.40639985 -0.29410627
-0.053177003 0.25781533 0.058698833 0.17631994 -0.029023457 0.14771482 -0.0560888 0.17062142
0.039485138 -0.13625902 -0.28048506 -0.3044216 0.032524735 0.26017478 -0.4262051 -0.25426242
00000000: 4a1b 533e 5a17 eebd b5b2 3f3d 8673 68be
00000010: f3bd 27be 6a10 103d 8b92 40be 0ede 31be
00000020: 5c0b 9e3e afe3 bb3e a302 a03c c7ef 8ebe
00000030: 5d54 74be 4214 983e 4332 1ebe 76a2 08bf
00000040: da62 14be d2fc ce3e 6ba6 5c3e abf3 92be
00000050: a6a6 96be 79b1 6abd 8db1 083d d675 2fbd
00000060: 6284 d8bd 1239 6ebe 7f02 f1bd 8edc cb3d
00000070: f64b c23e 026b 22be 4ec5 cfbc f5fb b6be
00000080: ced8 973e fcda b0be 2dc1 2d3e 530b 8abd
00000090: 81a3 cbbc 9e19 4fbd 1d93 d13d 120f ab3e
000000a0: 587d 973e 1b83 1d3e 55bf 03be 37a7 9a3e
000000b0: c526 0e3d 97ae b63e 601b 5b3e da27 a9be
000000c0: 0b6d 8d3e 01e6 9dbe 513b e3be daa7 bfbd
000000d0: 9a91 a93e 188f 83be c03c 1ebe 66c1 57be
000000e0: 8a83 893d ac16 1ebe ddcb bf3d 7feb 853e
000000f0: 6a8b e2be 09fc 053e 190c e4bd 4376 30be
00000100: 4404 8dbe e04a 74bd 46ca a23e 9923 b8be
00000110: 1151 cf3e f25a a4be 9fdd fdbe 91ba e33d
00000120: 6076 37be 7ec0 aa3e eb6f 91be f1e8 de3d
00000130: 0e2c 58bd 3765 1dbe 48f1 ed3e 180e 873e
00000140: 3b62 b9bd e530 a43e 411f 84be 2f17 30be
00000150: bf6a 433e a28f a6be 8061 d3be 79d4 513e
00000160: fb7b b43e 9ea4 e1bd 3497 b23e df13 48be
00000170: b684 17be 963c c0be 9c30 363e 6cad 5ebe
00000180: 8517 ac3e a60a d4bd 5e1c 97bd 6a7f ac3e
00000190: 673d 1b3e fae8 a33d 3569 463c 03dc e0bd
000001a0: 09c9 eb3d 06aa 2fbe d04c 32bd 72a0 e53d
000001b0: 8148 933d 51b8 023f 1b9b 7cbc b22d c1be
000001c0: 8ba0 99be 6332 44be 66cb d03e b089 1a3e
000001d0: e078 443e 3abb 513e 3885 9cbe 2b95 25bd
000001e0: 1c05 c13e 1cdb a2be 3307 6cbe e24d b7be
000001f0: fff1 39be 01b6 88be ecc3 eb3e ffb4 fe3d
00000200: b061 273e 4553 933d 675e ce3e 25de 1abe
00000210: 3700 f9bd 78d5 10be 011e d53e 72a1 743e
00000220: 053d c4be 1457 4bbe 54e3 3c3e b088 b53e
00000230: 7f81 b43e d625 a9be b07e 40be 4d33 d3be
00000240: 1b19 b8be 971a d93c b97d 7cbe 5ad3 b9be
00000250: 1f68 a4be 59f2 b6be 0e90 37be 2421 1abe
00000260: 9127 b7be 1f10 d93d 7b2a 883e b799 923d
00000270: bf1b 233e 3c20 afbe a516 babe f5a8 95be
00000280: 4853 c6be ffcb 8abe b0b7 9dbe 4f87 bf3e
00000290: 0519 1cbe a7f8 85be 3dd5 74be 8510 76be
000002a0: fbf5 eb3d 8384 8dbe 9b0b 87be 0ac8 babe
000002b0: b129 debd 1145 80be b8a4 e33e 3d30 eebe
000002c0: 59f9 b0be cb8b a5bc 0cf4 9dbc ed3d 913c
000002d0: 48bb debd 6e71 bdbd fa2c 9cbe f09a 0abf
000002e0: 9e87 cebe bb94 ecbe b232 ad3e dcf9 f0be
000002f0: 960a 5cbe f15c 8e3c 2d97 ef3e cf53 ad3d
00000300: fb20 ae3d 87d2 d93d 0533 2cbe 9504 9fbe
00000310: 31c0 803e d41a 75be 8c33 44be 3ba4 a43e
00000320: db4f 9d3e 697d c03d e288 f4bd 0752 913e
00000330: 7bcd 95bd b5d2 8cbc 8c6c ab3d 25e8 63bd
00000340: fef1 03bd 1018 b9be e4c2 9b3d e419 b03e
00000350: 79e9 a6be c21d 073d 02ae bfbd c740 2d3d
00000360: d24f 823e fcde 973d 1840 2cbe 1218 eb3d
00000370: 0e1d dbbd bab1 a83e b328 dbbe addc aa3e
00000380: 8ccb 03be 7348 d3bd 32b7 e7bd 680e 703e
00000390: 8efb 99bc c23d bb3d 42a0 ba3e 28b8 0e3d
000003a0: ad03 ba3e 6f5e c63c 2b28 9c3e 656d cfbd
000003b0: be04 d33e b631 cebe a413 d0be 1995 96be
000003c0: 21d0 59bd 5f00 843e 306e 703d 378d 343e
000003d0: 9ac2 edbc 8e42 173e 5fbd 65bd 62b7 2e3e
000003e0: 2bbb 213d 7c87 0bbe bd9b 8fbe 26dd 9bbe
000003f0: a838 053d a135 853e 8e37 dabe af2e 82be

rgcns.0.linear_r.W f4 [9, 32, 32]
-0.16824822 0.22822134 0.077271484 0.09410369 -0.13606477 0.037771806 0.0061194273 0.12570043
-0.116785266 -0.086114526 -0.09025985 -0.32323602 -0.09203618 0.10574879 -0.027103659 -0.09787132
0.08950392 -0.101821035 0.069712654 0.11124111 -0.032111004 -0.045033455 0.06135664 0.033983346
0.21200497 -0.20768622 -0.01923143 -0.11010412 0.0086250035 0.026724212 -0.19803314 0.07814073
-0.03555586 -0.08725521 -0.022963477 -0.08682907 0.03713512 0.06872571 0.060156938 -0.08690238
0.020328518 -0.18117745 -0.11690969 0.045658316 0.085612096 -0.076893225 -0.073783815 -0.14408505
0.1203701 0.0017678739 0.057091165 -0.20302857 0.02927069 -0.14756645 -0.18221018 0.16506265
-0.07109499 0.014863021 0.013188133 0.06568639 0.037674822 0.0026699007 -0.116710685 0.09141326
-0.03014446 0.14299321 0.22026835 0.117244266 -0.0005609877 -0.09835363 0.044037025 -0.019698406
0.05865113 0.053276345 0.14179777 -0.064395346 -0.03400303 0.19095553 -0.10268704 -0.13357033
-0.21953091 -0.03385866 0.105280004 0.06794256 0.030931845 0.17183863 -0.13454501 -0.31898525
0.07544055 -0.046647754 -0.17747858 0.09302188 0.12902883 -0.03234097 0.1219466 -0.015606066
-0.09244336 0.107942075 0.06734538 -0.16861881 -0.15028393 0.008944365 0.10530554 0.13609223
0.018115368 -0.21098684 -0.108761765 -0.1632124 -0.047711376 -0.10445531 0.09422091 0.06737753
-0.17304006 0.099792406 0.031180037 -0.07145045 -0.0870754 -0.20311883 0.11731672 0.15477553
-0.034353122 -0.0048758183 0.085471384 -0.024079287 -0.13846363 -0.006530838 -0.017095726 0.0035712295
-0.16940525 -0.14379048 0.1793718 0.0049156495 -0.04415379 -0.03289758 -0.03547221 -0.17881079
0.036472578 -0.19663237 -0.046046123 -0.078568615 0.036683742 -0.026972607 -0.13713798 0.00790299
0.11101001 -0.15347236 0.010313137 -0.14695108 0.14466248 0.07556893 -0.16344094 -0.057526436
-0.14356099 0.017536316 0.2105805 -0.058001786 0.11623158 -0.11687195 0.23934753 -0.1819657
-0.07416394 0.013067603 0.27315354 0.149439 0.15677258 0.03489795 0.14245196 0.031733338
0.07323283 0.03756115 0.007698582 -0.13461807 -0.0023489702 0.1245468 -0.0012777804 -0.10629477
-0.1764228 0.2898671 -0.04795055 0.11891906 -0.020857982 -0.03844312 -0.22856559 -0.33004862
0.061842486 0.038759537 0.19013879 -0.1556702 -0.025162231 -0.13361843 -0.12820558 -0.041964743
-0.09608012 -0.041036468 0.08059739 0.046317652 0.04106516 -0.03401172 0.08964914 0.13910949
0.09703995 0.116610736 -0.10222441 -0.055871032 0.10668671 -0.052575096 0.016143423 -0.04816848
-0.01291662 0.17196596 -0.14995229 -0.1656288 0.13649823 0.043874327 -0.16336572 0.011151263
-0.19556805 -0.16795912 -0.07455779 -0.042592265 0.13629998 -0.22536835 0.071175836 0.014843227
-0.15977749 0.103266336 -0.011921288 0.09531792 -0.11929314 -0.0036991616 0.0764107 -0.036513273
0.14389738 0.19018333 -0.23039335 0.12452886 0.2259977 -0.09680257 0.09376855 -0.15798305
0.16075476 0.09933038 -0.048418943 0.076799706 -0.052003596 0.18702546 0.07610962 0.12252254
-0.13200887 0.058906946 0.22668238 -0.09550798 -0.027767051 0.037855458 -0.087010406 0.009631978
00000000: 4349 2cbe dbb2 693e 8340 9e3d 6fb9 c03d
00000010: 9054 0bbe 9cb6 1a3d 7a85 c83b 9db7 003e
00000020: 1d2d efbd d05c b0bd 28da b8bd 317f a5be
00000030: 777d bcbd d292 d83d 7e08 debc c270 c8bd
00000040: d54d b73d 8c87 d0bd 82c5 8e3d 61d2 e33d
00000050: d486 03bd 0075 38bd 1a51 7b3d 1f32 0b3d
00000060: d517 593e b2ab 54be 3b8b 9dbc 457e e1bd
00000070: e34f 0d3c bcec da3c 33c9 4abe 3f08 a03d
00000080: 05a3 11bd dcb2 b2bd e71d bcbc 70d3 b1bd
00000090: ff1a 183d 11c0 8c3d 1f67 763d e0f9 b1bd
000000a0: fe87 a63c 9586 39be 596e efbd 3704 3b3d
000000b0: 6555 af3d 327a 9dbd f81b 97bd 088b 13be
000000c0: 9984 f63d 01b8 e73a 6dd8 693d b9e6 4fbe
000000d0: 16c9 ef3c a91b 17be 4e95 3abe 2f06 293e
000000e0: 409a 91bd 0784 733c 0a13 583c 9686 863d
000000f0: ea50 1a3d 80f9 2e3b 0306 efbd e036 bb3d
00000100: 84f1 f6bc d06c 123e 078e 613e c31d f03d
00000110: 3f0f 13ba a16d c9bd 2b60 343d 8d5e a1bc
00000120: 2b3c 703d 4c38 5a3d 6f33 113e b5e1 83bd
00000130: c346 0bbd d989 433e 954d d2bd a9c6 08be
00000140: b6cc 60be 61af 0abd 0b9d d73d 7825 8b3d
00000150: c864 fd3c 77f6 2f3e 2bc6 09be 0952 a3be
00000160: 9380 9a3d b711 3fbd f2bc 35be 4182 be3d
00000170: 2220 043e f777 04bd 24bf f93d 96b0 7fbc
00000180: f252 bdbd bc10 dd3d 60ec 893d 69aa 2cbe
00000190: 08e4 19be 638b 123c 6eaa d73d c35b 0b3e
000001a0: ae66 943c ef0c 58be 7dbe debd 2721 27be
000001b0: 016d 43bd aaec d5bd e4f6 c03d 3bfd 893d
000001c0: 6a31 31be f65f cc3d 476d ff3c 9d54 92bd
000001d0: 9654 b2bd 62fe 4fbe c043 f03d 7a7d 1e3e
000001e0: dcb5 0cbd 54c5 9fbb 9f0b af3d ed41 c5bc
000001f0: 69c9 0dbe a400 d6bb 560c 8cbc 4a0b 6a3b
00000200: 9278 2dbe d03d 13be 3ead 373e 7513 a13b
00000210: 9bda 34bd 9dbf 06bd 4f4b 11bd 2d1a 37be
00000220: 4564 153d ff59 49be dc9a 3cbd 95e8 a0bd
00000230: b141 163d a8f5 dcbc e66d 0cbe 8b7b 013c
00000240: 3759 e33d dc27 1dbe 6ff8 283c 587a 16be
00000250: 6722 143e e2c3 9a3d 105d 27be d7a0 6bbd
00000260: a701 13be 52a8 8f3c 6aa2 573e 4893 6dbd
00000270: d30a ee3d 905a efbd 8517 753e 3755 3abe
00000280: 44e3 97bd 8019 563c c8da 8b3e 8a06 193e
00000290: fe88 203e 27f1 0e3d edde 113e d1fa 013d
000002a0: 18fb 953d b8d9 193d 6344 fc3b 52d9 09be
000002b0: 2ef1 19bb 6512 ff3d 327b a7ba 13b1 d9bd
000002c0: 2ea8 34be 7669 943e cc67 44bd d68b f33d
000002d0: 5cde aabc 8876 1dbd 190d 6abe 22fc a8be
000002e0: 8c4e 7d3d 52c2 1e3d beb3 423e 0268 1fbe
000002f0: 0621 cebc 45d3 08be 5348 03be 39e3 2bbd
00000300: a7c5 c4bd db15 28bd 3f10 a53d 94b7 3d3d
00000310: f133 283d e04f 0bbd f899 b73d b872 0e3e
00000320: e2bc c63d 9cd1 ee3d 085b d1bd 06d9 64bd
00000330: 907e da3d fc58 57bd 363f 843c 504c 45bd
00000340: 3ba0 53bc d817 303e 188d 19be 999a 29be
00000350: 31c6 0b3e 91b5 333d 5849 27be c9b3 363c
00000360: fe42 48be 7afd 2bbe c1b1 98bd 3a75 2ebd
00000370: 3992 0b3e f6c6 66be a3c4 913d 0231 733c
00000380: b69c 23be 4d7d d33d 8251 43bc 0b36 c33d
00000390: f64f f4bd a26d 72bb 377d 9c3d f18e 15bd
000003a0: d659 133e 6bbf 423e 3cec 6bbe fd08 ff3d
000003b0: f16b 673e 6d40 c6bd ba09 c03d 4fc6 21be
000003c0: e59c 243e ba6d cb3d f152 46bd 2a49 9d3d
000003d0: b901 55bd 9a83 3f3e 5cdf 9b3d 19ed fa3d
000003e0: 552d 07be 6948 713d 6d1f 683e b099 c3bd
000003f0: ba77 e3bc 530e 1b3d 8332 b2bd 72cf 1d3c

rgcns.1.h_bias f4 [32]
-0.30795047 0.0852402 -0.071291074 -0.28079095 0.01921732 -0.43434232 0.010160564 0.12741914
0.18615238 -0.32334912 0.16132437 -0.060119584 -0.050726056 0.05046362 0.09909723 0.10909394
0.007414398 0.09663178 -0.00911686 -0.36174202 0.14846335 -0.017841063 -0.22711584 -0.10650866
-0.12854512 0.041812047 -0.2434287 -0.33145514 -0.074705854 -0.083120435 0.19422999 0.10540584
00000000: afab 9dbe 6a92 ae3d 0e01 92bd d5c3 8fbe
00000010: a46d 9d3c 1e62 debe 7f78 263c 2a7a 023e
00000020: bb9e 3e3e 048e a5be 3732 253e f43f 76bd
00000030: 20c6 4fbd f1b2 4e3d 7df3 ca3d a56c df3d
00000040: 7af4 f23b e2e6 c53d e25e 15bc 4036 b9be
00000050: c706 183e 6c27 92bc 0e91 68be 3621 dabd
00000060: 55a1 03be 1c43 2b3d 6045 79be 7db4 a9be
00000070: 62ff 98bd 0c3b aabd 3ae4 463e 04df d73d

rgcns.1.loop_weight f4 [32, 32]
-0.40848932 0.17352936 0.028477497 -0.14548694 0.1792786 -0.11593614 -0.12759511 0.26418254
0.25092998 -0.53472304 -0.23264411 -0.37322816 0.044024024 -0.11450482 0.09608489 -0.26930407
-0.11809075 0.36742997 -0.39312935 -0.2426494 -0.10462798 0.18387769 -0.44037747 -0.0990023
-0.38782647 0.4536674 0.09861862 -0.3739221 0.09071037 -0.31001094 0.21405333 0.29830715
-0.14526755 0.45116898 0.0028278057 0.18898268 -0.17963062 -0.32005742 -0.28682703 -0.40346685
-0.26758373 0.2226495 -0.43256736 0.3503366 0.23066162 -0.05149781 0.07221293 -0.16439241
-0.026807135 -0.04499219 -0.10240537 0.3489509 0.31217825 0.16326135 0.35050714 -0.12723702
-0.44375646 0.20599923 -0.33109662 0.24282257 -0.09126406 0.12925835 -0.14241058 0.25370702
0.49565303 -0.04827836 0.07435927 -0.22534552 0.16713361 0.49133363 -0.10487541 -0.28804955
-0.18637256 -0.11963853 -0.38463935 0.41637498 0.21846195 0.006957831 -0.26414016 0.25400072
-0.4128763 -0.025592199 -0.29141638 -0.1219413 0.242197 -0.37285855 0.4621325 -0.22566296
-0.24659762 -0.41272897 0.26059714 -0.3141445 0.25907752 -0.38071293 -0.4257394 -0.033146396
0.069771744 -0.37984765 -0.05512787 0.35771585 -0.18873301 -0.061532 -0.17175013 0.18489681
-0.21416171 -0.23726808 -0.13601884 0.3358125 -0.27942848 -0.38695553 -0.06029904 -0.23320726
-0.42765325 0.0016378458 -0.09245175 0.5485652 0.2510623 -0.0709978 0.36678597 -0.06446495
0.27880734 0.26395613 -0.038640007 0.23933515 -0.057790495 -0.3706233 -0.12165674 0.2834899
0.41506112 -0.19763365 -0.11211479 0.09295974 0.3935845 0.44204688 -0.0640977 0.12539501
-0.19649643 0.2630066 -0.3238292 0.38539484 0.3168091 0.067874044 0.08498509 0.39044797
0.34035975 -0.27880678 -0.33541116 -0.23933049 -0.0864723 0.30171314 0.3715704 -0.1553088
0.14374031 0.16409056 0.37048295 0.17648502 0.4368905 -0.16971819 -0.3268106 -0.30017692
0.09816613 -0.1862755 0.05017453 0.14042087 -0.097332 0.37127382 0.34513944 0.29882285
-0.32765093 -0.116837084 -0.23986115 0.19057702 -0.11705439 0.33951798 -0.023649115 0.2591027
0.22602329 0.21470192 -0.12766278 0.23024747 -0.28463215 0.0022472434 0.12081874 0.014611825
0.44679052 -0.35997048 -0.28221858 0.36020178 0.14864285 -0.29873827 0.23714757 0.1100261
0.4640069 0.36150527 -0.008755632 0.17858104 0.31810808 -0.1027312 -0.46248215 0.28138292
0.22365469 0.3053436 -0.09975476 0.2649862 -0.0336871 0.036590446 -0.29816318 -0.19488645
-0.24636811 0.10415079 -0.34114966 0.037302446 0.32754588 0.08028428 0.4168698 -0.34389237
0.4636681 -0.29803255 0.23327014 0.1413718 -0.2527034 -0.11008699 -0.17590483 0.34710965
0.061736837 -0.43037468 0.28654978 0.060972493 -0.3309462 -0.20079033 -0.042243842 0.13448066
0.30853507 -0.1269334 0.083032496 -0.5010322 -0.43838027 -0.41083777 -0.3625069 -0.19007811
-0.37263027 -0.2269279 0.09498865 -0.29744887 -0.36788264 0.0112213995 0.041544616 -0.20487621
-0.3456707 -0.24621648 0.37684932 0.19821317 0.18251577 -0.077768795 -0.47667125 0.1501279
00000000: 8325 d1be aeb1 313e a449 e93c 87fa 14be
00000010: cf94 373e ed6f edbd 4ba8 02be ef42 873e
00000020: e579 803e 9ce3 08bf 423a 6ebe c317 bfbe
00000030: 8952 343d 8181 eabd 28c8 c43d 39e2 89be
00000040: 90d9 f1bd c81f bc3e 4048 c9be 1679 78be
00000050: 3247 d6bd 6f4a 3c3e 2879 e1be b8c1 cabd
00000060: 3191 c6be 1847 e83e 8ff8 c93d b872 bfbe
00000070: 5cc6 b93d c1b9 9ebe cc30 5b3e b7bb 983e
00000080: 04c1 14be 9fff e63e b552 393b ad84 413e
00000090: 17f1 37be 91de a3be feda 92be 3593 cebe
000000a0: bc00 89be 3bfe 633e 7879 ddbe 525f b33e
000000b0: 8f32 6c3e 5eef 52bd 5fe4 933d 7c56 28be
000000c0: a39a dbbc bb49 38bd e8b9 d1bd b1a9 b23e
000000d0: d4d5 9f3e fc2d 273e ac75 b33e 6c4a 02be
000000e0: 0c34 e3be 76f1 523e 7f85 a9be 7ba6 783e
000000f0: a7e8 babd 4d5c 043e 14d4 11be e3e5 813e
00000100: 3cc6 fd3e 88bf 45bd ac49 983d fac0 66be
00000110: 1325 2b3e 1590 fb3e ebc8 d6bd 3b7b 93be
00000120: 73d8 3ebe 0c05 f5bd 73ef c4be 1a2f d53e
00000130: 7db4 5f3e 84fe e33b 613d 87be 620c 823e
00000140: 8664 d3be bba6 d1bc 8734 95be 5cbc f9bd
00000150: 7e02 783e 51e7 bebe a29c ec3e 3114 67be
00000160: 1684 7cbe 3651 d3be fd6c 853e 8cd7 a0be
00000170: cfa5 843e ceec c2be 84fa d9be 84c4 07bd
00000180: 7de4 8e3d 647b c2be c3cd 61bd 8826 b73e
00000190: 3a43 41be fa08 7cbd 44df 2fbe 9755 3d3e
000001a0: 354d 5bbe 67f6 72be 8648 0bbe 9eef ab3e
000001b0: 4011 8fbe 091f c6be 20fc 76bd e2cd 6ebe
000001c0: 5ef5 dabe fcac d63a 5857 bdbd c56e 0c3f
000001d0: 3d8b 803e 4b67 91bd 5fcb bb3e 3306 84bd
000001e0: d6bf 8e3e 4225 873e fc44 1ebd 4614 753e
000001f0: bab5 6cbd 56c2 bdbe 2b27 f9bd 9725 913e
00000200: e482 d43e 7a60 4abe 709c e5bd ad61 be3d
00000210: e883 c93e f853 e23e a845 83bd 8d67 003e
00000220: 5c36 49be cda8 863e f1cc a5be 7952 c53e
00000230: cd34 a23e 8c01 8b3d aa0c ae3d cce8 c73e
00000240: a243 ae3e c3bf 8ebe 03bb abbe 0d13 75be
00000250: 6418 b1bd 257a 9a3e 7a3e be3e 4509 1fbe
00000260: a930 133e 5b07 283e f1af bd3e 7db8 343e
00000270: 1db0 df3e 9bca 2dbe b853 a7be cab0 99be
00000280: 530b c93d 01bf 3ebe cf83 4d3d 7dca 0f3e
00000290: 0056 c7bd 9a17 be3e 1eb6 b03e 4fff 983e
000002a0: ddc1 a7be 4848 efbd 299e 75be 9f26 433e
000002b0: 36ba efbd 4dd5 ad3e cabb c1bc 1ca9 843e
000002c0: a672 673e d2da 5b3e 08ba 02be fec5 6b3e
000002d0: 4ebb 91be 7d46 133b d16f f73d 7066 6f3c
000002e0: bac1 e43e 0d4e b8be f47e 90be 5e6c b83e
000002f0: d535 183e 39f4 98be d0d6 723e 5d55 e13d
00000300: 5092 ed3e 3817 b93e c873 0fbc f3dd 363e
00000310: 10df a23e bc64 d2bd 76ca ecbe 6c11 903e
00000320: bc05 653e ff55 9c3e 394c ccbd 45ac 873e
00000330: 7cfb 09bd dddf 153d d8a8 98be 5090 47be
00000340: ec47 7cbe 024d d53d 2bab aebe 73ca 183d
00000350: 18b4 a73e 166c a43d f56f d53e a912 b0be
00000360: e865 ed3e b997 98be 5ede 6e3e c5c3 103e
00000370: 5762 81be 4a75 e1bd 6520 34be 5bb8 b13e
00000380: c4df 7c3d 125a dcbe a7b6 923e 4bbe 793d
00000390: c871 a9be fb9b 4dbe e107 2dbd 4cb5 093e
000003a0: 4ff8 9d3e d4fa 01be f10c aa3d a543 00bf
000003b0: 6173 e0be 5459 d2be 819a b9be d6a3 42be
000003c0: 65c9 bebe ca5f 68be 6989 c23d 384b 98be
000003d0: 1d5b bcbe f6d9 373c b02a 2a3d 12cb 51be
000003e0: c0fb b0be 2c20 7cbe 65f2 c03e 65f8 4a3e
000003f0: 6ae5 3a3e 3f45 9fbd 410e f4be 21bb 193e
