parameters/cgmc_sports_edge_0.2246.pt (torch, 270182 bytes, 20 tensors)

conv0.bias f4 [16]
00000000: 6a65 94be e177 acbe ba35 b7be 66b9 bebe
00000010: 116a 94be c970 acbe e22e b7be 39c3 bebe
00000020: 3c66 94be e976 acbe 1b35 b7be 42ba bebe
00000030: 9764 94be 0579 acbe 4437 b7be a1b7 bebe
-0.28983623 -0.3368521 -0.35783178 -0.37250823 -0.28987172 -0.33679798 -0.35777956 -0.37258318
-0.2898425 -0.3368447 -0.35782704 -0.37251478 -0.28982994 -0.3368608 -0.35784352 -0.37249473

conv0.fc_node.weight f4 [128, 4]
00000000: a488 f3bc d326 d3bd adf5 1ab9 10bd 1abe
00000010: 027a e2bd 7445 8fbc a9c9 90be 6543 493e
00000020: 9d7d 723d 8cb2 e73a 1e5e de3e 313a 94bd
00000030: cdbb 15be 878e 943d 1d05 8d3d 656f 86bc
00000040: ee1c 9e3e 31e5 bfbd cb7b 653e e576 023d
00000050: 2f26 19bd ca00 33bd 57cc 403b 47bb 29be
00000060: cf4b 5f3d fbfd 68bc f494 66bd dc32 7b3e
00000070: f7a1 1fbe c903 0c3e 8ddd 8f3d 7bb0 643d
00000080: dac6 22bd 572a eb3d 9da0 9b3d d11a d23c
00000090: c0b4 9fbd e0a6 523d 1a7b 353e e037 973e
000000a0: 7733 0c3d 05a7 7ebd d647 063e 1764 4a3b
000000b0: dc98 d83c 68ee 893e 7f81 6f3c 8633 b83b
000000c0: 20f5 c2bd 1121 c43d 3878 0dbd 8120 473d
000000d0: 6f0d 163b 1d90 473e bea0 07be 0b37 da3c
000000e0: c24f ddbd d725 253d f36c 713e 9fcb debd
000000f0: 3cdb 02bf f05d 43be df11 efbd 1e45 c63d
00000100: 22d1 06bd 1cb9 0fb9 fc4d 34be 9714 64be
00000110: f928 893d c604 5dbd 8a8a a63e 7baf 1e3d
00000120: 595a b7bd 55db 0ebe a29f 033e b2be aabd
00000130: 1d8f f23d e36c d8be 4624 1d3d 9002 de3c
00000140: 3ac7 e13c 7394 05be 6391 93bd b24a a13d
00000150: 49ce 1a3e 1071 803e 96ae 8bbc 929b c5bd
00000160: 682a 6fbd 91d8 873e 007a 9d3d 32bd 03be
00000170: 6dc4 33bb 3a05 763e 9b12 123b 3729 0abe
00000180: c350 78bd 746d de3d d94a 0fbe 8717 1e3d
00000190: 0bd0 913e 0fec e5bd ba2e bc3d 6c08 a43d
000001a0: af9e 61bc faf9 57bd e6d7 f13a 0af0 bd3d
000001b0: cdf5 16be 2f38 83be 3302 10be d67e e0bd
000001c0: aa24 a23d 3539 883e 691b d43d be34 64bc
000001d0: 1b89 17be bea8 4a3d c8c7 a83c 6554 5cbe
000001e0: 1ea7 683e 76b7 973d 34d8 32bd 1053 463e
000001f0: def1 87bd f006 d13c 951e 083e c32f 7cbe
00000200: b4ab 54bb 7782 9a3e 09f9 8ebe 80df 06be
00000210: a8b7 8c3d 252f 063e d79d abbd 1d2d bcbd
00000220: 2327 093e 07ca c73d 8606 b2b9 0c1b a33c
00000230: dbdd 27be 8b42 82bd 897d e9bd 306e c1bd
00000240: 7056 fdbd e0a9 693e 13d7 12bc efd5 603e
00000250: 7c9f 24bc b77c ac3d 510f 0d3e a85a 5fbe
00000260: 8e41 8ebc 8950 25ba c9ea d73d 5dd2 3b3d
00000270: d78a 863d ccd1 e2bc 2e2c 3b3e f92e db3d
00000280: 2698 e93e 75c1 0c3d c832 c83d cb22 29bd
00000290: f474 2abe 4e02 4dbd e556 07be 7a6c 25bc
000002a0: d2e4 303e 7711 c13d a9aa 94bb 2562 903e
000002b0: 38c2 e6bd 610d ee3d f3c1 913d fcf7 9fbc
000002c0: 79ec 103d fecd 94bc f13d f03c d676 443d
000002d0: cf98 a43b 3207 743e 0376 2dbe 3d76 8abc
000002e0: 214a ccbd 73cc d5bd 17ea dabd 9cdc 623e
000002f0: 50b5 4fbc ce57 f6bd fbea e7bc b9b6 4bbe
00000300: 6bd6 153e 1c6e 3ebd 6607 363e 462c 86bd
00000310: 482a e83d 27a6 17be c778 eb3d 03dc 9cbe
00000320: 73c3 ea3d 4420 fabd 80c2 453e 7600 293d
00000330: 7776 193e b6c5 573d bdbf 08be 5b83 9bbd
00000340: 68b8 23be e713 91be 9416 0bbd 8cdf 4abd
00000350: 432c 923e e21b 953d eb07 47be 2349 173d
00000360: 448c 613e 6f7b 15be f44c b23d 29a8 a63e
00000370: db4e 38be 04ed 9c3e 4965 bbbc 9ea2 97be
00000380: b9c0 163c 0425 913e 2baa 393d 1f9f fa3d
00000390: e053 0a3d db50 9e3b 28c4 813e f4ef 7bbd
000003a0: b6db e43d b9a5 533d 65a5 b93d e080 353d
000003b0: d368 11be 25e6 d5be 7c2f 82be 3952 863d
000003c0: 6416 5f3d 4f9c de3e 95a2 c9bc d084 febd
000003d0: cec9 e6bd 9cdf cdbc 0ae8 2dbe ac42 9bbe
000003e0: 72f8 1b3c 5895 28be 754f fa3d 1be6 d1bd
000003f0: 2944 39ba 34ff 5c3e 19d5 d4bd 5887 13be
-0.029728241 -0.103101395 -0.00014778106 -0.15111184 -0.110584274 -0.017489173 -0.28278854 0.19654615
0.059201825 0.0017677112 0.4343118 -0.07237662 -0.14622422 0.072537474 0.06885741 -0.016410539
0.30881447 -0.09369887 0.22410505 0.031851668 -0.03738993 -0.043701924 0.002941867 -0.16575347
0.054515656 -0.01422071 -0.056294397 0.2453112 -0.15589128 0.13673319 0.07024679 0.055832367
-0.03974042 0.11482685 0.07598994 0.025647553 -0.07798147 0.051428676 0.17722741 0.29534817
0.03422877 -0.062171 0.1311334 0.0030882412 0.026440077 0.26939702 0.014618277 0.0056213764
-0.0951941 0.095766194 -0.034538478 0.048614983 0.002289619 0.19488569 -0.13244912 0.026637575
-0.10806228 0.04031929 0.23576717 -0.108786814 -0.51115775 -0.19078803 -0.116733305 0.09681152
-0.03291429 -0.00013706501 -0.17607874 -0.2227348 0.06697268 -0.05395963 0.32527572 0.03874157
-0.08952779 -0.13950856 0.12853864 -0.083371535 0.11843703 -0.42270574 0.03836467 0.027100831
0.027560819 -0.1304491 -0.07205465 0.07875575 0.15117754 0.2508626 -0.017051022 -0.09648813
-0.05839005 0.26532415 0.07689285 -0.12865141 -0.0027430311 0.24025431 0.0022288922 -0.13492285
-0.060623895 0.1086072 -0.13993396 0.038596656 0.28479037 -0.11226665 0.091886 0.08009419
-0.013770743 -0.05272863 0.0018451184 0.092742994 -0.14742203 -0.25628802 -0.14063339 -0.10961692
0.07917149 0.26606146 0.103567906 -0.01392859 -0.14798395 0.04947733 0.020603076 -0.21516569
0.2272 0.07408039 -0.04366322 0.19367623 -0.066379294 0.025516003 0.13292916 -0.24627595
-0.0032450976 0.30177662 -0.27924374 -0.13171196 0.06870967 0.13103922 -0.08379715 -0.09188292
0.13393836 0.097553305 -0.00033955666 0.019910358 -0.16393225 -0.06360348 -0.11400897 -0.09444845
-0.12370002 0.22818708 -0.0089624105 0.21956609 -0.01004779 0.08422225 0.13775374 -0.21811926
-0.017365243 -0.0006306251 0.105428286 0.045854915 0.0656945 -0.02768793 0.18278572 0.10702319
0.45623893 0.034364183 0.09775311 -0.041292947 -0.16646177 -0.050051026 -0.13216741 -0.010096664
0.17274788 0.09427159 -0.004536946 0.28199878 -0.11267513 0.116236456 0.07117071 -0.019527428
0.035381768 -0.018164631 0.029326411 0.047964893 0.005023099 0.2383087 -0.16939549 -0.016902084
-0.099750765 -0.10439386 -0.1068918 0.22154468 -0.012677506 -0.12028466 -0.02831029 -0.19893922
0.14632575 -0.046491727 0.1777626 -0.06551413 0.113361895 -0.14809476 0.11497646 -0.30636606
0.1146306 -0.122131854 0.19312477 0.041260205 0.14986597 0.052678786 -0.13354392 -0.075934134
-0.15988314 -0.28335497 -0.03395708 -0.049529597 0.28549394 0.07280709 -0.19436614 0.036934983
0.22026163 -0.14597867 0.08706084 0.3255017 -0.17998831 0.3064958 -0.022875445 -0.29616255
0.009201222 0.28348553 0.0453283 0.12237381 0.033771396 0.004831416 0.25344968 -0.061508134
0.11174719 0.051671717 0.0906475 0.044312358 -0.14200144 -0.4177715 -0.25426853 0.065586515
0.054464713 0.4347863 -0.024613658 -0.12427676 -0.1126896 -0.02513104 -0.16983047 -0.30324304
0.009519683 -0.1646322 0.122221865 -0.10248967 -0.00070673466 0.21581727 -0.10392208 -0.14407098

conv0.fc_node.bias f4 [128]
00000000: 5d33 283e 509f 6bbe 26f1 993e 8d77 17bd
00000010: a215 b0be 5af9 56be 1152 a63e 4921 fabe
00000020: 14a9 93bd 0237 5ebc d654 03be c82f d73e
00000030: 57e8 d4bd a258 8d3e 71f5 733c fe71 35bd
00000040: 9be6 8c3e 4aef ac3e a37a 0c3e 9ab9 c33e
00000050: d5bf dd3d 95e6 88be dc70 91bd cf47 e43d
00000060: 4a1c 0abe 4dfa b7be d4ea 533e aa60 873e
00000070: 6410 e23d 30a0 2bbd eebb a33e df7d 3e3e
00000080: b075 793e 1e87 863e ed4d 96be b770 ba3e
00000090: 8a62 00bf 4fe0 d03e 0909 033e 7654 b73e
000000a0: 726c aebe c938 d03e 243c 333e cc6e f5be
000000b0: 8987 6bbe fde9 7ebe cb1b b43e 494d 30be
000000c0: 4c85 f03e 85eb 8cbe dd10 203e dd39 433d
000000d0: 2c16 18bc e48e 05bf d4e0 013f e9ac 0bbe
000000e0: 6950 493e e3ce 423e 1e0d 873e 950b 373c
000000f0: f595 debe 32ab a1bb f87e e9be 8e15 cb3e
00000100: 69ab 973e 73c5 36be 9b4c 173e cdf5 15bd
00000110: 3726 e63b 3f71 bd3e 89ad 4abe 78fc db3e
00000120: 307a 263d d08b c2be e835 f5bd 05f2 b8be
00000130: d26f fd3b 9807 3b3d c4ae 583d 68e1 ea3d
00000140: 4260 e5be ad04 ddbe b42d 89bd e90f ce3e
00000150: 2f56 993e 3198 db3e 52af bbbe 4f10 b3be
00000160: 5e88 f3be 4b2c bdbd 1d57 d1be 0217 9a3e
00000170: 8a30 6cbd 2f15 863e e858 0fbe d75c ed3c
00000180: 4875 833e 5414 873e 44a6 bbbe 2403 893e
00000190: 9c68 e13e 787b 8cbe b064 a0be 8319 86be
000001a0: 0ad1 94be df90 b3be ebec 28be 8206 bb3e
000001b0: 5772 8a3d 531e b23c f411 85be e3e7 c53e
000001c0: f9d6 bbbe f8b1 7fbe 8030 6abe def9 f6be
000001d0: 424d 37bd 65b7 513e 2e9c 74be 24c7 9a3e
000001e0: db44 a63e d434 c7be 7b99 90be 48d3 813e
000001f0: 20a3 383e 4436 a93e 2d8b 3bbd 9f4c 9fbe
0.16425844 -0.23009992 0.30066794 -0.036979247 -0.34391505 -0.20993558 0.32484487 -0.4885352
-0.072099835 -0.01356292 -0.12825331 0.42028642 -0.10395878 0.27606684 0.014890061 -0.044298165
0.27519688 0.33776313 0.13718657 0.3822754 0.10827605 -0.2673842 -0.07101604 0.11146509
-0.13487354 -0.35933152 0.20695049 0.26440936 0.110382825 -0.041900814 0.31979316 0.18602704
0.243613 0.2627496 -0.29356328 0.3641412 -0.5015036 0.40796134 0.12796415 0.35806626
-0.34067112 0.40668324 0.1750341 -0.47936094 -0.23000921 -0.24893947 0.35177454 -0.17216982
0.46976697 -0.27523437 0.15631433 0.047662605 -0.00928263 -0.5217116 0.50733685 -0.13640179
0.1965958 0.19024234 0.26377195 0.011172195 -0.43473783 -0.004933738 -0.45604682 0.39664882
0.29622963 -0.17848758 0.14775316 -0.036611367 0.0070235985 0.37000462 -0.19792761 0.42966056
0.04064387 -0.37997293 -0.119731724 -0.36122146 0.0077342773 0.04566154 0.052901044 0.11468774
-0.448 -0.4316763 -0.0669817 0.40246513 0.29948565 0.4288955 -0.36657196 -0.3497338
-0.47564977 -0.09236964 -0.40886775 0.3009568 -0.057663478 0.26188037 -0.13998759 0.028974934
0.25675416 0.26382697 -0.36650288 0.2676021 0.44025123 -0.2743795 -0.31326818 -0.2619134
-0.29065734 -0.35071465 -0.16496627 0.36528403 0.0676009 0.021742975 -0.2599026 0.38653478
-0.3668745 -0.24970233 -0.22870064 -0.4823751 -0.044751413 0.20480116 -0.23887703 0.30230057
0.32474408 -0.38907492 -0.28242096 0.25356507 0.18030977 0.33049214 -0.045787025 -0.31113145

conv0.fc_fij.weight f4 [16, 34]
00000000: 9ba1 153d 2c7c 94be 8d78 8c3e 0f8a 3f3e
00000010: 8214 55bc 1ef9 ad3d 00f1 fe39 0c8e b73d
00000020: cb82 e5bd fbbe 60be b14c aebe 980f 6c3b
00000030: c7a5 f43e ac70 803e 2057 c03d 9315 b33e
00000040: 7fa8 7dbd 75b7 893e 6969 d33d 0d9b 9dbe
00000050: d9a9 99be a17a 5d3c 1583 b1bd 437f 9dbe
00000060: 489d c63e ebed 9dbe f4ee e73c da43 bd3d
00000070: f4f6 2fbd 1729 49be a907 e8bd 09db 813e
00000080: f567 5abe fac0 183e b451 e5be 0a2e 62be
00000090: fde3 943e 9ee1 d2bd 283e 88be ef13 7a3e
000000a0: 9777 923c 51b4 143e 977f 9fbd 4e8d c2be
000000b0: 8141 0bbf 41ef 233e 5ab5 2fbf 0d03 80be
000000c0: 4cd9 af3d 7282 453d 68d6 89bf c1ba aabe
000000d0: 526d 0ebf e639 21be aadf 10bd 546d 293e
000000e0: 5386 05bf 9997 7e3e 4ba4 1d3e 167a 27bf
000000f0: 225d e1bd 1a2d ab3b bbc0 f8bd e197 24bf
00000100: aa58 dcbd 5ec9 403f 8925 973c e409 a6be
00000110: a389 afbd 2769 78bc 608a a3be 6765 2bbe
00000120: 6e8c f7bd cf8a 9f3d 119c b3be 6a87 a1be
00000130: 0193 5b3e 5ac1 55bc ee1d 8bbe ee9f 44be
00000140: 7c2c b63c 98aa 403e 93d9 a63e 87df 52be
00000150: c182 bf3e 1d38 bfbe 9ac7 9ebe 4a2c bc3d
00000160: 668d 583e 8d81 d53e 0cf7 cdbb cba2 3c3b
00000170: cc09 47be 9d8a d93e 0388 a6be 903c 643d
00000180: 9568 b7be 1a6e 97bc 1c87 a0be ce84 913d
00000190: 9679 36bf f6fa c03e 5920 07bf d2df 9fbe
000001a0: e107 41be 120f bfbd 9e92 f1bd 40f0 afbd
000001b0: d8a0 f33d 9851 39be 6763 7b3c 1c59 a0bd
000001c0: 1c58 a33e cdac 1a3f 2f49 40be 3168 ba3e
000001d0: 20da 8ebd 33d6 41be 2b26 74bb 74db 2abe
000001e0: 7f0a c7be b71f 9b3e 168e 8e3d 3aa0 d7bc
000001f0: 94a8 01bf 7d7c 163f d836 833e bf19 913e
00000200: 0dc3 813e fe8d f13d 0f97 13bf b5c7 48ba
00000210: 5bdd f6be f762 49be 4677 a23e af7f bdbe
00000220: 79e2 26bf c1e0 2abe 21a8 243e bb11 9abe
00000230: afbd f7bd 7288 303f 6cf9 323d 3a3f b13e
00000240: db16 90be 35a4 18be c1e5 3b3c 4bb9 0c3c
00000250: 9ed9 6e3e 2874 c8bc 161d 87bd 6631 19be
00000260: 5d00 303e 226c 69be 5079 81be b5e1 48be
00000270: b886 3a3e 9957 953e ea90 d3be 2a6f e4be
00000280: 10e2 44be b87e 503d 9eca 623d 7009 a63e
00000290: aab0 8cbd 5180 4dbc 85f4 83be 8a91 9c3d
000002a0: 37cc 50bf 72f2 493f d901 97be 8613 d13d
000002b0: 314d 02bd ae27 193e 01b9 ca3d 3b7c f4be
000002c0: 0c78 613d a02e 84be 9523 dd3d f92c a43e
000002d0: c34e 1d3d 4129 15be 57f8 1dbc b884 88bd
000002e0: 599e 9cba 87d7 353d 8bcb efbe c002 313e
000002f0: 80e2 91be 657a c43e 7db1 0dbe a173 c4be
00000300: 1e27 853c 0f67 ad3c 5a2a 243e a2a1 093d
00000310: a7af 983e 911a 72bd 7ea8 423e db9c 81be
00000320: 2089 163f 631f 773e 6388 7ebf e723 3c3f
00000330: b8b0 cbbe 794f ae3e 18a4 703e 3929 3a3e
00000340: 3588 e3be 6821 20bd db96 d6be 8c5e 693b
00000350: a668 e83d cb00 633e 882f 11bf d93f 88be
00000360: 9705 f03e da27 e53b 48f8 ac3d 27e9 4abe
00000370: a891 ee3d 4173 bbbd 2eac 38be a6b4 d03c
00000380: 6fac 31be 54a7 12bd e45f 97be f210 e9be
00000390: 366f fa3b 3986 b03c 9430 9fbd ab3c b03e
000003a0: c207 9c3e cc76 03bf 61ef b5bd 6585 e13e
000003b0: cee5 903e 7548 8fbe 070d 1cbf 7030 af3e
000003c0: a53a 0fbd da97 b13e cce9 47be 9963 913e
000003d0: 0408 4e3e 13f1 933d f54d f33e dc4b d4be
000003e0: f71b 9b3d bbdc 99be a953 6bbe a5c0 0ebd
000003f0: 9b21 ab3d 0b42 0b3f a3b4 ccbd 4007 813d
0.036531072 -0.29000986 0.27435723 0.18705009 -0.013005378 0.08494781 0.00048626214 0.0896264
-0.112065874 -0.21947853 -0.34042886 0.0036020037 0.47782728 0.25085962 0.09391618 0.34977397
-0.06192827 0.2689778 0.1032284 -0.30782357 -0.30012396 0.013518007 -0.0866758 -0.30761155
0.3879187 -0.3084558 0.028312184 0.09241457 -0.042960122 -0.19644581 -0.11329586 0.25362423
-0.21328719 0.14917365 -0.44788897 -0.22087875 0.2908019 -0.10296939 -0.2660992 0.24421667
0.01787929 0.1452191 -0.07788008 -0.37998432 -0.54396826 0.16009237 -0.68636096 -0.25002328
0.08586368 0.048220105 -1.0768557 -0.33345607 -0.5563556 -0.15744743 -0.035369553 0.16545612
-0.5215809 0.24862517 0.15394704 -0.65420663 -0.11004092 0.0052238824 -0.121461354 -0.6429425
-0.10759099 0.7530726 0.018450515 -0.3242942 -0.08571174 -0.015161789 -0.3194151 -0.167379
-0.12087332 0.077901475 -0.35080007 -0.31548625 0.21442796 -0.013046587 -0.27171272 -0.19201633
0.022238009 0.18815076 0.3258787 -0.20593081 0.37404445 -0.373475 -0.3101166 0.09188135
0.21147689 0.41700402 -0.006285554 0.0028783556 -0.19437331 0.42488566 -0.32525644 0.05572182
-0.35821977 -0.018485118 -0.3135308 0.071054086 -0.71279275 0.37691468 -0.52783734 -0.3122545
-0.18850662 -0.09329046 -0.11795543 -0.08590746 0.11895913 -0.18097532 0.015343524 -0.07829496
0.3190316 0.60419923 -0.18777917 0.36407617 -0.06975198 -0.18929367 -0.0037254195 -0.16685277
-0.38875195 0.30297634 0.069606945 -0.02632152 -0.50647855 0.58783704 0.2562778 0.28339955
0.25344124 0.11794661 -0.5765237 -0.0007659153 -0.48215756 -0.19666658 0.31731623 -0.37011477
-0.6518932 -0.166873 0.16079761 -0.30091652 -0.12096726 0.689582 0.0436949 0.3461855
-0.28142437 -0.1490639 0.011468352 0.008589099 0.23325202 -0.02446945 -0.065973446 -0.1496025
0.17187639 -0.22795156 -0.25287867 -0.1961735 0.18215454 0.29168394 -0.41321498 -0.4461606
-0.19226861 0.0509021 0.055369012 0.32429075 -0.068696335 -0.0125428 -0.2577249 0.07644947
-0.8156161 0.7888557 -0.29493597 0.10208802 -0.031811897 0.14956543 0.09898568 -0.4775103
0.055046126 -0.25816822 0.10797802 0.3206556 0.03840519 -0.14566518 -0.009641728 -0.06665939
-0.0011949047 0.044394996 -0.46834978 0.17286205 -0.28493118 0.3837463 -0.13837238 -0.38369468
0.016254004 0.021167306 0.16031781 0.03360141 0.29821512 -0.059107367 0.19009587 -0.25314984
0.58802986 0.24133067 -0.9942686 0.7349228 -0.39783263 0.34045008 0.23500097 0.18179788
-0.44439855 -0.03909436 -0.4191197 0.0035609333 0.11348085 0.22168271 -0.5671315 -0.26611212
0.46879265 0.006993276 0.084457934 -0.19815503 0.116488755 -0.09152842 -0.18034431 0.025476765
-0.17350934 -0.035804108 -0.29565346 -0.4552074 0.007642652 0.021548377 -0.077729374 0.34421286
0.3047467 -0.51353145 -0.088835485 0.44047084 0.28300327 -0.27984968 -0.6095738 0.34216642
-0.034968037 0.34686166 -0.1952278 0.283963 0.20120245 0.07223716 0.47520414 -0.41464126
0.07573693 -0.30051216 -0.22981133 -0.03485169 0.08356019 0.5439765 -0.09995391 0.06300211

conv0.fc_ni.weight f4 [16, 4]
00000000: ed21 c7bd 9357 b1be dedf 2abc f9ca a03e
00000010: ddb8 e1be 9b51 e13e d168 2a3f 34c5 d9be
00000020: d9c5 133f 65f7 d6bc 1118 0c3f 2db5 94bd
00000030: 0119 133f a1be 68bf b928 d63d cce4 043f
00000040: 925d cc3e 3f87 58bf 4a63 6a3f 929b 18bf
00000050: 876c 38be 54c8 92bf 091f a33d d2db 22bf
00000060: c0de 7cbe c60c 673c 77c3 31be 6d8c 9b3c
00000070: b3a0 22be e18c 063e 6e1b 12be 65e4 0abd
00000080: 0b65 b53c 80e5 a3be 179d 02bf ccdd 94be
00000090: 657f 01be 526a a5bf b517 ce3e 18c6 eebe
000000a0: 63da 173f 1bcc 1e3e a499 d1be 7793 0dbf
000000b0: 6d62 37be b90e cc3e 794e c7bd b9ce 6abe
000000c0: 697a 383e b0fe 9d3e afcb e0bc 5970 863e
000000d0: f9ac 8c3c 2873 f8be 40a9 9d3e 2b29 11be
000000e0: 96c7 ecbe 7f42 4ebe c4e2 1c3c 930a 183f
000000f0: 8d79 3dbf eba5 03bf b471 4f3c 9b75 923e
-0.09723268 -0.34637126 -0.010429351 0.31404856 -0.44086352 0.44007573 0.6656619 -0.42533267
0.57723767 -0.026241014 0.5472422 -0.07261119 0.5746003 -0.90915877 0.10456986 0.51911616
0.39915138 -0.8458137 0.91557753 -0.5961238 -0.1801015 -1.1467385 0.07964904 -0.6361667
-0.24694347 0.0141021665 -0.1735972 0.018987859 -0.15881614 0.13139679 -0.14268276 -0.03390922
0.022142908 -0.32011032 -0.5102095 -0.29075468 -0.12646253 -1.2923071 0.40252462 -0.4663551
0.59317607 0.15507548 -0.4093753 -0.5530314 -0.1790864 0.39854982 -0.09731764 -0.22930421
0.18015446 0.30858374 -0.027440874 0.2625759 0.017172324 -0.48525357 0.3079319 -0.1417586
-0.46246022 -0.20142554 0.0095755495 0.59391135 -0.74013597 -0.51425046 0.012661386 0.2860535

conv0.fc_nj.weight f4 [16, 4]
00000000: 2d78 803e fb73 70bd 2c8d bc3e fe05 41be
00000010: f34c dabe a171 083f 6e93 4c3e e955 343d
00000020: 2bf7 63be fd34 febe c29a ffbe fd77 25bf
00000030: 2394 5b3c 7855 c63d b8be bbbe 37ff db3e
00000040: 743f 88be 52f6 ae3e aa7e 443e 9081 3c3d
00000050: 915f 9e3d f3dd 213e 4f01 e8bc 705e 41be
00000060: 739f 9c3e 1816 423f 3f21 41bc 322e 27be
00000070: a196 b4be f56f a5be 96c2 c1be 2924 ffbe
00000080: 4f97 05bf eb9e 273f 7288 d1be c8be ab3e
00000090: b5b1 813f 8b19 ddbe ef01 963e 34f9 22be
000000a0: 1e6b ea3c 8fec a33e d0fc edbe 39d0 5dbf
000000b0: 649b 10be 69a4 acbd cca9 f9be e333 9abe
000000c0: bca2 b2be cfbd 54bf 9e73 7cbe 00af 9c3d
000000d0: a8e4 003f 037c 1b3f 978c bb3d ad68 603e
000000e0: 870c ce3c dec8 9dbe dffe 6bbe 3004 f6bd
000000f0: 9364 f4be 3356 b1be 0cb7 893c 2486 44be
0.25091687 -0.058704358 0.36826456 -0.18849942 -0.42636833 0.53298384 0.19978115 0.044027243
-0.22262256 -0.49649802 -0.49922758 -0.6463621 0.013402018 0.096842706 -0.36668944 0.4296815
-0.2661091 0.34172302 0.19188944 0.046021998 0.077330716 0.15807323 -0.028320936 -0.18883681
0.305904 0.7581496 -0.011787712 -0.16326216 -0.3527117 -0.3231198 -0.3784377 -0.49832276
-0.52184004 0.65476865 -0.40924412 0.33543992 1.0132357 -0.4318355 0.2929835 -0.15915376
0.02861553 0.32016417 -0.46481943 -0.8664585 -0.14121777 -0.08429796 -0.48762357 -0.3011771
-0.3488978 -0.83102125 -0.2465348 0.07650566 0.503489 0.607361 0.09157675 0.2191493
0.025152458 -0.30817312 -0.23046444 -0.120125175 -0.47732982 -0.34636077 0.016810916 -0.19191796

conv0.fc_edges.weight f4 [16, 48]
00000000: a7e7 89bb 20cf 98bc 5bc3 963d cff2 173e
00000010: e89c 2c3d ccd2 0c3e d2a8 00be 7879 c33d
00000020: 3207 443d 3483 e93d 08ed 693e dda2 b4bd
00000030: ad08 10bd ca94 513e a4cf a1bd 5f51 9fbc
00000040: 6247 ccbd c9ad 453d 074e cf3b b008 ddbd
00000050: 3253 b4bd 5a71 0e3e ecdb 5c3d 1f8e 1dbd
00000060: fbe4 893e e38a 383e 03b1 113e eee9 97be
00000070: e327 e53c fc72 a2be f8be 85bd 0b7d 38be
00000080: 5d80 cfbd ee36 e73d 4af7 23bc 6f12 2dbe
00000090: a4cd dabc 4672 a1be e193 29be b3bd 8ebd
000000a0: 210e b13c 226d 95bd d390 6cbe 4938 dabc
000000b0: 112c 6abd f12a 38be a5d4 90bd 6db9 093e
000000c0: 3219 b3bd 8a3b 93bd 93ed 3abe 04e1 e9bd
000000d0: 2471 a1bc 4294 113e 8f4a 42bc 45f0 283e
000000e0: 810d cb3c f2b9 2dbd 5f12 c33c 8113 b43d
000000f0: 3f34 5abd 39da 003d fe44 bfbc 9019 e9bc
00000100: bd0b ef3d 6209 0b3c 8884 123e 8171 30be
00000110: 2cf3 c73c fd06 043e b2be d53d 5c61 93bd
00000120: 596d 7dbe 5739 323d 0407 c8bc 624d aebb
00000130: e41e 353e 4645 65bd 28d1 2ebe 32d6 febd
00000140: 78eb 16be cc9d 02bd 77ab 853e 67b0 c1bd
00000150: c063 18be 3569 0e3e b219 98bc f405 813e
00000160: 8ce3 273d 0d3c 023e 993a 993e dea6 b53d
00000170: 2f27 923d 6b08 f1bd dc64 593e 0272 1abd
00000180: edbc 28bd 065e b43d e057 ac3c 2caf f33b
00000190: 35a1 c3bc 8f72 4abc 1a0e 6e3d 3ec6 153e
000001a0: 6352 afbd 35ec 733c b5e2 86bd 9277 113e
000001b0: 1c18 2c3d 192b cf3d ba10 d33d f6db bd3d
000001c0: ae7f 893d ad34 7cbd 8807 693c e9d3 bbbd
000001d0: dd60 13be 49c7 bfbc 05c2 03be 6307 1abe
000001e0: 1c91 483e 4849 9ebc 7cd2 003e 4ca9 24be
000001f0: 63e0 ea3c 3d5f c3bd 3216 6bbe 0a87 dfbd
00000200: 5a6f 7a3d de62 9fbd 55a1 cc3b ea8a 303c
00000210: d5fa 18be 6bb1 48bc 357b ce3d 03d1 0cbd
00000220: 4f7e c0bd cef5 d2bd e186 333e 2dbd 843d
00000230: bc93 5e3d 5c2c 2dbe 096e 513e 1a80 bdbd
00000240: 25cc 03be 96e3 f13d 510c b1bd 93fe 5abe
00000250: 3870 af3d 9093 3f3d 499f f23d bcb6 bf3d
00000260: ed95 053c 8a05 80bd b7de 183e 8407 f43d
00000270: 7994 b9bd d2d6 3ebe d6a5 1dbe 9cd5 a1bd
00000280: b60e f6bb 03d7 d6bd d7cb 73be 2bcd bebd
00000290: d9d3 c7be 3506 c4be b0c0 b5bc 47da 86be
000002a0: 24f2 ca3e 9a96 a7bd b153 323e cb22 50be
000002b0: 11dc 1a3d 1fef 70bd dfa5 9c3c 681f edbd
000002c0: ee3a fabc 5f2f d7bd 7b24 ae3c 079b 2fbd
000002d0: b722 4cbe 8816 7f3c 28db c63d a81e 9c3d
000002e0: 05cb 07be 3ef3 473d ddb1 f1bd 6317 03be
000002f0: 8f64 e63c 29cc 2ebc ff6d 523e 6b7c 873d
00000300: 4140 5abd 85af e1bd bb1b 993d 4daa 683d
00000310: 2953 eaba a75e 593c 2e22 4a3c 9e1f 75bd
00000320: d57d acbc a828 3bbd 4ca9 683e 8b35 6a3b
00000330: abbb dfbd eac5 90bd 8712 723c e5aa 5e3d
00000340: 1a76 c93c 92d2 c8bd f46c 6b3e 2374 62bd
00000350: a17d 1ebe f337 473d 5bcb b53d 45b2 80bd
00000360: d376 b0bd d226 0fbe f824 963d ea4b 4bbe
00000370: e500 a5bd 6393 bbbe 84c5 393d 6fbd 3fbe
00000380: 2d71 783d 2167 b2bd 71a7 e13c 6bf8 9cbd
00000390: 8837 3f3e 69fa 2cbe 09ec 22be 1efc 003e
000003a0: 61a5 17bd 0481 67bd 1c79 7bbd 72da e4bc
000003b0: bde0 9e3a aff7 49bd de6f 6cbd 8f25 1d3e
000003c0: 3531 723d b571 e23d 41d5 593d 847e f33d
000003d0: 586b f6bd f2a4 013d ad5b 23bd a67d cc3d
000003e0: 0748 853d 0967 433d 268f f53d c013 d43c
000003f0: a4d4 3cbe 4f1a 903d 3d9d 92bd 7ca2 f83d
-0.0042085233 -0.018653452 0.0736148 0.14838718 0.042141825 0.13752288 -0.125644 0.09544653
0.047858424 0.11401978 0.22844326 -0.08820126 -0.035164524 0.20466915 -0.079009324 -0.01944798
-0.09974553 0.048261438 0.0063264403 -0.10792673 -0.08804931 0.13910428 0.05392067 -0.038465615
0.2693251 0.18021731 0.14227681 -0.29670662 0.027973121 -0.3172835 -0.06530565 -0.1801645
-0.10131905 0.11289774 -0.010007689 -0.16901563 -0.026709385 -0.31532496 -0.16560318 -0.06969776
0.021613183 -0.07296206 -0.23102121 -0.026638167 -0.05717093 -0.17985131 -0.07071809 0.1344964
-0.0874504 -0.071890905 -0.1825469 -0.114198714 -0.01970727 0.14216712 -0.0118585965 0.16497906
0.024786713 -0.04241366 0.023812471 0.087927826 -0.053272482 0.031458113 -0.023348328 -0.028454572
0.11672161 0.008486124 0.14308369 -0.17230798 0.024407946 0.12893291 0.10436763 -0.07196304
-0.24748744 0.043511715 -0.024417408 -0.0053192833 0.17687565 -0.055974267 -0.17071974 -0.12443198
-0.14738262 -0.031888768 0.2610738 -0.09457474 -0.14881802 0.13907321 -0.01856694 0.25199854
0.04098849 0.1271822 0.2992752 0.08869718 0.0713638 -0.11769184 0.21229881 -0.037706383
-0.0411958 0.08806996 0.021037996 0.0074366536 -0.02388058 -0.012356414 0.058118917 0.14626405
-0.08560636 0.014887859 -0.0658621 0.14205769 0.04201518 0.10115642 0.10305925 0.0927047
0.06713806 -0.061573673 0.014222987 -0.09171278 -0.14392419 -0.023410456 -0.12866981 -0.1504188
0.19586605 -0.019322053 0.12580293 -0.16080207 0.028671449 -0.0953965 -0.22957686 -0.109144285
0.06114135 -0.07782529 0.006244818 0.010775307 -0.14939435 -0.012249331 0.100820936 -0.034379017
-0.093990915 -0.1030079 0.17531921 0.06481395 0.05434011 -0.16911453 0.20452131 -0.09252949
-0.12870844 0.11810987 -0.08644927 -0.21386175 0.08566326 0.046771586 0.118467875 0.09361026
0.008153421 -0.062510565 0.14928709 0.11915496 -0.09061522 -0.18636635 -0.15395293 -0.07902071
-0.007509078 -0.10490229 -0.23808227 -0.093164764 -0.39028814 -0.38285986 -0.022186607 -0.26338407
0.39637864 -0.08183022 0.17414738 -0.20325772 0.037807528 -0.058821794 0.019122062 -0.11578256
-0.030545678 -0.10507082 0.02125763 -0.042872455 -0.19935118 0.015569337 0.097097695 0.07623035
-0.1326104 0.04881596 -0.11801503 -0.1280189 0.028124122 -0.010668793 0.20549773 0.06615528
-0.053283934 -0.11019806 0.07475992 0.056803036 -0.0017877567 0.013267196 0.012337251 -0.059844606
-0.021056095 -0.04569307 0.22720832 0.003573748 -0.10924467 -0.07068999 0.014774925 0.054362196
0.024592448 -0.09805788 0.22990781 -0.055286538 -0.15477611 0.04863734 0.088766776 -0.06284002
-0.08616414 -0.13979653 0.0733127 -0.19853178 -0.08056811 -0.36635885 0.04535438 -0.18724607
0.060654808 -0.087110765 0.027545663 -0.076645695 0.18673527 -0.16892399 -0.15910353 0.12596175
-0.037022952 -0.056519523 -0.061394796 -0.027936194 0.0012121421 -0.049308475 -0.057723872 0.15346359
0.05912896 0.11056844 0.05318189 0.11889365 -0.12032193 0.031651445 -0.03988235 0.09984903
0.06507879 0.047705684 0.11990194 0.025888324 -0.18440491 0.07036268 -0.07158897 0.121403664

conv0.fc_attn.weight f4 [4, 4]
00000000: bb83 1d3f 8e99 32bf 3716 43bf 5b00 1b3f
00000010: 16e6 053f 8a69 b3be 984b 41bf ca15 813f
00000020: 7da2 5d3d 2316 c1be 0a9b f8bd 7b33 4a3f
00000030: 6788 9bbd 7268 173d b9c2 07bf 9728 423f
0.6152913 -0.69765556 -0.7620577 0.6054742 0.5230421 -0.35041457 -0.7550597 1.0084774
0.05411004 -0.377122 -0.12138946 0.789848 -0.07594376 0.03696484 -0.530315 0.75843185

rgcns.0.h_bias f4 [32]
00000000: f07c 3e3e 3c0e f6bd dbd5 9fbe 874d 83be
00000010: 77dc 20be 4def 653e ffc0 13be 6ba2 eebd
00000020: 84ce 91bc d612 81bd f67e cc3d 2fb0 383e
00000030: ecc7 0d3d f082 193e 04de 083c f2db 6d3d
00000040: 6c09 ccbc ace2 dfbd 483e 20bc 8d4e abbd
00000050: eba8 2a3e 7da5 123e 39d2 53be f163 583e
00000060: 013c 69be b694 6bbe a8a9 983e c063 78bc
00000070: a8e8 61bf 4d1a 223d 87c5 e9be d156 b03e
0.18602347 -0.12014434 -0.31217846 -0.25645086 -0.157091 0.22454567 -0.14429091 -0.116520725
-0.01779867 -0.06302421 0.099851534 0.18035959 0.03461449 0.14991355 0.008353714 0.058071084
-0.024906836 -0.10931906 -0.009780474 -0.08364592 0.16666 0.14320941 -0.20685662 0.21131875
-0.22776796 -0.23005947 0.29816937 -0.015160501 -0.8824563 0.039575864 -0.45658514 0.34441236

rgcns.0.loop_weight f4 [32, 32]
00000000: 44e6 783c c25a 3bbc 0ea5 86be d106 863e
00000010: 49ce 5ebd a7ef a33e 3cf9 86bc e5fc 823a
00000020: 1651 1c3e 8e48 8dbd abe6 d33c 5d95 88be
00000030: d831 533c 2a7b 4abd 01a7 8ebe 1d1d 293e
00000040: c4e1 003e 7c9d b5bd d41a a1be ed9a 95bd
00000050: 18f0 2fbe 8b67 3b3e 4b5e 57bd f8eb d9bd
00000060: 24a7 983d 8acd 273d bcc3 efbd 5ee0 cfbe
00000070: d9e3 163e 92e5 8cbe 2d7c d6be 70f9 803d
00000080: 49c1 9b3e 4e98 d33c 4af7 463e 3900 8dbd
00000090: 9361 a33e 0ae1 66bc e94e ad3d 4c5c 153d
000000a0: ce17 80be 3f5d 533e 3045 dcbe a2e1 d0bd
000000b0: 5124 8e3e a276 11be 8027 993e aae2 743e
000000c0: 1272 b6be 9984 7abe 1315 c93d 484a 953e
000000d0: 9726 8fbe 744d af3d f2c0 c63e 2a16 0b3e
000000e0: 1553 c13e 705a 58bd 17af 523e 0b99 183e
000000f0: e067 d3be 7de3 32be 3055 85be 760d 853e
00000100: 8e19 d3be ae60 b7be a244 793c f988 d3be
00000110: 516b 303e 3866 b03e a90d 283e 4d0c 463e
00000120: b065 25be ffc1 d93d 3dfa 313e 6e19 383d
00000130: 350f cabd 11df e83e 4161 06be 5b11 e8be
00000140: b245 bc3e 3d56 67be 2253 f3be 6b1e 9abe
00000150: ebf6 fa3c b2e5 52be 6ecd 873e 5080 a2be
00000160: 54bd b63e 6e1d 90be ea67 d33e bfe1 8f3e
00000170: 2d9b 263e 57f3 f5be 93f7 7ebe 5853 8fbe
00000180: 10a2 d6bd fbd9 5cbe 5008 68bd 6b18 dd3c
00000190: e8ba 7abd 81f6 b53e 0273 dc3e 24e6 4abe
000001a0: 16c8 b1be 23ec c53e eac8 80be b91e dcba
000001b0: adb2 ca3e 87da a23e 61c0 bc3c b94b 1c3e
000001c0: 32d2 1fbe 1f54 563e edd3 0b3e d842 dbbd
000001d0: aa74 f13d 2ba7 c9be ee45 92bd 3930 823e
000001e0: 1e5b 05bd 923c 643d fdfd a0be 1773 d1bd
000001f0: 8b1e 4cbe 4265 843e a186 36be 15f8 133d
00000200: 8659 af3d c0ab a2be f63a 3cbd a7ab 273e
00000210: 5c95 ef3d 0572 e6bd 03ec 10be 93fd 34be
00000220: b1a0 833e f89b 38bd f0ff 9abe 69ab dc3e
00000230: fdc7 443d d21e 5e3e 277e 18be 8d27 2b3e
00000240: 8e50 5dbe c2d3 b03e 2150 c1be 37d7 e4be
00000250: 44c0 31be b518 a73e 3bf6 39be 3607 a1be
00000260: 4907 69be db1c 7abe 1fa7 3e3e 48e0 b0bd
00000270: b083 9ebe e0d8 01bd 764c 32be dd47 953d
00000280: d960 c7bc 92bf 1cbe f1b6 55be 3301 603c
00000290: 7590 a73d ff50 b63e b180 bfbd 36ba 1bbc
000002a0: fe0d bf3e e564 193e d8f2 a53d 8ca6 c9be
000002b0: 6073 093c 5544 b6bc b787 31be 237b c13e
000002c0: 6e60 083e b9b1 adbe c49f 423d e4b8 afbe
000002d0: c84c 053e e93d a2be 4824 96be 8ce1 e0be
000002e0: 107f fabd 9421 a5bd e2dd 983e 519f 80be
000002f0: 1167 8fbd 6e71 f9be 0381 d3be a6a9 69be
00000300: ac73 4d3d 93a0 02bd c124 a13e 3e33 013f
00000310: 97ed a2be 4374 3abd 5878 debe 0b71 21be
00000320: 808c 8b3c 6bf9 973d cb8e 02be 0264 ce3d
00000330: e814 573e 388c 8cbe e41d 33be ab93 aebe
00000340: 7fcd 583e 10a9 a8be 5da0 813e f0a2 723e
00000350: 2fdf e2be 43d3 753e 4df0 c93e 0516 4c3e
00000360: 02c4 dcbe 70f9 a43e cf63 273e 3205 e5be
00000370: 13ec 5e3e d870 0c3f 957e 653d 41d8 14bd
00000380: 0129 afbe e0e5 a93d 7382 afbe fc76 02bd
00000390: 4b02 97be 9d92 3abe 400a 10be cd5e c7bd
000003a0: 3f90 8c3e 3498 943e 0a0c e73d 5053 863e
000003b0: 5fbd e0be 6e1a 82be 076a 9cbe 7b4a 95be
000003c0: 4c32 863e a9b9 0c3e 7d2c a23e e3b5 22be
000003d0: 33c4 6fbe 154a 3ebe e595 ae3e 18ce 903e
000003e0: 15f3 b7be 75b0 90be f0b4 983e 8187 38be
000003f0: e329 79be 55b9 41be af32 90bd ef45 043e
0.015191618 -0.011435213 -0.26297802 0.26177076 -0.054395948 0.32018778 -0.016476266 0.0009993581
0.15265307 -0.06898604 0.025866827 -0.26676455 0.012890302 -0.049433865 -0.2786179 0.16515012
0.12586123 -0.088679284 -0.3146578 -0.073049404 -0.17181432 0.18301217 -0.05258016 -0.106407106
0.074537545 0.0409675 -0.11707255 -0.40600866 0.14735354 -0.27518898 -0.41891614 0.062975764
0.30420902 0.02582946 0.19430271 -0.06884808 0.3191038 -0.014091739 0.084623165 0.036464974
-0.25018162 0.2064104 -0.43021536 -0.10199286 0.27762082 -0.14205411 0.2991295 0.2391459
-0.35633904 -0.24464644 0.09818473 0.29158235 -0.2795913 0.08559695 0.3881908 0.13582674
0.377587 -0.052820623 0.20574604 0.14902131 -0.41290188 -0.17469592 -0.26041555 0.25986832
-0.41230434 -0.35815948 0.015214117 -0.4131544 0.17228438 0.34452987 0.16411461 0.1934063
-0.16152072 0.10632705 0.17380615 0.044946127 -0.09866182 0.45482686 -0.13123037 -0.4532574
0.36771923 -0.22591491 -0.47524363 -0.30101332 0.030635318 -0.20595434 0.26523918 -0.3173852
0.3569132 -0.28147453 0.41290218 0.28101918 0.16270132 -0.48037216 -0.2489913 -0.27993274
-0.1048013 -0.21567528 -0.056648552 0.026989182 -0.061213404 0.3553963 0.43056494 -0.19814354
-0.34722966 0.3865672 -0.25153285 -0.0016793824 0.39589444 0.31807348 0.023040952 0.15263261
-0.15607527 0.20930527 0.13655062 -0.10706109 0.1178983 -0.39385352 -0.07142244 0.25427416
-0.0325576 0.055721827 -0.31443778 -0.1022703 -0.19933526 0.25858504 -0.17824794 0.03612526
0.08561997 -0.3177166 -0.045954667 0.16374074 0.1169841 -0.11252216 -0.14152531 -0.17674856
0.25708535 -0.04507062 -0.3027339 0.43099526 0.048042286 0.21691445 -0.14891873 0.16714306
-0.2161276 0.34536558 -0.37756446 -0.44695446 -0.173585 0.32636037 -0.18160336 -0.31450814
-0.22756685 -0.2442507 0.18618439 -0.08636528 -0.30959845 -0.03170097 -0.1741198 0.072890975
-0.024338173 -0.15307453 -0.20870568 0.013672161 0.0818185 0.3560867 -0.09350718 -0.009504845
0.37315363 0.14979894 0.081029594 -0.39384878 0.008389324 -0.02224938 -0.17336927 0.37789258
0.13318035 -0.33924654 0.047515646 -0.34320748 0.13017571 -0.3168786 -0.29324555 -0.4392208
-0.122312665 -0.08063045 0.29856783 -0.2512155 -0.0700208 -0.48719352 -0.41309366 -0.22818622
0.05015914 -0.031891417 0.31473354 0.50468814 -0.31821892 -0.045521032 -0.4345119 -0.15765779
0.017034769 0.074206196 -0.12749784 0.10077669 0.21004069 -0.27450728 -0.17491871 -0.34097037
0.2117214 -0.32941484 0.2531766 0.23694968 -0.443109 0.24006371 0.39441147 0.19930275
-0.43118292 0.32221556 0.16346668 -0.44730526 0.21769743 0.54859686 0.05602892 -0.03633905
-0.3421097 0.08295798 -0.34279212 -0.031851754 -0.29493937 -0.18219991 -0.1406641 -0.09734879
0.274538 0.29022372 0.11281593 0.26235437 -0.4389448 -0.2541079 -0.30549642 -0.29158387
0.26210248 0.13742699 0.31674567 -0.15889697 -0.23414688 -0.18582948 0.34098735 0.28282237
-0.35927644 -0.28259626 0.29825544 -0.1802044 -0.24332385 -0.18918355 -0.07040917 0.12917303

rgcns.0.linear_r.W f4 [9, 32, 32]
00000000: 3a5a bc3d 729a 6d3e 369a 4c3e 7f85 4abb
00000010: 7222 e7bd 02c2 2cbe bab8 34be e257 21be
00000020: 560c 463e 102e 8c3d 2138 efbd 88e4 063d
00000030: eab6 97bd 79f5 ad3d d635 2cbe 3bfb 0c3e
00000040: 5f02 043e d6f5 693e a318 a5bd 477e afbd
00000050: 169e dabc fa3c 19be 9b66 d33d 3052 113e
00000060: 98e4 e73d 76aa c63d 2469 75bd 309d 1dbe
00000070: 3ee2 903d 4a1e a03d 34db cb3d a1ca 3fbd
00000080: ac75 c33d 5957 fb3c a3b7 2c3e bd32 6f3e
00000090: 428e e33d 0a72 8cbd 5809 8c3d 1147 1d3e
000000a0: 39b0 38be 5803 2d3e d1ae f43d 0da3 98bd
000000b0: d837 3dbc cf93 2ebe 47eb 123d 5a8d 9d3c
000000c0: fcd5 dd3d 5daa 423e c34f b0bc 36c3 05bd
000000d0: ad8b 2fbe 99c1 b73d 3090 983e ffc7 2c3e
000000e0: 0ef1 c63c 6eb7 0ebc 0b17 363d a5f1 43be
000000f0: 5017 6e3e 1a7d afbc 3b7f 6c3e 3b1d 49be
00000100: fe4d bb3c 0b5f 8b3d 41a3 be3d 2594 87be
00000110: dda6 57bc 260a c5bc 16c0 07be 052d ecbd
00000120: 07af 42bd 085e 29be 5b53 8c3d b7cf 683e
00000130: 21d5 873d 791c c53d 32a0 64bd 8e5f 113d
00000140: 24a6 1f3d 8b1b 91bc 5dd5 94bd 3933 05be
00000150: 944a 083e 5d20 90be ddf1 1cbe 3cce e3bd
00000160: 456a 72bd 630a 28be 23e7 313e 19af 043e
00000170: 3357 18be da12 29be 2481 aabd d7d4 7d3e
00000180: dfa8 6a3d 950e 303e 9247 adbb 1f43 30bd
00000190: d6a8 273e c803 ac3d 8e1c a9b9 4e98 393d
000001a0: 3d10 e7bb 350b 243e 50a2 0dbe b4ea 0c3e
000001b0: 07d0 8fbd 8155 11be 6f7d 57bd 17ac 61bd
000001c0: 38f8 3c3e 647f 843d da25 433e a7b3 aebd
000001d0: 39d6 f4bd 3c23 a3bd 593a 20bd e26f d63d
000001e0: c17f 7e3d 981d 10be cf38 e5bd fea1 363e
000001f0: aa73 593d d202 003d 6f1d 5a3d 07e1 60be
00000200: 6e09 13bd 2e37 c83c 5b37 f7bd 1b85 3f3c
00000210: d2a8 523e 1950 30be d0ed 51be ce93 c03d
00000220: 14e4 11be 043f 10bd bcbe 85bd 556c a23c
00000230: a9d9 a33e 1c6c a03d c171 413e 2870 09be
00000240: 9ab0 753d cbb0 d5bb 6d7f dabc 65dc c83d
00000250: 87c8 5e3d 90d4 8f3e da34 693c a78c c0bd
00000260: c92f 07bd f9da a73d 7f3d c6bd 9d60 83be
00000270: 227d cdbd c0f5 d73d 6c84 c03d 25f7 fd3d
00000280: 375d 0b3d 4e67 b73b b509 a6bd f4b7 cc3d
00000290: fa9f 23be 57f5 9d3c 52de f23d 9b91 bfbd
000002a0: adb0 fc3d f7f2 153e 2344 12bd 81de b93b
000002b0: 9462 82bc de61 7bbd f325 913a 59ae 303d
000002c0: b8ff 0b3d c2f5 f1bd 23f0 68bd 962f 97bd
000002d0: d408 db3d 1e61 75be 437a 8a3e 7b86 83bd
000002e0: 886f 303e 8792 eb3d 35d5 a3bc fb8c b43d
000002f0: ba52 38bd 0999 503b fd95 bfbd 77a4 673d
00000300: e856 db3d 0967 26be fb9e 3f3e f7f7 ab3d
00000310: 5d08 06be 1250 c83d aaa2 f0bd ccb4 ee3d
00000320: 546d f43d 8af2 b8bd ed32 3b3e 9709 a2bc
00000330: 5a0e 913d fbc6 dc3c e79b 19be 47c3 77bd
00000340: 51e5 293e 38be d03c cc74 10be bdc1 4bbd
00000350: d36a ab3d 5ae3 453d c39a 123e b56d d33d
00000360: 4d73 253d 8681 8a3d b814 e73d fd83 4b3d
00000370: c9f1 c2bd c80a d73d 0330 d33d 54ef d4bd
00000380: 2afa f03b e46b 903d 82a0 343e 5ac7 3dba
00000390: d31f fe3d a911 db3d 2e5f e8bd 9cb6 de3d
000003a0: 8002 703e faef 5d3e a3a7 a8bd 1d82 4dbe
000003b0: fbc1 77be f782 e8bd 1596 493d 4fdf 373d
000003c0: 04ec b93c 7f19 aa3c 5c29 143e 61ab 393d
000003d0: 0f23 9c3e 2982 e0bb 2523 f2bd 2220 053e
000003e0: 491b 353e 6feb 0ebe 264f edbd 8aec f13d
000003f0: 4648 c13c ab0b 10bd 4154 9a3d 4a86 18be
0.09196897 0.23203447 0.19980702 -0.0030902324 -0.11285867 -0.16870883 -0.17648593 -0.15756181
0.19340643 0.06844723 -0.116806276 0.032932788 -0.07407935 0.08494086 -0.16817412 0.13767712
0.1289153 0.22847685 -0.0806134 -0.08569007 -0.02668671 -0.14964667 0.10322305 0.14191508
0.11322898 0.097004816 -0.059914723 -0.15391994 0.07074402 0.07818277 0.09953919 -0.0468241
0.095439285 0.030681299 0.16866927 0.23359199 0.11111118 -0.06857689 0.0683772 0.15359141
-0.18035974 0.16895807 0.11947406 -0.074529745 -0.011548959 -0.17048572 0.03586891 0.01923244
0.1083183 0.19010301 -0.021522408 -0.03265687 -0.17143126 0.08972473 0.29797506 0.16873167
0.024284866 -0.008710725 0.04445557 -0.19135149 0.2325108 -0.021421958 0.2309541 -0.19640057
0.022864338 0.068052374 0.09308482 -0.26480213 -0.013162342 -0.02405269 -0.13256869 -0.11532024
-0.0475302 -0.16539776 0.06851836 0.22735487 0.06632448 0.09624571 -0.055816837 0.03549152
0.038976803 -0.017713329 -0.07267258 -0.13007821 0.133097 -0.2814969 -0.15326639 -0.111233205
-0.059183378 -0.16410212 0.17373328 0.1295742 -0.14877014 -0.16511098 -0.08325413 0.24788223
0.057289954 0.17193063 -0.005288073 -0.04303276 0.16373 0.08399159 -0.00032255467 0.045311265
-0.0070514963 0.160199 -0.13831449 0.13761407 -0.070221 -0.14192773 -0.052609857 -0.05509576
0.18454063 0.0646961 0.19057408 -0.0853036 -0.11954922 -0.07965705 -0.039118145 0.10470559
0.062133554 -0.14073789 -0.11192476 0.17835233 0.05308882 0.03125269 0.053250726 -0.21960841
-0.035897665 0.024440374 -0.12071105 0.01168945 0.20572212 -0.17218055 -0.20500875 0.094031915
-0.14247161 -0.035216346 -0.0653052 0.019827047 0.32002 0.0783312 0.1889105 -0.1342169
0.059982873 -0.0065213195 -0.02667209 0.09807662 0.054390457 0.2809186 0.014233792 -0.09401827
-0.033004556 0.081960626 -0.09679698 -0.25659648 -0.10033633 0.1054492 0.094002575 0.12400655
0.034024443 0.0055970317 -0.0810732 0.09996024 -0.15978995 0.019282026 0.118588105 -0.09353944
0.12338386 0.14643465 -0.03570951 0.0056722765 -0.015916146 -0.06137263 0.0011073932 0.04313502
0.03417942 -0.11814453 -0.056869637 -0.07382123 0.10695043 -0.23962829 0.27046403 -0.064221345
0.17230046 0.11502557 -0.019999126 0.088159524 -0.04500077 0.0031829497 -0.0935478 0.05655333
0.107099354 -0.16250242 0.1871299 0.08396905 -0.13089128 0.09780897 -0.11749776 0.11655578
0.11934915 -0.09030636 0.18281145 -0.019779963 0.070828155 0.02695035 -0.15000878 -0.060488965
0.16591384 0.025481328 -0.14107054 -0.04974531 0.083699845 0.048312522 0.1431685 0.10323659
0.040393163 0.06762986 0.11283249 0.04968642 -0.09518773 0.10500103 0.10311892 -0.10397211
0.0073540406 0.070518285 0.17639354 -0.00072394835 0.12408414 0.10696728 -0.11346279 0.10874674
0.23438454 0.21673575 -0.08235099 -0.20069166 -0.24195091 -0.113531046 0.049215395 0.044890698
0.022695549 0.02076411 0.14468902 0.045329455 0.30495498 -0.006851454 -0.118231095 0.13000539
0.1768619 -0.13956998 -0.11587362 0.11812694 0.023594033 -0.035167377 0.075356014 -0.14894977

rgcns.1.h_bias f4 [32]
00000000: 3bf6 c7bd 95fe 43bd f3d0 3c3d c8c5 a8be
00000010: 8d50 083d 8938 6abe df95 8d3c 22f3 82be
00000020: 6e3a b43c b4a3 1b3e 586a 743d 9186 223e
00000030: 477e f83d c635 5abd ccf7 ba3d 0fb0 0b3e
00000040: 0a09 583e b63a 053e f52c 66bd c7b0 4d3e
00000050: f1a1 01bd 81e9 953d f8e0 01bc dcb1 203e
00000060: 9041 3fbe b5ae 613d 2c9c 0fbe 6f4b a03d
00000070: c9d9 533d 8a59 44bd 3f27 62bd 5926 8a3d
-0.097637616 -0.04785021 0.046097707 -0.32963395 0.033279944 -0.22873129 0.017283378 -0.2557612
0.022000518 0.15199167 0.05967173 0.15871646 0.121334605 -0.05327394 0.09129295 0.1364138
0.21097198 0.13010678 -0.056195218 0.20086966 -0.03164858 0.07319928 -0.007927172 0.15692848
-0.18677354 0.055098254 -0.14024419 0.07826888 0.051721368 -0.047936954 -0.05521321 0.067455955

rgcns.1.loop_weight f4 [32, 32]
00000000: a598 933e ec03 653e b403 0a3e 03b4 bcbe
00000010: 9dc6 913e 9a7f 65be 24a5 b5be 936d 6e3c
00000020: f4c5 4cbe 8f18 ce3e 6765 be3e 4f0f 933d
00000030: a7fc 21bd 8b71 adbe 750d 09be fe07 dbbd
00000040: e044 553e 2f69 773d 63b7 6bbe e4cb 92be
00000050: 621f b7be c18d a83e 385c 72be e08a 9bbe
00000060: 0ab8 a93e 39a7 9dbe ded0 dcbe ba8c d8be
00000070: a63f 793e ee1e 79be 2a31 68be 5c4e 45be
00000080: fa3e c1be b620 d5be 8cef aa3e 899e bf3e
00000090: a485 ba3d 9ba3 933e 51b0 0b3f 8388 f1be
000000a0: b9d6 01bd 8ac1 47be 2063 a2be 5d50 aabd
000000b0: 4ff3 c4be 1ea4 113e 566d a3be 6cee 983e
000000c0: 13b8 78bd a19e 603e 47da a4be fc5d cfbe
000000d0: 2c63 9dbe 1fc5 3abe 7a6f 123e f7c0 ba3e
000000e0: dffa 433d 9338 ea3e 0bfc 0e3e 908c a33e
000000f0: c41c c23e 59bd 52be efa0 863d e32c 483a
00000100: dc1f 1c3e 453e 173e f3b5 ddbe b920 8a3e
00000110: ffa2 473e 456d d83e 1527 19bc 0f93 d93d
00000120: dbef e0bd ec7e 83bd 1c59 ebbe da0c 5b3e
00000130: 835a 5b3e 9abe 35be 0b6d 5dbe a388 4cbd
00000140: b4fd e8be af82 663e 2efa 9dbd 2f58 8abe
00000150: 1f3f 9f3e 12dd 1f3e 86dd 2ebe afd5 103d
00000160: 7851 1dbd 2f4f b2be d4ac 97be e45f 623e
00000170: 0703 15be 4319 8a3d 91d4 c4be 1794 bb3d
00000180: 9ff7 a63d 66e5 0fbd feb4 12bc 69a1 8f3e
00000190: 7bfb 733e 5ae1 2f3d 967a c1be 5318 573e
000001a0: c466 92be db7e 8bbd edc5 bfbe eea1 dfbe
000001b0: c2b1 a6be 9431 d03e d7dd 4e3e ced5 923e
000001c0: 92a7 64be 4256 a33e e1e4 833e 7aed adbe
000001d0: 4309 53be 1d7f 0c3e 9db0 73bd 7092 eebe
000001e0: 0d87 fa3e f6d8 8ebe 1999 3b3e 94f9 9b3e
000001f0: 7b06 bfbe cc0f cd3c 6154 86bd 7ade 9e3e
00000200: d68a 8bbe 69e7 4dbe 8e08 6c3e 2e78 4fbe
00000210: 6d67 3b3e 8a9b 0a3e 924c 5fbe bb35 943e
00000220: 6ecd a63e 42aa 483e 89eb 3cbe 4ef8 debe
00000230: 42af e03e 13b5 01be f94b 84be fd8c aa3b
00000240: 8a0c cebe 77df f3be 765e 2c3e e8b3 303e
00000250: eccd 37bd fe70 9e3e 75c4 d4be 3d73 dfbe
00000260: 8da1 c93d 7e46 993e 0a46 0e3e fb19 aa3e
00000270: c863 84be 076f 243e 21a1 c33d dca0 4ebd
00000280: 5500 0ebd b2c4 f23c 3317 97be 3ab1 60be
00000290: 1dab c03e fbf4 b4bd 252a afbe 2768 393d
000002a0: 6629 e43d 83da 38be d696 68be d456 983d
000002b0: 83e2 b03e e69b ad3e f1d3 993e 00f5 583d
000002c0: f833 573e 58e4 143e 5ca1 aabd a931 35bd
000002d0: 2f98 383e 4f19 a8bd 0058 51be 8c3a 323e
000002e0: 6820 60bd a99e f3be 847d f1be c471 d4be
000002f0: aff8 95be bf73 763d 66fc 52bb 532d 4d3e
00000300: 33a0 e23e 6407 473e 79db b8be 8426 5bbe
00000310: af52 bc3d 519b 433e f8c2 1e3e 0347 5dbe
00000320: 4f80 92be 3984 bc3c 12cc ea3c 7acb 853e
00000330: 6ffd bb3e 2a54 0f3d 96c4 d5be 0cb0 683e
00000340: 5e22 33be dd35 b3bd 098d a73e d858 b3be
00000350: 80bf 993d 0bde 1fbe 745e c23d 26d5 993c
00000360: fe51 8a3d de17 3bbd 85a7 cabe e289 4fbe
00000370: 0b22 743c 72d0 013c 9f13 e23e dfe8 afbe
00000380: 8ced 70be 977b 71be 8b53 e13c 7471 8f3b
00000390: 47d9 413e 90c0 12be 1f97 cb3d 0525 963e
000003a0: e223 e8be 3518 b7be 606a 203e ffe1 71be
000003b0: d608 373e 435e 0c3c 3709 b73e daf5 9abe
000003c0: 9363 be3e c2ea ddbd 192a b83e eff3 e3be
000003d0: 0093 febe ac06 2f3d 648d 22be 8969 a8be
000003e0: 29a3 34be f7ad 1e3d 6243 553e e7fa 5bbe
000003f0: be3e cfbd 2383 87bd 1375 09be f8bf 8dbe
0.28827396 0.22364777 0.13477975 -0.36856088 0.28471842 -0.22411957 -0.35477555 0.014552492
-0.19997388 0.40253112 0.3718674 0.07180654 -0.03954759 -0.3387569 -0.1338404 -0.10694884
0.20827055 0.060403045 -0.23019175 -0.2867118 -0.3576613 0.3292065 -0.23667991 -0.3037939
0.33148223 -0.30791643 -0.43128103 -0.42294866 0.24340686 -0.24328205 -0.22675005 -0.19268173
-0.3774336 -0.4162652 0.33385885 0.3742564 0.09107521 0.2883576 0.5456591 -0.47174463
-0.031698916 -0.19507423 -0.3171625 -0.08316109 -0.3846688 0.14222762 -0.31919354 0.298694
-0.06072242 0.21935512 -0.32197782 -0.40501392 -0.30739725 -0.18239258 0.14300337 0.36475345
0.04784667 0.45746288 0.13963334 0.31943178 0.3791257 -0.20580043 0.065736644 0.0007636083
0.15246528 0.14769848 -0.4330288 0.2697809 0.19495772 0.42270866 -0.009347697 0.10623752
-0.10983249 -0.06420693 -0.45966423 0.21391621 0.21421246 -0.1774849 -0.21623628 -0.049934994
-0.4550606 0.2251079 -0.077137336 -0.27020404 0.31102845 0.15611675 -0.17076692 0.035360035
-0.038407773 -0.34826037 -0.29624045 0.22106892 -0.14551936 0.067430995 -0.38443425 0.09159105
0.08152699 -0.03513088 -0.008954285 0.28052834 0.23826401 0.04293952 -0.37788838 0.21005373
-0.2859403 -0.06811305 -0.37455693 -0.4367823 -0.32557493 0.40662825 0.20201813 0.28678745
-0.22329548 0.31901747 0.25760558 -0.33970243 -0.20609002 0.13720365 -0.059494603 -0.46596098
0.4893116 -0.27899903 0.18320121 0.3046385 -0.37309632 0.025031947 -0.06559063 0.3102911
-0.2725436 -0.20107807 0.23050138 -0.20260689 0.18301173 0.13535896 -0.21806553 0.28947243
0.32578605 0.19596198 -0.18449225 -0.43548816 0.4388371 -0.1266673 -0.25839213 0.0052047954
-0.40243942 -0.47631428 0.16832909 0.17256129 -0.044874117 0.3094558 -0.41556135 -0.43642607
0.098452665 0.29936594 0.13893905 0.33222947 -0.25857377 0.16057979 0.09552217 -0.050446376
-0.034668285 0.029634807 -0.29509887 -0.21942607 0.3763055 -0.08835789 -0.3421184 0.045265343
0.111407086 -0.18052106 -0.2271379 0.07438436 0.34547815 0.33908004 0.3004451 0.052968025
0.21015918 0.14540231 -0.08331558 -0.044236813 0.18026803 -0.08207952 -0.20443726 0.17405146
-0.054718405 -0.47581986 -0.47166073 -0.41493046 -0.29291293 0.060168978 -0.0032193898 0.20036821
0.44262847 0.19436413 -0.36104944 -0.21401411 0.09195458 0.19102217 0.15504062 -0.2160912
-0.28613517 0.023012267 0.028661761 0.26131803 0.36716792 0.034992374 -0.41751546 0.22723407
-0.17493579 -0.08750508 0.3272479 -0.3502872 0.07507229 -0.15612046 0.09490672 0.018778395
0.0675392 -0.04567706 -0.39580932 -0.20267442 0.014900695 0.007923232 0.44155595 -0.34357354
-0.23528117 -0.23582302 0.027505657 0.0043775383 0.18930541 -0.1433127 0.099409334 0.2932512
-0.45339876 -0.35760656 0.15665579 -0.23621367 0.17874464 0.008567396 0.35749218 -0.30265695
0.37185344 -0.10835792 0.35969618 -0.44522044 -0.49721527 0.042730972 -0.15874249 -0.32893017
-0.17640366 0.038740125 0.20826486 -0.2148243 -0.10119389 -0.06616809 -0.13423567 -0.27685523
